data/her_b1_r0_m20_s150--2019-03-03--164700.841079/episode_4000.model (torch_old, 375800 bytes, 8 tensors)

weight f4 [6, 6, 3, 3]
0	0x3db280ca	0.08715971
1	0x3df3b52c	0.1189979
2	0x3d28a964	0.04117717
3	0x3e0ab560	0.13545752
4	0x3c849110	0.016182452
5	0x3db49216	0.08816926
6	0x3d6b60fc	0.05746554
7	0x3e04dc68	0.12974703
8	0x3dc6b364	0.09702185
9	0xbdc259ff	-0.09489822
10	0xbd3afeca	-0.045653142
11	0x3cf150b7	0.029457433
12	0xbdd95c95	-0.10613362
13	0xbd5b2219	-0.053499315
14	0xbdd3e859	-0.10347051
15	0xbd2145b7	-0.039373126
16	0x3d2309fc	0.039804444
17	0x3cef1fc3	0.02918995
18	0xbe07c46b	-0.13258521
19	0xbcb18959	-0.021671938
20	0xbb2d2b79	-0.0026423617
21	0xbe1d4ed7	-0.15362106
22	0xbe149bcf	-0.14512561
23	0xbe6e4aec	-0.23270768
24	0xbdd333f7	-0.10312646
25	0xbde12404	-0.109931976
26	0x3c442cbe	0.011973558
27	0x3d2eba00	0.042657852
28	0xbd0030b8	-0.03129646
29	0x3d5376e8	0.05162707
30	0x3da221a0	0.0791657
31	0x3d9be7e2	0.076125875
32	0x3d8c9668	0.06864625
33	0xbda77747	-0.08177047
34	0x3caaf0b0	0.020866722
35	0x3d6bf77c	0.057609066
36	0xbef419d6	-0.4767596
37	0xbf0c7aeb	-0.5487506
38	0xbef95136	-0.48694772
39	0xbe92c951	-0.28669217
40	0xbe85aa9b	-0.26106724
41	0xbea869a0	-0.32893085
42	0xbe6e224c	-0.2325527
43	0x3d8483c7	0.06470447
44	0x3d10c33a	0.035342433
45	0x3e067e78	0.13134181
46	0x3cfb9b48	0.030713692
47	0x3df4ce93	0.119534634
48	0xbc2d16b9	-0.0105645
49	0xbced81bb	-0.028992524
50	0xbdd347da	-0.10316439
51	0x3e0fd78b	0.14047067
52	0x3df34b86	0.11879639
53	0x3d5af60e	0.053457312
54	0x3d3a9648	0.045553476
55	0x3d880be2	0.066428915
56	0x3d752c48	0.059856683
57	0x3cf13f18	0.02944903
58	0xbd81da76	-0.06340496
59	0x3dfd9a14	0.12382904
60	0xbc9917b4	-0.01868806
61	0x3cbc3b48	0.022977486
62	0x3c0b7340	0.008511364
63	0x3cbf1767	0.023326589
64	0x3d6c2a2e	0.057657413
65	0xbdbdb443	-0.09262898
66	0x3d91c198	0.07117003
67	0x3d9368e9	0.071977444
68	0x3d218fed	0.0394439
69	0x3db2e5d7	0.08735245
70	0xbe022cf2	-0.12712458
71	0xbd5e8025	-0.054321427
72	0x3e63b86e	0.22238323
73	0x3e32f88b	0.17477624
74	0x3d27a5c6	0.04092958
75	0x3e053ce5	0.1301151
76	0x3caf0139	0.021362888
77	0x3db70e1e	0.089382395
78	0x3e012913	0.12613325
79	0x3dae7f43	0.08520367
80	0xbd287d25	-0.041134972
81	0xbd99d988	-0.07512194
82	0xbd543454	-0.051807716
83	0xbde4a665	-0.1116455
84	0xbc396bf8	-0.011317246
85	0x3db69cf2	0.08916654
86	0x3c99c1c8	0.01876916
87	0xbe098220	-0.13428545
88	0xbe0893f0	-0.13337684
89	0xbd9faea0	-0.07796979
90	0xbf1cee5a	-0.61301196
91	0xbeee43d0	-0.46536112
92	0xbf021d60	-0.5082607
93	0xbedaf162	-0.42762285
94	0xbdcf5cda	-0.10125132
95	0xbe86f134	-0.26355898
96	0x3c355fe4	0.011070225
97	0xbefe0fcb	-0.49621424
98	0xbe222201	-0.15833284
99	0x3d5876b0	0.052847564
100	0xbe0daf45	-0.13836391
101	0xbcb11ab7	-0.021619184
102	0xbde9801f	-0.1140139
103	0xbd77fdb1	-0.060544673
104	0xbdb58fbb	-0.08865305
105	0x3ca4cccc	0.020117186
106	0x3d81e27e	0.06342028
107	0xbd9d2a79	-0.07674117
108	0xbd033d94	-0.032041147
109	0x3da06dc4	0.07833436
110	0x3d9f4150	0.07776129
111	0xbda48730	-0.080335975
112	0xbde484b3	-0.11158123
113	0x3c3746e0	0.0111863315
114	0x3ddfda3e	0.10930298
115	0xbdd26821	-0.10273767
116	0xbd4eb2d4	-0.050463513
117	0x3d3cf088	0.046127826
118	0x3d3d40bf	0.046204325
119	0x3cacb887	0.021084083
120	0x3d8e8e05	0.06960682
121	0x3d9f6212	0.07782377
122	0x3c7b9bfd	0.015357015
123	0xbd175835	-0.036949355
124	0xbb857017	-0.0040722
125	0xbcc5fbb1	-0.024167867
126	0xbdf2036f	-0.11817061
127	0xbdf6e65d	-0.12055657
128	0xbe0fb8f3	-0.14035396
129	0xbdff2bf3	-0.124595545
130	0xbe0eb27c	-0.13935274
131	0xbddf5704	-0.10905269
132	0xbe42959e	-0.19002387
133	0xbe82cef6	-0.25548524
134	0xbe2e4333	-0.17017822
135	0x3ca17108	0.019707218
136	0x3e027e62	0.12743524
137	0x3e053c08	0.13011181
138	0x3d88b586	0.06675248
139	0xbdfd10cc	-0.123567194
140	0x3bb64c60	0.005563304
141	0xbd56ad48	-0.052411348
142	0x3de520dc	0.11187908
143	0x3d90e11e	0.07074188
144	0x3dd87013	0.105682515
145	0x3d84fdc4	0.064937145
146	0x3e22afe7	0.15887414
147	0x3e1d99c7	0.15390693
148	0x3dd916cc	0.10600051
149	0x3e235166	0.1594902
150	0x3d032974	0.032021955
151	0x3dc62cd5	0.0967652
152	0x3e4e2024	0.20129448
153	0x3e773542	0.2414141
154	0x3dd8a87c	0.10579011
155	0x3df17e92	0.117917195
156	0x3e090a98	0.13382947
157	0x3e0ac37b	0.13551132
158	0x3d144bf1	0.036205236
159	0x3e05c7b1	0.13064457
160	0x3c82711c	0.015923075
161	0x3dd5c220	0.10437417
162	0xbe04bbec	-0.12962312
163	0x3b44d400	0.0030033588
164	0xbd88879e	-0.06666492
165	0xbe01f726	-0.12691936
166	0x3cb078b0	0.021541923
167	0x3dee0650	0.11622298
168	0x3d8b2f46	0.06796126
169	0x3dc7d86e	0.097580776
170	0xbce5fe40	-0.028075337
171	0x3d50e1c6	0.050996564
172	0x3dc71185	0.097201385
173	0x3dc43347	0.09580093
174	0xbc013aa8	-0.00788752
175	0x3d41b1ef	0.04728883
176	0x3d83c309	0.064336844
177	0xbd5ea536	-0.054356776
178	0xbdfcae85	-0.123379745
179	0xbd2b8ee7	-0.04188433
180	0xbce1373e	-0.027492162
181	0x3e236d21	0.15959598
182	0x3dabab7a	0.08382316
183	0x3eac55f4	0.33659327
184	0x3e3fa85d	0.18716569
185	0x3e27434d	0.16334267
186	0x3e7381c7	0.23779975
187	0x3e374c9b	0.17900316
188	0x3bd3b49b	0.006460739
189	0xbc15f580	-0.00915277
190	0x3e059ea0	0.13048792
191	0x3d5bfb7c	0.05370663
192	0xbc4d1a50	-0.01251848
193	0xbcd58634	-0.02606497
194	0x3e04e70c	0.12978762
195	0xbc5db380	-0.013531566
196	0x3c191610	0.009343639
197	0xbd1855cc	-0.037191197
198	0xbecbf6d8	-0.39836764
199	0xbd0efaf8	-0.03490731
200	0x3e5e6900	0.21719742
201	0xbec21e56	-0.3791377
202	0x3f65b8dc	0.897352
203	0xbdb58907	-0.088640265
204	0xbee3caaf	-0.44490573
205	0xbeb1c4c5	-0.34720436
206	0xbec63f40	-0.3872013
207	0x3cd24b50	0.025670677
208	0x3db5e4c1	0.08881522
209	0x3d0ae402	0.03390885
210	0x3d0abcec	0.033871576
211	0xbd5995b8	-0.0531213
212	0xbcaf5b91	-0.021405967
213	0xbe04b597	-0.12959896
214	0xbe350af7	-0.17679964
215	0xbe41cb70	-0.18925261
216	0x3dfce6e8	0.12348729
217	0xbda4fe78	-0.080563486
218	0xbd01d704	-0.031699196
219	0xbd5d3ed6	-0.054015003
220	0xbde98302	-0.11401941
221	0x3d20b46c	0.039234564
222	0xbd9dcf21	-0.07705522
223	0xbccaf13c	-0.024773233
224	0xbc4cf7c0	-0.01251024
225	0xbdd361ac	-0.10321364
226	0xbdc6ed48	-0.097132266
227	0xbd9bed6c	-0.07613644
228	0x3de773f0	0.1130141
229	0xbd2efe7c	-0.042723164
230	0x3deba90b	0.11506852
231	0xbd0c3514	-0.034230307
232	0xbb345232	-0.0027514813
233	0x3ddfe578	0.109324396
234	0xbcbb95e2	-0.022898618
235	0x3d758bc3	0.05994774
236	0x3cfb71c3	0.030693894
237	0x3d5dc1dc	0.054139957
238	0x3c4796d4	0.012181956
239	0x3cb2d9e7	0.02183242
240	0x3da9b704	0.082868606
241	0x3d4a348a	0.04936651
242	0x39f808fc	0.0004730894
243	0x3d9f8cdc	0.07790539
244	0x3d73cb98	0.059520334
245	0xbdfe4be3	-0.12416818
246	0xbd466938	-0.04844019
247	0xbcb167e4	-0.021655984
248	0xbda407cf	-0.08009302
249	0xbd12313e	-0.035691492
250	0x3e070a88	0.13187611
251	0x3dcc37ac	0.09971556
252	0xbf018a86	-0.50601995
253	0xbf0a2638	-0.5396457
254	0xbf015205	-0.50515777
255	0xbe7c3464	-0.2462936

bias f4 [6]
0	0xbd9378cd	-0.07200775
1	0x3de4a6ec	0.1116465
2	0xbd66efbd	-0.056380976
3	0xbcb6ab9a	-0.022298623
4	0x3a39a8ca	0.00070823415
5	0xbe01a603	-0.12660985

weight f4 [16, 6, 3, 3]
0	0x3e026074	0.12732106
1	0x3dbee062	0.093201414
2	0x3e02dda8	0.12779868
3	0x3def1cb2	0.11675395
4	0xbd6c9663	-0.057760607
5	0x3df1f732	0.11814727
6	0x3df45d2b	0.11931833
7	0x3d72112b	0.059098404
8	0x3e1738a0	0.14767694
9	0x3dcaf352	0.09909691
10	0xbb83c83f	-0.004021674
11	0xbc7fd141	-0.015613855
12	0x3da53636	0.080669805
13	0xbd569218	-0.05238542
14	0x3ce89f9c	0.02839642
15	0x3da64440	0.081184864
16	0xbc66dad5	-0.01409026
17	0xbe21b20d	-0.15790577
18	0x3d60e4f2	0.05490584
19	0x3d7c25e3	0.06155957
20	0xbd9eaa1f	-0.07747292
21	0x3d5f4f36	0.0545189
22	0xbd0021ae	-0.03128212
23	0xbba582be	-0.005050986
24	0xbbb2c5cc	-0.005455708
25	0xbd261060	-0.04054296
26	0x3be59ed7	0.0070074606
27	0x3e474a1e	0.19461867
28	0x3c5cbe62	0.013473125
29	0x3d885e0e	0.066585645
30	0xbdb01336	-0.08597414
31	0xbc78ca01	-0.01518488
32	0x3cbb4bd5	0.022863308
33	0x3d2d412f	0.042298492
34	0x3b4e44e5	0.003147417
35	0x3d052b58	0.03251204
36	0x3db0731f	0.086157076
37	0x3e05fff2	0.13085917
38	0xbda9568b	-0.0826846
39	0x3e246fa9	0.1605822
40	0x3e052b01	0.13004686
41	0x3cdbbf73	0.026824689
42	0x3e040759	0.12893428
43	0xbc1df0c3	-0.009639922
44	0x3d844e99	0.06460304
45	0x3dcbb1fc	0.09946057
46	0x3dee695a	0.11641188
47	0xbd8f44ad	-0.06995521
48	0x3c01dd62	0.007926317
49	0x3cf422cb	0.029801747
50	0xb9f1abfc	-0.0004609524
51	0x3e59bff7	0.21264635
52	0x3e4445d7	0.19167267
53	0x3d9dfd4d	0.07714329
54	0x3e0dcd2c	0.13847798
55	0xbd6d9126	-0.057999752
56	0x3dd1a317	0.10236185
57	0xbda232be	-0.079198346
58	0xbe0a9122	-0.13531926
59	0xbe0624a7	-0.1309992
60	0xbca50e00	-0.020148277
61	0xbdea4d4a	-0.11440523
62	0x3dbd4872	0.092423335
63	0x3c5384c1	0.012910069
64	0x3ae7b03f	0.0017676427
65	0xbd9532d4	-0.07285085
66	0x3c547663	0.012967679
67	0x3e2cdabe	0.16880319
68	0xbca41514	-0.020029582
69	0xbd870288	-0.0659228
70	0xbd9968d9	-0.07490701
71	0x3da41039	0.08010907
72	0xbd8aef54	-0.067839295
73	0x3d4cc2b3	0.049990367
74	0x3d9c9e72	0.076474085
75	0x3d7cb226	0.061693333
76	0xbc0d6bea	-0.008631686
77	0x3d515fbe	0.051116697
78	0xbe22705b	-0.15863173
79	0xbde46e7f	-0.11153888
80	0xbe0d4104	-0.13794333
81	0x3d6544a6	0.05597367
82	0x3df206aa	0.11817677
83	0xbd0f7c45	-0.035030622
84	0x3dda4b27	0.106588654
85	0xb9a195bf	-0.00030819883
86	0x3e1f23aa	0.15540949
87	0x3cad4a2c	0.021153532
88	0x3dc84066	0.09777908
89	0x3d40e299	0.0470911
90	0x3dddd71f	0.10832047
91	0x3ddcc52a	0.107797936
92	0x3d3ab94e	0.045586877
93	0x3cc777aa	0.024349052
94	0x3e639298	0.2222389
95	0x3e8d8efb	0.27648148
96	0x3dd7c2af	0.1053518
97	0x3d30ccd7	0.0431641
98	0xbb748db5	-0.003731591
99	0x3df89b6e	0.12139021
100	0x3e2a7906	0.1664773
101	0x3d860260	0.06543422
102	0x3ebbd6c8	0.36687303
103	0x3e673567	0.22578965
104	0x3ea43b68	0.32076573
105	0x3dbd367a	0.09238906
106	0x3eca971e	0.39568418
107	0x3de6a2c8	0.11261517
108	0xbcff27be	-0.03114688
109	0x3e21af4b	0.15789525
110	0xbd06cf2f	-0.03291243
111	0x3db2e1b1	0.087344535
112	0x3e4e12bd	0.20124336
113	0x3e33fbcb	0.1757652
114	0x3e37f44a	0.17964283
115	0x3e21f35e	0.15815493
116	0x3dfebaa9	0.12437946
117	0xbe298074	-0.16552907
118	0xbe015f98	-0.12634122
119	0x3c8852bb	0.016641011
120	0xbdd05670	-0.10172737
121	0xbe4ecbf8	-0.20194995
122	0xbc41a795	-0.01181974
123	0x3d9f667f	0.077832215
124	0x3da9bc6e	0.08287893
125	0x3c562d4f	0.013072326
126	0x3ce5957e	0.028025385
127	0x3e056ab7	0.1302899
128	0x3e110c61	0.14164878
129	0xbd14ea06	-0.036355995
130	0x3d2be65f	0.041967746
131	0x3e1b6ed7	0.15179001
132	0xbdde697f	-0.108599655
133	0xbddc23e3	-0.10749032
134	0xbc7836f1	-0.015149818
135	0x3b95b4dc	0.0045686793
136	0xbd8757aa	-0.066085175
137	0x3da6b73c	0.08140418
138	0xbdcc8119	-0.09985561
139	0xbe3bcd7b	-0.18340103
140	0x3dc26ece	0.094937906
141	0xbdcf0766	-0.10108833
142	0xbdc41f7b	-0.09576317
143	0xbdc816d8	-0.09769982
144	0xbdc806aa	-0.09766896
145	0xbdda519a	-0.106600955
146	0x3d95fc8c	0.0732356
147	0xbc745988	-0.014913924
148	0x3d8c8af9	0.068624444
149	0x3d89f0ec	0.06735405
150	0xbe2d0855	-0.1689771
151	0xbde9c764	-0.11414984
152	0xbe232837	-0.1593331
153	0xbc358fd0	-0.011081651
154	0x3e55b0a7	0.20868169
155	0x3e08fe9d	0.13378377
156	0xbd726512	-0.05917842
157	0x3e1e48e3	0.15457492
158	0xbcb9d471	-0.022684308
159	0xbcf2bac8	-0.02963008
160	0x3d83c3ae	0.06433807
161	0xbd4ca146	-0.04995849
162	0xbd53bf79	-0.051696274
163	0xbd8125b3	-0.06306019
164	0x3debd530	0.11515272
165	0xbcbf4517	-0.023348374
166	0xbcc7d574	-0.024393775
167	0x3a3e4886	0.00072587316
168	0xbd2b99bd	-0.041894663
169	0x3d4d9118	0.0501872
170	0x3dfa0185	0.12207321
171	0xbd464b61	-0.04841173
172	0xbd5e0e9c	-0.05421315
173	0x3d5a0dc8	0.0532358
174	0x3c5eb34b	0.013592551
175	0xbd55ff9b	-0.052245717
176	0x3c102de7	0.0088000065
177	0x3e6f0428	0.23341429
178	0x3ca37395	0.019952575
179	0x3e277b0b	0.16355531
180	0x3dbda4d0	0.09259951
181	0xbdd03a3c	-0.10167357
182	0x3dbb67e6	0.091506764
183	0xbdf862aa	-0.12128194
184	0x3d9b5700	0.07584953
185	0xbd9e6962	-0.07734944
186	0xbd1a7144	-0.037705675
187	0xbe0d25eb	-0.13783996
188	0xbd4fbb1d	-0.050715555
189	0x3dc438aa	0.0958112
190	0xbcd569de	-0.026051458
191	0x3dd9479e	0.10609363
192	0xbd803c4b	-0.062615
193	0x3d10d217	0.035356607
194	0xbe1444a1	-0.14479305
195	0x3e4f38f9	0.20236577
196	0x3defbc23	0.11705806
197	0x3e027a8d	0.12742062
198	0xbc93a806	-0.018024456
199	0x3e6e31d2	0.23261192
200	0x3e34df7a	0.17663375
201	0x3e19c8fa	0.15018073
202	0x3c543f98	0.012954615
203	0x3de4b70c	0.11167726
204	0x3e4d8147	0.20068847
205	0x3e0e2153	0.138799
206	0x3d60faf2	0.05492682
207	0x3dbda6ca	0.09260328
208	0x3e963127	0.29334375
209	0x3e2359ae	0.15952179
210	0x3e2380ff	0.15967177
211	0x3dae3fb7	0.085082464
212	0x3e5fabad	0.21842833
213	0x3e94b3b4	0.29043353
214	0x3ebf898c	0.37409627
215	0x3e80f2bd	0.25185195
216	0x3e289bc3	0.16465668
217	0x3def65a1	0.11689306
218	0xbd97bdba	-0.07409234
219	0xbdb37775	-0.08763019
220	0xbd6199e5	-0.055078406
221	0xbca2075f	-0.019778905
222	0x3db491ef	0.08816897
223	0x3d603973	0.054742288
224	0x3c663e05	0.014052873
225	0xbd48531f	-0.048907395
226	0xbdcbec71	-0.09957207
227	0xbd80340a	-0.06259926
228	0x3ddcb280	0.10776234
229	0x3e111fb9	0.14172257
230	0x3dbbb467	0.091652684
231	0x3df009de	0.11720632
232	0x3c850918	0.016239688
233	0xbd77afee	-0.060470514
234	0xbd9061b7	-0.070498876
235	0xbd758797	-0.05994376
236	0x3d109590	0.035298884
237	0xbe1e04f6	-0.1543158
238	0x3d8171dc	0.06320545
239	0x3dcbce67	0.099514775
240	0xbde21944	-0.11039975
241	0xbc9aea43	-0.018910533
242	0x3b758f4f	0.0037469452
243	0xbc6c5963	-0.014425608
244	0x3c038db3	0.008029389
245	0xbcea2777	-0.028583271
246	0x3d67dfd9	0.056609962
247	0x3e1f3dd6	0.15550932
248	0xbdd55abb	-0.10417696
249	0x3da2c191	0.07947076
250	0xbd5e1217	-0.05421647
251	0xbe0ac267	-0.13550721
252	0x3e219048	0.15777695
253	0x3d6d9f27	0.058013108
254	0xbd088d55	-0.03333791
255	0xbcdd7f53	-0.027038252

bias f4 [16]
0	0xbd90be35	-0.07067529
1	0xbd1d1e30	-0.038358867
2	0x3daaf4da	0.08347483
3	0xbdc9fefb	-0.09863087
4	0xbdd3838f	-0.10327827
5	0xbd848f43	-0.064726375
6	0x3cfb32f8	0.030663952
7	0x3cec01c6	0.02880944
8	0xbd1c6eef	-0.038191732
9	0x3c07bbfb	0.008284564
10	0x3e0ee6a3	0.13955168
11	0x3c742299	0.014900827
12	0xbe0b1b7f	-0.13584708
13	0x3db6062d	0.08887897
14	0x3e0989e9	0.13431515
15	0xbd8fb88e	-0.07017623

weight f4 [32, 16, 3, 3]
0	0x3d8b6c67	0.068077855
1	0x3dbecdd6	0.09316604
2	0x3d888ee1	0.06667877
3	0xbd54244f	-0.05179244
4	0xbd818d7f	-0.06325816
5	0x3dbabd92	0.09118189
6	0xbd1f9d95	-0.03896864
7	0x3dc05f38	0.093931615
8	0x3c5c80c8	0.013458438
9	0x3e07e616	0.13271365
10	0xbc01f43e	-0.007931767
11	0x3e063091	0.13104464
12	0xbcc2046f	-0.023683755
13	0x3d6f8e20	0.05848515
14	0xbcf20423	-0.029542988
15	0x3d02c2e4	0.031924143
16	0x3d65dcdb	0.056118827
17	0x3e05a763	0.13052134
18	0xbda9a057	-0.082825355
19	0xbd370e7f	-0.04469156
20	0xbdcf629e	-0.101262316
21	0xbdc4bb48	-0.096060336
22	0x3c80aac4	0.015706427
23	0xbda0c92a	-0.07850869
24	0xbcacf4ed	-0.021112883
25	0x3d32c3ba	0.04364369
26	0xbc0a90b2	-0.00845735
27	0x3de4de7e	0.111752495
28	0x3e05b273	0.13056354
29	0x3dd9205b	0.106018744
30	0x3dc76fa9	0.09738094
31	0x3dd4fadd	0.10399411
32	0x3d19b34a	0.0375245
33	0x3d9ba8fd	0.07600591
34	0x3d6d52c0	0.057940245
35	0x3cf58b91	0.029973777
36	0x3dfe16a8	0.12406665
37	0x3db203ca	0.08692129
38	0x3e0a45a5	0.1350313
39	0x3e318ad9	0.17338122
40	0x3dd3d81c	0.10343954
41	0x3d1e991c	0.038720235
42	0x3e28be32	0.16478804
43	0x3e1d6a97	0.15372692
44	0x3e2f7b4a	0.17136875
45	0x3e128162	0.14307168
46	0x3e22ba2c	0.15891331
47	0x3d39b3de	0.04533755
48	0x3d251c4d	0.040310193
49	0xbbf360a6	-0.007427293
50	0x3dd22dec	0.10262665
51	0x3d9a9a8d	0.075490095
52	0x3ded56bd	0.1158881
53	0x3d9a50e0	0.07534957
54	0x3be9f27f	0.0071395035
55	0x3d48702d	0.048935104
56	0x3c47e180	0.0121997595
57	0xbd3547b6	-0.044257842
58	0xbd070803	-0.032966625
59	0x3d8fc732	0.07020415
60	0xbcc25308	-0.023721233
61	0xbc90874c	-0.01764264
62	0x3d630dc9	0.05543307
63	0xbd01802e	-0.031616382
64	0x3d0d9cec	0.03457348
65	0x3c9894ff	0.018625734
66	0xbb8addb8	-0.0042378567
67	0x3d00e112	0.031464644
68	0x3dcf6f61	0.10128666
69	0x3d3a8830	0.045540035
70	0x3ca1a03e	0.01972973
71	0x3dbbc9b5	0.09169332
72	0xbc8a91e1	-0.016915264
73	0x3d82923c	0.06375548
74	0x3d1ed2c5	0.038775224
75	0xbd275f12	-0.04086215
76	0x3da2b0c0	0.07943869
77	0x3c37fecb	0.011230181
78	0x3d1506e1	0.036383513
79	0x3d7a634b	0.06112985
80	0xbd1ed2d3	-0.038775276
81	0xbd503106	-0.050828002
82	0xbc84a3ff	-0.01619148
83	0x3d22c0f5	0.0397348
84	0x3da1d512	0.07901968
85	0xbcbef056	-0.02330796
86	0x3c3430ed	0.010997993
87	0x3c8b44c1	0.017000558
88	0xbd280f1c	-0.041030034
89	0x3ce4c6b0	0.027926773
90	0x3c173f6b	0.009231429
91	0x3d80cf36	0.06289522
92	0x3d5bf28d	0.05369811
93	0x3cf502cc	0.02990856
94	0xbd733255	-0.059374172
95	0x3dc128e6	0.09431629
96	0x3d158f4d	0.036513615
97	0x3d61d0e2	0.055130847
98	0xbc99c974	-0.018772818
99	0x3d8fea99	0.07027168
100	0x3dcb2ce7	0.09920674
101	0x3c147c03	0.00906277
102	0x3d335c41	0.043789152
103	0x3da2e793	0.079543255
104	0x3c6c39be	0.014418064
105	0x3cdb1d0d	0.02674725
106	0x3d6f3603	0.05840112
107	0x3dcd9a73	0.100392245
108	0xbd38915e	-0.045060508
109	0x3ce50768	0.027957633
110	0xbcff3cfd	-0.031157011
111	0x3de1eeac	0.11031851
112	0x3d1f2885	0.038857
113	0x3d5dceb2	0.054152198
114	0x3dceb26e	0.100926265
115	0x3cd71963	0.026257223
116	0x3dad3366	0.08457069
117	0x3dd1503a	0.1022038
118	0x3dba375c	0.0909259
119	0x3db39902	0.08769418
120	0xbd744a03	-0.059640896
121	0x3dbdacf2	0.09261502
122	0xbd2f6bf0	-0.042827547
123	0x3dacb6b8	0.08433288
124	0x3d35fd95	0.044431288
125	0x3c8fbd46	0.017546307
126	0xbd251774	-0.04030557
127	0xbda5c0e5	-0.08093432
128	0xbdb06335	-0.08612672
129	0xbbe55205	-0.006998303
130	0xbdb88be2	-0.090110555
131	0xbdbb62ab	-0.09149679
132	0xbdc79b19	-0.097463794
133	0x3c40d7fb	0.011770244
134	0xbd05baaa	-0.03264872
135	0x3d3d8153	0.04626591
136	0x3d35f2df	0.044421073
137	0x3dced0f9	0.10098452
138	0x3dbcec58	0.092247665
139	0x3c872504	0.016497143
140	0x3d0955f5	0.03352924
141	0x3e2a0605	0.16603859
142	0x3e1e79a0	0.15476084
143	0x3d19d491	0.037556235
144	0x3db8d0a1	0.09024168
145	0x3ca5cdc7	0.020239724
146	0xbb9d0c5c	-0.004792733
147	0x3d4fed4a	0.050763406
148	0x3db4f6f7	0.08836167
149	0x3d834de9	0.064113446
150	0x3d0d2e9f	0.03446829
151	0xbc31865e	-0.010835258
152	0xbd6bd399	-0.057574842
153	0x3db4f61c	0.08836004
154	0x3e4559d4	0.19272548
155	0x3e150bd6	0.14555296
156	0x3da0b2da	0.07846613
157	0x3d4b519a	0.04963837
158	0x3dc14e18	0.09438723
159	0x3de21b3a	0.11040349
160	0x3dd7ebc7	0.10543018
161	0x3d05539f	0.03255045
162	0x3d76c4e9	0.060246382
163	0x3dd2f12e	0.102999076
164	0x3d352b97	0.044231024
165	0x399cdba9	0.00029918298
166	0xbcf8d49c	-0.030374818
167	0xbdbe1b90	-0.09282601
168	0xbd98b439	-0.0745625
169	0xbd91448b	-0.07093152
170	0xbc2715f8	-0.010198109
171	0x3dff5091	0.12466539
172	0x3e71e952	0.23624161
173	0x3dcf813d	0.10132072
174	0x3e5a1c46	0.21299848
175	0x3e7c3fa6	0.24633655
176	0x3e04be61	0.12963249
177	0x3e59fe6f	0.21288465
178	0x3dc7408a	0.09729107
179	0x3e3e616e	0.18591854
180	0x3e10fc78	0.14158809
181	0x3d1fb5e6	0.03899183
182	0x3e0acb82	0.13554195
183	0x3d9ed72a	0.07755883
184	0x3df6582e	0.12028538
185	0x3e584617	0.21120487
186	0x3dd08290	0.10181153
187	0x3dfb6748	0.12275559
188	0x3d8ba77c	0.068190545
189	0xbba8a9fb	-0.0051472164
190	0xbc21862d	-0.00985865
191	0x3e00fe93	0.12597112
192	0x3d811fa3	0.06304862
193	0xbc9b0c0c	-0.018926643
194	0x3e0289b6	0.12747845
195	0x3deed5cf	0.116618745
196	0x3d7c5e2e	0.061613254
197	0x3e171beb	0.14756744
198	0xbd05645f	-0.032566424
199	0x3dd20eaf	0.10256707
200	0x3dab8790	0.08375466
201	0x3df15a99	0.11784858
202	0x3cd61fc9	0.026138203
203	0x3ddffd93	0.10937037
204	0xbcab7e10	-0.020934135
205	0x3ced18c5	0.028942475
206	0x3d4d72cc	0.050158307
207	0x3cbbde82	0.022933248
208	0xbcee36e2	-0.029078905
209	0x3cc69dc7	0.024245156
210	0xbd806e04	-0.06270984
211	0x3ce0e107	0.027451051
212	0xbd37631b	-0.04477225
213	0xbd0e017b	-0.03466938
214	0x3b72df90	0.0037059523
215	0xbbd4bf20	-0.0064925104
216	0xbcb094b1	-0.021555277
217	0x3d00ba34	0.031427577
218	0x3ca8961f	0.020579396
219	0x3d021034	0.031753734
220	0x3d99c542	0.07508327
221	0xbba02419	-0.0048871157
222	0x3c852b53	0.01625601
223	0xbd1cc699	-0.038275335
224	0xbd2df588	-0.042470485
225	0x3dc4e282	0.096135154
226	0x3c4f7c5b	0.012663926
227	0x3d49973e	0.0492165
228	0xbc02f782	-0.007993581
229	0x3d31063f	0.043218847
230	0x3da498c7	0.080369525
231	0xbd12c91b	-0.03583632
232	0xbd433f17	-0.04766759
233	0x3cd65098	0.026161477
234	0xbcb33eb5	-0.021880487
235	0x3d0218d5	0.031761963
236	0xbd263f13	-0.040587496
237	0xbd6dfb11	-0.058100764
238	0xbc2de643	-0.010613981
239	0x398179e2	0.00024695607
240	0x3d1fccea	0.03901378
241	0x3da018a7	0.07817202
242	0x3d3afbf7	0.04565045
243	0xbac7e653	-0.0015251137
244	0xbdb5a55e	-0.08869432
245	0xbd83b15b	-0.06430312
246	0x3ad98e1f	0.0016598142
247	0x3d21237f	0.039340492
248	0x3cdf39c0	0.027249217
249	0xbd2e25f1	-0.042516652
250	0x3d0b8a71	0.034067575
251	0x3d37827a	0.044802167
252	0x3e4e1435	0.20124896
253	0x3dd64623	0.10462596
254	0x3ddf96f9	0.109174676
255	0x3e8dad88	0.27671456

bias f4 [32]
0	0x3c124e78	0.008929841
1	0x3ce24b90	0.027623922
2	0xbcfce4bd	-0.03087079
3	0x3b516c1b	0.0031955305
4	0xbc5a8cdf	-0.01333925
5	0xbdb16011	-0.08660901
6	0xbc24c9eb	-0.010057907
7	0xbd482e00	-0.048871994
8	0xbd66ac18	-0.056316465
9	0x3c64b87e	0.013960002
10	0xbdb05eca	-0.086118296
11	0xbc972b3b	-0.018453231
12	0x3bb5203e	0.005527525
13	0x3c1f3823	0.009717974
14	0xbd62f314	-0.0554076
15	0xbda86b19	-0.08223552
16	0xbbb5cd35	-0.005548144
17	0xbd810762	-0.06300236
18	0xbda1347f	-0.07871341
19	0xbd1cb51f	-0.038258668
20	0xbcebe234	-0.028794385
21	0x3cd38b06	0.025823127
22	0xbd7a293d	-0.061074484
23	0x3d507d4a	0.050900735
24	0xbd6b12c3	-0.05739094
25	0xbd2fbdbd	-0.042905558
26	0x3b3c381e	0.0028719972
27	0xbd8fd885	-0.0702372
28	0xbbaec012	-0.005332955
29	0x3cdb09da	0.026738096
30	0x3cf9aa65	0.030476758
31	0xbd99a367	-0.0750187

weight f4 [5, 16928]
0	0xbcb4b421	-0.022058548
1	0xbc5e9d16	-0.013587257
2	0x3c94e12a	0.018173773
3	0x3c0f0367	0.0087288385
4	0xbab301ab	-0.0013657113
5	0xbb1080cc	-0.0022049425
6	0x3bfcba99	0.007712674
7	0x3be2fc20	0.0069270283
8	0xba920201	-0.0011139513
9	0xbbcfef89	-0.0063456935
10	0xbbbaadb1	-0.005696975
11	0xbbe75a05	-0.0070602917
12	0xbbed6d90	-0.007245727
13	0xbaf2df66	-0.0018529713
14	0x3c22cb5b	0.009936179
15	0x3bbe5ac7	0.0058091613
16	0x3c8ee177	0.017441494
17	0x3c1cf023	0.009578737
18	0x3c5d3549	0.013501474
19	0x3b768f41	0.0037622007
20	0x3bb44760	0.0055016726
21	0xba0f8574	-0.0005474903
22	0x3b93365b	0.0044925637
23	0x3916ec1d	0.00014393074
24	0x391cdf0a	0.00014960408
25	0x3cd52ae0	0.026021421
26	0x3c5c8df8	0.013461582
27	0x3b50daf9	0.00318688
28	0x3b407aed	0.0029370144
29	0x3b8f14a7	0.0043664756
30	0x3b2289eb	0.0024801444
31	0xbbc42860	-0.0059862584
32	0xba51a7b1	-0.0007997705
33	0xbac258d1	-0.0014827495
34	0xbae64101	-0.001756698
35	0x3ab619ed	0.0013893225
36	0x3c9c7467	0.019098474
37	0x3c3506d8	0.011048995
38	0x3b39c826	0.0028348058
39	0xbb9535da	-0.0045535387
40	0x3c82d551	0.015970858
41	0x3c30fe6b	0.0108028455
42	0x3c1e65a3	0.009667787
43	0x3ba825d4	0.0051314626
44	0x3c1f6b81	0.009730221
45	0x3cc1e272	0.023667548
46	0xbbfa7e75	-0.0076444694
47	0xbbaa2703	-0.005192639
48	0x3c1b2df2	0.009471403
49	0x3c86018a	0.016358156
50	0x3cd23f56	0.025664967
51	0x3bb6c231	0.0055773486
52	0x3a1cd9a3	0.0005983358
53	0x3baebf33	0.0053328513
54	0xbbcba030	-0.006214164
55	0x3a270114	0.0006370705
56	0xbbb53e2f	-0.0055310945
57	0x3b65bdf7	0.0035055855
58	0x3c9f7baa	0.019468147
59	0x3ca47a54	0.020077862
60	0x3d07debd	0.033171404
61	0x3c70dc49	0.014700958
62	0x3be67595	0.00703306
63	0x3c82a405	0.015947351
64	0x3be8790a	0.007094507
65	0x3bc5c025	0.0060348683
66	0x3c30b268	0.010784723
67	0x3c3df3c8	0.0115937665
68	0x3b83ae2c	0.0040185656
69	0xbbd31a96	-0.0064423783
70	0xbc03fc60	-0.008055776
71	0x3cb04d9e	0.021521386
72	0x3c18f177	0.009334913
73	0x3ce353b9	0.027749883
74	0x3b94d8f6	0.0045424653
75	0xba260da2	-0.0006334429
76	0x3a888c9a	0.0010417879
77	0x3b794511	0.0038035552
78	0xba255f9e	-0.00063084986
79	0x3c29b4e7	0.010358072
80	0x3cdd7b64	0.027036376
81	0x3d0cddac	0.03439109
82	0x3d2ce2ef	0.04220861
83	0x3cfa0887	0.030521644
84	0x3cb085b3	0.021548128
85	0x3c87b581	0.01656604
86	0x3d05ad37	0.032635894
87	0x3c6a4586	0.014298802
88	0x3c95cdb4	0.018286563
89	0x3c39f348	0.011349507
90	0x3cc648de	0.024204668
91	0x3c891c12	0.016737018
92	0x3c85b18a	0.016320009
93	0x3b0d1a62	0.0021530618
94	0x3c67629b	0.0141226305
95	0x3c97a9c5	0.01851357
96	0x3d088744	0.033332124
97	0x3bd79b5f	0.006579801
98	0x3c523d03	0.012831929
99	0x3c02238b	0.007943044
100	0x3c2ca4e7	0.010537363
101	0x3c4c9a40	0.012487948
102	0x3bb1e2dc	0.005428655
103	0x3c7e2640	0.015512049
104	0x3cb18319	0.021668958
105	0x3cc2e4fc	0.023790829
106	0x3cd01c2b	0.025404057
107	0x3c93ffc6	0.018066298
108	0x3cca3c15	0.024686852
109	0x3d0c5056	0.0342563
110	0x3d1866cc	0.03720741
111	0x3cfe2846	0.031025063
112	0x3d1280f4	0.03576751
113	0x3ce2147f	0.027597664
114	0x3c940102	0.018066887
115	0x3d04e204	0.032442108
116	0x3d151216	0.0363942
117	0x3cfbf887	0.030758156
118	0x3cee9848	0.029125348
119	0x3d3d851c	0.04626952
120	0x3cc72c31	0.024313064
121	0x3cf42394	0.029802121
122	0x3cfb3b53	0.030667936
123	0x3d003096	0.031296335
124	0x3be92a86	0.007115665
125	0x3c830d63	0.015997594
126	0x3cdaa93b	0.026692024
127	0x3d2a464c	0.041570947
128	0x3d269018	0.040664762
129	0x3d2e3204	0.042528167
130	0x3cd41772	0.025890086
131	0x3cfcbcc2	0.030851725
132	0x3d2c9a1b	0.042139154
133	0x3d26a322	0.04068292
134	0x3d24a318	0.0401946
135	0x3d0664d3	0.032810997
136	0x3cdd4d1f	0.027014313
137	0x3cd3c1de	0.025849279
138	0x3d10ac3b	0.0353205
139	0x3d1a8756	0.037726723
140	0x3d13963c	0.036031947
141	0x3d22cdfe	0.03974723
142	0x3d1aa546	0.037755273
143	0x3c084209	0.008316525
144	0x3beab84d	0.0071630836
145	0x3b03e404	0.0020124922
146	0x3c6548ca	0.013994405
147	0x3c8084e1	0.015688362
148	0x3c84688f	0.016163139
149	0x3d306f9a	0.04307518
150	0x3d1157af	0.035484012
151	0x3d3e9582	0.0465293
152	0x3ce0e957	0.027455015
153	0x3cdf5350	0.027261406
154	0x3d41a5f0	0.04727739
155	0x3d438136	0.047730647
156	0x3d2a4f35	0.041579444
157	0x3d3cc4b3	0.046086024
158	0x3ceaffb8	0.02868639
159	0x3c547297	0.0129667735
160	0x3c9440de	0.018097337
161	0x3d488966	0.04895916
162	0x3d14be3f	0.036314245
163	0x3d042cf2	0.032269426
164	0x3cc83b8b	0.024442455
165	0x3c8bc663	0.017062372
166	0x3c85aa41	0.016316535
167	0x3c5b9839	0.013402992
168	0x3be5228e	0.0069926446
169	0xbc30c07c	-0.010788079
170	0x3cbdf982	0.023190264
171	0x3d4b95f2	0.049703546
172	0x3d45e3f0	0.04831308
173	0x3d67f5d9	0.056630943
174	0x3d1c6ad8	0.03818783
175	0x3d3afde3	0.04565228
176	0x3d084f0e	0.033278517
177	0x3d138fb5	0.03602572
178	0x3d3e4d21	0.046460275
179	0x3d071356	0.032977425
180	0x3ccdb40f	0.025110273
181	0x3ce8dab7	0.028424604
182	0x3c72eb02	0.014826538
183	0x3c788f1e	0.015170841
184	0x3cc53b04	0.024075992
185	0x3c105ff9	0.008811944
186	0x3bc5e5de	0.006039365
187	0x3bc77c02	0.006087781
188	0x3c9867eb	0.01860424
189	0x3ba0e8a5	0.004910546
190	0xbb8f4952	-0.004372754
191	0x3b2512bd	0.002518817
192	0xbc1d3d65	-0.009597157
193	0x3cb02d41	0.021505954
194	0x3d5e97cd	0.054343987
195	0x3d71db4c	0.05904703
196	0x3d359d49	0.044339452
197	0x3d55b8e2	0.05217827
198	0x3d159272	0.036516614
199	0x3d3af5df	0.045644637
200	0x3d10ac72	0.035320707
201	0x3d4e7ed8	0.050413936
202	0x3d081016	0.033218466
203	0x3d0ea877	0.03482863
204	0x3cb6a7ee	0.022296872
205	0x3c9c3278	0.019067034
206	0x3cdfe243	0.02732957
207	0xbb34b240	-0.0027572066
208	0xbbc98d48	-0.0061508752
209	0x3c7729ea	0.015085677
210	0x3c4d22b6	0.012520483
211	0x3cc44e3d	0.023963088
212	0xbb893763	-0.004187511
213	0xbbe27515	-0.00691093
214	0x3a970aa1	0.0011523553
215	0x3bfd9a69	0.0077393544
216	0x3d5101e4	0.051027194
217	0x3d6f3905	0.058403987
218	0x3d839f1e	0.064268336
219	0x3d55f40e	0.0522347
220	0x3d661a22	0.056177266
221	0x3d657381	0.056018356
222	0x3d6c052d	0.057622124
223	0x3d4a7424	0.049427167
224	0x3d8bad95	0.068202175
225	0x3d4556d2	0.0481785
226	0x3d36ee21	0.04466069
227	0x3d029cd4	0.031887844
228	0x3cc77210	0.024346381
229	0x3c4034ab	0.011731307
230	0xbc153338	-0.00910645
231	0xbce48318	-0.027894542
232	0xbb6dcc37	-0.0036285052
233	0x3c45ec21	0.012080223
234	0x3ccdf3e6	0.025140714
235	0xbc5ea0b3	-0.013588118
236	0xbc80d038	-0.015724286
237	0xbb7eb626	-0.0038865893
238	0x3c028c9b	0.007968093
239	0x3d1297ab	0.035789173
240	0x3d2c6ebb	0.04209779
241	0x3d565838	0.052330226
242	0x3d89d31d	0.0672972
243	0x3d74c711	0.059760157
244	0x3d76da32	0.06026668
245	0x3d8ea77b	0.06965538
246	0x3d5f7f9c	0.054565057
247	0x3d73788f	0.059441146
248	0x3d3f2a85	0.04667141
249	0x3d143b73	0.036189508
250	0x3cdbb455	0.026819387
251	0x3cc08154	0.023499168
252	0x3c6a6037	0.014305166
253	0xbc8ac071	-0.016937466
254	0xbc90e318	-0.017686412
255	0xbc904516	-0.017611068

bias f4 [5]
0	0xbccdd395	-0.025125304
1	0xbc8736e1	-0.01650566
2	0xbc2363de	-0.009972541
3	0xbb8b851a	-0.0042578103
4	0xbbf7a6f0	-0.0075577423
