archived_data/her_b1_r0_m20_s150--2019-03-03--164700.841079/episode_10500.model (torch_old, 375800 bytes, 8 tensors)

weight f4 [6, 6, 3, 3]
000000 ca 80 b2 3d 2c b5 f3 3d 64 a9 28 3d 60 b5 0a 3e
       0.08715971 0.1189979 0.04117717 0.13545752
000010 10 91 84 3c 16 92 b4 3d fc 60 6b 3d 68 dc 04 3e
       0.016182452 0.08816926 0.05746554 0.12974703
000020 64 b3 c6 3d 13 a8 3f bd 9d 11 17 3d 34 67 b5 3d
       0.09702185 -0.046791147 0.03688203 0.08857575
000030 1d 9d c7 bd dd ec bf bc 62 bd 97 bd 35 20 27 bd
       -0.09746764 -0.023428375 -0.07409169 -0.0408022
000040 55 8c 41 3d be b1 16 3d 6f ce 92 be de 61 8f be
       0.04725297 0.036790602 -0.2867312 -0.28004354
000050 2c b7 38 be 2c 19 80 be ed 6e 05 bf e8 95 e5 be
       -0.18038625 -0.25019205 -0.52122384 -0.44840932
000060 8b 40 33 be 8e 63 b6 be 56 93 a6 3c 00 ba 2e 3d
       -0.1750509 -0.3562283 0.020333927 0.042657852
000070 b8 30 00 bd e8 76 53 3d a0 21 a2 3d e2 e7 9b 3d
       -0.03129646 0.05162707 0.0791657 0.076125875
000080 68 96 8c 3d 47 77 a7 bd b0 f0 aa 3c 7c f7 6b 3d
       0.06864625 -0.08177047 0.020866722 0.057609066
000090 aa 91 c0 be 44 86 0d bf fb 38 2a bf 73 2a 49 be
       -0.37611133 -0.55283 -0.66493195 -0.196451
0000a0 df 0d a3 be 4e 03 0a bf 53 9c 5e be 0b f7 76 be
       -0.3184652 -0.5391129 -0.2173932 -0.24117677
0000b0 10 b2 62 be 1a 12 4d 3e 9d dd bd 3c 62 87 a3 3d
       -0.22138238 0.20026436 0.023176963 0.079848066
0000c0 ae fe 56 3d 08 ee 14 bd be 32 05 be 0a 13 37 3e
       0.052488975 -0.036359817 -0.13007638 0.17878357
0000d0 14 30 cb 3d 86 9c 3a 3d 48 96 3a 3d e2 0b 88 3d
       0.099212795 0.04555943 0.045553476 0.066428915
0000e0 48 2c 75 3d 18 3f f1 3c 76 da 81 bd 14 9a fd 3d
       0.059856683 0.02944903 -0.06340496 0.12382904
0000f0 b4 17 99 bc 48 3b bc 3c 40 73 0b 3c 6d b0 e7 3c
       -0.01868806 0.022977486 0.008511364 0.028282369
000100 a9 90 8d 3d 93 1a a4 bd 2c 4b 94 3d b4 83 9c 3d
       0.06912357 -0.08012881 0.072409004 0.07642308
000110 09 20 2d 3d e6 6d b7 3d 28 12 fd bd 45 37 62 bd
       0.04226688 0.08956508 -0.12356979 -0.05522849
000120 cc e1 8b 3e 76 23 49 3e c4 25 43 bd b6 8a 87 3e
       0.27320707 0.19642434 -0.047643438 0.26473016
000130 1e af df 3d 54 9f 81 3d 83 2e 25 3e f0 21 6a 3e
       0.10922073 0.063292176 0.16131024 0.22864509
000140 d3 e3 e0 3c 88 d9 99 bd 54 34 54 bd 65 a6 e4 bd
       0.027452385 -0.07512194 -0.051807716 -0.1116455
000150 f8 6b 39 bc f2 9c b6 3d c8 c1 99 3c 20 82 09 be
       -0.011317246 0.08916654 0.01876916 -0.13428545
000160 f0 93 08 be a0 ae 9f bd 87 3e 1a bf 77 a1 06 bf
       -0.13337684 -0.07796979 -0.6025166 -0.52590126
000170 29 c0 15 bf d0 50 ca be cd eb d0 bd 70 73 89 be
       -0.5849634 -0.3951478 -0.102012254 -0.26845884
000180 24 78 7b 3e a7 e5 14 bf bb e0 87 be 2e 87 9c b9
       0.24557549 -0.5816292 -0.26538643 -0.00029855355
000190 a5 2d 65 be df 50 c0 bd 0c 3a 9d bd fa 53 ca bc
       -0.22380693 -0.09390425 -0.07677087 -0.024698246
0001a0 32 19 6e bd e0 81 57 3d 4a 1b 97 3d df 31 ac bd
       -0.058129497 0.052614093 0.07378252 -0.0840795
0001b0 94 3d 03 bd c4 6d a0 3d 50 41 9f 3d 30 87 a4 bd
       -0.032041147 0.07833436 0.07776129 -0.080335975
0001c0 b3 84 e4 bd e0 46 37 3c 3e da df 3d 21 68 d2 bd
       -0.11158123 0.0111863315 0.10930298 -0.10273767
0001d0 d4 b2 4e bd d0 41 7b 3d 85 81 16 3d 74 57 ab 3c
       -0.050463513 0.06134206 0.036744613 0.020915724
0001e0 f3 73 aa 3d 9c 05 88 3d 4c 68 d5 3c ff 03 ae bc
       0.08322897 0.06641695 0.02605071 -0.02124214
0001f0 58 8c 40 bc 5a 0b f6 bb d0 bc 69 be 18 8b 84 be
       -0.011752211 -0.0075086774 -0.22825933 -0.2588737
000200 6d b4 80 be 3d fc 4a be fd 6d 4f be 1e 65 4e be
       -0.25137654 -0.19822784 -0.20256801 -0.2015576
000210 2a 79 57 be f3 21 67 be e9 95 8d be 08 71 a1 3c
       -0.21042314 -0.22571544 -0.27653435 0.019707218
000220 62 7e 02 3e 08 3c 05 3e 86 b5 88 3d cc 10 fd bd
       0.12743524 0.13011181 0.06675248 -0.123567194
000230 60 4c b6 3b 48 ad 56 bd dc 20 e5 3d 1e e1 90 3d
       0.005563304 -0.052411348 0.11187908 0.07074188
000240 3d a5 4c 3e 2e 11 c7 bc 89 55 0f 3e 4f d5 28 3e
       0.19984908 -0.024300184 0.13997473 0.16487621
000250 7a a5 f5 3d a1 12 a8 3e 21 81 37 bd a4 bf e0 3d
       0.11994453 0.32826713 -0.04480088 0.109740525
000260 7b 6a a2 3e 2f 45 87 3e ea 1a fa 3d 5e 83 d7 3d
       0.31721863 0.2641997 0.12212165 0.10523103
000270 9b 03 2c 3e a8 a1 2a 3e 07 99 68 3d 15 1a d8 3d
       0.1679825 0.1666323 0.056786563 0.1055185
000280 f9 d0 33 bc 72 7b ad 3d ec bb 04 be 00 d4 44 3b
       -0.010975116 0.08470811 -0.12962312 0.0030033588
000290 9e 87 88 bd 26 f7 01 be b0 78 b0 3c 50 06 ee 3d
       -0.06666492 -0.12691936 0.021541923 0.11622298
0002a0 46 2f 8b 3d 6e d8 c7 3d 40 fe e5 bc ca eb ec 3c
       0.06796126 0.097580776 -0.028075337 0.028921027
0002b0 3d 31 b0 3d 8d bd ba 3d e5 4e e6 bc c3 9f fc 3c
       0.086031415 0.09118185 -0.028113792 0.0308379
0002c0 95 a9 84 3d f9 0b 98 bd bb e7 ff bd 27 32 1b bd
       0.06477658 -0.074241586 -0.12495371 -0.037889626
0002d0 22 d2 85 3d f3 cf 5e 3e 22 d7 aa 3d 04 83 e2 3e
       0.0653422 0.21759014 0.083418146 0.44240582
0002e0 e6 a6 62 3e b8 af 51 3e 80 be c0 3e 63 4e 92 3e
       0.22133979 0.20477188 0.3764534 0.2857543
0002f0 66 da 4f 3d 80 f5 15 bc a0 9e 05 3e 7c fb 5b 3d
       0.05074539 -0.00915277 0.13048792 0.05370663
000300 50 1a 4d bc 34 86 d5 bc 0c e7 04 3e 80 b3 5d bc
       -0.01251848 -0.02606497 0.12978762 -0.013531566
000310 10 16 19 3c cc 55 18 bd ba 5a 7b be 80 73 72 3d
       0.009343639 -0.037191197 -0.24546328 0.05919218
000320 f2 04 1c 3e 75 05 a6 be 0e 39 9f 3f 6b 78 b6 bc
       0.15236261 -0.32426038 1.2439287 -0.022274217
000330 ed 3c 98 be f2 78 99 be f9 cc f4 be fb 6c d9 3c
       -0.29733983 -0.29975086 -0.47812632 0.026541224
000340 d1 d0 06 3e 77 5e a6 3d 78 6a a8 3c d9 dc 96 bd
       0.13165595 0.081234865 0.02055858 -0.07366342
000350 74 76 30 bd df 6b d2 bd 12 9e 5d be 8e 8b 58 be
       -0.043081716 -0.10274481 -0.2164233 -0.21146986
000360 e8 e6 fc 3d 78 fe a4 bd 04 d7 01 bd d6 3e 5d bd
       0.12348729 -0.080563486 -0.031699196 -0.054015003
000370 02 83 e9 bd 6c b4 20 3d 21 cf 9d bd 3c f1 ca bc
       -0.11401941 0.039234564 -0.07705522 -0.024773233
000380 c0 f7 4c bc c3 9d d6 bd 4a 58 a1 bd e1 56 a9 bd
       -0.01251024 -0.104793094 -0.07878168 -0.08268524
000390 41 03 bf 3d da 65 12 bd 06 83 d4 3d a5 0f 1d bd
       0.093267925 -0.035741664 0.10376553 -0.038344998
0003a0 21 29 ae 3b 4c e9 c4 3d be 1c ae 3c 15 45 9b 3d
       0.0053149615 0.0961481 0.02125394 0.07581536
0003b0 38 bf 66 3d 8f 31 2c 3e 97 26 dd 3d 26 bc 40 3d
       0.056334704 0.1681578 0.10798376 0.047054432
0003c0 4f 0c 00 3e 53 8d b2 3d 93 45 8a 3d dc 8c 9f 3d
       0.12504695 0.08718362 0.067515515 0.07790539
0003d0 98 cb 73 3d e3 4b fe bd 38 69 46 bd e4 67 b1 bc
       0.059520334 -0.12416818 -0.04844019 -0.021655984
0003e0 cf 07 a4 bd 3e 31 12 bd 88 0a 07 3e ac 37 cc 3d
       -0.08009302 -0.035691492 0.13187611 0.09971556
0003f0 f7 a8 e6 be e6 5f 12 bf 4b dd 15 bf 9d 34 78 be
       -0.45050785 -0.5717758 -0.5854079 -0.2423882

bias f4 [6]
000000 1b ff c1 bd 81 fe a3 3d 42 fc 96 bc b4 88 b9 bc
       -0.09472486 0.08007527 -0.018430833 -0.022648193
000010 94 08 89 bc 2e 32 16 be
       -0.016727723 -0.1466758

weight f4 [16, 6, 3, 3]
000000 29 ab 31 3e a4 07 9a 3d 15 96 af 3d 6f 93 2b 3e
       0.17350449 0.075209886 0.08573548 0.1675546
000010 60 68 9e bd dc a0 7d 3d 83 44 35 3e 25 f8 4d 3d
       -0.07734752 0.061920986 0.17701916 0.050285477
000020 69 64 db 3d 54 ba d2 3d b0 e6 c5 3c 45 10 d6 3c
       0.10712511 0.102894455 0.024157852 0.026130805
000030 2a 5f f5 3d 25 68 50 3c c4 d1 d1 3d ad e7 f7 3d
       0.11981042 0.0127201425 0.10245088 0.121047355
000040 d8 ea 56 3d 28 02 e5 bd 1b 02 6f 3d be 02 f1 3c
       0.05247006 -0.11182052 0.058351617 0.029420253
000050 60 1e fd bd 9c 1b 9a 3d 17 5f 4f bd 22 ed 2b bd
       -0.12359309 0.07524797 -0.050627794 -0.041974194
000060 5a b1 06 3d e2 02 2c bd 49 70 d5 bb ba 02 a4 3e
       0.03288398 -0.041994937 -0.0065136296 0.3203333
000070 cf 6b 68 3d 58 bd e3 3d b6 a7 79 bd ea 38 bf bc
       0.05674344 0.11120099 -0.060950957 -0.023342568
000080 e3 4d e6 3c b9 22 40 3e 6b 23 91 3d f9 bb 02 3d
       0.028113311 0.18763246 0.070868336 0.031917546
000090 37 86 f4 3d 15 73 06 3e 99 08 8e bd d4 1c 35 3e
       0.11939662 0.13129838 -0.069352336 0.17686778
0000a0 ce 9f f8 3d 90 b1 b4 3c 19 54 05 3e 02 5b 44 bd
       0.12139855 0.022057325 0.13020362 -0.047938354
0000b0 c3 51 5f 3d 07 d6 05 3e 7c cc f7 3d a3 b0 77 bd
       0.054521333 0.13069926 0.12099549 -0.06047119
0000c0 6d 7c 71 3d ce 77 42 3d 5f 02 a1 3c 46 8b 90 3e
       0.058956552 0.047477536 0.019654451 0.28231257
0000d0 0d c8 63 3e 78 fa ff 3d 19 3d 05 3e 0f 0f 1c bd
       0.22244282 0.12498945 0.13011588 -0.0381003
0000e0 ca 04 05 3e 54 29 e6 bd a4 84 1e be a0 f3 29 be
       0.12990108 -0.112383515 -0.15480286 -0.16596842
0000f0 6b 0c 04 bd ae a2 f7 bd ee a7 a8 3d dc 84 43 3b
       -0.032238405 -0.120915756 0.08235155 0.002983383
000100 00 16 4f ba 12 a7 a5 bd a7 6c b4 3c d1 70 3e 3e
       -0.00078997016 -0.08088507 0.022024466 0.18597724
000110 c7 93 91 bc 65 61 96 bd 95 49 72 bd b4 2e b6 3d
       -0.017770661 -0.07342795 -0.059152205 0.08895627
000120 44 b5 c1 bd 4e ed 2a 3d fd 72 99 3d f7 f5 02 3d
       -0.09458402 0.041730218 0.074926354 0.03197285
000130 78 7d d5 bc b5 9b 15 3d fc 14 22 be 8f 43 df bd
       -0.026060805 0.036525447 -0.15828317 -0.10901558
000140 5f a9 19 be 02 94 7f 3d 7b b2 f8 3d 72 bb 6a bd
       -0.15006016 0.06239701 0.121434174 -0.057307668
000150 e1 83 0d 3e 3c 23 34 bc 62 f7 30 3e ff ef 4f 3d
       0.13819839 -0.010994729 0.17281869 0.050765987
000160 d5 a8 de 3d 6d e5 41 3d 05 0e ae 3d 8a 66 ad 3d
       0.10872046 0.047337938 0.08498768 0.084668234
000170 80 d3 e5 3c d7 82 8f 3c e4 c7 4c 3e 83 69 8a 3e
       0.028054953 0.017518444 0.19998127 0.27033624
000180 1a b4 ad 3d 29 c2 d4 3c 8e dd 3f bc 28 43 c2 3d
       0.08481617 0.025971489 -0.011710538 0.09485465
000190 59 e6 1d 3e 8f bd 46 3d db 48 ba 3e b9 80 60 3e
       0.15419902 0.04852062 0.3638371 0.21924104
0001a0 cf f2 a2 3e 67 5c b4 3d 5f 2d d0 3e c9 60 e6 3d
       0.31825873 0.08806687 0.40659615 0.11248929
0001b0 60 53 da 3d 95 86 0f 3e 44 74 9c bd 01 b0 68 3e
       0.10660434 0.14016183 -0.076393634 0.2272339
0001c0 95 d1 49 3e 49 fe 0a 3e 95 1a ae 3e f5 7f 44 3e
       0.19708855 0.13573565 0.34004655 0.19189437
0001d0 ad bb cb 3d 32 be 8f be 8c 17 7c be d6 83 55 bd
       0.09947906 -0.28074795 -0.24618357 -0.05212768
0001e0 08 be f8 bd 22 28 6f be 12 77 a9 bc 19 2b 5c 3d
       -0.121456206 -0.23355153 -0.02068666 0.05375204
0001f0 86 fa ae 3d 44 b5 11 3d 11 2f 0c 3e b1 75 46 3e
       0.08543877 0.03557326 0.1368983 0.19380833
000200 f3 ac 3b 3e ad 66 6d 3d 72 d4 a5 3d 49 d0 3f 3e
       0.18327694 0.057959247 0.08097161 0.18731798
000210 a7 de d5 bc 47 b0 b2 bd 69 ea a7 3c 93 f2 cc bc
       -0.026107145 -0.087250285 0.020497518 -0.025018012
000220 4d 88 b9 bd 45 22 8a 3d 0a bf 1f be 38 66 2e be
       -0.090592004 0.06744818 -0.1560022 -0.17031181
000230 3c ae f4 3d fa 9f 3a be 58 df b7 bd 4d 8d b3 bd
       0.11947295 -0.18225089 -0.08978146 -0.08767185
000240 35 bd 58 be 29 2e 3f be 34 8e d8 bc 0b 8d 8f bd
       -0.21165927 -0.18669952 -0.026434995 -0.07009324
000250 8c b4 3c bb ef e9 3f ba 63 8c 4d be 59 e7 18 be
       -0.0028794138 -0.00073209306 -0.20073085 -0.14932002
000260 a9 d9 5b be 46 2a ec bd 4c b0 fa 3d 86 07 02 bd
       -0.2146975 -0.115315005 0.12240657 -0.031745456
000270 26 5c 1a be 9e 39 b0 3d f1 b0 21 be 80 29 8f bd
       -0.15074214 0.086047396 -0.15790154 -0.06990337
000280 3b ed 8d 3d f1 d8 b6 bd 81 93 8f bd 4b e4 71 bd
       0.06930014 -0.08928097 -0.07010556 -0.059055608
000290 fa 38 08 3e da bf ec bc c3 65 81 bc e9 87 db 3b
       0.13302985 -0.028900076 -0.015795594 0.0066995514
0002a0 f4 24 90 bd b9 ef 21 3d d7 86 f3 3d 9e 85 b9 bd
       -0.07038298 0.039535258 0.11890953 -0.090586886
0002b0 9c 81 b2 bd 8c 1a 45 3d 74 f4 d6 3b 65 e5 45 bd
       -0.08716127 0.04812102 0.006559903 -0.04831447
0002c0 9f 05 62 3c 72 38 64 3e e0 ee 8f 3c 26 4f 22 3e
       0.0137952855 0.22287157 0.01756996 0.15850505
0002d0 3a a0 ae 3d dd 8d c5 bd 85 f4 c2 3d 01 d1 fa bd
       0.085266545 -0.09646199 0.09519295 -0.122468956
0002e0 21 80 ac 3d 13 e8 9e bd fb 31 dd bc f1 07 00 be
       0.08422876 -0.077591084 -0.027001372 -0.1250303
0002f0 2c ae 3d bd 7b b8 03 3e 0b 26 57 bd 82 1a 07 3e
       -0.04630868 0.12863342 -0.052526515 0.13193706
000300 ee eb f0 bc 68 1c 98 3c d0 68 48 be 37 ab 7f 3e
       -0.029409375 0.018568233 -0.19571233 0.24967657
000310 00 d2 07 3e 1a d6 09 3e b9 6b ad bd d9 e8 3b 3e
       0.13263702 0.1346058 -0.08467812 0.18350543
000320 5b 21 2b 3e f6 b3 0b 3e 44 60 29 3a 7e 65 e6 3d
       0.16711943 0.13642868 0.0006461183 0.11249827
000330 09 06 27 3e 09 76 d6 3d 8d 88 2f 3d 07 33 58 3d
       0.16310896 0.10471732 0.042854834 0.05278304
000340 52 aa 89 3e c1 34 28 3e 50 6a 0a 3e e3 ba a6 3d
       0.26887757 0.16426374 0.13517118 0.081411146
000350 b5 a3 60 3e ce 01 94 3e c4 09 c7 3e 8a 65 8f 3e
       0.2193745 0.28907627 0.38874638 0.28007156
000360 11 77 24 3e e5 68 fe 3d f5 78 5e bd 04 dc ed bd
       0.16061045 0.12422351 -0.054314572 -0.1161423
000370 b2 d4 9d bd 46 66 f0 bc 9f f3 9f 3d 0a 2b 67 3d
       -0.07706584 -0.029345643 0.07810139 0.05643753
000380 c1 ea 1e 3d 57 51 bb bd 3c 96 25 be 25 93 ec bd
       0.038798098 -0.09146374 -0.16170591 -0.11551503
000390 fd c9 bb 3d 6a 88 fa 3d fd f6 99 3d 22 12 d1 3d
       0.091693856 0.1223305 0.075178124 0.10208537
0003a0 67 64 9b bb 92 ac 83 bd 43 48 6e bd 51 5a de bc
       -0.0047421935 -0.064293995 -0.058174383 -0.027142676
0003b0 d7 a7 a4 3d 80 cb 21 be f2 89 a6 3d af 58 07 3e
       0.080398254 -0.15800285 0.0813178 0.13217424
0003c0 60 e1 cb bd 66 93 e9 3b cb dd 30 3d d3 2a ef 3c
       -0.09955096 0.007128167 0.04318027 0.029195225
0003d0 63 6d d4 bc 81 12 11 bd cc 89 73 3d 34 45 0a 3e
       -0.025931066 -0.035418037 0.059457585 0.13502961
0003e0 36 3b 9c bd 23 0c dc 3d 30 55 ee bd 47 d5 f1 bd
       -0.07628481 0.107445024 -0.11637342 -0.118082576
0003f0 30 49 02 3e ab 34 27 3c db 4d a0 bd 22 fc 4d bd
       0.12723231 0.010205428 -0.0782735 -0.05028928

bias f4 [16]
000000 0d d8 a1 bd a2 e9 0e bd 2e e0 ca 3d a1 d2 d3 bd
       -0.079025365 -0.03489078 0.0990604 -0.10342909
000010 3a 9e fd bd 85 60 71 bd 68 a8 78 3d 6b b0 65 3d
       -0.12383695 -0.05892994 0.06070748 0.05607645
000020 d5 a6 80 3b b8 73 8d 3c 1c 0f 30 3e 62 56 33 3d
       0.003926138 0.017267093 0.17193264 0.043783553
000030 35 df 28 be 1a ee f2 3d 85 ca 24 3e 19 c5 8e bd
       -0.16491397 0.118618205 0.1609288 -0.06971187

weight f4 [32, 16, 3, 3]
000000 f0 a0 d7 bb 66 34 53 3d 9d 6e 5d 3d 7b a9 03 be
       -0.0065804645 0.051563643 0.054060567 -0.1285762
000010 64 7e d9 bd d3 94 a0 3d 63 a2 ba bd 5d 65 8c 3d
       -0.1061981 0.07840886 -0.09113004 0.06855271
000020 ed 3d f1 3b 25 4e c8 3d 4f 3d 44 bd 97 1f d0 3d
       0.0073621185 0.0978053 -0.04791003 0.10162275
000030 0a db 64 bd 45 48 5e 3c e5 75 99 bd 8e b1 0e 3b
       -0.055872954 0.013567035 -0.0749319 0.0021773311
000040 06 4b 64 3c bb 49 da 3d d8 e8 48 be 1d ab 98 bd
       0.013933903 0.10658594 -0.19620073 -0.07454512
000050 15 e2 d8 bd e9 be 6a be d6 4e 60 bc b9 57 8c bd
       -0.10589997 -0.22924389 -0.013690671 -0.06852669
000060 20 98 4a bd 4f 69 ce 3d 73 71 80 3d b0 0f aa 3d
       -0.049461484 0.1007868 0.06271639 0.083037734
000070 bd 63 bc 3d 58 0a a2 3d da 09 8c 3d 26 7e 82 3d
       0.09198711 0.07912129 0.068378165 0.06371717
000080 af db 2d 3c 01 fb cb 3c e8 2a 0a 3c 87 c3 27 3c
       0.010611459 0.024899961 0.008433081 0.010239488
000090 bf 92 c2 3d 6b a8 8c 3d d4 54 00 3e 5c 38 1d 3e
       0.09500646 0.06868061 0.1253236 0.1535353
0000a0 89 6a 9e 3d 37 9c a4 3c 41 fa 11 3e 11 f7 14 3e
       0.07735164 0.02009402 0.1425562 0.14547373
0000b0 c3 fc 30 3e a7 3d cf 3d 89 f2 0b 3e de 57 40 3d
       0.17283921 0.10119181 0.13666739 0.046958797
0000c0 4e 9e a2 3b 9b fc 1d bd 8a e6 bc 3d 96 2a 0b 3d
       0.004962719 -0.03857098 0.09223659 0.03397616
0000d0 82 5c 9d 3d 3f c1 76 3d 19 b5 38 3c c7 42 f7 3c
       0.0768366 0.060242888 0.011273646 0.03018321
0000e0 ab a0 6d 3c 84 cf 0d bd 96 e5 3e bd c9 98 90 3d
       0.014503638 -0.03462173 -0.04660567 0.070603915
0000f0 cf be b7 bc 3b 26 25 bd 93 40 7f 3d 28 cb 91 bc
       -0.022429852 -0.040319663 0.062317442 -0.017797068
000100 77 0d a0 3c 6f 69 c9 3b fa f8 d9 3b d8 2d df 3b
       0.01953767 0.006146602 0.006651995 0.006810885
000110 29 06 c0 3d b6 23 90 3d c0 98 89 3c 7b 64 d0 3d
       0.09376175 0.07038061 0.01679647 0.10175415
000120 ba 57 2e bd 38 c2 42 3d 7d c6 40 3d 16 a9 09 bd
       -0.04256413 0.047548503 0.047064293 -0.03360852
000130 08 11 b1 3d aa 3b c4 3c 7e e0 17 3d db 77 6f 3d
       0.086458266 0.023954231 0.037079327 0.058463912
000140 20 1e 14 bd 22 29 9d bd bc f1 59 bd a7 78 4f 3c
       -0.036161542 -0.07673861 -0.05320905 0.012663043
000150 b9 9e 8c 3d 9b bb 61 bd 9a 14 e6 bc f4 48 ca 3a
       0.068662114 -0.055110555 -0.028085995 0.0015433119
000160 88 b0 8b bd ae 96 42 3b ce cb c8 3b 21 ae 26 3d
       -0.0682078 0.0029691863 0.006127811 0.040693406
000170 c1 cd 22 3d 0b 7d de 3c 08 b8 b0 bd 48 28 98 3d
       0.039747003 0.027159235 -0.08628851 0.07429558
000180 31 02 22 3d 42 9b 19 3d 0e ed ff bc a9 aa a1 3d
       0.03955287 0.03750158 -0.031240966 0.07893879
000190 a0 57 bc 3d bf 39 8f 3c 3b 4f 35 3d 51 39 8e 3d
       0.09196401 0.01748359 0.044265013 0.06944526
0001a0 b7 ea 8f 3c bd f0 c9 3c a8 91 4c 3d 76 e5 ed 3d
       0.017567975 0.024650926 0.049943596 0.11616032
0001b0 2e ed c2 bd 49 2b 34 bc 35 55 58 bd 1b be 83 3d
       -0.09517895 -0.010996648 -0.052815635 0.06432744
0001c0 92 32 14 ba b1 0a ec 3c 5b ec 70 3d f7 9a 2f bc
       -0.00056532875 0.028813692 0.058819156 -0.010718099
0001d0 37 3a 89 3d 4a c5 25 3e b6 19 f4 3d 74 d8 1c 3e
       0.06700557 0.16188541 0.119189665 0.15316945
0001e0 63 fb d9 bc 80 99 bd 3d 95 3c 3c bc a3 5b 00 3e
       -0.026609128 0.092577934 -0.011489053 0.12534957
0001f0 6e 08 63 3d 61 92 85 3d a7 db 08 bd d3 a2 74 bd
       0.05542796 0.0652206 -0.0334126 -0.059725594
000200 bc fc 8a bd c0 2c 6e 3c a5 e7 6a bd 76 b3 81 bd
       -0.067864865 0.014537036 -0.05734982 -0.063330576
000210 99 79 9b bd 1a 68 2b 3d c0 d0 7b bc f2 bf 8e 3c
       -0.07591552 0.041847326 -0.015369594 0.017425511
000220 e6 cb 34 3c 6f 3c 98 3d f0 28 86 3d 07 6c 79 bc
       0.011034941 0.07433402 0.06550777 -0.01522351
000230 39 3d 11 39 31 01 0d 3e 00 1f 02 3e e3 7f 55 3c
       0.00013851085 0.13769986 0.12707138 0.013030979
000240 8f 36 ed 3d ed 92 63 3c 96 49 00 bc 08 f0 c4 3d
       0.11582672 0.01389001 -0.007830044 0.09616095
000250 b3 8f e4 3d 72 f4 8f 3d 4e 84 b3 3d d3 2f 9c 3c
       0.11160221 0.07029046 0.087654695 0.019065773
000260 48 b8 02 bd db 94 c5 3d 62 7c 55 3e 9b 12 25 3e
       -0.031914026 0.096475326 0.2084823 0.16120379
000270 9d 90 c6 3d ab d5 6c 3d 39 08 fe 3d 96 07 03 3e
       0.096955515 0.057820957 0.12403912 0.12795863
000280 84 c8 ef 3d c5 d0 51 3d a9 88 cd 38 d1 ba 69 3d
       0.11708167 0.05122449 9.800617e-05 0.057062928
000290 4d e5 b1 3c aa 88 95 bd 48 80 d6 bd d7 1c 18 be
       0.021715784 -0.07301457 -0.104736865 -0.14854752
0002a0 3f 69 11 be 1e 13 22 be 8f 73 bd bd 1b f9 1c 3e
       -0.14200304 -0.15827605 -0.09250557 0.15329401
0002b0 73 c2 82 3e 38 9d 06 3e f7 ea 72 3e 11 64 8b 3e
       0.25538978 0.13145912 0.23722444 0.27224782
0002c0 ad 05 27 3e c5 29 70 3e 16 e3 f7 3d f4 33 60 3e
       0.16310759 0.23453434 0.1210386 0.21894819
0002d0 85 e3 20 3e 6a 98 4b 3d cc 1f 29 3e 50 cc b8 3d
       0.15711792 0.0497059 0.16516036 0.090233445
0002e0 1a ad f8 3d ce 7f 71 3e c0 1d ff 3d cb a9 13 3e
       0.121423915 0.2358391 0.12456846 0.1442024
0002f0 81 3e d3 3d 14 a6 4a bd b6 db 24 bd c2 32 fc 3d
       0.10314656 -0.04947479 -0.040248595 0.12314369
000300 7e 92 bc 3c 3c d9 42 bd c7 a8 f2 3d fa 7b 93 3d
       0.023019072 -0.047570452 0.11848598 0.07201381
000310 d2 5e ce 3c 65 c6 19 3e 44 7e a6 bd ea 8f b4 3d
       0.025191698 0.15017088 -0.08129552 0.08816512
000320 7e f0 b1 3d 54 95 8b 3d d1 08 be 3a 44 9a dc 3d
       0.08688448 0.068155915 0.0014498477 0.10771611
000330 fc 5a ab bd ba 6a 0d bd 56 55 78 3c 39 6f f5 3a
       -0.08366963 -0.03452561 0.015157064 0.0018725164
000340 67 11 7d bd b1 61 3b bc f6 30 c7 bd d2 c9 75 bb
       -0.061784174 -0.011436866 -0.097261354 -0.0037504327
000350 ca 2a b0 bd ae 20 88 bd b9 25 2d bd e4 59 13 bd
       -0.08601911 -0.06646858 -0.042272303 -0.0359744
000360 5d 72 86 bd 77 88 57 3c 83 ef 1a 3c 7b a4 06 3d
       -0.06564782 0.013155094 0.009456518 0.032871705
000370 76 0e 9c 3d c9 1b 84 bb c6 20 a6 3c d6 73 49 bd
       0.07619946 -0.0040316326 0.0202793 -0.049182735
000380 d3 75 6b bd 92 af e8 3d d0 1a 93 3c 84 d8 6e 3d
       -0.057485413 0.113616124 0.017957121 0.058311954
000390 04 3d 94 bb 61 a9 03 3d 3f 72 b9 3d 68 14 39 bd
       -0.004523875 0.032143954 0.09054994 -0.045185477
0003a0 7e 06 51 bd 71 ee 00 3d 54 36 e6 3a f3 fc 53 3d
       -0.051031582 0.031477395 0.0017563798 0.051754903
0003b0 b2 8c c3 bc 56 28 32 bd 85 73 c4 3b ce 3a be 3c
       -0.0238708 -0.0434955 0.0059952163 0.0232214
0003c0 d1 fb 44 3d 68 40 b1 3d 2a 0d 90 3d 32 22 4d bd
       0.048091713 0.08654863 0.07033761 -0.05008144
0003d0 26 0b fa bd a3 db 9a bd 13 c1 40 bd 26 13 93 3b
       -0.12209158 -0.07561424 -0.04705913 0.0044883667
0003e0 d3 5b 21 3c cd 36 d3 bd c2 cc 52 bc 98 28 db 3c
       0.009848553 -0.10313187 -0.012866201 0.026752755
0003f0 f4 d4 6c 3e cd ac 08 3e ee a8 16 3e 34 c7 9d 3e
       0.2312811 0.13347168 0.14712879 0.30816042

bias f4 [32]
000000 f8 36 66 3b 13 62 f6 3c 36 61 ae bd 8a 08 60 3c
       0.0035127979 0.030076062 -0.08514635 0.013673911
000010 aa da 0f bd 52 a4 a7 bd c3 68 4f 3d 6f a2 e9 bd
       -0.035120644 -0.081856385 0.050637018 -0.11407935
000020 4e b9 a6 bd 32 9d 33 3c 3b 43 eb bd e3 17 87 bc
       -0.08140813 0.010962771 -0.114874326 -0.016490882
000030 66 a4 3d bd 2b 3f e9 bb ae 1b 92 bd ec f6 c6 bd
       -0.04629936 -0.007118126 -0.07134186 -0.09715065
000040 b0 14 d3 bc 2d 0e e9 bd 03 64 d4 bd 10 3e 9e bd
       -0.0257667 -0.11379657 -0.10370638 -0.07726681
000050 9f 94 86 bd 45 aa dc 3c ae cb 8c bd 31 0e b2 3d
       -0.06571316 0.02693666 -0.06874786 0.08694113
000060 97 c5 69 bd 58 c1 64 bd 87 35 00 bd d9 be fa bd
       -0.057073202 -0.05584845 -0.031301048 -0.122434326
000070 cb d0 37 bd 61 ab dc bc 8a e1 a3 3c a1 cd 9a bd
       -0.044876855 -0.026937189 0.020005006 -0.07558752

weight f4 [5, 16928]
000000 20 8a 66 bd d7 8f b1 bd 48 a1 76 bd f9 2b 15 bd
       -0.05628407 -0.086700134 -0.060212404 -0.03641889
000010 03 8a 19 bd 28 ef 05 bd 2b 25 c5 bc df c7 b9 3c
       -0.037485134 -0.03269878 -0.024065575 0.022678314
000020 ff ec 1a 3c b0 95 e4 bc 1e 8f dd bc eb 93 07 bc
       0.009455918 -0.027903408 -0.027045783 -0.0082750125
000030 dd f7 42 bc 2b eb ee bb cd 0f 93 3c 3d 32 70 bc
       -0.0118999155 -0.007291218 0.01795187 -0.014660415
000040 af 80 d1 bc f8 ce 6a 3d b1 84 ae 3d ab a8 43 3d
       -0.025574056 0.057326287 0.085214026 0.047768276
000050 7e 71 4c 3c 41 5c 06 bc 15 0e d8 3c fe 2f cd bc
       0.0124782305 -0.008200706 0.026373902 -0.025047299
000060 d3 f5 25 bd 30 73 1b bd a3 8c 6c bc 6f 4d 7d bc
       -0.04051764 -0.03795165 -0.014437827 -0.015460356
000070 e5 77 b2 3b 41 b4 1b 3d ed 44 7c 3d a3 98 01 3d
       0.0054464214 0.0380137 0.06158917 0.031639706
000080 88 ab 72 3c 84 a2 e0 3b 09 18 ec 3c 06 9b 3a 3b
       0.014811404 0.006855311 0.028820055 0.0028473749
000090 e8 e3 c8 3c 4e 8f 09 3c 23 58 c7 3c a3 b2 41 3c
       0.024522737 0.008395983 0.024334019 0.0118223755
0000a0 aa 25 b5 3d ff d7 9a 3d 74 77 1b 3d 3f e6 91 3c
       0.088450745 0.07560729 0.037955716 0.017809985
0000b0 e3 af 79 3c 83 76 31 3d 62 c7 32 3c 8e aa 51 bd
       0.015239689 0.043325912 0.010911794 -0.051188044
0000c0 5e 12 20 bd 8c 63 4e 3b b1 cb 46 3d e6 6b 17 3d
       -0.039080016 0.003149244 0.0485341 0.036968134
0000d0 16 13 e7 3c 72 48 84 3d a0 02 61 3a c3 5d f1 ba
       0.028207343 0.0645913 0.000858346 -0.0018414784
0000e0 13 df c7 3b 08 3f 31 3d 48 23 2c 3d bb 01 06 3d
       0.0060995906 0.043273002 0.042025834 0.032716494
0000f0 4c 98 04 3d a6 fa 0f 3d 54 9c 73 3c 6c e5 1c 3d
       0.032371804 0.035151146 0.0148688145 0.03830473
000100 f6 19 d8 3c 4f eb a3 3c 76 26 58 3c cc c6 a2 3c
       0.026379567 0.020009665 0.013192764 0.019870184
000110 05 a0 4f 3c 83 ad 22 bc 8f f8 9c bd c8 4c 35 bc
       0.012672429 -0.009929064 -0.07664596 -0.011065669
000120 07 7d 06 3c 22 d9 4a 3d c6 39 b4 3a ca 6b 37 3d
       0.00820852 0.04952348 0.0013750128 0.04478053
000130 36 09 8c 3d db cb 83 3d 6c 9e 48 3d af 06 6b 3d
       0.06837694 0.06435367 0.048979208 0.05737942
000140 b7 d8 b3 3d e2 ff 31 3d 90 6d f7 3c f0 5f 52 3c
       0.087815695 0.04345692 0.03020361 0.012840256
000150 f9 68 44 3d 26 09 f0 3b 81 a4 89 3d 7d 52 06 3d
       0.047951672 0.0073253093 0.0672083 0.03279351
000160 29 23 e1 3c 45 e7 85 3c 35 03 8b 3c f3 3d 12 3d
       0.027482586 0.01634563 0.016969303 0.03570361
000170 1e e6 e7 bc cb 40 32 bd 92 e9 ef bb ee 1a b0 bc
       -0.02830797 -0.043518823 -0.007321545 -0.021497216
000180 d4 28 11 3d 67 b2 f3 3c 04 ec ae 3d 73 af da 3d
       0.035439327 0.029748155 0.0854111 0.106779955
000190 f8 e5 84 3d 6a 38 9d 3d 2e 44 6f 3d ec 73 34 3d
       0.064891756 0.07676776 0.05841463 0.044055864
0001a0 ad 7b af 3c 66 ab 6c 3d 38 a5 24 3d 36 5a 1d 3d
       0.021421278 0.057780646 0.040196627 0.03841611
0001b0 9c 8a 45 3d 32 bc ca 3d 03 8a c4 3d f3 77 1d 3d
       0.04822789 0.09899177 0.09596636 0.03844447
0001c0 0a 30 12 3d 73 9b ed 3c c8 2d 25 3c d3 0f 4c 3c
       0.035690345 0.029004788 0.010081716 0.012454945
0001d0 2f 5e 21 3d 02 52 c5 3c b3 ec 71 3d 61 75 cb 3d
       0.03939646 0.024086956 0.059063625 0.099344976
0001e0 55 ff 84 3c 90 07 d1 3d fe ca ab 3d b9 6d ee 3d
       0.016235033 0.102065206 0.08388327 0.11642022
0001f0 3c b7 fc 3d f7 05 c9 3d 1b 1c b5 3d 76 a7 90 3d
       0.12339637 0.09815591 0.08843251 0.07063191
000200 3d 4d 93 3d 98 2a 90 3d c1 97 84 3d 3a 9b ca 3d
       0.071924664 0.07039374 0.06474257 0.09892888
000210 6a 5f ed 3d bc db c8 3d 1c 9d 4d 3d d7 be 15 3d
       0.115904644 0.09807536 0.05019866 0.036558952
000220 e0 d0 36 3d f5 99 6e 3d a4 84 6a 3d f9 41 d3 3d
       0.044632792 0.058252294 0.057255402 0.10315318
000230 e3 c3 4a 3d 60 1a d5 3d de 14 87 3d c7 39 de 3c
       0.04950322 0.10405421 0.06595777 0.02712716
000240 7f 6d da 3c 2c bb ed 3c 16 3c a6 3c 93 2c 7b 3d
       0.02666354 0.029019915 0.020292323 0.061321806
000250 1d 68 9b 3d ef 1a b6 3d 26 f8 0e 3d c6 0a 4c 3d
       0.075882174 0.08891856 0.03490462 0.04981496
000260 78 ed 3c 3d 71 a8 68 3d 72 fb b6 3d 97 45 b8 3d
       0.046124905 0.056801263 0.08934678 0.08997648
000270 35 50 bf 3d 04 af 81 3d 37 9d 06 bb 3f 1c 01 3d
       0.0934147 0.0633221 -0.0020540485 0.03152108
000280 77 e6 d5 3b bc 0b 87 3d b7 26 84 3d 51 d6 a0 3a
       0.0065277177 0.06594035 0.06452697 0.0012270903
000290 40 ab 1a 3d 38 13 b0 3c db 51 a2 bc f0 b5 f4 3c
       0.037760973 0.02149354 -0.019814422 0.02987191
0002a0 5f 5e 91 ba 45 4b 60 3d 42 c4 5a 3d 44 82 8c 3d
       -0.0011090747 0.054759283 0.053409822 0.06860784
0002b0 fc 11 a4 3d c2 7e a9 3d 27 23 ad 3d d0 d0 c7 3d
       0.08011243 0.0827613 0.084539704 0.09756625
0002c0 c3 0b 43 3d b6 f2 67 3d f9 3e d4 3d b2 31 b2 3d
       0.04761864 0.05662795 0.103635736 0.08700885
0002d0 b9 3e 41 3d 3a 4e b2 3c 35 e7 42 3d ad bc 5d 3d
       0.047178958 0.021765817 0.047583777 0.054135013
0002e0 6d 71 54 3d c3 0d bc 3a 18 5f 11 bc 44 60 0e bc
       0.051865984 0.0014347363 -0.00887277 -0.008689944
0002f0 00 15 3d 3d 37 9e 06 3c 12 6b 0a 3d 2e 02 2c 3d
       0.046162605 0.008216432 0.033793516 0.041994266
000300 84 60 63 3c b1 3e db 3d 76 42 eb 3d f7 03 b8 3d
       0.013877992 0.10705317 0.11487286 0.08985131
000310 bd da 7e 3d a8 9d a5 3d 3e 70 e4 3c a2 47 68 3d
       0.062220324 0.08086711 0.027885552 0.05670894
000320 ef 4d 86 3d 24 5f be 3d b0 ee b5 3d f3 8a 8e 3d
       0.065578334 0.092954904 0.08883417 0.06960096
000330 d4 a5 28 3d 68 4d 66 3d 34 d8 1b 3d cd c3 c9 bc
       0.04117377 0.056226164 0.038047984 -0.024629498
000340 69 d5 5e bc 03 3f 27 3c cd ab 83 3d e0 70 c0 3d
       -0.013600686 0.010207894 0.06429253 0.09396529
000350 b8 80 15 3d 67 08 33 3d a3 2f a7 bb 47 c9 33 39
       0.03649971 0.043709185 -0.0051021143 0.00017145752
000360 70 1f 2a 3d fe ca 52 3d 41 a9 c9 3d b1 f6 ab 3d
       0.041533887 0.05146312 0.09846736 0.08396662
000370 c0 2e af 3d 54 6b 8b 3d a3 a3 ec 3d 49 46 e7 3d
       0.08553839 0.068075806 0.11554649 0.11292703
000380 c8 29 fb 3d 1d ef 96 3d b4 1b 99 3d c2 ff 78 3d
       0.122638285 0.07369826 0.07475987 0.060790785
000390 62 f7 94 3d c8 30 5b 3d 62 b9 64 bc fc 85 2d 3c
       0.07273747 0.05351332 -0.013960214 0.010591026
0003a0 42 b4 4a 3a 53 58 ae 3d 3b ac 83 3d c9 f7 a0 bc
       0.0007732549 0.0851294 0.06429335 -0.019649403
0003b0 b4 0d 5f bc 08 15 0b bd c9 df 0d bc 32 40 10 3d
       -0.013614107 -0.033955604 -0.008659312 0.03521747
0003c0 e1 44 85 3d 7a b5 7a 3d a6 98 ae 3d 40 21 87 3d
       0.06507278 0.061208226 0.08525209 0.06598139
0003d0 a4 a8 99 3d f3 1c fd 3d 5e 68 aa 3d 36 9d ad 3d
       0.07502869 0.12359037 0.08320688 0.08477251
0003e0 86 55 69 3d 30 43 9e 3d 7d eb a9 3d 73 4a 75 3d
       0.056966327 0.07727659 0.08296869 0.059885453
0003f0 b0 74 3d 3d 34 fc 66 bc 85 1d 73 3c fc 5c 6a 3c
       0.04625386 -0.014098216 0.014838581 0.014304396

bias f4 [5]
000000 9f 4d 8a bd 16 99 37 bd 24 5c 0b bd 23 b7 39 bd
       -0.06753086 -0.04482373 -0.03402342 -0.04534067
000010 65 51 1f bd
       -0.038895983
