archived_data/her_b1_r0_m20_s150--2019-03-03--164700.841079/episode_13250.model (torch_old, 375800 bytes, 8 tensors)

weight f4 [6, 6, 3, 3]
0	0x3db280ca	0.08715971
1	0x3df3b52c	0.1189979
2	0x3d28a964	0.04117717
3	0x3e0ab560	0.13545752
4	0x3c849110	0.016182452
5	0x3db49216	0.08816926
6	0x3d6b60fc	0.05746554
7	0x3e04dc68	0.12974703
8	0x3dc6b364	0.09702185
9	0xbd2e471c	-0.042548284
10	0x3d1ba256	0.037996612
11	0x3defcc4e	0.1170889
12	0xbdcba97f	-0.09944438
13	0xbcb30528	-0.021853045
14	0xbd724da7	-0.059156086
15	0xbd736e5d	-0.059431423
16	0x3d2f2767	0.042762186
17	0x3d50b1c5	0.050950784
18	0xbe99a174	-0.3000599
19	0xbeabca40	-0.33552742
20	0xbe84d192	-0.2594114
21	0xbe9aa9c3	-0.30207643
22	0xbf0b56ab	-0.5442912
23	0xbf01d93b	-0.5072209
24	0xbdae928d	-0.08524046
25	0xbecc5b72	-0.39913517
26	0xbd88fc94	-0.066888005
27	0x3d2eba00	0.042657852
28	0xbd0030b8	-0.03129646
29	0x3d5376e8	0.05162707
30	0x3da221a0	0.0791657
31	0x3d9be7e2	0.076125875
32	0x3d8c9668	0.06864625
33	0xbda77747	-0.08177047
34	0x3caaf0b0	0.020866722
35	0x3d6bf77c	0.057609066
36	0xbea4b161	-0.3216658
37	0xbf0f6d97	-0.56026596
38	0xbf29d316	-0.66337717
39	0xbe49f50f	-0.19722389
40	0xbeb12802	-0.34600836
41	0xbf11828b	-0.5683982
42	0xbe73a6c4	-0.23794085
43	0xbe89d8b2	-0.26923138
44	0xbe90694e	-0.2820534
45	0x3e323af4	0.17405301
46	0xbd01aa65	-0.03165664
47	0x3cb02189	0.021500366
48	0x3d262cb2	0.04056997
49	0xbd8949e9	-0.0670355
50	0xbe1c2ecd	-0.15252228
51	0x3e2c8e3e	0.16851136
52	0x3daab992	0.08336176
53	0x3d203ca3	0.039120328
54	0x3d3a9648	0.045553476
55	0x3d880be2	0.066428915
56	0x3d752c48	0.059856683
57	0x3cf13f18	0.02944903
58	0xbd81da76	-0.06340496
59	0x3dfd9a14	0.12382904
60	0xbc9917b4	-0.01868806
61	0x3cbc3b48	0.022977486
62	0x3c0b7340	0.008511364
63	0x3cf648f3	0.030064082
64	0x3d967cbe	0.073480114
65	0xbda07cc5	-0.07836298
66	0x3d943ed5	0.07238547
67	0x3d9e7b3c	0.07738349
68	0x3d1e8169	0.038697634
69	0x3dcb1f0b	0.0991803
70	0xbdecd917	-0.11564844
71	0xbd554685	-0.052069206
72	0x3e86cc05	0.2632753
73	0x3e3cfe32	0.18456343
74	0xbd7285f9	-0.059209798
75	0x3e91d784	0.28484738
76	0x3e0c8e66	0.13726196
77	0x3da07fab	0.07836851
78	0x3dd35591	0.10319055
79	0x3e7c61e0	0.24646711
80	0x3d853f42	0.06506206
81	0xbd99d988	-0.07512194
82	0xbd543454	-0.051807716
83	0xbde4a665	-0.1116455
84	0xbc396bf8	-0.011317246
85	0x3db69cf2	0.08916654
86	0x3c99c1c8	0.01876916
87	0xbe098220	-0.13428545
88	0xbe0893f0	-0.13337684
89	0xbd9faea0	-0.07796979
90	0xbf1cd5c7	-0.612637
91	0xbf07635d	-0.5288599
92	0xbf199e87	-0.6000752
93	0xbecaa371	-0.3957782
94	0xbdb2d1b1	-0.08731402
95	0xbe93a0f6	-0.2883374
96	0x3e615826	0.22006282
97	0xbf1e22ef	-0.61772054
98	0xbe89e412	-0.26931816
99	0x3c45d549	0.012074777
100	0xbe5b1201	-0.21393587
101	0xbdd1c0da	-0.10241862
102	0xbd7db95c	-0.06194435
103	0x3c7182ce	0.014740659
104	0xbd2a28cc	-0.041542813
105	0x3cd269cd	0.025685215
106	0x3d8ea557	0.0696513
107	0xbdace787	-0.08442598
108	0xbd033d94	-0.032041147
109	0x3da06dc4	0.07833436
110	0x3d9f4150	0.07776129
111	0xbda48730	-0.080335975
112	0xbde484b3	-0.11158123
113	0x3c3746e0	0.0111863315
114	0x3ddfda3e	0.10930298
115	0xbdd26821	-0.10273767
116	0xbd4eb2d4	-0.050463513
117	0x3d82a13c	0.06378409
118	0x3d09c0a2	0.033630975
119	0x3c797080	0.015224576
120	0x3dc3c83e	0.095596775
121	0x3d8db936	0.06920092
122	0x3ce73008	0.028221145
123	0xbc4738cc	-0.0121595375
124	0xbbfec6c3	-0.007775159
125	0xbba61b9a	-0.0050692083
126	0xbe2cbcf2	-0.16868952
127	0xbe8615da	-0.26188546
128	0xbe84475f	-0.25835702
129	0xbe3639c3	-0.17795472
130	0xbe4e6873	-0.20157032
131	0xbe57c6f6	-0.21071991
132	0xbe611fc9	-0.21984781
133	0xbe66ed03	-0.2255135
134	0xbe9d0152	-0.3066507
135	0x3ca17108	0.019707218
136	0x3e027e62	0.12743524
137	0x3e053c08	0.13011181
138	0x3d88b586	0.06675248
139	0xbdfd10cc	-0.123567194
140	0x3bb64c60	0.005563304
141	0xbd56ad48	-0.052411348
142	0x3de520dc	0.11187908
143	0x3d90e11e	0.07074188
144	0x3e3d8ed3	0.18511514
145	0xbc50ce55	-0.012744506
146	0x3e01482f	0.12625192
147	0x3e29a0b1	0.16565205
148	0x3e1cae0e	0.15300772
149	0x3eafdb09	0.34346798
150	0xbcccafce	-0.024986174
151	0x3e19fdf6	0.15038285
152	0x3e9c5f8b	0.30541644
153	0x3e7e5c02	0.24839786
154	0x3dfc9be1	0.12334419
155	0x3e0069e4	0.12540394
156	0x3e2fa008	0.17150891
157	0x3e3e11f0	0.1856153
158	0x3dad7dc1	0.08471251
159	0x3dd8c0e2	0.105836645
160	0x3bc92510	0.0061384514
161	0x3dd424a3	0.103585504
162	0xbe04bbec	-0.12962312
163	0x3b44d400	0.0030033588
164	0xbd88879e	-0.06666492
165	0xbe01f726	-0.12691936
166	0x3cb078b0	0.021541923
167	0x3dee0650	0.11622298
168	0x3d8b2f46	0.06796126
169	0x3dc7d86e	0.097580776
170	0xbce5fe40	-0.028075337
171	0x3ccae8f5	0.024769286
172	0x3dba8ee1	0.09109283
173	0x3dd1339f	0.10214924
174	0xbd2704ab	-0.040775936
175	0x3d041089	0.03224233
176	0x3d8878d8	0.06663674
177	0xbdae60a2	-0.08514525
178	0xbdfb80e7	-0.122804455
179	0xbd195e85	-0.037443656
180	0x3d4d8668	0.050177008
181	0x3e8720d3	0.2639223
182	0x3db04346	0.086065814
183	0x3eeedea5	0.4665424
184	0x3e692b6e	0.22770473
185	0x3e7877b9	0.2426442
186	0x3ecc1894	0.39862502
187	0x3e8a68b7	0.27033016
188	0x3d6870c9	0.056748185
189	0xbc15f580	-0.00915277
190	0x3e059ea0	0.13048792
191	0x3d5bfb7c	0.05370663
192	0xbc4d1a50	-0.01251848
193	0xbcd58634	-0.02606497
194	0x3e04e70c	0.12978762
195	0xbc5db380	-0.013531566
196	0x3c191610	0.009343639
197	0xbd1855cc	-0.037191197
198	0xbe66a582	-0.22524074
199	0x3bbe5e02	0.0058095464
200	0x3db72c13	0.08943953
201	0xbe9dbc5d	-0.30807772
202	0x3fa0ab50	1.255228
203	0xba6fafe9	-0.0009143339
204	0xbe7fc428	-0.24977171
205	0xbe8a6372	-0.27028996
206	0xbef887aa	-0.48541003
207	0x3bc9a254	0.006153384
208	0x3dfbba01	0.12291337
209	0x3d7e02e6	0.062014483
210	0x3cfca5e7	0.030840827
211	0xbd8b6ce9	-0.06807882
212	0xbd399949	-0.0453122
213	0xbdc8314b	-0.09775027
214	0xbe4232e2	-0.18964723
215	0xbe42aa33	-0.19010238
216	0x3dfce6e8	0.12348729
217	0xbda4fe78	-0.080563486
218	0xbd01d704	-0.031699196
219	0xbd5d3ed6	-0.054015003
220	0xbde98302	-0.11401941
221	0x3d20b46c	0.039234564
222	0xbd9dcf21	-0.07705522
223	0xbccaf13c	-0.024773233
224	0xbc4cf7c0	-0.01251024
225	0xbdb62d51	-0.08895362
226	0xbda40b68	-0.08009988
227	0xbdb51d83	-0.088435195
228	0x3dc4636f	0.09589278
229	0xbd1e9b36	-0.03872224
230	0x3dc2f9a2	0.0952027
231	0xbcee56fd	-0.029094214
232	0x3be53e2b	0.0069959364
233	0x3db044b4	0.08606854
234	0x3cf215eb	0.029551467
235	0x3db47116	0.08810632
236	0x3dd11806	0.1020966
237	0x3e443378	0.19160259
238	0x3dcdc420	0.100471735
239	0x3dad5a05	0.084644355
240	0x3e1eea1c	0.15518993
241	0x3ddf866a	0.10914309
242	0x3dd2a407	0.10285192
243	0x3d9f8cdc	0.07790539
244	0x3d73cb98	0.059520334
245	0xbdfe4be3	-0.12416818
246	0xbd466938	-0.04844019
247	0xbcb167e4	-0.021655984
248	0xbda407cf	-0.08009302
249	0xbd12313e	-0.035691492
250	0x3e070a88	0.13187611
251	0x3dcc37ac	0.09971556
252	0xbee84c13	-0.4537054
253	0xbf14b032	-0.5808135
254	0xbf18f7cd	-0.59753114
255	0xbe81c21c	-0.25343406

bias f4 [6]
0	0xbdffe7fa	-0.12495418
1	0x3d81d3af	0.063392036
2	0xbc0d8efc	-0.008640047
3	0xbcd8f0c2	-0.02648199
4	0xbc9a552a	-0.018839438
5	0xbe1841ab	-0.148688

weight f4 [16, 6, 3, 3]
0	0x3e509580	0.2036953
1	0x3da78f6e	0.08181654
2	0x3dab396e	0.08360563
3	0x3e484b43	0.1955996
4	0xbd9af83a	-0.07566877
5	0x3d443633	0.04790325
6	0x3e47a754	0.19497424
7	0x3d32ee1c	0.04368411
8	0x3db16a56	0.0866286
9	0x3d9bc479	0.076058336
10	0x3c8bd57e	0.017069574
11	0x3d1d9e40	0.038480997
12	0x3de9d395	0.11417309
13	0x3c9ed777	0.019389851
14	0x3de4a35a	0.11163969
15	0x3dfafb9f	0.12255024
16	0x3d86903e	0.06570481
17	0xbdce2eee	-0.10067545
18	0x3d8750cf	0.0660721
19	0x3cd04e9a	0.025428105
20	0xbe0a8f91	-0.13531329
21	0x3daa396f	0.08311736
22	0xbd635c8f	-0.055508193
23	0xbd64af5b	-0.055831295
24	0x3d042986	0.032266162
25	0xbd689361	-0.056781176
26	0xbcf2e7ba	-0.029651511
27	0x3e9fe816	0.31231755
28	0x3d23ccc6	0.03999021
29	0x3e0524b4	0.13002282
30	0xbd192912	-0.037392683
31	0xbcd51a2b	-0.026013454
32	0x3d0fd41d	0.035114396
33	0x3e4b428d	0.19849606
34	0x3d84b1e8	0.064792454
35	0x3d4b8ee3	0.049696814
36	0x3df8d677	0.12150281
37	0x3e0c0d95	0.13677056
38	0xbd532eb5	-0.051558215
39	0x3e2ff50f	0.17183326
40	0x3e04149c	0.12898487
41	0x3d0da8ee	0.034584932
42	0x3df8e43b	0.121529065
43	0xbd1b9c9a	-0.037991144
44	0x3d8fcd2c	0.07021555
45	0x3e2c3c51	0.16819884
46	0x3e07301e	0.13201949
47	0xbd3d5968	-0.046227843
48	0x3de34368	0.11096841
49	0x3d92bf92	0.071654454
50	0x3d26190f	0.04055124
51	0x3eac4724	0.33648026
52	0x3e7bcc6e	0.24589702
53	0x3e0c7b06	0.13718805
54	0x3e2c21f0	0.16809821
55	0xbbbd9742	-0.0057858536
56	0x3e18a45c	0.14906448
57	0xbdc1e501	-0.09467507
58	0xbe225244	-0.15851694
59	0xbe405b8c	-0.18784922
60	0xbc37d598	-0.011220358
61	0xbde619bc	-0.11235377
62	0x3da5d290	0.08096802
63	0x3a94d2e2	0.0011354352
64	0x39f9f142	0.00047672732
65	0xbd9b4aff	-0.07582664
66	0x3c982217	0.018570943
67	0x3e3e348e	0.18574736
68	0xbc6a2273	-0.01429044
69	0xbd9d924b	-0.07693919
70	0xbd666694	-0.05625017
71	0x3daa9e3f	0.08330964
72	0xbdce3705	-0.10069088
73	0x3d23a842	0.039955385
74	0x3d92d046	0.07168631
75	0x3d31da03	0.043420803
76	0xbc95b8fc	-0.018276684
77	0x3d22f1ae	0.039781265
78	0xbe166944	-0.14688593
79	0xbdd822cc	-0.10553512
80	0xbe1951b4	-0.14972574
81	0x3d42fe78	0.04760596
82	0x3dd31592	0.103068486
83	0xbda53825	-0.08067349
84	0x3e080612	0.13283566
85	0xbb5fdf44	-0.0034160176
86	0x3e291eae	0.1651561
87	0x3d520878	0.051277608
88	0x3dea843e	0.114510044
89	0x3d1711b5	0.03688212
90	0x3da7c991	0.081927426
91	0x3da38a4a	0.07985361
92	0x3cda1c7b	0.026624909
93	0x3c0e03a8	0.008667864
94	0x3e43c03f	0.19116305
95	0x3e8683b4	0.26272357
96	0x3d9d770d	0.07688723
97	0x3c86d159	0.016457247
98	0xbcb84126	-0.022492003
99	0x3de73e3e	0.11291169
100	0x3e228bc1	0.15873624
101	0x3d2f6533	0.04282112
102	0x3ebff2d3	0.37489948
103	0x3e64b3e9	0.22334255
104	0x3ea04321	0.31301215
105	0x3dd6162e	0.10453449
106	0x3ed383de	0.41311544
107	0x3de7188c	0.11283979
108	0x3e35fcdd	0.17772241
109	0x3e10630c	0.14100283
110	0xbd89fade	-0.06737302
111	0x3e9285cd	0.28617707
112	0x3e51e427	0.2049719
113	0x3e14c9b7	0.14530073
114	0x3ece3a41	0.4027882
115	0x3e5c1cd9	0.2149538
116	0x3de41abf	0.11137914
117	0xbe89b456	-0.26895398
118	0xbe7c2d18	-0.24626577
119	0xbdc344f5	-0.09534637
120	0xbdb1da63	-0.08684232
121	0xbe5172b9	-0.2045392
122	0xbd167d83	-0.03674079
123	0x3dac4e97	0.08413427
124	0x3df70d92	0.12063135
125	0x3cd824c9	0.026384728
126	0x3e00645c	0.12538284
127	0x3e2cb066	0.16864166
128	0x3e2de9b6	0.16983685
129	0x3d566685	0.052343864
130	0x3d68fce7	0.05688181
131	0x3e368d1f	0.17827271
132	0xbcf3ec14	-0.029775657
133	0xbdd5e05b	-0.10443183
134	0x3cd230ad	0.025657976
135	0x3cc5a9ec	0.024128877
136	0xbdc35c5c	-0.095391005
137	0x3d924c9f	0.071435206
138	0xbe0ec3f7	-0.13941942
139	0xbe190992	-0.14945057
140	0x3e0bc42c	0.13649052
141	0xbe0e906d	-0.13922282
142	0xbd8b65de	-0.06806539
143	0xbdba6aa1	-0.09102369
144	0xbe831499	-0.25601652
145	0xbe3f2c3b	-0.18669216
146	0xbd1fc484	-0.03900577
147	0xbdd3d59f	-0.10343479
148	0x3cc79721	0.024364056
149	0x3c9614c2	0.018320445
150	0xbe3ed577	-0.18636118
151	0xbdc733d1	-0.0972668
152	0xbe3f4a21	-0.18680622
153	0xbe186c11	-0.14884974
154	0x3ddc36eb	0.10752662
155	0xbd92af0b	-0.07162293
156	0xbe1f15fb	-0.15535729
157	0x3de692ba	0.112584546
158	0xbe111411	-0.14167811
159	0xbd0acd19	-0.033887003
160	0x3df58a8f	0.119893186
161	0xbd6b4a38	-0.057443827
162	0xbd1bfa27	-0.03808036
163	0xbd276509	-0.04086784
164	0x3e02125f	0.1270232
165	0x3b29f230	0.0025931709
166	0x3af4a06d	0.0018663533
167	0x3b20052a	0.002441714
168	0xbd361d58	-0.044461578
169	0x3d521ab6	0.051295005
170	0x3dde4e32	0.10854758
171	0xbdc65c5f	-0.09685587
172	0xbda80ea2	-0.08205916
173	0x3d7f5e7d	0.06234597
174	0x3b3770a8	0.0027990732
175	0xbd39b201	-0.045335773
176	0x3ca57af4	0.02020023
177	0x3e5c19e5	0.21494253
178	0x3c75adce	0.014995052
179	0x3e1e11c6	0.15436468
180	0x3dc18b83	0.09450438
181	0xbdc4c8aa	-0.09608586
182	0x3db262e3	0.087102674
183	0xbdd3b418	-0.103370845
184	0x3dbfea15	0.093708195
185	0xbda2e366	-0.07953529
186	0xbc553eea	-0.013015488
187	0xbdf4a81b	-0.11946126
188	0xbd542bc9	-0.05179957
189	0x3df983ca	0.1218334
190	0xbd849bd8	-0.06475037
191	0x3dff0a0f	0.124530904
192	0xbbb9e886	-0.005673471
193	0x3cf03e78	0.029326662
194	0xbe520e4e	-0.2051327
195	0x3e801a49	0.25020054
196	0x3e096f9d	0.13421483
197	0x3e09717a	0.13422194
198	0xbdda3be1	-0.10655952
199	0x3e370027	0.17871152
200	0x3e2badd6	0.16765532
201	0x3e04557c	0.12923235
202	0xbb64ff99	-0.0034942387
203	0x3ddde667	0.108349614
204	0x3e1268de	0.14297816
205	0x3db23146	0.087008044
206	0x3cdf5281	0.02726102
207	0x3d54fd71	0.051999513
208	0x3e8a118d	0.26966515
209	0x3e2811ed	0.16413088
210	0x3e15597e	0.1458492
211	0x3db1d57d	0.08683298
212	0x3e5f2ffd	0.2179565
213	0x3e98bb10	0.29830217
214	0x3ec90956	0.39264935
215	0x3e8ef7f6	0.27923554
216	0x3e23f5d9	0.16011752
217	0x3debcf73	0.11514177
218	0xbdb2a44d	-0.08722744
219	0xbe02a1b0	-0.12756991
220	0xbdcab324	-0.098974496
221	0xbd88ef80	-0.06686306
222	0x3d8c54f5	0.06852142
223	0x3d18bbcc	0.037288472
224	0x3c918df5	0.017767886
225	0xbd9d6f8c	-0.076872915
226	0xbe256275	-0.1615084
227	0xbe04f0b1	-0.12982441
228	0x3dc79b73	0.097464465
229	0x3e00fb05	0.12595756
230	0x3d8af7e3	0.06785562
231	0x3dda52e1	0.10660339
232	0xbc193f49	-0.009353467
233	0xbdb3eef2	-0.087858096
234	0xbd845ce7	-0.06463032
235	0xbcfe6400	-0.031053543
236	0x3da6d1b6	0.08145468
237	0xbe2aa2cb	-0.16663663
238	0x3d9a1e5c	0.07525322
239	0x3e09360d	0.13399525
240	0xbde3b7d6	-0.11119048
241	0x3a734a40	0.00092807785
242	0x3d297746	0.041373514
243	0x3d1647a8	0.03668943
244	0xbd04383a	-0.032280184
245	0xbd50506b	-0.050857943
246	0x3d751bc2	0.059840925
247	0x3e0c4a10	0.13700128
248	0xbd86de4c	-0.065853685
249	0x3de48e5c	0.111599654
250	0xbde6926c	-0.112583965
251	0xbdbb1e62	-0.091366544
252	0x3e196759	0.1498083
253	0x3c373d62	0.011184068
254	0xbda28ba4	-0.079367906
255	0xbd68c7c4	-0.056831136

bias f4 [16]
0	0xbdae52d9	-0.08511896
1	0xbd6553a1	-0.055987958
2	0x3dd3e71b	0.10346814
3	0xbde40166	-0.11133079
4	0xbe0a3587	-0.13496982
5	0xbd97cb27	-0.07411795
6	0x3d2418cd	0.040062714
7	0x3d51f3a6	0.051257752
8	0xbca336a3	-0.019923514
9	0xbc9538ae	-0.018215504
10	0x3e441880	0.19149971
11	0x3cd57fe6	0.026061963
12	0xbe32913c	-0.17438215
13	0x3dfd0ee0	0.12356353
14	0x3e3200c5	0.17383106
15	0xbd9c4361	-0.07630039

weight f4 [32, 16, 3, 3]
0	0xbca4b9f8	-0.020108208
1	0x3d2a1e8b	0.041533034
2	0x3d476b84	0.04868652
3	0xbe0206e1	-0.12697937
4	0xbdd118ab	-0.10209783
5	0x3d9fe677	0.078076296
6	0xbda63df7	-0.081172876
7	0x3d9d4eb8	0.0768103
8	0x3c7be3eb	0.015374164
9	0x3db50bee	0.08840166
10	0xbd6851c6	-0.05671861
11	0x3db64442	0.08899738
12	0xbd7e121a	-0.06202898
13	0xbb9903ae	-0.004669628
14	0xbdbb5869	-0.09147722
15	0x3bbdce61	0.0057924245
16	0x3bd0bb00	0.0063699484
17	0x3dcb28c0	0.09919882
18	0xbe8315f1	-0.25602677
19	0xbdedc7af	-0.11610352
20	0xbe15a896	-0.14615092
21	0xbe89b783	-0.2689782
22	0xbd3bb197	-0.04582366
23	0xbdc40826	-0.09571867
24	0xbd1f466f	-0.03888553
25	0x3de63697	0.11240881
26	0x3d81e565	0.06342582
27	0x3d936c4c	0.0719839
28	0x3d9811e9	0.07425291
29	0x3d77991b	0.060448747
30	0x3d91fc52	0.071282044
31	0x3d6a9eef	0.057280477
32	0x3b45c1aa	0.0030175247
33	0x3c94c810	0.018161803
34	0x3af5e13d	0.0018759143
35	0x3c4458e0	0.01198408
36	0x3da6ac66	0.08138351
37	0x3d7d7893	0.061882567
38	0x3dee53f7	0.11637109
39	0x3e2e2077	0.17004572
40	0x3d9d18ae	0.07670723
41	0x3c47f8c3	0.0122053055
42	0x3e2ce615	0.16884644
43	0x3e15a12a	0.1461226
44	0x3e2ad399	0.1668228
45	0x3da3bdae	0.07995163
46	0x3e01356b	0.12618034
47	0x3d295aba	0.04134629
48	0xbb54a80b	-0.0032448794
49	0xbd3bd67d	-0.04585885
50	0x3db6eebc	0.08932254
51	0x3cb0fbb5	0.021604398
52	0x3d813596	0.06309049
53	0x3d685b44	0.056727663
54	0xbc49d9dc	-0.012320008
55	0x3ba16c4f	0.0049262415
56	0xbbd90896	-0.006623338
57	0xbd70179a	-0.05861626
58	0xbd8e2d7d	-0.0694227
59	0x3d30155e	0.042989127
60	0xbd5d0eb4	-0.0539691
61	0xbd95f3a3	-0.07321861
62	0x3d324fcd	0.043533135
63	0xbcabac80	-0.020956278
64	0x3c251b6d	0.01007734
65	0xbb9b61c5	-0.0047418796
66	0x3c31896b	0.010835986
67	0x3bb86bdb	0.0056280917
68	0x3db31d82	0.087458625
69	0x3da48c69	0.080345936
70	0x3cbf8d6f	0.02338287
71	0x3de138bb	0.109971486
72	0xbd5fd910	-0.054650366
73	0x3d489cfc	0.048977837
74	0x3d385c48	0.04500988
75	0xbd0e520e	-0.034746222
76	0x3db8be7c	0.09020707
77	0x3cc55fad	0.024093473
78	0x3d0df18c	0.034654185
79	0x3d754837	0.059883323
80	0xbd10ce01	-0.03535271
81	0xbda7ad34	-0.08187333
82	0xbd89845b	-0.06714698
83	0xb9b63241	-0.00034751187
84	0x3d9cdbd9	0.0765912
85	0xbd8168b2	-0.06318797
86	0xbd335089	-0.043777976
87	0x3ba3540a	0.0049843835
88	0xbd98909b	-0.07449456
89	0xbba28be6	-0.004960525
90	0xbb82b2c5	-0.003988596
91	0x3cf99cf5	0.03047035
92	0x3cf177d5	0.029476086
93	0x3cbcecbe	0.023062106
94	0xbdbcbae3	-0.09215333
95	0x3d8597f3	0.06523123
96	0x3d25b556	0.04045614
97	0x3d09a120	0.033600926
98	0xbd1a18fa	-0.037621476
99	0x3d8d805f	0.069092505
100	0x3da106da	0.07862635
101	0x3b060ada	0.0020453245
102	0x3d1ce181	0.038300995
103	0x3d78f3bd	0.060779322
104	0x3ba81b2c	0.0051301923
105	0x3c835a01	0.016034128
106	0x3d22d494	0.03975351
107	0x3de117a4	0.10990837
108	0xbddd5ee7	-0.10809117
109	0xbcc794bb	-0.024362912
110	0xbd854a3a	-0.06508298
111	0x3d86990c	0.0657216
112	0xbbc2a554	-0.005940119
113	0x3cc079a6	0.023495506
114	0x3d81918d	0.0632659
115	0xbc694fca	-0.014240215
116	0x3d896414	0.067085415
117	0x3e1a750d	0.15083714
118	0x3dd30b83	0.1030493
119	0x3e0e1cc7	0.13878165
120	0xbd372310	-0.044711173
121	0x3d9171ce	0.07101785
122	0xbd1456f6	-0.036215745
123	0x3ddb8e7c	0.10720536
124	0x3d03baa7	0.032160427
125	0x3d3042e8	0.043032557
126	0xbd0aa747	-0.033850934
127	0xbd684ce1	-0.056713942
128	0xbd8bbea9	-0.06823475
129	0x3c5ca0c1	0.013466061
130	0xbd6791cd	-0.05653553
131	0xbd82835e	-0.063727126
132	0xbd9d7209	-0.07687766
133	0x3d24bc4a	0.04021863
134	0xbca8ec97	-0.020620627
135	0x3baa81de	0.0052034697
136	0xbad607ac	-0.0016329191
137	0x3d74d9e1	0.059778098
138	0x3d83d1ad	0.06436477
139	0xbcaaa445	-0.020830283
140	0xbc31f3b8	-0.01086133
141	0x3e0e600e	0.1390383
142	0x3e01c17e	0.12671468
143	0x3c8d6e0d	0.01726439
144	0x3e073ac9	0.13206019
145	0x3cf525c5	0.029925236
146	0x3bf8c851	0.007592239
147	0x3de14042	0.10998584
148	0x3dff0561	0.12452198
149	0x3da11c58	0.07866734
150	0x3dc8e5e9	0.09809477
151	0x3cdaf34b	0.02672734
152	0xbcedcddb	-0.029028824
153	0x3dbe2dde	0.09286092
154	0x3e54aa34	0.20768052
155	0x3e30e031	0.17273022
156	0x3dc3df45	0.0956407
157	0x3d5af392	0.053454943
158	0x3e00bf4f	0.12572978
159	0x3e00a17a	0.12561598
160	0x3de557a6	0.11198358
161	0x3d4ca5ab	0.04996268
162	0x3d25f371	0.040515367
163	0x3db692c4	0.08914712
164	0x3cd27a23	0.025693005
165	0xbcb0cc1b	-0.0215817
166	0xbd85a8e1	-0.06526352
167	0xbe103e2a	-0.14086214
168	0xbdef4ae8	-0.11684209
169	0xbe1462f7	-0.14490877
170	0xbdbfc475	-0.09363643
171	0x3e223ed3	0.15844278
172	0x3e829092	0.25500923
173	0x3e0c7348	0.13715851
174	0x3e6f4492	0.23366001
175	0x3e88fbed	0.26754704
176	0x3e252bd1	0.16129996
177	0x3e6ac1ab	0.22925441
178	0x3de3cf93	0.11123576
179	0x3e5ad070	0.21368575
180	0x3e305f4f	0.17223857
181	0x3d580f50	0.05274898
182	0x3e2bba6f	0.16770338
183	0x3dc4df07	0.096128516
184	0x3df4654f	0.119333856
185	0x3e6a829a	0.22901383
186	0x3e11477e	0.14187428
187	0x3e1be118	0.15222585
188	0x3dcacdb7	0.09902518
189	0xbd904959	-0.0704524
190	0xbd57de34	-0.052702144
191	0x3e082aa0	0.1329751
192	0x3be55b1b	0.006999386
193	0xbd797064	-0.0608982
194	0x3dfc56de	0.12321256
195	0x3d5d79d8	0.054071277
196	0x3c145f7d	0.009055969
197	0x3e15f0ce	0.14642641
198	0xbddc67bc	-0.10761973
199	0x3d867b09	0.06566436
200	0x3d974d82	0.0738783
201	0x3d52a862	0.051430114
202	0xbc48ca7a	-0.012255305
203	0x3dc8f932	0.09813155
204	0xbdcce25c	-0.10004112
205	0xbd593dac	-0.05303733
206	0x398bc383	0.00026657814
207	0xbcbd23b0	-0.023088306
208	0xbdbfa058	-0.09356755
209	0xbd1043a4	-0.035220757
210	0xbe00c648	-0.12575638
211	0xbd199dd5	-0.037504036
212	0xbde7104d	-0.11282406
213	0xbdca5fbf	-0.09881543
214	0xbd98640f	-0.0744096
215	0xbd737006	-0.059433006
216	0xbd9dd856	-0.077072784
217	0x3bb2c4c9	0.0054555875
218	0x3c5c8681	0.013459803
219	0x3cf0855a	0.029360462
220	0x3d9f1b2e	0.07768856
221	0x3b8c5df3	0.0042836606
222	0x3bd77139	0.0065747765
223	0xbd66c689	-0.05634168
224	0xbd68586b	-0.056724947
225	0x3de63595	0.11240689
226	0x3c4b7783	0.0124186305
227	0x3d7441b9	0.05963299
228	0xbc56e4f0	-0.013116106
229	0x3ca24c4a	0.019811768
230	0x3da8418a	0.082156256
231	0xbd436828	-0.047706753
232	0xbd74c662	-0.059759505
233	0x3cae24e2	0.021257821
234	0xbbc5e7a4	-0.0060395766
235	0x3d368bfe	0.0445671
236	0xbcc62df4	-0.024191834
237	0xbd5c43bf	-0.053775545
238	0xbb2d37f3	-0.0026431053
239	0x3c9a39e8	0.01882644
240	0x3d34f658	0.044180244
241	0x3da9877f	0.08277797
242	0x3d85c820	0.065323114
243	0xbd920dc6	-0.07131533
244	0xbe0d1f4b	-0.13781469
245	0xbda13167	-0.07870751
246	0xbd96a789	-0.073561735
247	0xbc9380ff	-0.018005846
248	0xba7f90ea	-0.0009749072
249	0xbe034d5c	-0.12822479
250	0xbd16b030	-0.03678912
251	0x3c593b36	0.013258746
252	0x3e77dcf2	0.24205378
253	0x3e109624	0.14119774
254	0x3e270f35	0.16314395
255	0x3ea1bde6	0.31590194

bias f4 [32]
0	0xbacbb79c	-0.0015542391
1	0x3cdcda3f	0.026959537
2	0xbdd370ae	-0.10324226
3	0x3bb75c31	0.005595707
4	0xbcad3821	-0.021144928
5	0xbdc42a87	-0.09578424
6	0x3d7b86dd	0.061407913
7	0xbe0b156d	-0.13582392
8	0xbde6eebd	-0.112760045
9	0x3b9b5da9	0.00474139
10	0xbe0d8df5	-0.13823684
11	0xbc3ec178	-0.011642806
12	0xbd4a3878	-0.04937026
13	0xbc9630e2	-0.018333856
14	0xbdb49ed9	-0.0881936
15	0xbdd67ae3	-0.104726575
16	0xbcaa539e	-0.020791825
17	0xbdf885f8	-0.121349275
18	0xbe00852f	-0.12550806
19	0xbdf1ef35	-0.11813203
20	0xbdb9f089	-0.090790816
21	0x3cf20dde	0.029547628
22	0xbd9ab999	-0.07554931
23	0x3da83b8d	0.082144834
24	0xbd76d3ba	-0.060260512
25	0xbd8866e8	-0.06660253
26	0xbd656edc	-0.056013927
27	0xbe08f97d	-0.13376422
28	0xbd6ece19	-0.05830202
29	0xbd41c61c	-0.047308072
30	0xbc8f1968	-0.01746817
31	0xbd8ab5e8	-0.06772977

weight f4 [5, 16928]
0	0xbd54900c	-0.051895186
1	0xbdbc2ee2	-0.0918863
2	0xbd04e045	-0.032440443
3	0xbcfc615e	-0.030808147
4	0xbb6ea718	-0.0036415514
5	0xbcc86b0e	-0.02446511
6	0xbcd57e55	-0.026061216
7	0xbc7cd14c	-0.01543076
8	0xbd4653ee	-0.048419885
9	0xbdcc9ee0	-0.099912405
10	0xbdd542f2	-0.104131594
11	0xbd4c4120	-0.049866796
12	0x3d31d8db	0.0434197
13	0x3b9cbc15	0.0047831633
14	0x3d4fa502	0.050694473
15	0x3c8aca65	0.016942212
16	0x3c0f5357	0.008747897
17	0x3d88da62	0.06682278
18	0x3daa43d4	0.083137184
19	0x3d2e045f	0.042484637
20	0x3c599583	0.013280275
21	0xbd0c6309	-0.034274135
22	0x3d4e503c	0.050369486
23	0xbd2a64a8	-0.0415999
24	0xbd77a354	-0.060458496
25	0xbd32b607	-0.043630626
26	0xbc92c364	-0.017915435
27	0xbccdb7ee	-0.025112119
28	0xbd0732c2	-0.03300739
29	0xbc8e2b3c	-0.0173546
30	0xbc62dda1	-0.013846786
31	0xbd072de2	-0.03300274
32	0xbd367a66	-0.044550322
33	0xbd2a7cef	-0.041623052
34	0xbc217731	-0.009855078
35	0x3cc3ab50	0.0238854
36	0x3d1bb7de	0.038017146
37	0x3c7cab4f	0.0154217025
38	0x3cf420b1	0.029800745
39	0x3ccf66f0	0.02531764
40	0x3d9d86a0	0.07691693
41	0x3d6710e1	0.05641258
42	0x3d0a9582	0.033833988
43	0x3c52451e	0.012833862
44	0x3bc495b7	0.0059992927
45	0x3d82f788	0.06394869
46	0xbc8bae3d	-0.017050857
47	0xbd45319b	-0.04814301
48	0xbd2829d2	-0.041055508
49	0xbca70c23	-0.02039153
50	0x3afb776a	0.0019185368
51	0xbd4b0133	-0.04956169
52	0xbd4d5d27	-0.050137665
53	0x3c48c391	0.012253658
54	0xbd6df1ff	-0.058092114
55	0xbd2cd49c	-0.042194948
56	0xbcf56660	-0.029956043
57	0x3cb2c8c4	0.021824248
58	0x3d1af819	0.03783426
59	0x3d649d80	0.055814266
60	0x3d340449	0.0439494
61	0x3d1516a9	0.036398564
62	0x3b6872b9	0.003546877
63	0x3ca0cd98	0.019629285
64	0x3b25b7d8	0.0025286581
65	0x3bf54f9a	0.007486296
66	0xbb39c7d1	-0.002834786
67	0x3beef012	0.007291802
68	0x3d820ea7	0.06350451
69	0xbd4715c8	-0.048604757
70	0xbdb44a03	-0.08803179
71	0xbcfd905f	-0.03095263
72	0xbcc1faa5	-0.023679087
73	0x3c64c7a5	0.013963615
74	0xbd659ccc	-0.056057736
75	0xbcace71b	-0.021106293
76	0x3cf9c66e	0.030490126
77	0x3c943cf7	0.018095477
78	0x3d1e4460	0.038639426
79	0x3cbb0618	0.022830054
80	0x3db554c8	0.08854061
81	0x3d7a3580	0.061086178
82	0x3d4796cc	0.048727795
83	0x3a28bd0d	0.0006436862
84	0x3cd4c992	0.025975022
85	0x3b5c2d54	0.0033596354
86	0x3d43d5f1	0.047811452
87	0x3c942299	0.018082904
88	0x3c3728c6	0.011179155
89	0x3c8b4a7e	0.017003294
90	0x3d05b6da	0.032645084
91	0x3d3962e2	0.045260318
92	0xbd7cdd37	-0.061734404
93	0xbc743237	-0.01490455
94	0xbc344e29	-0.011004963
95	0xbcb1fbd2	-0.021726523
96	0x3c151708	0.009099729
97	0x3b242871	0.002504852
98	0x3d48a40a	0.048984565
99	0x3dc2c5b4	0.09510365
100	0x3d686923	0.05674089
101	0x3dbf2311	0.0933286
102	0x3cf75571	0.030192109
103	0x3cccd957	0.02500598
104	0x3ce914ca	0.028452296
105	0x3d97a575	0.07404605
106	0x3d112817	0.035438623
107	0x3d14c142	0.036317118
108	0x3d63f670	0.055654943
109	0x3d9ff7df	0.078109495
110	0x3dbdb996	0.09263913
111	0x3ca96b03	0.02068091
112	0x3ce11e3f	0.027480243
113	0x3c41e5d4	0.01183458
114	0xbaff05f4	-0.001945673
115	0xbcb2ce16	-0.021826785
116	0x3d24369a	0.040091135
117	0x3ccbf4fe	0.024897095
118	0x3d64d9ec	0.05587189
119	0x3d83f4a3	0.06443145
120	0xbcb50c49	-0.022100585
121	0x3d93fba0	0.07225728
122	0x3d72bf0e	0.059264235
123	0x3e02e77f	0.12783621
124	0x3e16a456	0.14711127
125	0x3dbdcbfc	0.092674226
126	0x3d9edfe8	0.077575505
127	0x3d85ce7b	0.06533524
128	0x3dabfcc3	0.0839782
129	0x3d99f0c5	0.07516626
130	0x3d91b32d	0.07114253
131	0x3e1c44f0	0.15260673
132	0x3e1d723b	0.15375607
133	0x3de608c7	0.11232143
134	0x3d0e6b11	0.034770075
135	0x3d239c30	0.039943874
136	0x3c84cf4c	0.016212128
137	0x3d0a14b4	0.03371115
138	0x3cfd1a2f	0.030896274
139	0x3db26c75	0.08712093
140	0x3cc7f338	0.024407968
141	0x3d8f68b7	0.07002395
142	0x3cdf6311	0.027268918
143	0xbb5f22a0	-0.0034047738
144	0xbc0e989d	-0.008703378
145	0x3ca45224	0.020058699
146	0x3cffff48	0.031249657
147	0x3d8178b1	0.06321848
148	0x3d8042c3	0.06262734
149	0x3dac21d4	0.0840489
150	0x3d73565a	0.059408523
151	0x3de72a75	0.11287395
152	0x3dc866f4	0.09785262
153	0x3ddaba3f	0.10680055
154	0x3e15123d	0.14557739
155	0x3e0852cf	0.13312839
156	0x3de2d4f9	0.110757776
157	0x3dba28a2	0.09089781
158	0xbc3400b1	-0.010986493
159	0x3ca9153e	0.020640012
160	0x3c848658	0.016177341
161	0x3d08d458	0.03340563
162	0x3d9f5da0	0.077815294
163	0xbc9e5023	-0.019325322
164	0x3cdee770	0.027209967
165	0xbb405ede	-0.002935342
166	0xbcd82206	-0.026383411
167	0x3d05e294	0.032686785
168	0xbb07d70a	-0.0020727539
169	0x3dbc7b12	0.09203161
170	0x3d7e4163	0.062074076
171	0x3ce1528c	0.027505182
172	0x3d776c32	0.060405917
173	0x3db9babd	0.090688206
174	0x3de4cc84	0.11171821
175	0x3e01d16b	0.12677543
176	0x3cf50985	0.029911766
177	0x3d78f462	0.060779937
178	0x3e0d621e	0.1380696
179	0x3db658c8	0.089036524
180	0x3d9f7ccd	0.07787476
181	0x3c677973	0.014128077
182	0x3d216d91	0.03941113
183	0x3da09fe7	0.07842999
184	0x3d03df63	0.03219546
185	0x3c223dea	0.009902457
186	0xbcb633ac	-0.022241436
187	0xbc34c1a6	-0.0110324975
188	0x3ce3c32a	0.027803022
189	0x3c61f1ef	0.013790592
190	0x3d793e51	0.060850445
191	0x3d858ec3	0.0652137
192	0x3cd85507	0.026407732
193	0x3db781f7	0.08960336
194	0x3da12538	0.07868427
195	0x3d8a448c	0.067513555
196	0x3d842a49	0.06453378
197	0x3dd4d0aa	0.10391362
198	0x3d56552f	0.05232733
199	0x3d487ed4	0.048949078
200	0x3d3bb7cd	0.045829583
201	0x3dca1a4d	0.09868298
202	0x3dcc31b8	0.099704206
203	0x3dd11d47	0.10210662
204	0x3d2d0dd4	0.042249516
205	0x3d45add4	0.04826148
206	0x3d4a7f45	0.04943778
207	0xbd0c583d	-0.034263838
208	0xbca3ab4d	-0.019979144
209	0x3c7394bc	0.014867004
210	0x3d6a9d2c	0.057278797
211	0x3da4088e	0.08009444
212	0x3d21fb9b	0.03954659
213	0x3d0fadfa	0.035078026
214	0x3c837dca	0.016051192
215	0x3c5e6ee9	0.013576248
216	0x3d2e7ca6	0.042599343
217	0x3d039c53	0.032131504
218	0x3da4ecb5	0.08052961
219	0x3dbc2c1c	0.09188101
220	0x3dbbd623	0.09171703
221	0x3d8e15ad	0.06937728
222	0x3e05609b	0.13025133
223	0x3df6f5fa	0.12058635
224	0x3df54921	0.11976839
225	0x3daaa5f5	0.08332435
226	0x3daee5a4	0.08539894
227	0x3daa93fe	0.083290085
228	0x3dab5fcf	0.083678834
229	0x3ddbb610	0.10728085
230	0xbbb0562b	-0.005381366
231	0x3cfd77e7	0.030940963
232	0x3cc37b53	0.023862517
233	0x3db0df3d	0.08636329
234	0x3dbefc55	0.09325472
235	0x3c98e162	0.018662158
236	0xbb21aafd	-0.0024668567
237	0xbcfc50f1	-0.030800315
238	0xbbc7d465	-0.0060983174
239	0x3d0e6c14	0.03477104
240	0x3d85022c	0.06494555
241	0x3d677bce	0.056514554
242	0x3da945e0	0.08265281
243	0x3d63dc32	0.055629916
244	0x3d85dd90	0.065364
245	0x3e0c44fb	0.13698189
246	0x3dc9790e	0.098375425
247	0x3dc71a2a	0.09721787
248	0x3dc42b98	0.09578627
249	0x3dccf7b3	0.100081824
250	0x3db369f1	0.08760441
251	0x3ddc04b2	0.10743083
252	0x3d99360a	0.0748101
253	0xbbc9c4fc	-0.0061575156
254	0x3d5b999e	0.053613298
255	0x3c337fd8	0.010955773

bias f4 [5]
0	0xbda162c2	-0.07880165
1	0xbd4b3fd5	-0.04962142
2	0xbd1f253e	-0.038853876
3	0xbd554bae	-0.052074127
4	0xbd3c3b4e	-0.045954995
