archived_data/her_b1_r0_m20_s150--2019-03-03--164700.841079/episode_16500.model (torch_old, 375800 bytes, 8 tensors)

weight f4 [6, 6, 3, 3]
0	0x3db280ca	0.08715971
1	0x3df3b52c	0.1189979
2	0x3d28a964	0.04117717
3	0x3e0ab560	0.13545752
4	0x3c849110	0.016182452
5	0x3db49216	0.08816926
6	0x3d6b60fc	0.05746554
7	0x3e04dc68	0.12974703
8	0x3dc6b364	0.09702185
9	0xbd8df299	-0.069310375
10	0x3cdd1e90	0.026992112
11	0x3dc0736d	0.09397016
12	0xbdc52bae	-0.09627472
13	0xbc9318d9	-0.017956184
14	0xbd99b1db	-0.07504626
15	0xbd0e672b	-0.034766357
16	0x3d5eab04	0.054362312
17	0x3d3218c4	0.04348065
18	0xbe91f115	-0.28504243
19	0xbea72687	-0.32646582
20	0xbe9d8f39	-0.30773333
21	0xbeb0b74a	-0.34514838
22	0xbf280c99	-0.6564422
23	0xbf168983	-0.58803576
24	0xbdcc8dd2	-0.099879876
25	0xbedad7a6	-0.42742652
26	0xbe43f7fa	-0.19137564
27	0x3d2eba00	0.042657852
28	0xbd0030b8	-0.03129646
29	0x3d5376e8	0.05162707
30	0x3da221a0	0.0791657
31	0x3d9be7e2	0.076125875
32	0x3d8c9668	0.06864625
33	0xbda77747	-0.08177047
34	0x3caaf0b0	0.020866722
35	0x3d6bf77c	0.057609066
36	0xbeabbef9	-0.33544138
37	0xbf158d63	-0.58418864
38	0xbf385d4b	-0.72017354
39	0xbe50b185	-0.20380218
40	0xbea9f1dc	-0.33192337
41	0xbf152c16	-0.58270395
42	0xbe710619	-0.23537482
43	0xbe32ca8c	-0.17460078
44	0xbea71050	-0.32629633
45	0x3e5810eb	0.21100204
46	0xbc944575	-0.018099526
47	0x3d1bb778	0.038016766
48	0x3d81ae46	0.06332068
49	0xbd862682	-0.065503135
50	0xbe0ffd34	-0.14061433
51	0x3e2a6de8	0.16643488
52	0x3d8dbbe3	0.06920602
53	0x3d10d16e	0.035355978
54	0x3d3a9648	0.045553476
55	0x3d880be2	0.066428915
56	0x3d752c48	0.059856683
57	0x3cf13f18	0.02944903
58	0xbd81da76	-0.06340496
59	0x3dfd9a14	0.12382904
60	0xbc9917b4	-0.01868806
61	0x3cbc3b48	0.022977486
62	0x3c0b7340	0.008511364
63	0x3cdef06b	0.02721425
64	0x3da28803	0.079360984
65	0xbd97013d	-0.07373283
66	0x3d8d3fb5	0.06896917
67	0x3d9ac6cb	0.07557448
68	0x3d22e92b	0.039773148
69	0x3dc947b0	0.098281264
70	0xbde964e2	-0.11396195
71	0xbd4ed832	-0.05049915
72	0x3e98eb10	0.29866838
73	0x3e3c1e8d	0.18371029
74	0xbd146b7e	-0.036235325
75	0x3e91411b	0.28369984
76	0x3e1e7820	0.15475512
77	0x3dcd7cb9	0.100335546
78	0x3e0da186	0.13831148
79	0x3e8e6cfd	0.27817526
80	0x3daa928c	0.08328733
81	0xbd99d988	-0.07512194
82	0xbd543454	-0.051807716
83	0xbde4a665	-0.1116455
84	0xbc396bf8	-0.011317246
85	0x3db69cf2	0.08916654
86	0x3c99c1c8	0.01876916
87	0xbe098220	-0.13428545
88	0xbe0893f0	-0.13337684
89	0xbd9faea0	-0.07796979
90	0xbf1d423e	-0.614292
91	0xbf02ab86	-0.51042974
92	0xbf1b7a79	-0.60733753
93	0xbebf39e1	-0.37348846
94	0xbe149f66	-0.1451393
95	0xbe97246f	-0.29519984
96	0x3e5e57e3	0.21713214
97	0xbf2a041c	-0.6641252
98	0xbeaf711e	-0.3426599
99	0xbcb71836	-0.022350412
100	0xbe7ffdb9	-0.24999131
101	0xbde6c08e	-0.11267196
102	0xbd64ac90	-0.05582863
103	0x3c855562	0.016276065
104	0xbcd16743	-0.025561934
105	0x3d26a3ab	0.04068343
106	0x3da98282	0.082768455
107	0xbd82112b	-0.06350931
108	0xbd033d94	-0.032041147
109	0x3da06dc4	0.07833436
110	0x3d9f4150	0.07776129
111	0xbda48730	-0.080335975
112	0xbde484b3	-0.11158123
113	0x3c3746e0	0.0111863315
114	0x3ddfda3e	0.10930298
115	0xbdd26821	-0.10273767
116	0xbd4eb2d4	-0.050463513
117	0x3d1244cc	0.03571014
118	0x3c95ebc4	0.018300898
119	0x3b4225e4	0.0029624635
120	0x3d88d016	0.06680314
121	0x3d60d601	0.05489159
122	0x3c9b88c5	0.018986115
123	0xbd305df6	-0.043058358
124	0xbcb590fd	-0.022163862
125	0xbc5ab9b4	-0.013349939
126	0xbe23473c	-0.15945143
127	0xbe7db7e1	-0.24777175
128	0xbe8d14a4	-0.2755481
129	0xbe650c31	-0.22367932
130	0xbe5da3d9	-0.21644534
131	0xbe58f5fe	-0.21187589
132	0xbe5a6dcf	-0.21330951
133	0xbe7f76d2	-0.2494767
134	0xbeaf50be	-0.3424129
135	0x3ca17108	0.019707218
136	0x3e027e62	0.12743524
137	0x3e053c08	0.13011181
138	0x3d88b586	0.06675248
139	0xbdfd10cc	-0.123567194
140	0x3bb64c60	0.005563304
141	0xbd56ad48	-0.052411348
142	0x3de520dc	0.11187908
143	0x3d90e11e	0.07074188
144	0x3e5fddd9	0.21861972
145	0x39125f24	0.00013959088
146	0x3ddab2a9	0.10678608
147	0x3e593db0	0.21214938
148	0x3e42ef1a	0.19036523
149	0x3ec359ff	0.381546
150	0xbc4d92e3	-0.012547228
151	0x3e284fa7	0.16436635
152	0x3ebb1daf	0.36546084
153	0x3e7c0784	0.24612242
154	0x3df2eeb8	0.11861938
155	0x3df10145	0.1176782
156	0x3e3887d4	0.18020564
157	0x3e4620d5	0.19348462
158	0x3dc8fcc2	0.09813835
159	0x3dc8e47e	0.098092064
160	0xb994808e	-0.0002832454
161	0x3dcd147e	0.10013674
162	0xbe04bbec	-0.12962312
163	0x3b44d400	0.0030033588
164	0xbd88879e	-0.06666492
165	0xbe01f726	-0.12691936
166	0x3cb078b0	0.021541923
167	0x3dee0650	0.11622298
168	0x3d8b2f46	0.06796126
169	0x3dc7d86e	0.097580776
170	0xbce5fe40	-0.028075337
171	0x3c88f129	0.016716557
172	0x3dc79198	0.09744567
173	0x3deccf9b	0.11563035
174	0xbd4fcef4	-0.050734475
175	0x3d160710	0.03662783
176	0x3d97b4c1	0.07407523
177	0xbdbc6a5c	-0.09199974
178	0xbdead78e	-0.11466895
179	0xbce6b8ae	-0.028164234
180	0x3d90898d	0.07057486
181	0x3ea4bdf1	0.32176164
182	0x3e0b1d73	0.13585453
183	0x3ef562fe	0.47927088
184	0x3e81cd5f	0.25351998
185	0x3e6b62a5	0.22986849
186	0x3ede4bf3	0.4341732
187	0x3e89e0b3	0.26929244
188	0x3d5af56e	0.053456716
189	0xbc15f580	-0.00915277
190	0x3e059ea0	0.13048792
191	0x3d5bfb7c	0.05370663
192	0xbc4d1a50	-0.01251848
193	0xbcd58634	-0.02606497
194	0x3e04e70c	0.12978762
195	0xbc5db380	-0.013531566
196	0x3c191610	0.009343639
197	0xbd1855cc	-0.037191197
198	0xbe3fc61f	-0.18727921
199	0x3d0ede12	0.03487975
200	0x3d89de68	0.06731874
201	0xbe8dd676	-0.27702683
202	0x3fa2f451	1.273081
203	0x3c239d21	0.009986193
204	0xbe595e4b	-0.21227376
205	0xbe74c143	-0.23901848
206	0xbf01016a	-0.5039278
207	0x3a1074e4	0.0005510582
208	0x3df6c7e8	0.12049848
209	0x3d6d63af	0.057956394
210	0x3c8b5e77	0.017012818
211	0xbddb5aae	-0.10710655
212	0xbd6f3afe	-0.05840587
213	0xbdba4501	-0.09095193
214	0xbe72beb4	-0.2370556
215	0xbe3845ea	-0.1799542
216	0x3dfce6e8	0.12348729
217	0xbda4fe78	-0.080563486
218	0xbd01d704	-0.031699196
219	0xbd5d3ed6	-0.054015003
220	0xbde98302	-0.11401941
221	0x3d20b46c	0.039234564
222	0xbd9dcf21	-0.07705522
223	0xbccaf13c	-0.024773233
224	0xbc4cf7c0	-0.01251024
225	0xbda564b0	-0.08075845
226	0xbd91a73d	-0.07111976
227	0xbdbc7c01	-0.09203339
228	0x3de050ba	0.10952897
229	0xbd1630c4	-0.0366676
230	0x3db1a1ef	0.086734645
231	0xbc6eaea7	-0.014568008
232	0x3c3769f3	0.011194694
233	0x3da92319	0.082586475
234	0x3d82eddb	0.063930236
235	0x3db8fc28	0.0903247
236	0x3e2ff1e0	0.17182112
237	0x3e6ad13a	0.22931376
238	0x3de5449a	0.11194725
239	0x3d6c89fa	0.057748772
240	0x3e158632	0.14601973
241	0x3de14a21	0.11000467
242	0x3df936dd	0.121686675
243	0x3d9f8cdc	0.07790539
244	0x3d73cb98	0.059520334
245	0xbdfe4be3	-0.12416818
246	0xbd466938	-0.04844019
247	0xbcb167e4	-0.021655984
248	0xbda407cf	-0.08009302
249	0xbd12313e	-0.035691492
250	0x3e070a88	0.13187611
251	0x3dcc37ac	0.09971556
252	0xbee85548	-0.45377564
253	0xbf17895f	-0.59193987
254	0xbf1d5e54	-0.6147206
255	0xbe6611ca	-0.22467723

bias f4 [6]
0	0xbded102b	-0.115753494
1	0x3d8dcedc	0.06924221
2	0x3b9bd77a	0.0047559114
3	0xbc91e623	-0.017809933
4	0xbca99b3c	-0.020703904
5	0xbe1f5546	-0.15559873

weight f4 [16, 6, 3, 3]
0	0x3e6fe3ca	0.23426738
1	0x3db6185a	0.088913634
2	0x3dbe3c1f	0.09288811
3	0x3e6ad719	0.22933616
4	0xbd8726e2	-0.06599213
5	0x3d726a0c	0.059183165
6	0x3e6aa342	0.2291384
7	0x3d63e13f	0.055634733
8	0x3dc223d9	0.09479494
9	0x3d8ec292	0.06970705
10	0xbaa87b02	-0.0012854042
11	0x3bb947c0	0.005654305
12	0x3df3a507	0.11896711
13	0x3c2d9f4b	0.01059706
14	0x3dbd8242	0.0925336
15	0x3dea7c79	0.114495225
16	0x3d625735	0.05525895
17	0xbdf35d50	-0.11883032
18	0x3db2cc9e	0.08730434
19	0x3d26c712	0.040717192
20	0xbde53425	-0.111915864
21	0x3dd9c93f	0.10634088
22	0xbd322043	-0.0434878
23	0xbd299c04	-0.041408554
24	0x3d6ad316	0.057330213
25	0xbd3e008c	-0.04638724
26	0xbc9f7fb0	-0.019470066
27	0x3ea7e9fb	0.327957
28	0x3d823fea	0.06359847
29	0x3e03718e	0.12836286
30	0xbb2ea7f3	-0.0026650399
31	0xbc688433	-0.014191675
32	0x3d159cb3	0.036526393
33	0x3e46dc5a	0.19419995
34	0x3d7e4018	0.062072843
35	0x3d99af0d	0.075040914
36	0x3dd99507	0.10624128
37	0x3e0c631a	0.13709679
38	0xbd29f585	-0.04149391
39	0x3e2ec23a	0.17066279
40	0x3e12868f	0.14309143
41	0x3d842f21	0.064543016
42	0x3debcc4b	0.11513575
43	0xbcd80e02	-0.026373867
44	0x3de40d88	0.111353934
45	0x3e328a67	0.17435609
46	0x3e050060	0.12988424
47	0xbd0a85d2	-0.033819027
48	0x3e11c249	0.1423427
49	0x3db12735	0.08650056
50	0x3d91ec8f	0.07125198
51	0x3ec26508	0.37967706
52	0x3e85d41f	0.26138398
53	0x3e2b676f	0.16738676
54	0x3e415110	0.18878579
55	0x3d116bf5	0.035503346
56	0x3e3d34cd	0.18477173
57	0xbdd7902a	-0.10525544
58	0xbe265d5e	-0.16246554
59	0xbe428f04	-0.18999869
60	0xbd29d401	-0.04146195
61	0xbdf8b6f1	-0.12144268
62	0x3d9287a0	0.07154775
63	0xbb148088	-0.0022659618
64	0xb9f651b0	-0.00046981638
65	0xbd5e9630	-0.05434245
66	0x3c8fb464	0.017542072
67	0x3e4215ec	0.18953675
68	0x3ad64cf7	0.0016349842
69	0xbd94f9d8	-0.072742164
70	0xbd3b498c	-0.045724437
71	0x3dd60221	0.10449625
72	0xbdb1ef31	-0.086882
73	0x3d79f3a2	0.061023362
74	0x3dcd1f9e	0.10015796
75	0x3d538851	0.051643673
76	0xbb9a285a	-0.0047045173
77	0x3d864d45	0.06557707
78	0xbe214635	-0.15749438
79	0xbddda1e6	-0.10821895
80	0xbe0a986f	-0.13534711
81	0x3d74f753	0.05980618
82	0x3dfba859	0.12287969
83	0xbd5abbf3	-0.0534019
84	0x3e2666fb	0.16250221
85	0x3d19a883	0.03751422
86	0x3e3b1592	0.18269947
87	0x3db00aae	0.08595787
88	0x3e165cc4	0.14683825
89	0x3d5899ee	0.052881174
90	0x3da0acff	0.078454964
91	0x3dada176	0.08478062
92	0x3d63d893	0.055626463
93	0x3b781b17	0.0037857944
94	0x3e436c65	0.19084318
95	0x3e8e8b59	0.2784069
96	0x3da62976	0.08113377
97	0x3cab705c	0.0209276
98	0xbbb09073	-0.0053883134
99	0x3de640b7	0.11242812
100	0x3e1d321d	0.15351148
101	0x3d6b0143	0.05737425
102	0x3ec2c4c9	0.3804076
103	0x3e6506e0	0.22365904
104	0x3ea0aa62	0.31379992
105	0x3dd7eee3	0.10543611
106	0x3ed4d196	0.4156615
107	0x3dea137c	0.114294976
108	0x3e62e66e	0.22158214
109	0x3e0e7b3e	0.139142
110	0xbd1b41b0	-0.03790444
111	0x3ea05d6e	0.3132128
112	0x3e50d685	0.20394333
113	0x3e444f83	0.19170956
114	0x3ed17253	0.40907535
115	0x3e488f24	0.19585854
116	0x3e13783b	0.14401333
117	0xbe9a42b3	-0.30129012
118	0xbe906525	-0.28202167
119	0xbdf66792	-0.12031473
120	0xbdf7f365	-0.12106971
121	0xbe5c2e02	-0.21501926
122	0xbd27c678	-0.04096076
123	0x3d1df67e	0.03856515
124	0x3da41a2c	0.080128044
125	0x3be37bbc	0.0069422405
126	0x3dd3ad02	0.10335733
127	0x3e03ea57	0.12882362
128	0x3e01de83	0.12682538
129	0x3d2597ac	0.04042785
130	0x3d17f0c6	0.037094854
131	0x3e21d800	0.15805054
132	0xbce59344	-0.028024323
133	0xbdd0f18d	-0.10202322
134	0x3d1cc4b6	0.038273536
135	0x3d21c3d7	0.039493408
136	0xbdc7ba7f	-0.09752368
137	0x3da197e5	0.078903
138	0xbe322775	-0.17397864
139	0xbe23c440	-0.15992832
140	0x3e054a58	0.13016641
141	0xbe13956f	-0.14412473
142	0xbd956d42	-0.0729623
143	0xbdee085b	-0.116226874
144	0xbea53f02	-0.32274634
145	0xbe429cec	-0.19005173
146	0xbd2af701	-0.041739468
147	0xbe03f003	-0.12884526
148	0x3d25815b	0.040406566
149	0x3d14bcee	0.03631299
150	0xbe6eadfd	-0.23308559
151	0xbe11f86b	-0.1425492
152	0xbe49e42f	-0.19715951
153	0xbe787fd7	-0.24267517
154	0x3d0a7133	0.03379936
155	0xbdadc973	-0.08485689
156	0xbe8063fc	-0.25076282
157	0x3cfff4aa	0.031244595
158	0xbe44fcd1	-0.19237067
159	0xbdeb5a7c	-0.11491868
160	0x3d1e606e	0.03866618
161	0xbdd3b251	-0.103367455
162	0xbc566713	-0.013086098
163	0xbcdc318c	-0.026879095
164	0x3e034816	0.12820467
165	0xbc3e54ae	-0.011616869
166	0xbc233813	-0.0099621
167	0xbc59de03	-0.013297561
168	0xbdaed3bc	-0.08536479
169	0x3ca8322d	0.020531738
170	0x3daaca5c	0.08339378
171	0xbddb5de6	-0.10711269
172	0xbda6e79f	-0.08149647
173	0x3d81aec7	0.06332164
174	0x3b17aac4	0.0023142556
175	0xbd486bcc	-0.048930928
176	0x3c974c98	0.01846914
177	0x3e5e80a0	0.21728754
178	0x3c8501a9	0.016236143
179	0x3e1e61d1	0.15467001
180	0x3dead183	0.114657424
181	0xbdaea37e	-0.085272774
182	0x3dccf001	0.100067146
183	0xbdc5278e	-0.09626685
184	0x3dbf5566	0.0934246
185	0xbd9b5183	-0.075839065
186	0xbcb459d3	-0.022015488
187	0xbe001911	-0.12509562
188	0xbd43d0fa	-0.047806717
189	0x3dfdfb58	0.12401456
190	0xbd5ad7de	-0.053428523
191	0x3e0af7d6	0.13571104
192	0x3cd23c01	0.025663378
193	0x3d409f82	0.04702712
194	0xbe57f7a9	-0.21090569
195	0x3e83c89f	0.25739
196	0x3e1771ee	0.14789554
197	0x3e0ba704	0.1363793
198	0xbe01385f	-0.1261916
199	0x3e2c0eb4	0.16802484
200	0x3e2461e1	0.16052963
201	0x3de0c626	0.10975294
202	0xbc32b1d3	-0.010906654
203	0x3dddf715	0.10838143
204	0x3dfadb15	0.12248818
205	0x3d984ade	0.07436155
206	0x3c92a8c3	0.017902737
207	0x3d64d0f8	0.05586335
208	0x3e87717f	0.26453778
209	0x3e21f428	0.15815794
210	0x3e0bd313	0.13654737
211	0x3d9cf4ac	0.07663855
212	0x3e50a513	0.20375471
213	0x3e960923	0.29303846
214	0x3ec6f283	0.38856897
215	0x3e8c9247	0.2745535
216	0x3e2f62c7	0.17127524
217	0x3dfee7b0	0.12446535
218	0xbdaf25dd	-0.08552144
219	0xbe07ad6a	-0.13249746
220	0xbdbf1427	-0.09330016
221	0xbdbc9160	-0.092074156
222	0x3d758891	0.059944693
223	0x3cab4630	0.020907491
224	0xbc8cbe6a	-0.01718064
225	0xbda0e990	-0.078570485
226	0xbe35f611	-0.17769648
227	0xbe07f9fd	-0.13278957
228	0x3dc204b5	0.09473554
229	0x3e019da5	0.12657793
230	0x3d340a68	0.043955237
231	0x3dcfd9cb	0.101489626
232	0xbc5ea8bf	-0.013590037
233	0xbdd4fc6c	-0.10399708
234	0xbd6a9170	-0.057267606
235	0xbc8ff52d	-0.017572964
236	0x3dcba4e6	0.09943561
237	0xbe2b5ec0	-0.16735363
238	0x3da76aed	0.08174691
239	0x3e16286f	0.14663862
240	0xbdf96792	-0.121779576
241	0xbb925a54	-0.0044663344
242	0x3d49884e	0.049202256
243	0x3d181d9d	0.037137616
244	0xbd389790	-0.045066416
245	0xbdb3310d	-0.0874959
246	0x3d973d03	0.07384684
247	0x3e089404	0.13337713
248	0xbdaec7e3	-0.08534219
249	0x3e02e015	0.12780793
250	0xbe0bc288	-0.13648427
251	0xbdb6e11c	-0.08929655
252	0x3e2685c8	0.16261971
253	0x3c55c6b4	0.013047863
254	0xbdab410c	-0.08362016
255	0xbd6ef9b4	-0.058343604

bias f4 [16]
0	0xbd956abb	-0.07295748
1	0xbce4a663	-0.02791137
2	0x3dc17fdb	0.094482146
3	0xbdd63d87	-0.10460954
4	0xbe10c6ed	-0.14138384
5	0xbda9daab	-0.08293661
6	0x3c3a9679	0.011388415
7	0x3d94af49	0.072599955
8	0x3c3567f9	0.011072152
9	0xbca5fd91	-0.020262511
10	0x3e4e514c	0.201482
11	0x3d213e27	0.039365914
12	0xbe3c1056	-0.18365607
13	0x3e0e4c08	0.13896191
14	0x3e406890	0.18789887
15	0xbd866877	-0.06562894

weight f4 [32, 16, 3, 3]
0	0xbc89c38c	-0.016816877
1	0x3d551213	0.05201919
2	0x3d7fb482	0.062428005
3	0xbdfc51ad	-0.12320266
4	0xbdbcb2a0	-0.092137575
5	0x3db5a9b5	0.0887026
6	0xbd997277	-0.074925356
7	0x3db3c80d	0.08778391
8	0x3cd8150e	0.026377227
9	0x3dadc378	0.08484548
10	0xbd687142	-0.056748636
11	0x3dab7630	0.08372152
12	0xbd87990e	-0.0662099
13	0xbc5b85ca	-0.013398597
14	0xbde6f908	-0.11277968
15	0xba05acd9	-0.00050993037
16	0xbc641b33	-0.0139225
17	0x3d963629	0.07334549
18	0xbe8efa55	-0.27925363
19	0xbe086afb	-0.1332206
20	0xbe2bd571	-0.1678064
21	0xbea09429	-0.31363037
22	0xbd8b6fda	-0.06808443
23	0xbded6532	-0.11591567
24	0xbd4761cf	-0.048677262
25	0x3dee71d7	0.11642807
26	0x3d7cd8e6	0.061730288
27	0x3d991114	0.074739605
28	0x3d90b648	0.070660174
29	0x3d560114	0.052247122
30	0x3d9bb14a	0.076021746
31	0x3d4bd7a2	0.04976619
32	0xbc2b3da5	-0.010451709
33	0x3b70a34e	0.003671843
34	0xbcd71165	-0.026253412
35	0xbc569978	-0.013098113
36	0x3db68bb6	0.089133665
37	0x3dafff37	0.085936
38	0x3e0fea5a	0.14054242
39	0x3e3bf131	0.18353726
40	0x3dce7c2c	0.10082278
41	0x3d244217	0.04010209
42	0x3e3e0a25	0.18558557
43	0x3e2e699f	0.17032479
44	0x3e3fe5ee	0.18740055
45	0x3d72c3ed	0.05926888
46	0x3df50160	0.11963153
47	0x3d44625a	0.047945358
48	0xbc957f91	-0.018249305
49	0xbd6d10cc	-0.057877347
50	0x3da34809	0.07972724
51	0xbb028cfa	-0.0019920454
52	0x3d285636	0.041097842
53	0x3d2e0f35	0.04249497
54	0xbc58a710	-0.013223425
55	0x3a57fc3e	0.0008239186
56	0x3bf2f43a	0.007414368
57	0xbd93e0af	-0.07220589
58	0xbdb83c7c	-0.089959115
59	0x3c890a95	0.016728679
60	0xbdb22d1e	-0.08700012
61	0xbdfdf01f	-0.12399315
62	0xbc0ca9a1	-0.008585365
63	0xbccdaa0f	-0.025105504
64	0xbb6b5d33	-0.0035913705
65	0xbc558098	-0.013031147
66	0x3c24d01e	0.010059385
67	0xbc04752a	-0.008084575
68	0x3d9e1663	0.07719114
69	0x3da8ccf4	0.08242217
70	0x3c749f10	0.014930502
71	0x3ddf8387	0.10913759
72	0xbd6cb694	-0.057791308
73	0x3d67e434	0.056614116
74	0x3d8a1ecf	0.067441575
75	0xbd15c62a	-0.036565937
76	0x3dbd2107	0.09234815
77	0x3d0b90e5	0.03407373
78	0x3ca00b3c	0.019536607
79	0x3d4ec049	0.050476346
80	0xbd0ca2aa	-0.034334816
81	0xbda25d71	-0.07927979
82	0xbd8c43d9	-0.068488784
83	0xbb9345f0	-0.004494421
84	0x3db29b4d	0.087210275
85	0xbd8f7d54	-0.07006326
86	0xbd802506	-0.06257062
87	0x3b203f1c	0.0024451679
88	0xbdca0cd8	-0.09865731
89	0xbd3ceed6	-0.04612621
90	0xbc17a419	-0.0092554325
91	0x3ced201d	0.028945977
92	0x3d1a894c	0.037728593
93	0x3cbbc967	0.022923185
94	0xbdb9e0fe	-0.09076117
95	0x3d968c8d	0.07351027
96	0x3d4d1ad7	0.050074425
97	0x3d2eb5fd	0.042654026
98	0xbcbd9c25	-0.023145745
99	0x3d826a57	0.06367939
100	0x3d8a2b4e	0.06746541
101	0xbafe4802	-0.0019400122
102	0x3ce2c279	0.027680622
103	0x3d30acd4	0.04313357
104	0xbc188888	-0.009309895
105	0x39a1f553	0.00030891094
106	0x3c9c2c6a	0.019064147
107	0x3dc9f015	0.09860245
108	0xbde5a2ba	-0.11212678
109	0xbcda6332	-0.026658628
110	0xbd8724cf	-0.065988176
111	0x3d86bd8d	0.06579123
112	0xbc1a05e3	-0.009400818
113	0x3c87b34b	0.016564986
114	0x3d71c13a	0.059022166
115	0xbcb7354b	-0.02236428
116	0x3d734b41	0.05939794
117	0x3e15cfe6	0.14630088
118	0x3db5c7bf	0.08875989
119	0x3e1314e5	0.1436344
120	0xbd6a0399	-0.057132337
121	0x3d363cfd	0.044491757
122	0xbd2efb4b	-0.04272012
123	0x3dd753f0	0.10514057
124	0x3c81b421	0.015832962
125	0x3d358af0	0.044321954
126	0xbccd9d53	-0.025099432
127	0xbd35c1ae	-0.04437416
128	0xbd554ecc	-0.0520771
129	0x3ca6b925	0.020351956
130	0xbd4360ef	-0.047699865
131	0xbd5476bc	-0.051871046
132	0xbd97acc5	-0.07406
133	0x3d2e64bd	0.04257654
134	0xbc8ce3c7	-0.017198456
135	0x3ae9b9d1	0.0017831867
136	0xbbd8727d	-0.006605445
137	0x3d550bf2	0.052013345
138	0x3d9181dd	0.071048476
139	0xbcd4c9c0	-0.025975108
140	0xbca52c0f	-0.02016261
141	0x3e14b8f5	0.1452368
142	0x3df45901	0.11931039
143	0x3c1312a3	0.008976611
144	0x3df99d3d	0.12188194
145	0x3c9a23e0	0.018815935
146	0x3bdb490e	0.0066920584
147	0x3dd6a427	0.10480528
148	0x3deffb16	0.11717813
149	0x3d9fa98d	0.07796011
150	0x3db2305b	0.08700629
151	0x3c76a312	0.015053527
152	0xbcf79613	-0.030222928
153	0x3dc74735	0.097303785
154	0x3e59e645	0.21279247
155	0x3e3db3cd	0.1852562
156	0x3dcc2df4	0.09969702
157	0x3d4b52c3	0.049639475
158	0x3e053a9a	0.13010636
159	0x3e0870d5	0.13324292
160	0x3de9b827	0.114120774
161	0x3d500a67	0.05079117
162	0x3d534c0c	0.051586196
163	0x3dbfa6c1	0.09357978
164	0x3d2323ca	0.039829053
165	0xbd49b7ce	-0.049247555
166	0xbdc9f711	-0.09861577
167	0xbe15e767	-0.14639054
168	0xbe342277	-0.17591272
169	0xbe58ed4c	-0.21184272
170	0xbde2217d	-0.11041544
171	0x3e1f8adf	0.15580319
172	0x3e813c5a	0.25241357
173	0x3e125a01	0.14292146
174	0x3e6c2bbd	0.2306356
175	0x3e8598fc	0.2609328
176	0x3e2b4488	0.16725361
177	0x3e6563aa	0.224013
178	0x3dd5a2aa	0.10431416
179	0x3e5d9fa2	0.21642926
180	0x3e41d1da	0.18927708
181	0x3d8a036d	0.06738935
182	0x3e3760cc	0.17908019
183	0x3df3e769	0.11909372
184	0x3e02f89f	0.12790154
185	0x3e6b4ca9	0.22978462
186	0x3e2434f3	0.16035824
187	0x3e27e5c6	0.16396245
188	0x3dd2e750	0.102980256
189	0xbda4044a	-0.080086306
190	0xbd51b61a	-0.051199056
191	0x3e190569	0.1494347
192	0xbbaf3b48	-0.005347643
193	0xbd87183f	-0.065964215
194	0x3e062d55	0.1310323
195	0x3d4f8888	0.050667316
196	0x3bca5fc2	0.006175966
197	0x3e2390e1	0.15973236
198	0xbdc5502b	-0.096344315
199	0x3da87cec	0.08226952
200	0x3dbb2e90	0.091397405
201	0x3d7628ba	0.060097434
202	0xbc5dc61f	-0.013536005
203	0x3ded4ac2	0.115865245
204	0xbde58fad	-0.112090446
205	0xbd9ddc42	-0.077080265
206	0xbc09fd06	-0.008422142
207	0xbcea507d	-0.028602833
208	0xbdce3d75	-0.10070316
209	0xbd42ce35	-0.047559936
210	0xbdf8b53d	-0.121439435
211	0xbd081f61	-0.03323305
212	0xbdde597a	-0.1085691
213	0xbdad4afb	-0.08461567
214	0xbd83f8f4	-0.064439684
215	0xbd31368c	-0.04326491
216	0xbda6b862	-0.08140637
217	0x3c83fe5f	0.016112505
218	0x3d241e81	0.040068153
219	0x3cad70f6	0.021172028
220	0x3d98f86e	0.07469259
221	0x3c20660d	0.009789956
222	0x3c1e4c36	0.009661725
223	0xbd3f3421	-0.046680573
224	0xbd2febb9	-0.042949412
225	0x3dfdeb17	0.123983555
226	0x3c94685b	0.018116167
227	0x3d8995a2	0.06717993
228	0xbc2ea4b5	-0.010659386
229	0x3c9ba66b	0.019000253
230	0x3dab2d3b	0.083582364
231	0xbd5e8454	-0.054325417
232	0xbd8e8634	-0.06959191
233	0x3c794748	0.015214749
234	0x3b68b3fa	0.0035507665
235	0x3d4fea05	0.050760288
236	0xbccf3b04	-0.025296696
237	0xbd2c9660	-0.042135596
238	0x3b91dfd6	0.004451732
239	0x3cb387a3	0.021915263
240	0x3d7709d9	0.060312126
241	0x3dbafbcc	0.09130058
242	0x3d91728b	0.071019255
243	0xbd92f0eb	-0.07174858
244	0xbdfb69eb	-0.122760616
245	0xbd5abad0	-0.053400815
246	0xbd980ba6	-0.07424097
247	0xbc1c672d	-0.009546083
248	0x3cb4ca77	0.022069199
249	0xbe03f34c	-0.12885779
250	0xbd07ce62	-0.033155806
251	0x3cf936b3	0.03042159
252	0x3e717cdb	0.23582785
253	0x3e0d14c1	0.13777448
254	0x3e30a4f4	0.17250425
255	0x3ea114e8	0.31461263

bias f4 [32]
0	0x3be183c3	0.0068821623
1	0x3d1791f5	0.03700443
2	0xbde89df2	-0.11358251
3	0x3c4a0e26	0.012332475
4	0xbd298564	-0.041386977
5	0xbdc6f18f	-0.097140424
6	0x3da502ab	0.080571495
7	0xbe1299ab	-0.14316432
8	0xbdd92b41	-0.10603953
9	0x3c41f33f	0.01183778
10	0xbe18e6aa	-0.14931741
11	0xbaa68294	-0.001270371
12	0xbd8c8a45	-0.0686231
13	0xbcfb0563	-0.030642217
14	0xbd9bce8d	-0.07607756
15	0xbdc89b60	-0.097952604
16	0xbcacd3c5	-0.021097073
17	0xbe0d3f52	-0.13793686
18	0xbe07490f	-0.13211463
19	0xbe0da021	-0.13830616
20	0xbdbcec5d	-0.0922477
21	0x3bb8b61a	0.0056369426
22	0xbdb52532	-0.08844985
23	0x3db2568d	0.087079145
24	0xbd45d718	-0.048300833
25	0xbd947ffa	-0.07250972
26	0xbd6ec0f7	-0.058289494
27	0xbe295608	-0.16536725
28	0xbd51eab8	-0.051249236
29	0xbd49ec7e	-0.049297802
30	0xbc8982be	-0.016785976
31	0xbd80639d	-0.06269

weight f4 [5, 16928]
0	0xbd863059	-0.0655219
1	0xbdf451fb	-0.11929699
2	0xbcce3b9c	-0.025174908
3	0xbc7e6274	-0.015526403
4	0x3b14c5fc	0.0022701016
5	0xbcfb9634	-0.03071127
6	0xbd0e4aba	-0.034739234
7	0x3d51841c	0.05115138
8	0xbc0d3c4a	-0.008620331
9	0xbd4f25b3	-0.050573062
10	0xbd3b9978	-0.045800656
11	0xbc9d2927	-0.019184662
12	0x3d999720	0.07499528
13	0x3c666dc6	0.014064258
14	0x3da8d30f	0.08243381
15	0x3c3c388b	0.01148809
16	0x3a29d80d	0.00064790325
17	0x3db30885	0.08741859
18	0x3db6891c	0.0891287
19	0x3d516a09	0.051126514
20	0x3ccf360a	0.025294323
21	0xbd630dda	-0.05543313
22	0x3d7466d9	0.059668396
23	0xbd52c321	-0.05145562
24	0xbd0b30a6	-0.03398194
25	0xbd12fd6e	-0.03588622
26	0xbc7237c2	-0.0147838015
27	0xbbceeead	-0.0063150735
28	0x3c63b82f	0.013898893
29	0xbb5a2e92	-0.0033291918
30	0x3b8f7209	0.0043776077
31	0xbab046d6	-0.0013448845
32	0x3d14f3b2	0.03636522
33	0x3c1baa3a	0.009501034
34	0xbc43fc20	-0.011961967
35	0x3d0a24ae	0.033726387
36	0x3c912df7	0.017722113
37	0x3d2c400a	0.04205326
38	0x3d94f879	0.07273955
39	0x3d4fb093	0.050705504
40	0x3de435b1	0.11143053
41	0x3d856c80	0.06514835
42	0x3d3e4ef2	0.046462007
43	0xbad023e3	-0.0015879836
44	0xbd5620fc	-0.05227755
45	0x3cfe98c6	0.031078707
46	0xbc521875	-0.012823214
47	0xbb77e320	-0.0037824586
48	0xbd4ff10a	-0.050766982
49	0xbc910beb	-0.017705878
50	0x3b9079e0	0.00440906
51	0xbce88673	-0.028384423
52	0xbce19e80	-0.027541399
53	0x3bd871f3	0.0066053807
54	0xbc9d1b95	-0.019178191
55	0x3caac0c0	0.020843863
56	0x3da1848d	0.0788661
57	0x3d152bca	0.036418714
58	0x3cd6f345	0.026239047
59	0x3d75037c	0.059817776
60	0x3db56b80	0.088583946
61	0x3d80bf11	0.06286443
62	0x3c49a751	0.012307958
63	0x3cfc599b	0.030804446
64	0x3c54445b	0.01295575
65	0x3c5d75d9	0.013516867
66	0xbc009cf9	-0.007849925
67	0xbd2027c1	-0.039100412
68	0x3c56c890	0.013109341
69	0xbd15c9b6	-0.03656932
70	0xbd600886	-0.05469563
71	0xbcec608e	-0.028854635
72	0xbd42fcf0	-0.0476045
73	0x3c59cbe2	0.013293238
74	0xbce8167e	-0.028331038
75	0xbc947522	-0.01812226
76	0x3d8de7cb	0.069289766
77	0x3d83c1e1	0.06433464
78	0x3e02f920	0.12790346
79	0x3ddc9883	0.10771277
80	0x3df61f4e	0.1201769
81	0x3d5897ff	0.05287933
82	0x3d56a081	0.052399162
83	0x3cb3e7fd	0.021961207
84	0x3da192d0	0.078893304
85	0x3c9d0803	0.01916886
86	0x3d4a37e1	0.049369697
87	0x3d61d08b	0.055130523
88	0x3c1d59be	0.009603916
89	0xbb616430	-0.0034391992
90	0xbc670abe	-0.014101682
91	0x3cafc7d3	0.021457588
92	0xbd8cb89e	-0.068711504
93	0xbd0a1782	-0.033713825
94	0xbcca1dac	-0.024672352
95	0xbd286a61	-0.041117076
96	0xbb16dafe	-0.0023018713
97	0x3b3c2806	0.002871038
98	0x3d69e2ee	0.057101183
99	0x3d31c0d7	0.043396797
100	0x3c94b46e	0.018152442
101	0x3e05d77b	0.1307048
102	0x3c1fe061	0.009758086
103	0x3d39341f	0.045215722
104	0x3b950650	0.0045478716
105	0x3d4df935	0.05028649
106	0x3d3c2bf5	0.04594036
107	0x3d179f3a	0.037017085
108	0x3d6836e6	0.05669298
109	0x3d832a7c	0.064045876
110	0x3dfa63c8	0.12226063
111	0x3d5f2bca	0.05448512
112	0x3d3a53c0	0.045490026
113	0x3cd06018	0.025436446
114	0x3bf4294d	0.0074512125
115	0xbc347b20	-0.011015683
116	0x3cb779bf	0.02239692
117	0x3c9396a4	0.018016167
118	0x3d694355	0.05694898
119	0x3d1b54f3	0.03792281
120	0xbb886546	-0.0041624634
121	0x3dce7121	0.100801714
122	0x3d26521b	0.040605646
123	0x3d9d3100	0.07675362
124	0x3e0f530d	0.13996525
125	0x3d9d1aea	0.07671149
126	0x3d89b488	0.06723887
127	0x3d5df057	0.054184284
128	0x3db51d45	0.08843473
129	0x3da9ba3b	0.08287474
130	0x3db2500a	0.087066725
131	0x3e19b4a2	0.15010312
132	0x3e2b5105	0.16730125
133	0x3df0c0c6	0.117555186
134	0x3d4f0429	0.050541077
135	0x3d0b37a8	0.033988625
136	0x3c1f9c59	0.009741866
137	0x3d71d51e	0.059041135
138	0x3cf93c66	0.030424308
139	0x3dba3570	0.09092224
140	0x3d25fd83	0.04052497
141	0x3d45c9ff	0.04828834
142	0xbabd18eb	-0.0014426982
143	0xbbd53c99	-0.006507468
144	0xbc0a9ff9	-0.008460992
145	0x3c72e033	0.014823961
146	0x3b942c3c	0.0045218747
147	0x3d38f22d	0.04515283
148	0x3d43b313	0.0477782
149	0x3dc66b7f	0.09688472
150	0x3d8ea125	0.0696433
151	0x3dc5c224	0.0965617
152	0x3daff0fc	0.08590886
153	0x3dbd9781	0.09257413
154	0x3e02c873	0.12771778
155	0x3e02b0ca	0.12762752
156	0x3e05fed6	0.13085493
157	0x3e0521ac	0.13001126
158	0x3ac19bcb	0.0014771161
159	0x3d19f883	0.037590515
160	0x3dc5aeb8	0.096524656
161	0x3d4aa603	0.049474727
162	0x3e0089e8	0.12552607
163	0x3ca7ca45	0.020482192
164	0x3cc90f08	0.0245433
165	0xbc4dcf40	-0.012561619
166	0xbcbf88cd	-0.023380661
167	0x3c5dffd4	0.013549764
168	0xbb50f58c	-0.0031884639
169	0x3dec31c8	0.115329325
170	0x3d6691ec	0.056291506
171	0x3d871263	0.06595304
172	0x3dd58968	0.10426599
173	0x3de8545c	0.11344215
174	0x3dbaa32a	0.09113152
175	0x3dd0db5b	0.10198089
176	0x3c78544e	0.015156819
177	0x3d48a761	0.04898775
178	0x3e213238	0.15741813
179	0x3df66b9a	0.12032242
180	0x3dd75136	0.10513537
181	0x3d921c79	0.07134337
182	0x3d6991ad	0.057023693
183	0x3e0bcc93	0.13652258
184	0x3d9b0bed	0.07570634
185	0x3d8aa355	0.06769434
186	0x3d140981	0.036141876
187	0x3b9976b8	0.004683342
188	0x3c1e53fe	0.00966358
189	0x3c9b4921	0.018955769
190	0x3d2d35f2	0.042287774
191	0x3d362bf6	0.04447552
192	0x3d28c90e	0.041207366
193	0x3df65273	0.12027445
194	0x3dc60eea	0.096708134
195	0x3dc2d0ee	0.095125064
196	0x3d933628	0.07188064
197	0x3deea4d4	0.11652532
198	0x3d69945d	0.057026256
199	0x3d119d13	0.03555019
200	0x3d50dce6	0.050991915
201	0x3de1a01a	0.11016865
202	0x3dcd3d2d	0.10021434
203	0x3e042b59	0.12907161
204	0x3d9c087b	0.07618805
205	0x3d559ee8	0.052153498
206	0x3da0141d	0.07816336
207	0x3ce16653	0.027514612
208	0x3c516228	0.01277975
209	0x3d80cb3a	0.062887624
210	0x3db6e1f6	0.089298174
211	0x3d87e9be	0.0663638
212	0x3d58d677	0.052938905
213	0x3dc5cdaf	0.09658372
214	0x3d412f87	0.047164466
215	0x3d8f3933	0.06993332
216	0x3df00888	0.11720377
217	0x3d97e85a	0.074173644
218	0x3e11fb1d	0.14255948
219	0x3dfcf533	0.123514555
220	0x3dfd71ce	0.12375222
221	0x3e0249fc	0.12723535
222	0x3e44a077	0.19201837
223	0x3e29137f	0.16511343
224	0x3e15b31e	0.14619109
225	0x3dc2f24c	0.09518871
226	0x3da20c40	0.07912493
227	0x3dd4de68	0.10393983
228	0x3dc2c647	0.09510475
229	0x3e19d376	0.15022072
230	0x3d278cdf	0.04090583
231	0x3d996080	0.07489109
232	0x3d53ffde	0.051757686
233	0x3da32106	0.07965283
234	0x3db9355f	0.09043383
235	0xbc805dfc	-0.015669815
236	0x3ccf591e	0.02531105
237	0xbce1b289	-0.027550953
238	0x3da0392b	0.07823404
239	0x3dd1481c	0.10218832
240	0x3dc84a08	0.09779745
241	0x3da91564	0.08256033
242	0x3ddb27e9	0.10700972
243	0x3db8cec4	0.090238124
244	0x3e043e1f	0.12914322
245	0x3e47f821	0.19528247
246	0x3e0c549c	0.13704151
247	0x3e05df53	0.13073473
248	0x3df6ee6b	0.12057193
249	0x3dedc583	0.11609938
250	0x3df3376a	0.11875804
251	0x3ddd1211	0.107944615
252	0x3e2c5d80	0.16832542
253	0x3d1e6735	0.038672645
254	0x3d3a1b7a	0.04543636
255	0x3c01cf39	0.007922941

bias f4 [5]
0	0xbdba02c6	-0.0908256
1	0xbd6ee03b	-0.05831931
2	0xbd445ff8	-0.047943085
3	0xbd718539	-0.05896494
4	0xbd44c001	-0.04803467
