archived_data/her_b1_r0_m20_s150--2019-03-03--164700.841079/episode_11750.model (torch_old, 375800 bytes, 8 tensors)

weight f4 [6, 6, 3, 3]
000000 ca 80 b2 3d 2c b5 f3 3d 64 a9 28 3d 60 b5 0a 3e
       0.08715971 0.1189979 0.04117717 0.13545752
000010 10 91 84 3c 16 92 b4 3d fc 60 6b 3d 68 dc 04 3e
       0.016182452 0.08816926 0.05746554 0.12974703
000020 64 b3 c6 3d 57 21 8f bd 2a 9d 10 3d b6 49 d8 3d
       0.09702185 -0.06988781 0.035306133 0.10560934
000030 e6 83 f1 bd c1 49 8a bc 1b b2 61 bd 28 dd 4d bd
       -0.11792736 -0.016880872 -0.055101495 -0.05025974
000040 7f 10 67 3d bc 25 63 3d b6 de 9f be 96 ef 8d be
       0.056412216 0.05545591 -0.31224602 -0.27721852
000050 e1 7e 62 be d1 35 8b be 39 e7 05 bf ca 40 f6 be
       -0.22118713 -0.27189496 -0.5230594 -0.48096305
000060 7d 87 e6 bd cf 13 c1 be f7 34 38 bc 00 ba 2e 3d
       -0.11256311 -0.37710425 -0.011243097 0.042657852
000070 b8 30 00 bd e8 76 53 3d a0 21 a2 3d e2 e7 9b 3d
       -0.03129646 0.05162707 0.0791657 0.076125875
000080 68 96 8c 3d 47 77 a7 bd b0 f0 aa 3c 7c f7 6b 3d
       0.06864625 -0.08177047 0.020866722 0.057609066
000090 cc 85 ad be 66 8b 0b bf 6a f3 26 bf 24 9a 40 be
       -0.3389114 -0.5450958 -0.6521517 -0.188088
0000a0 84 e3 a5 be 23 14 0c bf c7 11 42 be 8f af 8f be
       -0.32400143 -0.54718226 -0.18952094 -0.28063628
0000b0 ab 4b 8c be 62 cb 3f 3e 88 d8 1a ba e0 0b 5a 3d
       -0.2740148 0.18729928 -0.00059068995 0.05323398
0000c0 05 77 1e 3d be 5d 58 bd 67 1f 14 be 62 ac 1c 3e
       0.038687725 -0.052823775 -0.14465104 0.15300134
0000d0 55 9a a2 3d 13 0d ff 3c 48 96 3a 3d e2 0b 88 3d
       0.07939593 0.031134164 0.045553476 0.066428915
0000e0 48 2c 75 3d 18 3f f1 3c 76 da 81 bd 14 9a fd 3d
       0.059856683 0.02944903 -0.06340496 0.12382904
0000f0 b4 17 99 bc 48 3b bc 3c 40 73 0b 3c bc 41 14 3d
       -0.01868806 0.022977486 0.008511364 0.0361955
000100 94 07 a2 3d b2 b1 9b bd e6 4a a1 3d 21 e5 ac 3d
       0.07911602 -0.07602252 0.07875614 0.0844214
000110 fc b5 3a 3d e7 9f ca 3d 3e 57 e8 bd 60 47 46 bd
       0.04558371 0.0989378 -0.11344765 -0.048407912
000120 a4 f3 90 3e 9a 74 41 3e f2 ab 31 bd f7 d3 8c 3e
       0.28310883 0.18892136 -0.04337687 0.27505466
000130 8b 4a e9 3d 93 0c 85 3d 0d 2e f6 3d 31 25 6c 3e
       0.11391171 0.06496539 0.12020502 0.23061062
000140 38 86 3f 3d 88 d9 99 bd 54 34 54 bd 65 a6 e4 bd
       0.04675886 -0.07512194 -0.051807716 -0.1116455
000150 f8 6b 39 bc f2 9c b6 3d c8 c1 99 3c 20 82 09 be
       -0.011317246 0.08916654 0.01876916 -0.13428545
000160 f0 93 08 be a0 ae 9f bd a9 fe 19 bf 35 9a 05 bf
       -0.13337684 -0.07796979 -0.60154206 -0.52188426
000170 ff 9a 18 bf b5 06 c9 be 7a 84 b2 bd ba a1 90 be
       -0.59611505 -0.3926293 -0.08716674 -0.28248388
000180 16 4e 8c 3e 93 35 1b bf e6 5a 89 be 01 3e 10 3c
       0.27403325 -0.6062862 -0.26827163 0.008803845
000190 b4 64 62 be 99 c0 bb bd bb 96 81 bd bf 73 43 bc
       -0.22108728 -0.091675945 -0.06327578 -0.0119294515
0001a0 8f 37 48 bd 01 21 51 3d 4c 69 9c 3d 5a 88 a9 bd
       -0.04888111 0.051056866 0.07637271 -0.0827796
0001b0 94 3d 03 bd c4 6d a0 3d 50 41 9f 3d 30 87 a4 bd
       -0.032041147 0.07833436 0.07776129 -0.080335975
0001c0 b3 84 e4 bd e0 46 37 3c 3e da df 3d 21 68 d2 bd
       -0.11158123 0.0111863315 0.10930298 -0.10273767
0001d0 d4 b2 4e bd 81 04 60 3d 33 5c c9 3c 07 c7 09 3c
       -0.050463513 0.054691795 0.024580097 0.008409268
0001e0 6c 4b ae 3d 4b b1 7b 3d 30 24 93 3c aa 7e 82 bc
       0.08510479 0.061448377 0.017961591 -0.015929539
0001f0 47 d3 5f bc c6 de 49 bc 73 d0 3e be 83 84 92 be
       -0.013661212 -0.01232118 -0.18634205 -0.28616723
000200 8c 0d 89 be 92 0c 46 be 5a e2 55 be 22 e1 3c be
       -0.26768148 -0.19340733 -0.20887128 -0.18445256
000210 ba 48 78 be ad 58 71 be 82 13 91 be 08 71 a1 3c
       -0.24246493 -0.23568983 -0.28335196 0.019707218
000220 62 7e 02 3e 08 3c 05 3e 86 b5 88 3d cc 10 fd bd
       0.12743524 0.13011181 0.06675248 -0.123567194
000230 60 4c b6 3b 48 ad 56 bd dc 20 e5 3d 1e e1 90 3d
       0.005563304 -0.052411348 0.11187908 0.07074188
000240 ad 00 5f 3e 7b 00 44 bd 30 dd 09 3e 1d 7d 37 3e
       0.21777602 -0.04785202 0.13463283 0.1791882
000250 c6 aa 1f 3e 09 96 b2 3e 37 57 52 bd 28 d3 ef 3d
       0.15592489 0.34880093 -0.051352706 0.11710197
000260 8f bc ab 3e f8 6a 7c 3e 91 e3 f9 3d 0e 00 f1 3d
       0.33542296 0.2465018 0.12201608 0.117675886
000270 ba fe 14 3e 0c 64 29 3e 1c 0e 85 3d db a7 8b 3d
       0.14550295 0.16542071 0.06496832 0.06819125
000280 81 81 eb bc 13 dd 98 3d ec bb 04 be 00 d4 44 3b
       -0.028748276 0.074640416 -0.12962312 0.0030033588
000290 9e 87 88 bd 26 f7 01 be b0 78 b0 3c 50 06 ee 3d
       -0.06666492 -0.12691936 0.021541923 0.11622298
0002a0 46 2f 8b 3d 6e d8 c7 3d 40 fe e5 bc 0a c7 16 3d
       0.06796126 0.097580776 -0.028075337 0.036810912
0002b0 73 3c c2 3d ff f2 ca 3d 33 ad d1 bc 9a e0 1a 3d
       0.09484186 0.09909629 -0.025595283 0.037811853
0002c0 23 5b 8e 3d a3 43 93 bd d1 32 f0 bd 26 57 09 bd
       0.06950977 -0.07190635 -0.117284425 -0.033530377
0002d0 37 90 82 3d 6a d8 7b 3e 91 96 bc 3d 36 fc f3 3e
       0.06375163 0.24594274 0.09208406 0.4765336
0002e0 36 81 6e 3e 44 94 7a 3e 2b 98 cf 3e 01 45 93 3e
       0.23291478 0.24470621 0.40545782 0.28763583
0002f0 eb 2c 80 3d 80 f5 15 bc a0 9e 05 3e 7c fb 5b 3d
       0.062585674 -0.00915277 0.13048792 0.05370663
000300 50 1a 4d bc 34 86 d5 bc 0c e7 04 3e 80 b3 5d bc
       -0.01251848 -0.02606497 0.12978762 -0.013531566
000310 10 16 19 3c cc 55 18 bd b3 d8 7b be 5b 34 41 3c
       0.009343639 -0.037191197 -0.24594383 0.011792268
000320 e5 2b d8 3d 73 28 9d be 7b 28 a2 3f f3 41 5f bc
       0.10555247 -0.30694923 1.2668604 -0.013626563
000330 6f d5 86 be 10 83 8c be e6 8f f6 be 6b 82 eb 3c
       -0.26334712 -0.27443743 -0.4815666 0.028748712
000340 34 1a 09 3e 90 1c a2 3d 00 3b 20 3d c2 f3 9a bd
       0.13388902 0.07915604 0.039118767 -0.07566024
000350 a7 ec 20 bd 26 e0 a5 bd 03 c9 58 be b5 2f 38 be
       -0.03928819 -0.080993935 -0.2117043 -0.17986949
000360 e8 e6 fc 3d 78 fe a4 bd 04 d7 01 bd d6 3e 5d bd
       0.12348729 -0.080563486 -0.031699196 -0.054015003
000370 02 83 e9 bd 6c b4 20 3d 21 cf 9d bd 3c f1 ca bc
       -0.11401941 0.039234564 -0.07705522 -0.024773233
000380 c0 f7 4c bc c5 15 c5 bd f0 4e 9f bd 71 28 b1 bd
       -0.01251024 -0.09623293 -0.07778728 -0.08650292
000390 e9 7b cc 3d 93 66 0a bd 84 b0 d2 3d 71 fa 15 bd
       0.099845715 -0.03378923 0.10287574 -0.036615793
0003a0 f7 7e cb 3b 47 fe be 3d 55 46 22 3d 7f 60 9a 3d
       0.0062102037 0.09325843 0.039617855 0.075379364
0003b0 70 a1 b9 3d 63 b3 36 3e 7c 40 b4 3d 5f a2 12 3d
       0.09063995 0.17841868 0.08801362 0.03579938
0003c0 99 e3 0c 3e c6 83 ac 3d a7 fa b9 3d dc 8c 9f 3d
       0.13758697 0.08423571 0.09081011 0.07790539
0003d0 98 cb 73 3d e3 4b fe bd 38 69 46 bd e4 67 b1 bc
       0.059520334 -0.12416818 -0.04844019 -0.021655984
0003e0 cf 07 a4 bd 3e 31 12 bd 88 0a 07 3e ac 37 cc 3d
       -0.08009302 -0.035691492 0.13187611 0.09971556
0003f0 7b 8b e4 be eb d4 12 bf 63 83 16 bf a6 f7 65 be
       -0.44637665 -0.5735614 -0.5879423 -0.22457752

bias f4 [6]
000000 c4 2b fe bd 92 4e 95 3d 25 3f b7 bc 58 70 a3 bc
       -0.124106914 0.07290377 -0.022368977 -0.01995103
000010 36 af 71 bc 06 60 18 be
       -0.014751246 -0.1488038

weight f4 [16, 6, 3, 3]
000000 ce 06 43 3e c3 50 ad 3d 29 38 c4 3d 42 ac 36 3e
       0.19045565 0.0846267 0.09581024 0.17839149
000010 c1 50 93 bd 80 bd 8b 3d a4 55 35 3e ef 8a 43 3d
       -0.07193137 0.06823254 0.1770845 0.04773992
000020 6e 39 df 3d ec 1d cf 3d 2c 97 26 3d e7 e4 46 3d
       0.10899626 0.10113129 0.040671512 0.048558142
000030 f6 b9 fe 3d 54 83 05 3d 7d 78 fb 3d 2a 8a 00 3e
       0.12437813 0.032595947 0.12278841 0.12552705
000040 c7 54 8d 3d 3a 08 c7 bd 15 30 84 3d 9c 09 f2 3c
       0.069009356 -0.09718366 0.064544834 0.029545598
000050 e1 11 01 be db 4c a8 3d fa 32 47 bd 92 e1 2b bd
       -0.12604477 0.08217784 -0.0486326 -0.041963167
000060 f8 e1 0f 3d a0 af 2e bd 85 eb e9 bb 26 d3 9e 3e
       0.03512761 -0.042647958 -0.007138672 0.31020468
000070 47 16 1c 3d 88 ae d9 3d 5d 73 2d bd d6 ef c2 bc
       0.038107183 0.10628992 -0.042346347 -0.023796003
000080 4c ae cb 3c 14 59 4c 3e 1f 66 90 3d e7 fa 22 3d
       0.024863385 0.19955856 0.07050728 0.03979006
000090 7b d7 f9 3d c3 01 10 3e 6e 0a 43 bd 71 10 2b 3e
       0.12199303 0.14063172 -0.04761737 0.1670549
0000a0 ae ea fe 3d 84 e0 0a 3d 10 6f ed 3d c9 66 40 bd
       0.12447105 0.03390552 0.11593449 -0.046973024
0000b0 41 13 7d 3d 7e f7 1e 3e 84 cb 0c 3e 70 99 09 bd
       0.06178594 0.15524098 0.1374951 -0.033593595
0000c0 82 c2 a8 3d b5 04 84 3d 47 07 43 3d ac 3f 9b 3e
       0.082402244 0.0644621 0.047614362 0.30322015
0000d0 2d 11 6f 3e b0 46 13 3e 72 87 12 3e 3c cf 0c bd
       0.23346396 0.14382434 0.14309481 -0.03437732
0000e0 f2 1d fc 3d d3 72 c7 bd ce 59 17 be 5a 2b 2c be
       0.12310399 -0.09738698 -0.14780352 -0.16813412
0000f0 e1 1a 27 bc 68 25 dc bd fb 78 c6 3d e9 6e 27 3c
       -0.0101992795 -0.10749322 0.09691044 0.010219314
000100 2f 37 da 3b 57 8d a3 bd 95 08 dd 3c 78 8b 44 3e
       0.0066594104 -0.07985943 0.026981631 0.19193828
000110 ca 32 50 bc 86 da 97 bd 83 fd 6b bd 84 2a af 3d
       -0.012707422 -0.07414727 -0.057614814 0.08553031
000120 d8 c1 b5 bd 63 b4 2b 3d 80 16 8c 3d 7b 4c 52 3d
       -0.088748634 0.041920077 0.06840229 0.05134247
000130 10 67 91 bc 98 ef 0d 3d 90 49 0b be f0 ad cb bd
       -0.01774934 0.034652323 -0.1360228 -0.09945285
000140 25 53 19 be 0e a5 64 3d 82 2f e2 3d 26 d3 93 bd
       -0.14973123 0.05582147 0.11044218 -0.07218008
000150 23 83 10 3e 87 79 35 bc 29 e9 32 3e 93 15 60 3d
       0.14112525 -0.011076338 0.17471756 0.054708075
000160 a6 bd e0 3d 39 18 26 3d 65 2a a3 3d 7b 5f 98 3d
       0.109736726 0.040550444 0.079670705 0.074400865
000170 bd 83 a3 3c ed 49 48 3c 08 9c 49 3e b6 6f 89 3e
       0.019960279 0.0122246565 0.19688427 0.2684304
000180 bb 6b 9a 3d 18 52 8c 3c 66 4e ad bc 8f 06 ca 3d
       0.07540079 0.01712899 -0.021155547 0.09864532
000190 a0 b0 1c 3e 48 bb 37 3d 92 bc bb 3e 59 9d 63 3e
       0.15301752 0.04485634 0.36667305 0.22227992
0001a0 8a 70 a3 3e 47 e0 be 3d 2b b0 d0 3e aa c0 e7 3d
       0.31921798 0.09320121 0.40759405 0.11316045
0001b0 f5 ce e5 3d ee ec ee 3d 3f 7f c9 bd 60 f1 4c 3e
       0.112211145 0.116662845 -0.098387234 0.20013952
0001c0 40 94 24 3e ae a6 cb 3d a9 24 a0 3e 47 14 29 3e
       0.16072178 0.09943901 0.3127797 0.16511641
0001d0 20 9a 8c 3d c2 ed 95 be a2 b4 89 be db b0 cd bd
       0.068653345 -0.29282957 -0.26895624 -0.10043498
0001e0 da a1 ee bd 65 2e 70 be c2 9f 3b bd c6 6e 7d 3d
       -0.116519645 -0.23455198 -0.045806654 0.06187322
0001f0 a5 b3 bd 3d cf 86 82 3c 53 ad fd 3d e4 43 3c 3e
       0.0926278 0.015933422 0.123865746 0.18385273
000200 b5 d6 38 3e 03 29 0b 3d 3c 46 71 3d fb 69 34 3e
       0.18050654 0.03397466 0.05890487 0.17618553
000210 8b 7c 6f bd 27 c9 f0 bd 00 a3 e1 3b 21 6a a8 bc
       -0.058468383 -0.11757117 0.006885886 -0.020558419
000220 40 6d ef bd 52 a5 4a 3d 15 70 1d be f7 23 33 be
       -0.1169076 0.049474068 -0.15374787 -0.17494188
000230 6a 8f f8 3d ca d8 23 be ac 74 ac bd bd d4 bb bd
       0.12136729 -0.16000667 -0.08420691 -0.09171436
000240 10 cb 8a be 01 9e 58 be 02 86 78 bd 41 78 e7 bd
       -0.2710805 -0.21154024 -0.060674675 -0.113022335
000250 8b bd 98 bc 4d 08 5b bc b2 2a 57 be 4c 42 0a be
       -0.018645069 -0.013368678 -0.2101238 -0.13501853
000260 5c 87 57 be 2a bd 1e be 31 68 b0 3d 4b c9 ae bd
       -0.21047729 -0.15501848 0.08613623 -0.08534487
000270 85 c3 35 be 5d 38 8f 3d 05 22 2e be f7 8c 77 bd
       -0.17750366 0.06993172 -0.17005165 -0.06043717
000280 1f fc b1 3d 10 f5 a7 bd 02 60 56 bd fd dc 4e bd
       0.086906664 -0.08201039 -0.052337654 -0.05050372
000290 1f 62 04 3e 80 56 b8 bb 47 68 cf 3a 43 ce 82 3c
       0.12928055 -0.005625546 0.0015823924 0.015967494
0002a0 b2 d5 49 bd fb 36 5e 3d 27 36 04 3e e6 5a ae bd
       -0.04927606 0.054251652 0.12911282 -0.08513431
0002b0 c3 c7 9f bd 75 e9 77 3d 10 21 36 3c 46 9d 2b bd
       -0.078017734 0.060525376 0.011116281 -0.041898035
0002c0 c8 ab a7 3c 55 8a 62 3e 88 c4 87 3c 2c 51 21 3e
       0.020467654 0.22123082 0.016573206 0.15753621
0002d0 5b d9 c2 3d 6c 4d c3 bd df c8 b4 3d f4 34 d2 bd
       0.095141135 -0.095362514 0.088273756 -0.10264006
0002e0 b3 50 c1 3d 5e c2 a1 bd f8 12 8a 39 8f 68 db bd
       0.0943922 -0.07898401 0.00026335544 -0.10713302
0002f0 db 15 2c bd ee 7c 05 3e 49 69 71 bd ef f8 06 3e
       -0.04201303 0.13035938 -0.0589383 0.13180898
000300 b3 e2 a8 bc a0 e6 8e 3c 38 41 4f be db 9b 82 3e
       -0.020615911 0.017443955 -0.20239723 0.25509533
000310 c3 f6 06 3e fe 08 0b 3e 9b 9b cb bd 7d 58 34 3e
       0.1318007 0.13577649 -0.09941789 0.1761188
000320 97 c3 2b 3e f5 1d 07 3e 46 a2 95 bb 45 24 e3 3d
       0.1677383 0.13195021 -0.0045664636 0.11090902
000330 a0 4e 19 3e 1e 12 ba 3d f4 53 06 3d cc a6 44 3d
       0.149714 0.09085487 0.032794908 0.048010632
000340 b1 58 87 3e 4e eb 28 3e 9f 10 0e 3e 9f 7d a9 3d
       0.26434854 0.16496012 0.13873528 0.082759134
000350 d3 aa 60 3e f3 32 95 3e 4a ea c6 3e c0 d0 8f 3e
       0.21940164 0.29140434 0.38850623 0.2808895
000360 74 1e 2b 3e 23 31 ea 3d 11 b7 81 bd 9f 73 e3 bd
       0.16710836 0.11435153 -0.06333745 -0.11106037
000370 18 54 ba bd ac 70 4f bd 57 50 af 3d c1 c7 53 3d
       -0.09098071 -0.05064456 0.085602455 0.051704172
000380 fe 9e fd 3c ab 21 96 bd ca 55 1e be a0 15 fb bd
       0.030959602 -0.073306404 -0.15462413 -0.12259984
000390 7e 58 c9 3d 57 6b 00 3e ac 05 90 3d c6 cc dd 3d
       0.09831332 0.12540947 0.07032332 0.10830073
0003a0 d1 80 df bb 06 bb 9b bd fb b6 6e bd c0 26 fb bc
       -0.006820776 -0.07604031 -0.058279973 -0.030658126
0003b0 8a 85 a2 3d 7a f5 21 be 14 d2 9f 3d a9 be 08 3e
       0.07935627 -0.15816298 0.07803741 0.13353981
0003c0 ad da c1 bd 67 54 f6 3b 9e 8c 3f 3d 74 d8 16 3d
       -0.09465537 0.0075173858 0.046764962 0.03682752
0003d0 76 fe 0d bd 7d 6a 60 bd ed c1 6d 3d 4d cd 01 3e
       -0.0346665 -0.054789055 0.05804627 0.12675972
0003e0 58 1d a1 bd 15 60 d8 3d 07 1e fb bd 2f d5 ee bd
       -0.07866925 0.10565201 -0.12261587 -0.11661755
0003f0 76 ec 0a 3e 8c 35 0d 3c ed ff ab bd 8c 26 79 bd
       0.13566765 0.008618724 -0.08398423 -0.060827777

bias f4 [16]
000000 8f 5d ad bd 64 91 30 bd ac a8 c5 3d 33 73 d6 bd
       -0.084651105 -0.043107405 0.09651312 -0.10471191
000010 82 b5 06 be 2c 7c 83 bd 0f e2 67 3d 00 8b 59 3d
       -0.13155177 -0.06420168 0.05661207 0.053111076
000020 15 d3 14 bc 15 50 7b 3c 4c 46 42 3e 87 75 1a 3d
       -0.009083529 0.015338917 0.18972129 0.03770974
000030 b5 58 31 be ca ae f3 3d 9d cd 23 3e fb 77 92 bd
       -0.17318995 0.11898573 0.15996404 -0.07151791

weight f4 [32, 16, 3, 3]
000000 19 9f b4 bb b6 81 4b 3d 41 e0 59 3d b0 d2 f3 bd
       -0.00551213 0.04968425 0.05319238 -0.1190542
000010 2f 03 d0 bd a7 e7 a4 3d 0f fd 97 bd dc 41 a2 3d
       -0.10156857 0.08051997 -0.07421314 0.07922718
000020 bc b4 72 3c 4e 95 b7 3d 7c 51 67 bd b0 92 bb 3d
       0.014813598 0.089640245 -0.056474194 0.09158838
000030 9e 47 80 bd aa 34 b7 3a b8 4b af bd 35 19 9e 3b
       -0.0626366 0.0013977487 -0.08559364 0.0048247823
000040 dc c2 2a 3c 6c 7e d4 3d e9 7d 5d be e1 50 bb bd
       0.010422435 0.103756756 -0.21630062 -0.09146286
000050 73 e4 fe bd 27 8d 65 be 10 75 51 bc 41 3f 8e bd
       -0.12445917 -0.22417127 -0.0127842575 -0.069456585
000060 31 19 9a bc 2d b0 f5 3d 9d 27 96 3d 65 42 9b 3d
       -0.01881084 0.119964935 0.073317744 0.07581023
000070 df 67 a2 3d 7e ce 85 3d 00 2c 8d 3d 49 5b 68 3d
       0.07929968 0.06533526 0.06893158 0.05672768
000080 bf 28 5b 3b 0e 5f 01 3d 10 c4 34 3c 0b 32 86 3c
       0.0033441035 0.03158479 0.011033073 0.016381284
000090 b3 2f b7 3d 96 05 87 3d 3a 18 fa 3d 0f 14 26 3e
       0.08944645 0.06592862 0.12211652 0.16218589
0000a0 13 09 95 3d 45 c1 7e 3c a1 66 2c 3e 2d 1f 1b 3e
       0.072771214 0.015549009 0.16836025 0.15148611
0000b0 87 51 32 3e 81 cf ae 3d 19 ba 01 3e 13 ba 12 3d
       0.17413913 0.08535672 0.12668647 0.035821985
0000c0 16 6c 17 bb 9d 61 3b bd e2 b3 b3 3d a5 de c4 3c
       -0.0023105196 -0.04574739 0.08774544 0.024031946
0000d0 8d 61 86 3d 0e ee 61 3d bf 2d 16 bb 87 c1 60 3c
       0.06561575 0.055158667 -0.002291545 0.0137180155
0000e0 a9 76 43 bb c9 eb 3f bd 81 b6 7e bd f4 af 52 3d
       -0.0029825366 -0.04685572 -0.062185768 0.051437333
0000f0 14 eb 0d bd 02 db 42 bd a2 26 71 3d 56 48 a0 bc
       -0.034648016 -0.047572143 0.058874734 -0.019565742
000100 91 ab 82 3c 46 51 0e 3a cb 10 14 3c 58 b4 e3 3b
       0.01595095 0.0005428981 0.009037207 0.006948989
000110 2f 4c be 3d 91 d1 96 3d 49 31 a6 3c f2 6d db 3d
       0.092918746 0.0736419 0.020287173 0.1071433
000120 cd e6 4d bd f3 6f 3e 3d 88 dc 35 3d 15 a7 0e bd
       -0.050268937 0.04649348 0.044399768 -0.03482731
000130 bd e7 b2 3d fc d0 c9 3c 69 2c 03 3d 49 b1 66 3d
       0.08735607 0.024635784 0.032024775 0.056321416
000140 92 f4 13 bd 9c 33 aa bd b2 ad 81 bd 89 c0 25 3b
       -0.036121912 -0.08310625 -0.06331958 0.0025291762
000150 ff 40 8f 3d 33 07 80 bd 08 68 21 bd 6b 77 f4 3b
       0.06994819 -0.06251373 -0.039405853 0.007460525
000160 61 5e 90 bd 46 b2 6e ba f6 ad 39 ba d5 22 09 3d
       -0.07049251 -0.00091055443 -0.0007083112 0.033480484
000170 f2 e0 0b 3d e4 99 b5 3c 81 cb be bd 71 57 8a 3d
       0.03415007 0.022168107 -0.09316159 0.067549594
000180 d0 92 13 3d a2 05 03 3d 16 0f 15 bd b6 85 8a 3d
       0.036028683 0.031987794 -0.03639134 0.067637846
000190 d6 d7 a4 3d 39 b3 bc 3b 44 e5 0d 3d 2a e8 76 3d
       0.0804898 0.0057586697 0.034642473 0.060280003
0001a0 c6 d2 0d 3c 42 83 6e 3c 25 45 2a 3d 1b 94 e7 3d
       0.008656209 0.0145576615 0.041569848 0.11307546
0001b0 14 27 d1 bd 99 94 9c bc 91 ff 7a bd 79 2c 86 3d
       -0.10212532 -0.019113826 -0.061278883 0.06551451
0001c0 f2 4a 93 bb e7 f3 d4 3c 86 e6 86 3d fb bf 2d bc
       -0.004495018 0.025995208 0.065869376 -0.010604854
0001d0 dd 73 8d 3d 26 d6 16 3e d4 a9 d2 3d 5c 76 0b 3e
       0.06906865 0.14730129 0.102862984 0.1361937
0001e0 50 e1 3b bd a3 57 99 3d 13 5c 02 bd 44 b9 d1 3d
       -0.04586917 0.074874185 -0.03182609 0.10240415
0001f0 b5 7a 0e 3d d0 c2 48 3d 83 e2 05 bd d2 e5 76 bd
       0.03478499 0.049013913 -0.03268672 -0.060277767
000200 ff 19 8b bd 99 2b 83 3c a4 b9 71 bd 73 d0 80 bd
       -0.06792068 0.016012 -0.05901493 -0.062897585
000210 59 8e 9b bd 23 48 1a 3d a2 40 9c bc 32 a6 0f 3c
       -0.0759551 0.03766645 -0.019073788 0.008767651
000220 c7 6f 35 3b de a6 81 3d ec 08 7e 3d 4e 7d a4 bc
       0.0027685033 0.063306555 0.062020227 -0.020079281
000230 f2 09 e7 bb b2 c5 10 3e 65 01 04 3e 03 15 94 3c
       -0.007050746 0.14137915 0.12891157 0.018076425
000240 d2 af 07 3e c3 e3 f6 3c e5 14 c2 3b 3d fb da 3d
       0.13250664 0.030137902 0.005922901 0.10692451
000250 d9 d1 fa 3d 08 41 a1 3d 9b b1 c4 3d 3b 26 cc 3c
       0.122470565 0.07873732 0.09604188 0.024920573
000260 72 dc f6 bc 08 88 b5 3d c4 f3 51 3e 0f 46 29 3e
       -0.030134413 0.088638365 0.20503145 0.16530631
000270 f8 0f b6 3d 7b 88 4f 3d 8c f0 f5 3d 8f 6b f1 3d
       0.088897645 0.050667267 0.12008771 0.11788093
000280 d8 25 d9 3d 6a 8c 29 3d de 30 d1 3c 11 e4 94 3d
       0.10602921 0.041393675 0.025535997 0.07270063
000290 e1 d6 9e 3c ee fb 14 bd 5c fe a6 bd 65 22 13 be
       0.019389572 -0.03637307 -0.08153984 -0.14368589
0002a0 33 ea e1 bd 08 eb 09 be 4d ca ab bd 37 0c 1c 3e
       -0.11030998 -0.13468564 -0.08388195 0.15239035
0002b0 fe c1 82 3e 12 3a 09 3e 91 91 6b 3e f1 dd 88 3e
       0.2553863 0.13401058 0.23004748 0.26731828
0002c0 13 66 22 3e 06 0b 65 3e e5 27 dc 3d 9b 45 54 3e
       0.1585925 0.22367486 0.10749797 0.20729677
0002d0 f0 3a 1f 3e 33 48 42 3d f0 b6 29 3e 8e c1 a8 3d
       0.15549827 0.047432136 0.16573691 0.082400426
0002e0 6f ee e4 3d 63 18 68 3e ec 5c fc 3d 4a 6c 0d 3e
       0.1117829 0.22665553 0.12322411 0.1381084
0002f0 1e 4f be 3d f7 24 75 bd 11 f5 31 bd e6 17 04 3e
       0.09292434 -0.059849706 -0.043446604 0.12899742
000300 ef 85 5e 3c dd 51 5a bd 4b c0 f9 3d 22 3c 6b 3d
       0.013581737 -0.053300727 0.1219488 0.057430394
000310 37 43 60 3c ed fc 10 3e 85 62 e5 bd 85 ca 82 3d
       0.0136879 0.14158984 -0.11200432 0.06386284
000320 98 4f 8c 3d f4 91 3c 3d 83 85 94 bc e5 14 c0 3d
       0.06851119 0.04603763 -0.01813007 0.09378985
000330 65 6f d8 bd c9 e5 69 bd d5 61 c5 bb a9 8a 53 bc
       -0.10568122 -0.057103906 -0.0060236254 -0.012911477
000340 c5 a2 99 bd 6e 6b 9c bc 68 cb ee bd 99 d8 a9 bc
       -0.07501749 -0.019094195 -0.116598904 -0.020733165
000350 5e 76 c8 bd 1b 8a b8 bd f7 ef 7a bd 17 21 4c bd
       -0.09788202 -0.090107165 -0.061264005 -0.049836244
000360 91 61 8e bd 36 68 33 3c 99 be 33 3c 73 a7 11 3d
       -0.06952203 0.010950139 0.010970735 0.035560083
000370 43 db a9 3d 5e e2 b6 3b 98 5e 8d 3c 2f 35 43 bd
       0.08293774 0.0055811843 0.01725702 -0.04765814
000380 44 63 5d bd 3e 9c cf 3d c3 00 27 3c 1f a7 61 3d
       -0.054049745 0.10137223 0.010193053 0.05509102
000390 88 9a b0 bc 1a 4e 8a 3c 6e 88 a1 3d 90 78 71 bd
       -0.021558061 0.016882945 0.0788735 -0.058952868
0003a0 2c fd 83 bd 7d 06 8c 3c 26 7a 43 bb 81 f8 57 3d
       -0.06444773 0.017092938 -0.0029827445 0.052727226
0003b0 db 36 8e bc 10 5b 5b bd 76 83 e4 3a d1 db be 3c
       -0.017360142 -0.05355364 0.0017434198 0.023298176
0003c0 c5 c1 1c 3d b5 67 a5 3d 2d 2e 87 3d d2 75 8d bd
       0.03827073 0.08076421 0.06600604 -0.06907238
0003d0 8d 8f 08 be eb 57 aa bd 15 26 8c bd fa 9f 38 bc
       -0.1333601 -0.0831755 -0.06843201 -0.01126861
0003e0 a5 2c 0a 3a 9b d5 02 be e8 4a 0a bd f5 57 38 3c
       0.0005270935 -0.12776797 -0.033762842 0.011251439
0003f0 83 46 73 3e 8d 33 10 3e 41 9e 22 3e b5 05 9e 3e
       0.23757367 0.14082165 0.15880682 0.3086373

bias f4 [32]
000000 c7 e9 1c ba fb 89 0b 3d 14 66 b9 bd be 33 e4 38
       -0.0005985763 0.034067135 -0.09052673 0.00010881525
000010 4b 42 35 bd b8 a4 ae bd ac a1 49 3d 93 67 f0 bd
       -0.044252675 -0.08527511 0.049226448 -0.11738505
000020 2f e8 bc bd 45 f0 e6 3a 26 67 e8 bd 4f 2f 74 bc
       -0.09223973 0.0017619213 -0.11347799 -0.014903857
000030 2f 3b 20 bd f0 b5 0f bc 26 aa 9b bd 97 f0 bd bd
       -0.039118942 -0.008771405 -0.076008126 -0.092744045
000040 28 9a cd bc 82 3b ed bd 3a a5 e4 bd 32 af cf bd
       -0.025097921 -0.11583616 -0.11164327 -0.10140838
000050 12 6b 9b bd e3 7b 1b 3d 00 ab 8d bd 5e 2a a5 3d
       -0.075887814 0.037959944 -0.06917381 0.080647215
000060 1a ad 6e bd e1 ec 63 bd 64 4b 56 bd cd d1 ef bd
       -0.05827055 -0.055645827 -0.05231799 -0.11709938
000070 e1 4b 3c bd fc 00 3c bd 28 6d 23 3c 20 c8 6a bd
       -0.0459708 -0.045899376 0.009974755 -0.05731976

weight f4 [5, 16928]
000000 ad 47 57 bd e9 00 a7 bd 64 da c7 bc a3 89 03 bd
       -0.05255859 -0.081544705 -0.024396129 -0.032113682
000010 1c ea 76 bc 5b f5 95 b8 1b 42 f2 ba f9 fe aa 3c
       -0.015070464 -7.150575e-05 -0.0018482836 0.020873534
000020 9f d5 4d 3b 9d 36 fc bc 9d 45 2a bd 9b 02 cd bc
       0.0031407846 -0.03078776 -0.041570295 -0.025025656
000030 f7 ca 66 3c 19 cd 83 ba 9f 12 34 3d 21 f3 86 3c
       0.0140864765 -0.0010055631 0.04396307 0.016473355
000040 f5 53 21 3c a0 f0 88 3d 70 28 a7 3d 3d fe 03 3d
       0.009846677 0.066865206 0.0816201 0.032224882
000050 26 19 68 bb 29 14 14 bd 21 e6 38 3d c3 43 f1 bc
       -0.003541538 -0.03615204 0.045141343 -0.029451257
000060 d8 d0 70 bd 82 0d 5c bd db fd 89 bc 3a e3 6a bc
       -0.05879292 -0.05372382 -0.01684468 -0.014336402
000070 0f a7 59 3c 89 42 32 3d da 11 24 3d 62 2c c0 3c
       0.013284459 0.043520484 0.040056087 0.023458663
000080 1d 44 58 3c 8a 4b f9 bb 8c 28 44 3c aa a4 b8 ba
       0.013199833 -0.007607882 0.011972558 -0.001408716
000090 f6 cc 03 3d 18 16 d8 3b 2b 10 26 3d 7a 41 14 3d
       0.032177888 0.0065944307 0.040542763 0.036195256
0000a0 18 46 b6 3d f9 42 81 3d 25 b2 8e 3c b2 d8 61 3b
       0.08900088 0.06311602 0.01741893 0.0034461436
0000b0 b9 bf e8 bb c8 26 77 3d 0d 1a 16 bc d0 a1 50 bd
       -0.0071029332 0.06033972 -0.009161484 -0.050935566
0000c0 58 fa 43 bd a0 74 df bb 82 34 05 3d 56 77 7d 3c
       -0.04784617 -0.0068193227 0.03252078 0.015470346
0000d0 ce ed 85 3b 79 d1 0e 3d 22 a8 f2 bb 0e 2b 78 bb
       0.0040871864 0.034867737 -0.007405297 -0.003786746
0000e0 08 9a 13 bc 87 eb f3 3c ea 43 d5 3c c2 9f 38 3d
       -0.009008892 0.029775394 0.02603336 0.045074232
0000f0 47 b6 18 3d 3e 1a 3a 3d ca e3 9a 3c 5a d6 1f 3d
       0.03728321 0.045435183 0.018907446 0.03902278
000100 a0 53 42 3c 1d fb 35 bb fa 99 8c 3b f1 c7 7d 3c
       0.011860758 -0.0027768083 0.0042908164 0.015489564
000110 e6 b8 42 3d de 12 20 bd c3 3e b9 bd 0c f1 01 bd
       0.047539614 -0.039080493 -0.09045174 -0.03172402
000120 4d 11 61 bc 0f 67 ec 3c 8e 63 8b bc b0 f0 b0 3c
       -0.013737035 0.028857736 -0.017015245 0.021599144
000130 14 f8 46 3d 95 fe 32 3d df ab 23 3d db 8d e3 3c
       0.04857643 0.04369982 0.03995883 0.027777603
000140 83 d4 86 3d 8b 91 db 3c 3b b0 72 3c e3 01 47 bc
       0.06583502 0.026802799 0.014812524 -0.012146446
000150 9a 18 0e 3d e9 88 1a 3c 97 38 8b 3d 41 11 f7 3c
       0.03469143 0.009432056 0.06797903 0.030159594
000160 74 03 21 3c aa d2 b1 3c 36 d4 dc 3c f2 7f 78 3d
       0.009827483 0.021706898 0.026956659 0.060668893
000170 5a 36 31 bd ed 89 0e bd 1c 1a 9c bc f5 32 07 bd
       -0.043264724 -0.034799505 -0.019055419 -0.03300758
000180 7e f2 af 3b 67 fc f0 3a 29 ea 7d 3d 87 3b a7 3d
       0.0053694835 0.0018385769 0.06199089 0.08165651
000190 f7 94 30 3d 2e 1d 82 3d 9b de 1d 3d 9f a8 78 3c
       0.043110814 0.06353222 0.03854237 0.015176921
0001a0 1f ea bd 3b 44 35 57 3d 94 51 17 3d 44 30 60 3d
       0.0057957317 0.052541032 0.036943033 0.05473353
0001b0 9c 48 ad 3d 96 9d f6 3d e5 dc fd 3d 36 84 d9 3c
       0.08461115 0.12041776 0.12395648 0.0265523
0001c0 c8 86 63 3d 63 f6 2c 3d a5 04 97 3c ba 31 98 3b
       0.05554846 0.04222716 0.018434832 0.0046445997
0001d0 9b f8 16 3d 1a a4 b6 3c 0a 10 43 3d e4 85 98 3d
       0.036858182 0.022295047 0.047622718 0.074474126
0001e0 77 e5 99 bc 0f b5 ad 3d d3 cd 51 3d ae 20 e1 3d
       -0.018786175 0.084818 0.05122168 0.10992561
0001f0 de 3a 06 3e 39 e4 c7 3d 44 d4 93 3d 7a a3 8a 3d
       0.13108394 0.09760327 0.07218221 0.06769462
000200 31 90 92 3d d6 26 88 3d 1f 25 90 3d 87 ab 14 3e
       0.071564086 0.06648032 0.0703833 0.14518557
000210 3a 67 10 3e 41 57 ef 3d 0c e3 35 3d d6 b4 11 3d
       0.14101878 0.11686564 0.044405982 0.03557285
000220 59 01 25 3d 7c 70 63 3d 3e dc 2c 3d 15 ff b4 3d
       0.04028449 0.055527195 0.042202227 0.088377155
000230 98 2e d9 3c 15 da 91 3d 2d 57 9d 3c c2 1a 68 bc
       0.026511475 0.07121674 0.019206608 -0.014166536
000240 cb 18 45 bc 7d 00 3e bc 75 d2 18 bc 85 6e 4a 3d
       -0.012029837 -0.011596796 -0.009327521 0.049421806
000250 96 b5 a6 3d 81 47 e0 3d 62 7e 9e 3d 5a 34 a3 3d
       0.081401035 0.10951138 0.07738949 0.0796897
000260 c8 8e 92 3d 20 75 9e 3d 9c cc 19 3e 2d 34 f3 3d
       0.071561396 0.077371836 0.15019459 0.11875186
000270 e5 18 da 3d 7b 0e 91 3d 0e 29 a8 bc 70 bd 30 3c
       0.106492795 0.0708284 -0.020527389 0.010787353
000280 f1 57 a3 bb 85 ca 4c 3d 34 4e 5c 3d b7 1e b9 bc
       -0.0049848487 0.049997825 0.053785518 -0.022597654
000290 68 16 35 3c 3c fe 41 ba 01 fb 09 bd 95 a0 f8 3c
       0.011052705 -0.00074002496 -0.03368664 0.030350009
0002a0 7d 09 bc bc a4 91 2d 3d 8e fc 46 3d 4d 98 74 3d
       -0.022953743 0.04237522 0.0485807 0.059715558
0002b0 62 34 af 3d 64 49 e8 3d 42 9c ed 3d ac 72 e2 3d
       0.08554913 0.11342123 0.116020694 0.11057028
0002c0 b1 8c 44 3d f9 d7 c1 3d c7 15 15 3e f3 99 f1 3d
       0.047985736 0.09465022 0.14559089 0.117969416
0002d0 f5 e1 90 3d df 1d 76 3c 5f 07 02 3d c6 3c 1c 3d
       0.07074348 0.01502177 0.03174531 0.038143896
0002e0 c4 66 2b 3d 37 ea 70 3b f5 8e da bc 7a 73 6e bc
       0.04184605 0.0036760697 -0.026679495 -0.014553899
0002f0 2e b1 e2 3c 64 a0 09 3c 97 d8 5f 3d c4 f8 1a 3d
       0.027672376 0.0084000565 0.054649916 0.037834898
000300 ee 06 1d 3c f8 db d8 3d 10 ae eb 3d a4 69 c4 3d
       0.009584172 0.10588831 0.11507809 0.09590462
000310 78 8d a0 3d 6a c7 e2 3d dc e2 6e 3d d2 87 52 3d
       0.07839483 0.110731915 0.05832182 0.05139906
000320 94 77 96 3d ba fa 01 3e f2 97 0a 3e 51 77 e0 3d
       0.073470265 0.12693301 0.13534525 0.10960258
000330 1c 51 41 3d b5 e7 3f 3d ce d0 0d 3d f8 c9 00 bd
       0.047196493 0.046851832 0.03462296 -0.031442612
000340 a0 09 05 bd be fc b6 ba 02 6d 24 3d 2f 01 8d 3d
       -0.032479882 -0.0013960821 0.04014302 0.068849914
000350 3f 35 df 3c 16 88 18 3d 3f 78 8d bb d8 34 c2 bb
       0.02724707 0.037239157 -0.004317313 -0.0059267096
000360 9b 42 46 3d 79 49 55 3d d0 93 da 3d ad c1 c4 3d
       0.048403364 0.052072022 0.10672724 0.09607253
000370 c1 6c b1 3d c8 49 82 3d 5d e3 fc 3d b2 1c 0b 3e
       0.08663321 0.06361729 0.123480536 0.13585165
000380 be 0a 12 3e e0 cf bd 3d ea b9 c4 3d e7 ea b5 3d
       0.1426191 0.09268165 0.09605773 0.08882695
000390 94 b7 9b 3d 9d 5a 75 3d f1 bd a1 bc 36 e7 08 bb
       0.07603374 0.05990087 -0.019743891 -0.0020889766
0003a0 79 4a b8 bb 27 ff 96 3d 3a 95 98 3d ea f8 98 bc
       -0.005624112 0.07372885 0.07450338 -0.018673379
0003b0 48 cb 3f bc fe 3c 01 bd 20 e2 df bc 5a 94 1c 3d
       -0.011706181 -0.031552307 -0.027329504 0.038227417
0003c0 d8 42 8b 3d 74 d7 7b 3d 1b ab a8 3d 9a 6e 6a 3d
       0.06799859 0.06148477 0.08235761 0.057234384
0003d0 6b 8e 7d 3d e6 c6 fb 3d 8e b3 da 3d 27 c2 e2 3d
       0.0619034 0.12293796 0.106787786 0.11072188
0003e0 23 52 a7 3d 9f 4e c0 3d f8 23 b7 3d 6d ad 77 3d
       0.08169963 0.09389996 0.08942407 0.060468126
0003f0 3f 0c 65 3d 58 96 ae bc 00 b2 c6 3c 61 b2 28 3c
       0.055919882 -0.021311924 0.024254799 0.010296435

bias f4 [5]
000000 2c 98 90 bd 3f 17 2f bd 4b 08 12 bd fc 70 44 bd
       -0.070602745 -0.04274678 -0.03565244 -0.047959313
000010 4d 88 17 bd
       -0.03699522
