archived_data/b1_r0_m8_s100--2019-03-03--165203.596044/episode_45250.model (torch_old, 268278 bytes, 8 tensors)

weight f4 [6, 6, 3, 3]
0	0xbdca8d72	-0.0989026
1	0x3db34d66	0.08754997
2	0x3bd91f60	0.0066260546
3	0x3e06b8b4	0.13156396
4	0xbc83cb8c	-0.01608827
5	0xbccb4998	-0.024815366
6	0xbc41c5b8	-0.011826925
7	0x3dbcc88c	0.09217939
8	0xbd449d42	-0.048001535
9	0x3d583744	0.05278708
10	0x3d1924c4	0.037388578
11	0x3d973c0f	0.07384502
12	0xbd688e8f	-0.05677658
13	0xbb0e1d4b	-0.002168494
14	0xbcd5f288	-0.026116624
15	0xbdadeacc	-0.084920496
16	0xbd7f85a0	-0.062383294
17	0xbc9b54b8	-0.018961295
18	0x3d8062d7	0.06268852
19	0x3dc21c95	0.09478108
20	0x3e1b2ebb	0.15154545
21	0x3cb85187	0.022499813
22	0x3db8fb27	0.090322785
23	0x3dad84ae	0.08472572
24	0xbc79e499	-0.015252256
25	0x3d0b95e9	0.034078512
26	0x3da41fe5	0.08013896
27	0xbd8d4be6	-0.06899242
28	0xbd694c9a	-0.05695782
29	0xbdd4395e	-0.103625044
30	0x3d2189fc	0.039438233
31	0x3dc3904c	0.09549007
32	0xbd7e0bc6	-0.062022947
33	0x3da8119c	0.08206484
34	0xbdf81bbf	-0.12114667
35	0x3d2cb560	0.04216516
36	0x3b9eed28	0.0048500486
37	0xbe2af18f	-0.1669371
38	0x3e1770a9	0.1478907
39	0xbe60fc1c	-0.21971172
40	0xbdf47319	-0.11936016
41	0xbe68a929	-0.2272078
42	0xbece6b10	-0.40316057
43	0xbe8b3703	-0.27190408
44	0xbd8fab74	-0.07015124
45	0x3d7e7c4b	0.062130254
46	0x3d00682c	0.031349346
47	0x3c956be4	0.018239923
48	0x3d946851	0.07246459
49	0x3d2cde18	0.042203993
50	0xbd6fcc50	-0.058544457
51	0x3dcd72e7	0.100316815
52	0xbd64b100	-0.055832863
53	0x3ae41f40	0.0017404333
54	0xbdcaba2c	-0.09898791
55	0x3dd96410	0.106147885
56	0x3da07e60	0.07836604
57	0xbde06422	-0.10956599
58	0x3df0cba8	0.11757594
59	0xbd8aa148	-0.06769043
60	0x3dbb4032	0.09143104
61	0x3cc15dc8	0.023604289
62	0xbda268c6	-0.0793014
63	0xbd471f20	-0.048613667
64	0xbc8ddd74	-0.017317511
65	0x3d1994ed	0.037495542
66	0x3cb315ce	0.021860983
67	0xbc7e48f4	-0.015520323
68	0x3d25f933	0.040520858
69	0x3cd97d18	0.026548907
70	0x3d006729	0.03134838
71	0x3be19c65	0.0068850988
72	0x3c977cb7	0.018492086
73	0x3cf959d9	0.03043835
74	0x3dbdceee	0.09267984
75	0x3d83fc86	0.064446494
76	0x3d5b79e8	0.053583056
77	0x3dd60d1a	0.10451718
78	0x3dc08668	0.09400636
79	0x3dca9944	0.09892514
80	0x3dad65b8	0.08466667
81	0x3db28dfc	0.087184876
82	0xbb9aaf80	-0.0047206283
83	0x3d84e880	0.06489658
84	0x3c3e3840	0.011610091
85	0x3d7a5da0	0.061124444
86	0x3db8cc36	0.09023325
87	0xbd592e32	-0.05302257
88	0xbc718ee0	-0.014743537
89	0x3dc0e89a	0.09419365
90	0x3d99c904	0.07509044
91	0xbec9b668	-0.39396977
92	0xbe922d69	-0.2855027
93	0x3d460956	0.048348747
94	0xbe2e3140	-0.17010975
95	0x3e685ef0	0.22692466
96	0x3e0b869d	0.1362557
97	0x3e05fbef	0.13084386
98	0x3e9d570e	0.3073048
99	0x3e0c0d4a	0.13676944
100	0xbdd89111	-0.10574544
101	0x3d7a6be9	0.061138067
102	0x3c7f5cd2	0.015586095
103	0x3d8f77b4	0.070052534
104	0xbda861b0	-0.082217574
105	0xbd0a995c	-0.03383766
106	0xb987b30e	-0.00025882613
107	0x3d74624b	0.059664052
108	0x3d7b56e8	0.061362177
109	0x3d031fb0	0.03201264
110	0xbd8593b0	-0.0652231
111	0x3dcea446	0.100899264
112	0x3d2cd4c4	0.042195097
113	0xbdaf57dc	-0.0856168
114	0xbdd17d1b	-0.1022894
115	0x3e084814	0.13308746
116	0xbcb8e104	-0.022568233
117	0x3c36a07b	0.01114666
118	0x3c82598a	0.015911836
119	0xba67ff49	-0.0008849991
120	0x3c103189	0.008800873
121	0xbd05decd	-0.032683183
122	0xbe0834eb	-0.13301437
123	0xbc2261fb	-0.009911056
124	0x3ced39ea	0.02895828
125	0xbc0c94b9	-0.00858038
126	0x3cb965cd	0.02263155
127	0x3d3f737b	0.04674099
128	0x3db8c0b8	0.09021133
129	0x3d427615	0.047475893
130	0x3d8200ae	0.06347786
131	0xbcd74aa4	-0.026280709
132	0x3d0dd7dd	0.03462969
133	0x3db16fde	0.08663915
134	0x3cff3018	0.031150863
135	0xbd1f7250	-0.038927376
136	0xbdabcec6	-0.08389048
137	0xbd4ca4c0	-0.049961805
138	0xbc7496d0	-0.014928535
139	0xbcae9838	-0.021312818
140	0x3de41e42	0.11138584
141	0xbd2ab95c	-0.04168068
142	0x3ccb8528	0.024843767
143	0x3d1a2a1c	0.037637815
144	0x3d5f5850	0.05452758
145	0x3e43f263	0.19135432
146	0x3e24f981	0.16110803
147	0x3de8573f	0.11344766
148	0x3e94ee3f	0.29088017
149	0xbe9991c2	-0.29994017
150	0x3e33eba2	0.17570356
151	0x3e305e71	0.17223527
152	0xbe2e3699	-0.17013015
153	0x3b8f2138	0.0043679737
154	0xbd877b06	-0.06615262
155	0x3c1fb383	0.009747389
156	0xbc5e64e2	-0.013573857
157	0xbce0dc7c	-0.027448885
158	0xbe129252	-0.1431363
159	0x3c26335b	0.01014408
160	0x3ba22993	0.0049488037
161	0xbda7603f	-0.08172654
162	0x3dca3b2a	0.09874566
163	0x3e020ec0	0.12700939
164	0x3dfe7cec	0.12426171
165	0x3deff824	0.11717251
166	0xbd89d1a0	-0.06729436
167	0xbb3dbf80	-0.0028953254
168	0xbe02a927	-0.12759839
169	0xbcc21eac	-0.023696266
170	0xbdc3eeb4	-0.095670134
171	0xbca6111c	-0.02027183
172	0xbc532549	-0.012887307
173	0x3cc45fff	0.023971556
174	0x3c8f4402	0.017488483
175	0x3c1e046e	0.009644611
176	0xbc5956e2	-0.013265343
177	0x3c2f6490	0.010705128
178	0xbc841eff	-0.016128061
179	0x3cceab30	0.025228113
180	0x3dc1a484	0.09455207
181	0x3e0e37af	0.13888429
182	0x3e163f93	0.14672689
183	0x3e2aadd2	0.1666787
184	0x3e546fc5	0.20745762
185	0x3e34700f	0.17620872
186	0x3db2e56e	0.087351665
187	0x3e13d547	0.14436828
188	0x3e22d884	0.15902907
189	0x3d734688	0.059393436
190	0xbd43c904	-0.047799125
191	0x3d9eff32	0.077635184
192	0xbd106d0a	-0.035260238
193	0xbe037bff	-0.1284027
194	0xbdad3f7e	-0.08459376
195	0xbe031ce2	-0.12803987
196	0xbd95a4ef	-0.07306849
197	0xbe046752	-0.12930039
198	0x3d8ceab7	0.06880706
199	0x3e1e15d4	0.15438014
200	0xbea50e48	-0.32237458
201	0x3ca322b7	0.019914014
202	0xbec93cac	-0.393041
203	0xbe798f06	-0.24370965
204	0x3e2ad596	0.16683039
205	0x3e8c4292	0.2739454
206	0xbea61f77	-0.3244588
207	0x3d01e868	0.03171578
208	0xbd1c39ef	-0.038141187
209	0x3d2b22ac	0.041781113
210	0xbe02d6c0	-0.12777233
211	0x3d2ac738	0.041693896
212	0xbb637a68	-0.003471041
213	0x3dd92e58	0.106045425
214	0xbca80f0e	-0.020514991
215	0x3d4d2f33	0.05009384
216	0x3db52fca	0.08847006
217	0x3df86900	0.12129402
218	0x3cad7bc8	0.021177188
219	0x3ca69b00	0.020337582
220	0x3dcfbc1c	0.10143301
221	0x3df9ab10	0.12190831
222	0xbd212aa6	-0.039347313
223	0x3d5a9c10	0.05337149
224	0x3d4bbb48	0.049739152
225	0x3d07faec	0.033198282
226	0x3c0b41b3	0.008499551
227	0x3c94cee1	0.018165054
228	0xbd686e90	-0.056746066
229	0xbb00808f	-0.0019607877
230	0x3d59f3b6	0.053210936
231	0xbe9a527d	-0.3014106
232	0xbdb8c0c4	-0.09021142
233	0xbd5dc15b	-0.054139476
234	0xbc16aa69	-0.009195902
235	0x3d174a37	0.03693601
236	0x3d4d271c	0.050086126
237	0x3be58cef	0.007005326
238	0x3da7306d	0.08163533
239	0x3d842332	0.064520255
240	0xbc36a876	-0.011148563
241	0xbcb69705	-0.022288809
242	0xbd5a91fe	-0.053361885
243	0x3df20df0	0.118190646
244	0x3d7109d0	0.05884725
245	0x3d807356	0.062719986
246	0xbd5601aa	-0.05224768
247	0xbcc0e3a4	-0.023546048
248	0xbde48e33	-0.11159935
249	0xbdfd2aad	-0.123616554
250	0xbdd55378	-0.10416311
251	0xbdda2f81	-0.10653592
252	0x3db170fe	0.0866413
253	0x3e33331a	0.17499962
254	0x3e8f9387	0.28042242
255	0x3dd43d83	0.10363295

bias f4 [6]
0	0xbe084b30	-0.13309932
1	0xbe36a82f	-0.17837594
2	0x3d8b887d	0.068131424
3	0xbe5eba16	-0.21750674
4	0xbcd82147	-0.026383055
5	0xbd845f82	-0.06463529

weight f4 [16, 6, 3, 3]
0	0xbdd53158	-0.10409802
1	0xbc3eda69	-0.011648753
2	0xbdfee635	-0.12446252
3	0x3d6dec45	0.058086652
4	0x3be70583	0.0070502176
5	0xbdc4b7ef	-0.09605395
6	0xbdc5ed3c	-0.096643895
7	0xbd0fdccf	-0.03512269
8	0x3dbc08da	0.09181376
9	0xbd1486bf	-0.036261316
10	0x3cff8cd3	0.03119508
11	0x3e2e2dc8	0.17009652
12	0xbb3a792e	-0.0028453576
13	0xbe122eb8	-0.14275634
14	0xbe3f8930	-0.18704677
15	0x3d9bfa06	0.076160476
16	0xbd515564	-0.051106825
17	0xbe04f0e3	-0.12982516
18	0x3d8ebfe3	0.06970193
19	0x3e075422	0.13215688
20	0xbdd6471f	-0.10462784
21	0xbd00bd6a	-0.03143064
22	0x3d0f9c96	0.03506144
23	0x3da2ad22	0.07943179
24	0x3d3f7f85	0.04675247
25	0x3db38d3d	0.087671734
26	0x3e17cc32	0.14823988
27	0xbd144a89	-0.036203895
28	0xbd8932e2	-0.06699158
29	0xbd5c82ab	-0.053835552
30	0x3e49bd83	0.19701199
31	0x3cda3457	0.026636286
32	0x3d45fdc7	0.048337724
33	0xbd901f0f	-0.07037174
34	0xbe61eaf2	-0.22062281
35	0x3e556fa2	0.20843366
36	0xbdb44cf3	-0.088037394
37	0x3cf978ea	0.030453164
38	0xbd720a1c	-0.059091672
39	0xbce1cc57	-0.027563257
40	0x3c493425	0.012280499
41	0x3d68b6ee	0.05681508
42	0xbc97dae8	-0.018537
43	0xbdce36b4	-0.100690275
44	0x3d3b9f7b	0.04580639
45	0x3db2893f	0.08717584
46	0xbe04257b	-0.12904923
47	0x3dc2fbfa	0.09520717
48	0xbd280871	-0.041023675
49	0x3d1080fd	0.035279263
50	0x3d9facc5	0.07796625
51	0x3dca3c0e	0.09874736
52	0xbcec9e4d	-0.028884077
53	0x3d9e4758	0.077284515
54	0xbd58a444	-0.05289103
55	0x3b3bd10d	0.002865854
56	0x3df5c87e	0.120011315
57	0xbccddbf2	-0.025129292
58	0x3b958817	0.0045633423
59	0xbc6bc943	-0.014391246
60	0xbdf03ff5	-0.11730949
61	0x3de6b66f	0.11265265
62	0x3da681cb	0.08130225
63	0x3d489a90	0.048975527
64	0xbbd26567	-0.0064207795
65	0xbda0f246	-0.0785871
66	0xbd87f657	-0.066387825
67	0x3d682449	0.05667523
68	0xbc337c58	-0.010954939
69	0xbd9fda63	-0.07805326
70	0x3da3f689	0.08006007
71	0x3dd2908f	0.102814786
72	0x3d254690	0.040350497
73	0xbe605ecf	-0.21911167
74	0x3cc18ff7	0.023628218
75	0xbe3aff6f	-0.18261503
76	0xbe290f5e	-0.16509768
77	0x3e5d5937	0.21616064
78	0xbd92cf2b	-0.071684204
79	0xbca69403	-0.02033425
80	0x3dc2bfde	0.09509252
81	0x3e42a980	0.19009972
82	0x3e3a0e72	0.18169573
83	0x3e12fdbe	0.14354607
84	0x3e29ae71	0.1657045
85	0x3d6efd9a	0.058347322
86	0x3e048250	0.12940335
87	0xbd98a743	-0.07453778
88	0xbe8d69f6	-0.27619904
89	0x3d226235	0.03964444
90	0xbc1da988	-0.009622939
91	0x3d788b9d	0.06068002
92	0x3d352127	0.04422107
93	0x3d23cb6d	0.039988924
94	0xbd96e7fa	-0.07368465
95	0xbde94205	-0.11389545
96	0x3c038602	0.008027555
97	0xbe1353d7	-0.14387451
98	0xbe70a528	-0.23500502
99	0x3e268c82	0.16264537
100	0xbe4cd060	-0.20001364
101	0xbdc6ddde	-0.097102866
102	0x3da4e958	0.08052319
103	0xbe3fe279	-0.18738736
104	0x3cce3192	0.025170121
105	0xbe0007ab	-0.12502925
106	0xbd59427a	-0.053041913
107	0x3e3d156f	0.18465208
108	0x3c999dc1	0.01875198
109	0x3d250f8c	0.04029803
110	0xbe6dd728	-0.23226607
111	0xbe43f8df	-0.19137906
112	0x3e069ac7	0.1314498
113	0xbb12828e	-0.0022355649
114	0xbbfd89c1	-0.007737369
115	0x3d42cc75	0.047558267
116	0x3d8214ce	0.063516244
117	0xbd5a6328	-0.05331722
118	0xbdbc724a	-0.092014864
119	0x3dca3262	0.09872891
120	0x3c06faa5	0.008238469
121	0xbbb4a197	-0.005512427
122	0x3dc2b389	0.095069
123	0xbdd40006	-0.10351567
124	0xbc810bc6	-0.015752684
125	0xbdb22505	-0.08698467
126	0xbe4b22ad	-0.19837447
127	0x38493f62	4.7981164e-05
128	0xbe525166	-0.20538864
129	0xbe3cc30c	-0.1843378
130	0xbd8928c1	-0.06697226
131	0xbe838bc8	-0.25692582
132	0x3dda9982	0.106738105
133	0x3c72e1b4	0.01482432
134	0xbdc04185	-0.09387497
135	0x3e055054	0.13018924
136	0xbe0a146c	-0.13484353
137	0xbdeb33d1	-0.114844926
138	0xbb4e73b0	-0.003150206
139	0xbe30d7bf	-0.172698
140	0xbe88914a	-0.26673347
141	0xbe0afa2d	-0.13571997
142	0xbdaa456c	-0.083140224
143	0x3d526eee	0.051375322
144	0xbdb8aec7	-0.09017711
145	0xbd4f8d13	-0.05067165
146	0xbeb4b701	-0.3529587
147	0x3d94a7cb	0.072585665
148	0x3c8f11d1	0.01746455
149	0xbd152391	-0.036410872
150	0x3d571546	0.052510522
151	0xbdab9dcc	-0.08379707
152	0x3d8ddc00	0.06926727
153	0x3d472b34	0.048625186
154	0x3e1d52e0	0.15363646
155	0xbdc0d592	-0.09415735
156	0xbc43bfd3	-0.01194759
157	0x3e1a4203	0.15064244
158	0xbc92ffb3	-0.017944193
159	0x3d557d98	0.05212173
160	0xbe310804	-0.17288214
161	0xbd06ce97	-0.032911863
162	0x3d1598a3	0.03652252
163	0xbe3df1c2	-0.18549255
164	0x3d8e86a6	0.06959276
165	0xbdeabc4d	-0.11461697
166	0xbdd0625b	-0.1017501
167	0x3c6dbeb4	0.014510799
168	0xbe49cf66	-0.19708022
169	0x3bc2d48a	0.005945747
170	0xbe04f911	-0.12985636
171	0xbbe1cd3f	-0.0068909223
172	0x3dfc0e8d	0.12307463
173	0x3dd956d8	0.10612267
174	0x3e1b4c50	0.1516583
175	0xbc9369f3	-0.017994856
176	0x3d95ef7b	0.07321068
177	0x3dac6c09	0.084190436
178	0x3e420b4e	0.18949625
179	0xbc4a4c5f	-0.01234731
180	0xbddf7148	-0.109102786
181	0xbe86c113	-0.2631918
182	0xbe7326f7	-0.23745333
183	0xbdfe4e8d	-0.12417326
184	0xbd497e63	-0.049192797
185	0xbcb00199	-0.021485137
186	0xbd8829c5	-0.06648592
187	0xbe59237f	-0.21204947
188	0x3c790e9a	0.015201235
189	0xbcbc0989	-0.022953765
190	0x3e208e44	0.1567927
191	0x3e295be0	0.16538954
192	0x3e0d07b5	0.13772471
193	0xbdce2788	-0.10066134
194	0xbe86f872	-0.26361424
195	0xbc647148	-0.013943024
196	0xbe2d4099	-0.16919173
197	0xbe1071d2	-0.14105919
198	0xbd6f4469	-0.05841485
199	0x3e42a650	0.19008756
200	0xbd7f16a7	-0.062277462
201	0xbdc8eeba	-0.098111585
202	0xbd2313aa	-0.039813675
203	0x3ca75713	0.020427262
204	0xbcf2640d	-0.029588724
205	0x3d4e2b8e	0.050334506
206	0x3de5e83f	0.11225938
207	0x3cde23ef	0.027116744
208	0xbdd5d874	-0.10441676
209	0xbe6c8583	-0.23097806
210	0x3d789631	0.06069011
211	0xbe04de26	-0.12975368
212	0x3c9589bd	0.018254155
213	0xbe580027	-0.21093808
214	0xbe1061e6	-0.14099845
215	0xbda8a828	-0.08235198
216	0xbd922cbe	-0.0713744
217	0xbd3b9fb0	-0.045806587
218	0x3c43afd5	0.011943777
219	0xbd074e29	-0.033033524
220	0x3e3f5b2b	0.18687122
221	0x3e03d05e	0.12872455
222	0x3daee4eb	0.085397564
223	0xbd788480	-0.060673237
224	0xbc8d12fb	-0.017220965
225	0x3a7adb44	0.0009569416
226	0xbb4295bb	-0.0029691297
227	0x3cf528c6	0.029926669
228	0xbd7f36ff	-0.062308308
229	0x3de84c4c	0.113426775
230	0x3e1b887e	0.15188786
231	0xbd2f5ffb	-0.042816143
232	0x3ac69dba	0.0015153207
233	0x3e2ddccd	0.1697876
234	0xbe398fec	-0.18121308
235	0xbc4222fd	-0.011849162
236	0x3d8aad95	0.067713894
237	0xbe6e6c9b	-0.23283617
238	0x3db9e431	0.09076727
239	0xbddeef2b	-0.108854614
240	0x3de27668	0.110577404
241	0x3c9ddd41	0.019270541
242	0xbe5c095e	-0.21487948
243	0xbccbef75	-0.024894455
244	0x3e283a5c	0.16428512
245	0xbe5babee	-0.21452305
246	0xbd4521bb	-0.04812787
247	0xbe4404e4	-0.1914249
248	0xbd622184	-0.055207744
249	0x3e19b15b	0.15009062
250	0x3b90ed80	0.0044228435
251	0x3de2949c	0.11063501
252	0xbce3ce47	-0.027808322
253	0x3cc33b11	0.023831876
254	0x3d871326	0.06595449
255	0xbdc2724f	-0.09494459

bias f4 [16]
0	0xbce38a33	-0.02777586
1	0x3c683362	0.014172407
2	0x3cbf1959	0.023327516
3	0xbb61578a	-0.0034384453
4	0xbc8f22f2	-0.017472718
5	0xbe04791a	-0.12936822
6	0xbc031708	-0.008001097
7	0x3dbe97fa	0.09306331
8	0xbdb3f6ab	-0.087872826
9	0x3c44a970	0.012003288
10	0x3d1ba90d	0.038003016
11	0xbcc7e146	-0.024399411
12	0xbddf2d6b	-0.10897335
13	0x3cfd6fad	0.03093704
14	0x3d2d7fef	0.042358335
15	0x3e1a1365	0.15046461

weight f4 [32, 16, 3, 3]
0	0xbdbd22b9	-0.092351384
1	0xbe7d5b27	-0.24741803
2	0xbe16138c	-0.14655894
3	0xbc0416f2	-0.008062111
4	0x3d95525b	0.07291099
5	0xbe0a0eae	-0.13482162
6	0xbe2c4176	-0.16821846
7	0xbc38180b	-0.011236201
8	0xbe06349e	-0.1310601
9	0xbe9d1265	-0.30678096
10	0xbe212fed	-0.15740938
11	0x3e0f3f3b	0.13988964
12	0xbe0c8faa	-0.13726678
13	0x3ca33288	0.019921556
14	0x3e8328e3	0.25617132
15	0x3cb5fff5	0.022216776
16	0x3e517afd	0.20457073
17	0x3e6f7f72	0.2338846
18	0xbe11ebd4	-0.14250118
19	0xbdd76237	-0.1051678
20	0xbdf8b59b	-0.121440135
21	0xbd9e58a2	-0.07731749
22	0x3d48cd9c	0.04902421
23	0x3e0d3e6c	0.13793343
24	0xbb38a67e	-0.002817541
25	0x3df9ac44	0.1219106
26	0x3de1eef9	0.110319085
27	0xbe0cd009	-0.13751234
28	0xbda08aab	-0.07838949
29	0xbd79fdf2	-0.061033197
30	0xbd086b49	-0.03330544
31	0x3e397c09	0.18113722
32	0xbba907f3	-0.0051584183
33	0x3d27e460	0.04098928
34	0x3e4adbb5	0.19810374
35	0x3d81decf	0.063413255
36	0xbde6fa3b	-0.112781964
37	0xbca90def	-0.020636527
38	0x3d4980e2	0.049195178
39	0xbe832c0f	-0.25619552
40	0xbe22bc5d	-0.15892167
41	0x3ce5f882	0.0280726
42	0xbdcaecf1	-0.09908474
43	0x3d408a08	0.047006637
44	0xbd45bbc2	-0.048274763
45	0xbd39ac84	-0.04533054
46	0x3d52e238	0.05148527
47	0x3d99ed0a	0.07515915
48	0xbd2bd3be	-0.04194998
49	0xbd94627d	-0.07245348
50	0x3dd9eee2	0.106412664
51	0xbdbebf3d	-0.093138196
52	0xbeb46385	-0.35232177
53	0xbd223d7f	-0.03960943
54	0x3d93bbea	0.07213576
55	0xbe0895ec	-0.1333844
56	0xbea156e4	-0.31511605
57	0xbe213bcb	-0.15745465
58	0xbe95f65d	-0.29289523
59	0xbed33eec	-0.41258943
60	0xbdaec2df	-0.085332625
61	0xbd91f4b6	-0.07126753
62	0xbea6d494	-0.3258406
63	0xbdbdd96e	-0.09269987
64	0xbe4bb1b4	-0.19892007
65	0xbd9ada02	-0.07561113
66	0xbd0e4e4f	-0.03474265
67	0xbd206794	-0.03916128
68	0xbbca6492	-0.0061765397
69	0xbcdd7768	-0.027034476
70	0x3d5fe179	0.054658387
71	0xbc255537	-0.010091118
72	0xbeebbdbc	-0.46043193
73	0xbdc6df5f	-0.097105734
74	0xbe3d0252	-0.18457916
75	0xbb686db3	-0.0035465776
76	0x3db99550	0.09061682
77	0xbe181cfa	-0.14854804
78	0xbe25a126	-0.16174755
79	0xbe4b4444	-0.1985026
80	0xbe90df3e	-0.2829532
81	0xbe43d484	-0.19124037
82	0xbd39027f	-0.045168396
83	0x3d864e50	0.06557906
84	0xbdcf44d5	-0.101205505
85	0x3e1bf54a	0.15230289
86	0x3d6f450f	0.05841547
87	0xbd04e1e4	-0.03244199
88	0xbdb083e5	-0.08618907
89	0xbdb59a41	-0.08867312
90	0xbdf0d47f	-0.117592804
91	0x3d2ab28f	0.041674193
92	0xbbcdf785	-0.00628561
93	0xbd8b54f2	-0.068033114
94	0x3d4f4c59	0.05060992
95	0x3e5cd365	0.21565016
96	0xbdee5fdc	-0.116393775
97	0xbc880868	-0.01660557
98	0x3cc46e95	0.02397851
99	0xbeb4ecc5	-0.3533689
100	0x3c457350	0.012051418
101	0x3e497b8a	0.19676033
102	0x3e2e6685	0.17031296
103	0xbc5406e2	-0.012941094
104	0x3cf33f25	0.029693196
105	0x3d518b04	0.051157966
106	0x3d292a14	0.041299894
107	0x3dbde802	0.092727676
108	0x3d274d7e	0.040845387
109	0x3d339a64	0.04384841
110	0x3ddb62b5	0.10712186
111	0xbd62f1a6	-0.055406235
112	0xbdde6564	-0.108591825
113	0x3e89e9ef	0.2693629
114	0x3e1bda54	0.15220004
115	0x3ddea5ce	0.108714685
116	0x3d9528bc	0.0728316
117	0xbe1abe42	-0.1511164
118	0x3ba6e6d1	0.0050934334
119	0xbdb33c84	-0.08751777
120	0x3c184bb3	0.009295392
121	0x3deb392f	0.11485516
122	0x3ca1ac58	0.0197355
123	0xbc67392e	-0.014112754
124	0xbceee4ee	-0.029161897
125	0xbc82a911	-0.015949758
126	0xbe13466f	-0.14382337
127	0xbdca6adf	-0.09883665
128	0xbcd99009	-0.02655794
129	0xbd1d9243	-0.038469564
130	0x3da4024a	0.08008249
131	0x3d86c80f	0.06581127
132	0xbdaf270e	-0.08552371
133	0xbcc05f94	-0.023483075
134	0xbe00eb04	-0.12589651
135	0xbdd8c308	-0.10584074
136	0xbd2a337a	-0.041552998
137	0xbdc39e13	-0.09551635
138	0xbc9f8cd4	-0.019476332
139	0xbd3dc9ca	-0.04633502
140	0x3e02e393	0.12782125
141	0x3c1dcb72	0.009631025
142	0x3ce1c2b4	0.027558662
143	0x3c1dbbdd	0.00962731
144	0x3d058116	0.03259381
145	0x3d7a0360	0.061038375
146	0xbe70ff31	-0.23534848
147	0x3e00ae5e	0.12566516
148	0xba5dd6c0	-0.0008462481
149	0xbdb77897	-0.089585476
150	0xbcebd76a	-0.02878924
151	0xbcf6fdd9	-0.03015034
152	0x3d173dc4	0.03692414
153	0x3d20a941	0.039223913
154	0x3d42b633	0.04753704
155	0xbbaaccae	-0.005212388
156	0x3d9b0f70	0.07571304
157	0x3d177045	0.036972303
158	0xbd7649d6	-0.06012901
159	0x3d590a5f	0.052988406
160	0x3d0f1b8e	0.034938388
161	0x3ab1605c	0.0013532746
162	0xbc05ff40	-0.008178532
163	0x3dbe46e2	0.092908636
164	0xbcc0fdf1	-0.023558589
165	0x3d94dad1	0.072682984
166	0x3d8da662	0.06916501
167	0xbc0a2671	-0.008432017
168	0x3d3f4361	0.046695117
169	0xbca0e338	-0.019639596
170	0x3ca03516	0.019556563
171	0xbe5941e9	-0.21216549
172	0xbe04f8b1	-0.12985493
173	0xbe474de9	-0.19463314
174	0xbe558e26	-0.20855007
175	0xbe3111f3	-0.17292003
176	0xbd96b148	-0.073580325
177	0xbe5833e4	-0.21113545
178	0xbd8d5a1f	-0.06901955
179	0xbda3310f	-0.079683416
180	0x3e0164b7	0.12636076
181	0x3c96574b	0.018352171
182	0x3dea7eee	0.11449991
183	0xbe04dc9e	-0.12974784
184	0xbda27600	-0.07932663
185	0x3d93279e	0.07185291
186	0xbe173e72	-0.14769915
187	0xbd4d02b9	-0.050051425
188	0xbc82d4aa	-0.015970547
189	0x3b42534f	0.0029651707
190	0x3d23577c	0.039878353
191	0x3db57558	0.08860272
192	0x3e386678	0.18007839
193	0x3e0eb01d	0.1393437
194	0x3e2f3baf	0.17112611
195	0x3dac8819	0.08424396
196	0x3da873a9	0.082251854
197	0x3ded6516	0.11591546
198	0x3d5e4f24	0.054274693
199	0xbb1e01a4	-0.0024109865
200	0xbe02a030	-0.12756419
201	0xbd34dded	-0.044156957
202	0x3dcf2a45	0.10115484
203	0xbdad2f80	-0.084563255
204	0x3d5b7fd1	0.053588692
205	0x3dd0a24c	0.10187206
206	0x3b6c8aef	0.0036093553
207	0x3d60fb15	0.05492695
208	0x3c839da2	0.016066376
209	0x3d8f8916	0.07008569
210	0x3dac581f	0.08415245
211	0x3dc9289f	0.09822201
212	0x3da0707f	0.07833957
213	0xb9a49b80	-0.00031396374
214	0xbb5f8708	-0.0034107585
215	0x3dd18bf6	0.102317736
216	0x3d7528b4	0.05985327
217	0x3d751380	0.05983305
218	0x3dad6cbc	0.08468005
219	0xbc28a427	-0.010293043
220	0x3d8bb2c5	0.06821207
221	0x3d8643d2	0.065559044
222	0xbd9991d4	-0.07498518
223	0x3db8f30d	0.09030733
224	0x3e24dc63	0.16099696
225	0xbdc836ec	-0.097761005
226	0xbe03e62f	-0.12880777
227	0xbd582e02	-0.05277825
228	0xbc8ba068	-0.017044261
229	0xbea3cc5a	-0.31991845
230	0xbdf6ca03	-0.120502494
231	0xbdafc1ee	-0.08581911
232	0xbe2df628	-0.16988432
233	0xbe0faba6	-0.14030322
234	0xbdf57218	-0.11984652
235	0xbe61d30a	-0.22053161
236	0x3d529eb3	0.05142088
237	0xbe0b92e3	-0.13630252
238	0xbd86bafa	-0.06578632
239	0x3cde3f62	0.027129833
240	0x3d92ab16	0.07161538
241	0xbc39af21	-0.011333258
242	0x3c44b2e0	0.012005538
243	0x3cb0b983	0.021572834
244	0xbdc08c77	-0.094017915
245	0xbe7bf6e2	-0.24605897
246	0xbd7b13a8	-0.061298043
247	0xbe4222de	-0.18958613
248	0x3dbcf33b	0.0922608
249	0x3b5c578b	0.0033621516
250	0xbce4d14e	-0.027931836
251	0xbb546387	-0.0032407956
252	0x3df2466e	0.1182984
253	0x3d74e38d	0.05978732
254	0xbcdb6dd0	-0.026785761
255	0x3e1c9b49	0.15293612

bias f4 [32]
0	0x3da688be	0.0813155
1	0xbd49012c	-0.049073383
2	0xbcf6f4fb	-0.030146113
3	0xbdb8b6a5	-0.09019212
4	0x3cdf142c	0.027231298
5	0xbd063739	-0.03276751
6	0xbd0d5d61	-0.03451288
7	0xbd0fb34f	-0.03508311
8	0xbd3b5ced	-0.045742918
9	0xbdf549e6	-0.11976986
10	0xbd5fd950	-0.054650605
11	0xbdaff739	-0.08592076
12	0xbd6e3d27	-0.05816379
13	0xbe02b0ad	-0.12762709
14	0xbda09229	-0.07840378
15	0xbd812663	-0.0630615
16	0x3d1eee1e	0.038801305
17	0xbd1fd395	-0.03902014
18	0xbc278319	-0.010224127
19	0x3cb25503	0.021769052
20	0xbcc85ba8	-0.024457768
21	0xbd710653	-0.058843922
22	0xbd290284	-0.041262165
23	0x3c8dc4ce	0.017305758
24	0xbc9c36ed	-0.01906916
25	0xbd21ffd0	-0.039550602
26	0xbda8557a	-0.08219428
27	0xbbca993f	-0.006182819
28	0x3c2baf8c	0.010478865
29	0xbc284dfa	-0.010272497
30	0xbd06247f	-0.03274965
31	0x3ae6a66b	0.0017597204

weight f4 [5, 11552]
0	0xbe01709c	-0.12640613
1	0xbe09e510	-0.13466287
2	0xbe0ab67f	-0.13546179
3	0xbdf0d80c	-0.11759958
4	0xbdfbb86f	-0.12291037
5	0xbe032b43	-0.12809472
6	0xbdfe46b7	-0.124158315
7	0xbdf1f1b8	-0.11813682
8	0xbdf90ad1	-0.12160266
9	0xbdf9885a	-0.1218421
10	0xbdf2f16e	-0.11862455
11	0xbdf2a701	-0.1184826
12	0xbde3de8a	-0.1112643
13	0xbe063c69	-0.13108982
14	0xbdfc856a	-0.12330134
15	0xbe097823	-0.13424735
16	0xbdf2bb05	-0.118520774
17	0xbe0966ae	-0.13418075
18	0xbe11705b	-0.14203016
19	0xbe09d467	-0.13459931
20	0xbdb99148	-0.09060913
21	0x3d880cc3	0.06643059
22	0x3dd2c134	0.10290757
23	0x3e99ac62	0.3001433
24	0x3eb6ce42	0.35704237
25	0x3e4f3aba	0.20237246
26	0x3e9eb928	0.31000638
27	0x3ecbc065	0.39795223
28	0x3ef11336	0.4708497
29	0x3ebc8bdd	0.36825457
30	0x3ef08510	0.4697652
31	0x3eb1f225	0.34755054
32	0x3ee46292	0.44606453
33	0x3ed93fd0	0.42431498
34	0x3edc7e88	0.43065286
35	0x3f151730	0.58238506
36	0x3e2387ed	0.1596982
37	0x3d4a7e2f	0.049436744
38	0xbe03c5a7	-0.12868367
39	0xbdc3a288	-0.09552485
40	0x3da433bd	0.08017681
41	0x3e99e44f	0.30056998
42	0x3e1ede8a	0.1551458
43	0x3eb191ec	0.34681642
44	0x3ebbb830	0.3666396
45	0x3ed021c3	0.40650758
46	0x3ec6b9e3	0.38813695
47	0x3ecdf346	0.40224665
48	0x3ea67f1f	0.3251886
49	0x3efc57e9	0.4928582
50	0x3eed965b	0.46403775
51	0x3f0a21af	0.5395765
52	0x3f1c53e0	0.61065483
53	0x3f16928d	0.5881737
54	0x3f29f7c8	0.6639371
55	0x3ec12cb6	0.37729424
56	0x3e6e1b66	0.23252639
57	0xbe057724	-0.1303373
58	0xbd903872	-0.07042016
59	0x3e5b644c	0.21424979
60	0x3dfe43eb	0.12415298
61	0x3ea53234	0.32264864
62	0x3ebbdbe8	0.36691213
63	0x3f00d65b	0.5032708
64	0x3eba6e42	0.36412245
65	0x3e914a95	0.28377214
66	0x3e87e76d	0.2654375
67	0x3e9a7fa4	0.30175507
68	0x3ec7fc22	0.3905955
69	0x3ed2c1c4	0.41163456
70	0x3eb65897	0.35614464
71	0x3ef7f62a	0.48429996
72	0x3f31d2be	0.6946219
73	0x3f42cebf	0.7609672
74	0x3f00edcc	0.5036285
75	0x3e8e489f	0.2778978
76	0xbdecfcc0	-0.11571646
77	0xb6de77c6	-6.630059e-06
78	0x3e46a763	0.1939979
79	0x3e4b50d1	0.19855048
80	0x3ed37150	0.41297388
81	0x3ebe6c7b	0.3719214
82	0x3eef67cb	0.46758875
83	0x3ebfad2c	0.37436807
84	0x3ec4ba6a	0.38423473
85	0x3eb17bb9	0.34664705
86	0x3edef13a	0.43543416
87	0x3e86be81	0.26317218
88	0x3ed4ca29	0.41560486
89	0x3e8c1e48	0.27366853
90	0x3ef904aa	0.4863637
91	0x3f109ce6	0.5648941
92	0x3f2374d9	0.6385017
93	0x3f0171e9	0.5056444
94	0x3e8206e8	0.25395894
95	0xbde575fc	-0.11204144
96	0xbdb9a1ff	-0.090641014
97	0x3c86c9c5	0.016453633
98	0x3e4f272e	0.2022979
99	0x3e87724a	0.26454383
100	0x3eae7355	0.34072366
101	0x3ebf79bc	0.37397563
102	0x3e8be014	0.27319396
103	0x3eb7b451	0.35879758
104	0x3ee3637f	0.44411847
105	0x3e9152c0	0.28383446
106	0x3ea3a7c8	0.31963944
107	0x3eb58e76	0.35460252
108	0x3e935141	0.2877293
109	0x3e8ffff3	0.2812496
110	0x3eafd6e9	0.3434365
111	0x3f1e951a	0.6194626
112	0x3f3850db	0.71998376
113	0x3ed1d89b	0.4098557
114	0xbdc0f6aa	-0.094220474
115	0xbd867714	-0.06565681
116	0x3e2c0a98	0.16800916
117	0x3e1afb9a	0.15135041
118	0x3ed537f3	0.41644248
119	0x3e647d2b	0.22313373
120	0x3e6e7db9	0.23290147
121	0x3ed5be87	0.41746923
122	0x3e6d5e62	0.23180535
123	0x3eae7d59	0.34080008
124	0x3e376aae	0.17911789
125	0x3e92c80e	0.28668255
126	0x3e6a3a61	0.22873832
127	0x3e889648	0.26677155
128	0x3e481410	0.19538903
129	0x3e75e879	0.24014463
130	0x3f082c99	0.5319305
131	0x3f3a18c3	0.72694033
132	0x3e629865	0.22128446
133	0xbdc9dfe3	-0.09857156
134	0xbb257adb	-0.002525023
135	0x3e770a37	0.2412499
136	0x3ee1934e	0.44057697
137	0x3e82e5f0	0.25566053
138	0x3e7f4c48	0.24931443
139	0x3e6d73e3	0.23188739
140	0x3e3056d0	0.17220616
141	0x3e8ed283	0.27894983
142	0x3e449e1c	0.19200939
143	0x3e8b5978	0.27216697
144	0x3e0003d7	0.12501465
145	0x3e0a554a	0.13509098
146	0x3e4fc531	0.20290066
147	0x3e32c54f	0.1745808
148	0x3e6c92c7	0.23102866
149	0x3efcc269	0.49367073
150	0x3f317ae5	0.6932815
151	0x3e16f06c	0.14740151
152	0xbe0030e4	-0.1251865
153	0x3e0a52c5	0.13508137
154	0x3e3ac53d	0.18239303
155	0x3ebe49d8	0.37165713
156	0x3e9dbcda	0.30808145
157	0x3ebb373b	0.36565575
158	0x3e196792	0.14980915
159	0x3e60b56e	0.2194421
160	0x3d87d529	0.06632454
161	0xbd009bd5	-0.031398613
162	0xbd229999	-0.039697263
163	0x3dd2f587	0.10300737
164	0x3da159a6	0.07878427
165	0x3d329aec	0.043604776
166	0x3e776db4	0.24162942
167	0x3e0a5b59	0.13511409
168	0x3ee70146	0.4511816
169	0x3f4200f1	0.75782686
170	0x3ea602ec	0.32424104
171	0xbdfae53b	-0.122507535
172	0x3d4d4547	0.050114896
173	0x3e1001a8	0.14063132
174	0x3eab6cef	0.33481547
175	0x3ea99e1a	0.33128434
176	0x3e8f6ff7	0.2801511
177	0x3e601cb3	0.21885948
178	0x3e3ee477	0.1864184
179	0x3da7bc01	0.08190156
180	0xbe994c4a	-0.29941016
181	0xbe815d41	-0.2526646
182	0xbd8b6094	-0.0680553
183	0xbcc6ef32	-0.02428398
184	0x3da6f766	0.08152656
185	0x3e70351c	0.2345776
186	0x3e82ab3d	0.2552127
187	0x3e8cc153	0.27491245
188	0x3f45740d	0.77130204
189	0x3ec305c9	0.3809035
190	0xbdc3dc00	-0.09563446
191	0xbcb62911	-0.022236379
192	0x3e8de10d	0.27710763
193	0x3e6981bf	0.228034
194	0x3ecff651	0.40617612
195	0x3e8c0bbb	0.273527
196	0x3e9a485d	0.30133334
197	0x3e561f98	0.2091049
198	0x3d953fb6	0.072875425
199	0xbd9f4a85	-0.07777885
200	0xbe0e1a7f	-0.13877295
201	0x3cd4ae2f	0.025961963
202	0x3cfc414f	0.03079286
203	0x3e238596	0.15968928
204	0x3e847b96	0.2587554
205	0x3e060b6f	0.13090299
206	0x3e768bd4	0.24076778
207	0x3f2aba2a	0.66690314
208	0x3ec336b5	0.38127676
209	0xbde88813	-0.11354079
210	0xbd1b4de4	-0.03791608
211	0x3e9a600e	0.3015141
212	0x3eaee9c7	0.34162733
213	0x3eccff48	0.40038514
214	0x3eb33d02	0.35007483
215	0x3e838d9c	0.25693977
216	0x3e7ac78f	0.24490188
217	0x3eaff5bd	0.3436717
218	0x3e6ca289	0.23108877
219	0x3df6fde9	0.12060148
220	0x3e624d1c	0.22099727
221	0x3e79f9e8	0.24411738
222	0x3eabe927	0.3357632
223	0x3e9f078f	0.31060454
224	0x3ea73217	0.32655403
225	0x3edbcceb	0.42929778
226	0x3f34046b	0.7031924
227	0x3ea8b121	0.3294764
228	0xbde44682	-0.11146261
229	0x3d635072	0.05549664
230	0x3e84eb81	0.25960925
231	0x3eb63544	0.35587513
232	0x3ef0c083	0.47021875
233	0x3ec95cb9	0.39328554
234	0x3e9680b0	0.29395056
235	0x3ed24e19	0.4107521
236	0x3ec9826c	0.39357316
237	0x3e6e2ffc	0.23260492
238	0x3e8569a9	0.26057175
239	0x3e6a38bc	0.22873205
240	0x3e86b3f9	0.26309183
241	0x3e9cc595	0.30619493
242	0x3eb710c8	0.3575499
243	0x3ec50910	0.38483477
244	0x3f22f2d5	0.6365178
245	0x3f333808	0.7000737
246	0x3ebc70de	0.3680486
247	0xbe0091a4	-0.12555557
248	0x3d4a9767	0.049460795
249	0x3ecfc963	0.40583333
250	0x3e4522d5	0.19251569
251	0x3e9820ef	0.29712626
252	0x3ecbb7f5	0.39788786
253	0x3ef65592	0.4811216
254	0x3eea869b	0.4580582
255	0x3ea848a2	0.32867914

bias f4 [5]
0	0xbdee72c9	-0.11642987
1	0xbdecc95a	-0.11561842
2	0xbdca1017	-0.0986635
3	0xbdc876b5	-0.097882666
4	0xbdcb3bd9	-0.099235244
