archived_data/b1_r0_m8_s100--2019-03-03--165203.596044/episode_17750.model (torch_old, 268278 bytes, 8 tensors)

weight f4 [6, 6, 3, 3]
0	0xbdca8d72	-0.0989026
1	0x3db34d66	0.08754997
2	0x3bd91f60	0.0066260546
3	0x3e06b8b4	0.13156396
4	0xbc83cb8c	-0.01608827
5	0xbccb4998	-0.024815366
6	0xbc41c5b8	-0.011826925
7	0x3dbcc88c	0.09217939
8	0xbd449d42	-0.048001535
9	0x3de8a824	0.11360195
10	0x3d3adf2f	0.045623
11	0x3d3225ff	0.043493267
12	0xbd68c688	-0.05682996
13	0x3ce42015	0.02784733
14	0xbce1b085	-0.027549991
15	0xbdb4806d	-0.08813558
16	0xbd02a1b6	-0.0318925
17	0xbcddc638	-0.027072057
18	0x3e03bfaa	0.12866083
19	0x3d896361	0.06708408
20	0x3d9b691e	0.07588409
21	0x3d0f8856	0.03504213
22	0x3dcabbb5	0.098990835
23	0x3cd99361	0.026559534
24	0x3daaac36	0.08333628
25	0x3db1f806	0.08689885
26	0x3d8ed43d	0.06974075
27	0xbd8d4be6	-0.06899242
28	0xbd694c9a	-0.05695782
29	0xbdd4395e	-0.103625044
30	0x3d2189fc	0.039438233
31	0x3dc3904c	0.09549007
32	0xbd7e0bc6	-0.062022947
33	0x3da8119c	0.08206484
34	0xbdf81bbf	-0.12114667
35	0x3d2cb560	0.04216516
36	0x3ddbc7ba	0.10731454
37	0xbd267c3c	-0.040645823
38	0x3ccc019e	0.024903115
39	0xbe70bfc9	-0.2351066
40	0xbd4dce0e	-0.050245337
41	0xbe435f63	-0.19079356
42	0xbed6033e	-0.4179935
43	0xbe991271	-0.29896882
44	0xbe20199e	-0.15634772
45	0x3da0efbb	0.07858225
46	0x3d28953b	0.041157942
47	0x3c613872	0.013746368
48	0x3d6e14a0	0.05812514
49	0x3d2fe469	0.04294244
50	0xbdc04164	-0.09387472
51	0x3def4a82	0.11684133
52	0xbd2e5757	-0.042563763
53	0xbbcff5cb	-0.0063464395
54	0xbdcaba2c	-0.09898791
55	0x3dd96410	0.106147885
56	0x3da07e60	0.07836604
57	0xbde06422	-0.10956599
58	0x3df0cba8	0.11757594
59	0xbd8aa148	-0.06769043
60	0x3dbb4032	0.09143104
61	0x3cc15dc8	0.023604289
62	0xbda268c6	-0.0793014
63	0xbda1cfb2	-0.07900943
64	0xbdb8ff6e	-0.09033094
65	0x3d73ac3c	0.059490427
66	0x3cf3ade9	0.029746013
67	0xbd03be40	-0.03216386
68	0x3d751a1a	0.059839346
69	0x3d2685e5	0.040655036
70	0x3d487fd0	0.048950016
71	0xbb56a688	-0.003275307
72	0xbcd79578	-0.02631639
73	0xbd4a77e5	-0.049430747
74	0x3d5f1b93	0.054469656
75	0x3d2f4a7e	0.04279565
76	0xb9ab8a66	-0.00032718776
77	0x3da3d71e	0.08000015
78	0x3d86984b	0.06572016
79	0x3db02857	0.08601444
80	0x3ce1d283	0.0275662
81	0x3db28dfc	0.087184876
82	0xbb9aaf80	-0.0047206283
83	0x3d84e880	0.06489658
84	0x3c3e3840	0.011610091
85	0x3d7a5da0	0.061124444
86	0x3db8cc36	0.09023325
87	0xbd592e32	-0.05302257
88	0xbc718ee0	-0.014743537
89	0x3dc0e89a	0.09419365
90	0x3e2ae65c	0.16689438
91	0xbecb2060	-0.39673138
92	0xbea2c014	-0.3178717
93	0x3da19d1e	0.07891296
94	0xbe273a35	-0.16330798
95	0x3e08fe10	0.13378167
96	0x3d846a0a	0.06465538
97	0x3e2e6b81	0.17033197
98	0x3e8d5a46	0.27607936
99	0x3e19f334	0.15034181
100	0xbd972d2d	-0.073816635
101	0x3d94a66c	0.07258305
102	0x3cdf70a7	0.027275397
103	0x3d801c9a	0.06255455
104	0xbd9dd056	-0.077057526
105	0xbdbc4071	-0.09191979
106	0xbcfce5cd	-0.030871296
107	0x3d92e818	0.071731746
108	0x3d7b56e8	0.061362177
109	0x3d031fb0	0.03201264
110	0xbd8593b0	-0.0652231
111	0x3dcea446	0.100899264
112	0x3d2cd4c4	0.042195097
113	0xbdaf57dc	-0.0856168
114	0xbdd17d1b	-0.1022894
115	0x3e084814	0.13308746
116	0xbcb8e104	-0.022568233
117	0x3d67f0c9	0.056626115
118	0x3d2858f8	0.041100472
119	0x3c8c08ea	0.017094094
120	0xbae32854	-0.0017330744
121	0xbc8d0b75	-0.017217377
122	0xbe3780c8	-0.1792022
123	0xbcdec205	-0.027192125
124	0x3d3f52dd	0.046709884
125	0xbc815539	-0.015787708
126	0x3d42a86b	0.047523897
127	0x3d50219d	0.050813306
128	0x3dcdaa11	0.10042203
129	0x3d0ab873	0.03386731
130	0x3d132d80	0.035932064
131	0xbe04c57c	-0.1296596
132	0x3b9fad9a	0.00487299
133	0x3db2e134	0.0873436
134	0x3c17b6e4	0.009259913
135	0xbd1f7250	-0.038927376
136	0xbdabcec6	-0.08389048
137	0xbd4ca4c0	-0.049961805
138	0xbc7496d0	-0.014928535
139	0xbcae9838	-0.021312818
140	0x3de41e42	0.11138584
141	0xbd2ab95c	-0.04168068
142	0x3ccb8528	0.024843767
143	0x3d1a2a1c	0.037637815
144	0x3cab2580	0.020891905
145	0xbb8e7c76	-0.004348333
146	0x3e46188c	0.19345301
147	0x3e392ed7	0.18084274
148	0x3e42b960	0.19016027
149	0xbea4522f	-0.3209395
150	0x3d9e6791	0.077345975
151	0x3e3a87e3	0.18215899
152	0xbe2ad0b5	-0.16681178
153	0x3c86fd77	0.016478283
154	0xbd68ad67	-0.056805994
155	0x3cff1db1	0.031142088
156	0xbccfc975	-0.025364617
157	0xbdb752aa	-0.08951314
158	0xbe0c4eea	-0.13701978
159	0xbd001286	-0.031267665
160	0x3cf7e13d	0.03025877
161	0xbda0bb7b	-0.07848259
162	0x3dca3b2a	0.09874566
163	0x3e020ec0	0.12700939
164	0x3dfe7cec	0.12426171
165	0x3deff824	0.11717251
166	0xbd89d1a0	-0.06729436
167	0xbb3dbf80	-0.0028953254
168	0xbe02a927	-0.12759839
169	0xbcc21eac	-0.023696266
170	0xbdc3eeb4	-0.095670134
171	0xbc962fdc	-0.018333368
172	0x3ad5bda7	0.0016307131
173	0x3d28f22b	0.041246574
174	0x3d1e0ce1	0.0385865
175	0x3c3c33b9	0.011486941
176	0xbc7aae3c	-0.01530033
177	0xbbe5a32d	-0.0070079775
178	0xbc97a6dc	-0.018512182
179	0x3d44c679	0.04804084
180	0x3d6cb5c7	0.057790544
181	0x3d83eb0b	0.06441315
182	0x3dd91b28	0.10600883
183	0x3dffe9c5	0.1249576
184	0x3dde6053	0.10858216
185	0x3db67586	0.089091346
186	0x3d2269fd	0.03965186
187	0x3d6f7b5c	0.058467254
188	0x3de61723	0.11234882
189	0x3d734688	0.059393436
190	0xbd43c904	-0.047799125
191	0x3d9eff32	0.077635184
192	0xbd106d0a	-0.035260238
193	0xbe037bff	-0.1284027
194	0xbdad3f7e	-0.08459376
195	0xbe031ce2	-0.12803987
196	0xbd95a4ef	-0.07306849
197	0xbe046752	-0.12930039
198	0x3d3bfd33	0.045895766
199	0x3e5586ee	0.20852253
200	0xbe973041	-0.29529002
201	0xbd81c8f3	-0.06337156
202	0xbed4077e	-0.41411966
203	0xbe88bab0	-0.2670493
204	0x3e222756	0.15835318
205	0x3e67e149	0.22644533
206	0xbea516b0	-0.32243872
207	0x3c691ea0	0.014228493
208	0xbd981310	-0.07425511
209	0x3d802dfa	0.06258769
210	0xbe08736f	-0.13325284
211	0x3cda5efe	0.026656624
212	0x3cf267f4	0.029590584
213	0x3ddccbbb	0.10781046
214	0xbd127b0d	-0.03576188
215	0x3d049e4d	0.03237753
216	0x3db52fca	0.08847006
217	0x3df86900	0.12129402
218	0x3cad7bc8	0.021177188
219	0x3ca69b00	0.020337582
220	0x3dcfbc1c	0.10143301
221	0x3df9ab10	0.12190831
222	0xbd212aa6	-0.039347313
223	0x3d5a9c10	0.05337149
224	0x3d4bbb48	0.049739152
225	0x3d24eea5	0.04026665
226	0xbd512ad1	-0.051066224
227	0x3d438124	0.04773058
228	0xbd5c660b	-0.053808253
229	0xbd08ca61	-0.03339613
230	0x3d36e62d	0.044653106
231	0xbd966d48	-0.073450625
232	0xbda30f4a	-0.079619005
233	0xbd40001f	-0.046875115
234	0x3d36d38d	0.044635344
235	0xbc925f02	-0.017867569
236	0x3ca74254	0.02041737
237	0xbcb1b3c4	-0.021692164
238	0x3b99e57b	0.0046965457
239	0x3db1e704	0.08686641
240	0xbd23f041	-0.040024046
241	0xbcc72c1d	-0.024313027
242	0xbd91ecc3	-0.07125237
243	0x3df20df0	0.118190646
244	0x3d7109d0	0.05884725
245	0x3d807356	0.062719986
246	0xbd5601aa	-0.05224768
247	0xbcc0e3a4	-0.023546048
248	0xbde48e33	-0.11159935
249	0xbdfd2aad	-0.123616554
250	0xbdd55378	-0.10416311
251	0xbdda2f81	-0.10653592
252	0x3e4a7555	0.19771321
253	0x3e256f0c	0.16155642
254	0x3e8ea0dc	0.278571
255	0x3e2d6ee5	0.16936834

bias f4 [6]
0	0xbdd716df	-0.10502409
1	0xbde924ad	-0.113839485
2	0x3d9d1bce	0.07671319
3	0xbe2fb94d	-0.1716053
4	0x3af7a391	0.0018893351
5	0xbd777018	-0.060409635

weight f4 [16, 6, 3, 3]
0	0xbe535c2e	-0.20640633
1	0x3cabc985	0.020970115
2	0xbd0a62f2	-0.033785768
3	0x3b07ab37	0.0020701417
4	0xbd032470	-0.03201717
5	0xbdfb0e56	-0.12258594
6	0xbe3f2461	-0.18666221
7	0xbd7375a5	-0.059438366
8	0x3dd9401c	0.10607931
9	0xbd4854ff	-0.048909184
10	0x3e047c61	0.12938072
11	0x3e261545	0.16219051
12	0xbe196fa7	-0.14983998
13	0xbd74f016	-0.059799276
14	0xbd94210d	-0.072328664
15	0xbd66d22a	-0.05635277
16	0xbd19382b	-0.03740708
17	0xbda09988	-0.07841784
18	0x3db9a421	0.09064508
19	0x3dcafb62	0.09911229
20	0x3a81f4a0	0.0009914823
21	0x3d3252ef	0.043536123
22	0x3d805ef2	0.062681094
23	0x3dfa4d3e	0.12221764
24	0xbac1bc34	-0.001478082
25	0x3dabf467	0.083962254
26	0x3e638988	0.22220433
27	0xbbf830dc	-0.007574184
28	0xbdf5a52c	-0.11994395
29	0xbc0f794c	-0.008756947
30	0x3e373337	0.1789063
31	0x3d64b9ad	0.055841137
32	0x3dbdf6dc	0.092756
33	0xbe4f5d00	-0.2025032
34	0xbe4e9892	-0.20175388
35	0x3e76cc0c	0.24101275
36	0xbd120e44	-0.035658136
37	0xbd12ade1	-0.035810355
38	0xbddfb16f	-0.10922515
39	0x3c0a9d57	0.008460364
40	0xbd2bc83c	-0.041939005
41	0x3dd990e6	0.1062334
42	0xbdadb5e1	-0.08481956
43	0xbca0b0ca	-0.01961555
44	0x3e1032f1	0.14081933
45	0x3c7de6f9	0.015496963
46	0xbe02ed7b	-0.12785904
47	0x3e1f379c	0.15548557
48	0xbe14972f	-0.14510797
49	0xbd2892fa	-0.041155793
50	0x3d4cf968	0.05004254
51	0x3d195e7a	0.037443615
52	0xbd889938	-0.06669849
53	0x3d2fe9cd	0.04294758
54	0xbe198459	-0.14991893
55	0xbd8cc9f1	-0.06874455
56	0x3de1dcaa	0.110284165
57	0x3c09e663	0.008416745
58	0x3d8b46a8	0.06800586
59	0xbc81c808	-0.015842453
60	0xbddd6821	-0.10810877
61	0x3dddb60c	0.10825738
62	0x3db71d4f	0.08941137
63	0x3da8457e	0.082163796
64	0x3c0ae2f4	0.008476961
65	0xbe57590f	-0.21030067
66	0xbdaef5a4	-0.08542946
67	0x3d481cf6	0.048855744
68	0xbd91ff52	-0.071287766
69	0xbd7f7a1c	-0.062372312
70	0x3dabfc46	0.08397727
71	0x3de453f6	0.11148827
72	0x3db75c5c	0.08953163
73	0xbe3a00e0	-0.18164396
74	0x3ccabaa2	0.024747197
75	0xbe0b8fb9	-0.13629045
76	0xbe171c6c	-0.14756936
77	0x3e7f946d	0.24958964
78	0xbe2df095	-0.16986306
79	0xbc7be710	-0.015374914
80	0x3d98ec79	0.074669786
81	0x3e3fd673	0.1873415
82	0x3e3ca6fd	0.18423076
83	0x3e422456	0.18959174
84	0x3e14a1d3	0.14514856
85	0x3ccfde42	0.025374535
86	0x3e134382	0.14381221
87	0x3d896246	0.06708197
88	0xbe53b653	-0.2067502
89	0x3de91608	0.11381155
90	0x3d05ba73	0.032648515
91	0x3d6b034f	0.057376202
92	0x3d6338ea	0.0554742
93	0xbb863f37	-0.0040968913
94	0xbd7251ad	-0.059159923
95	0xbe14f43d	-0.14546295
96	0x3d6c8a2b	0.057748955
97	0xbe0a0707	-0.13479243
98	0xbe38be85	-0.18041427
99	0x3e36f1e3	0.1786571
100	0xbe5258e6	-0.20541725
101	0xbdbfbdee	-0.09362398
102	0x3dd64554	0.10462442
103	0xbe02ed4d	-0.12785836
104	0x3d2b6aab	0.041849773
105	0xbde57bbc	-0.11205241
106	0x3d9db458	0.077004135
107	0x3e415d09	0.18883146
108	0xbbe6b211	-0.00704027
109	0x3d6b1cd9	0.05740056
110	0xbe5a4479	-0.21315183
111	0xbe451b9d	-0.19248815
112	0x3deebe44	0.11657384
113	0xbb98a98f	-0.004658885
114	0x3c12c168	0.008957244
115	0x3c3ed20d	0.01164676
116	0x3da41647	0.080120616
117	0xbda23dde	-0.079219565
118	0xbe0e93fb	-0.13923638
119	0x3de90236	0.11377375
120	0xbc79b4ac	-0.015240829
121	0x3c07020e	0.008240236
122	0x3de20f0c	0.11038026
123	0xbdf2f617	-0.11863344
124	0xbc6c35e3	-0.0144171445
125	0xbe0b28c8	-0.13589776
126	0xbdc0186d	-0.09379659
127	0x3d0c3e71	0.034239236
128	0xbe4f60f1	-0.20251824
129	0xbdf6374a	-0.12022264
130	0xbd64753d	-0.05577587
131	0xbe12e78c	-0.1434614
132	0x3e1d05f6	0.15334305
133	0x3d4872f9	0.04893777
134	0xbb5e6d78	-0.003393976
135	0x3df57078	0.11984342
136	0xbe15790d	-0.14596958
137	0xbd7571a1	-0.059922818
138	0x3c700b8a	0.014651189
139	0xbe5a9756	-0.21346793
140	0xbe4080f4	-0.18799192
141	0xbe31b750	-0.17355084
142	0xbd8f548b	-0.06998547
143	0x3d0c5b95	0.034267027
144	0xbdae0c19	-0.08498401
145	0xbd618ff6	-0.055068932
146	0xbe4c2c97	-0.19938885
147	0x3dccfacc	0.10008773
148	0x3b5a9c73	0.003335741
149	0x3d680f80	0.056655407
150	0x3db76115	0.08954064
151	0xbd777a82	-0.060419567
152	0x3d2a47ee	0.041572504
153	0x3d052e74	0.032515004
154	0x3e577589	0.2104093
155	0x3c56110d	0.013065589
156	0xbd821d07	-0.06353193
157	0x3e3395fb	0.17537682
158	0xbb92b824	-0.0044775177
159	0x3da2917b	0.079379044
160	0xbe1ee988	-0.15518773
161	0xbc52f8e7	-0.012876726
162	0xbc8e4da7	-0.017371012
163	0xbe4e5c89	-0.20152487
164	0x3dbe6bc9	0.09297902
165	0xbddff4c5	-0.10935358
166	0xbe024587	-0.12721835
167	0x3d431bb7	0.047633853
168	0xbe7b396a	-0.2453362
169	0xbd27a4cb	-0.040928643
170	0xbe00aa26	-0.12564906
171	0xbc4279d4	-0.011869866
172	0x3df43f07	0.11926084
173	0x3d433570	0.047658384
174	0x3e165bb8	0.14683425
175	0xbc620823	-0.013795885
176	0x3df984d6	0.121835396
177	0x3cd3ad85	0.025839576
178	0x3e40c1ce	0.1882393
179	0x3c8ab301	0.016931059
180	0xbe8cf961	-0.2753401
181	0xbe4d1f67	-0.2003151
182	0xbdb57e83	-0.08862021
183	0xbda0cd90	-0.07851708
184	0xbda5df4c	-0.08099231
185	0x3b6d2bf9	0.003618954
186	0x3c020010	0.007934585
187	0xbde462b8	-0.111516416
188	0xbb6f8a42	-0.0036550914
189	0xbdddca95	-0.10829655
190	0x3cfdc21b	0.030976346
191	0x3dba0f3b	0.09084936
192	0x3e70d3d4	0.23518306
193	0xbe41364a	-0.18868366
194	0xbe938d90	-0.2881894
195	0x3da0e64e	0.07856427
196	0xbe782a44	-0.24234873
197	0xbe4b39a6	-0.1984621
198	0xbdab0660	-0.08350825
199	0x3df7dad6	0.121022865
200	0xbc60a580	-0.013711333
201	0xbe1a0105	-0.15039451
202	0xbd9fe7f2	-0.07807912
203	0x3c0a32cb	0.008434962
204	0xbde78546	-0.11304717
205	0x3dc1ec33	0.094688796
206	0x3e0c146d	0.13679667
207	0xbde0fa19	-0.10985202
208	0xbe27056a	-0.16310659
209	0xbe732051	-0.23742796
210	0x3bb9b5c1	0.0056674187
211	0xbe7082c1	-0.23487379
212	0x3b11f8d8	0.0022273567
213	0xbe2735b2	-0.16329077
214	0xbe3b4814	-0.18289214
215	0xbe168a20	-0.14701128
216	0xbd6d6944	-0.057961717
217	0xbd785c49	-0.060634885
218	0xbce2e921	-0.027699055
219	0x3ca4173e	0.020030614
220	0x3e4d52d8	0.20051134
221	0x3dee7772	0.11643876
222	0x3dbd6659	0.09248037
223	0xbd239a5d	-0.039942134
224	0xbc5d0add	-0.01349136
225	0x3dadb501	0.084817894
226	0xbd424502	-0.047429092
227	0x3c2ac730	0.010423467
228	0xbdf43094	-0.11923328
229	0x3d089f58	0.033355087
230	0x3d9d4678	0.076794565
231	0xb9ebc8bd	-0.00044972255
232	0x3d733f93	0.0593868
233	0x3e1684c8	0.1469909
234	0xbe8f7dfc	-0.28025806
235	0xbd74b1a5	-0.059739728
236	0xbda680f5	-0.08130065
237	0xbe860823	-0.26178083
238	0x3d8343a2	0.06409384
239	0xbdd4ff17	-0.10400217
240	0x3dec591d	0.115404345
241	0x3d965058	0.07339543
242	0x3d18fe5d	0.037351955
243	0xbc66fcb9	-0.01409834
244	0x3e3f288b	0.1866781
245	0xbe27b90a	-0.1637918
246	0xbd10b6f3	-0.035330724
247	0xbe05c54b	-0.13063543
248	0xbdbc3300	-0.09189415
249	0x3e3c20b5	0.18371852
250	0x3c1ba39c	0.009499457
251	0x3e2d3b77	0.16917215
252	0xbdb78978	-0.08961767
253	0xbdab02fb	-0.08350178
254	0x3d86d48e	0.0658351
255	0xbe0b6ab6	-0.13614926

bias f4 [16]
0	0xbc9918df	-0.018688617
1	0x3b90efff	0.004423141
2	0x3d5d4072	0.054016538
3	0x3d09218a	0.03347925
4	0x3b52b7fd	0.0032153123
5	0xbddefe6e	-0.10888372
6	0xbcb470b6	-0.022026401
7	0x3d188289	0.037233863
8	0xbd8ea810	-0.06965649
9	0x3d1ba179	0.03799579
10	0x3d5f273d	0.05448078
11	0x3cf20510	0.02954343
12	0xbdafcd11	-0.08584035
13	0x3dce8f2f	0.10085904
14	0x3cfab578	0.03060411
15	0x3deb7b56	0.11498134

weight f4 [32, 16, 3, 3]
0	0xbd852a06	-0.06502156
1	0xbe46ae6d	-0.19402476
2	0xbe200a57	-0.15628944
3	0x3c284e0e	0.010272516
4	0x3cecb914	0.028896846
5	0xbc260f6d	-0.010135514
6	0xbdf0aef6	-0.11752121
7	0x3b6cfa91	0.0036160091
8	0xbdbe25cf	-0.09284555
9	0xbe56c4f9	-0.20973577
10	0xbdec01b6	-0.11523764
11	0x3db53415	0.088478245
12	0xbbb9a77d	-0.005665718
13	0x3cd13323	0.02553708
14	0x3e4fdf0d	0.20299931
15	0x3d271a26	0.04079642
16	0x3dd186c1	0.102307804
17	0x3e20655e	0.15663669
18	0xbdf891bc	-0.121371716
19	0xbda05447	-0.07828575
20	0xbe120e63	-0.142633
21	0xbdcb98b9	-0.09941239
22	0xbb4988da	-0.0030751736
23	0x3da80072	0.0820321
24	0x3d006b0c	0.031352088
25	0x3df853ee	0.12125383
26	0x3d5546b1	0.05206937
27	0xbd0346e0	-0.032050014
28	0xbd9f8e8f	-0.07790863
29	0xbc6d0a11	-0.014467732
30	0x3d24c72d	0.04022901
31	0x3e1ae147	0.15124999
32	0x3d2357eb	0.039878767
33	0x3d5755a3	0.052571904
34	0x3e18f1cb	0.14935987
35	0x3ca35c02	0.019941334
36	0xbd98a587	-0.07453447
37	0xbd3340a6	-0.043762825
38	0x3d2d9d6c	0.042386457
39	0xbe174553	-0.14772539
40	0xbdbf44cb	-0.09339293
41	0x3d1e258d	0.03861003
42	0xbc88e2ee	-0.016709771
43	0x3d8cc0da	0.06872721
44	0x3cdd3c07	0.027006162
45	0xbdba96e1	-0.09110809
46	0xbdcb86a5	-0.09937791
47	0xbd65491c	-0.055977926
48	0xbe3078b1	-0.1723354
49	0xbda9f809	-0.08299262
50	0x3c4ab884	0.0123730935
51	0xbe13320e	-0.14374563
52	0xbe3c3035	-0.18377765
53	0xbe077ff7	-0.13232408
54	0x3d816652	0.06318344
55	0xbd893bb3	-0.0670084
56	0xbe8107c0	-0.25201225
57	0xbdd277e5	-0.10276774
58	0xbe36faaf	-0.17869066
59	0xbebc3b74	-0.3676411
60	0xbb82af4d	-0.0039881826
61	0xbbbbe6ec	-0.005734315
62	0xbe83876d	-0.2568926
63	0xbd6aa2ef	-0.05728429
64	0xbe346383	-0.17616086
65	0xbd8a174a	-0.06742723
66	0xbc912d12	-0.017721687
67	0xbd804a5e	-0.062641844
68	0xbccffdec	-0.025389634
69	0xb9d4321a	-0.0004047312
70	0x3d522dfa	0.051313378
71	0xbc8ade53	-0.016951716
72	0xbea1a22c	-0.3156904
73	0xbe085502	-0.13313678
74	0xbe2cb944	-0.16867548
75	0x3bd09b5f	0.006366178
76	0xbe12cfc5	-0.1433707
77	0xbe38f5c2	-0.18062499
78	0xbd5bcdd7	-0.0536631
79	0xbe38d754	-0.18050891
80	0xbea023ad	-0.31277218
81	0xbe0d391e	-0.1379132
82	0xbd812757	-0.063063316
83	0x3d3b96c1	0.045798067
84	0xbd5b3043	-0.053512823
85	0x3daf18c2	0.08549644
86	0x3cd22d8e	0.025656488
87	0x3d5f66e8	0.0545415
88	0xbd04490a	-0.032296218
89	0xbcb21f03	-0.021743303
90	0xbda0881c	-0.07838461
91	0x3cc0bc8d	0.023527408
92	0xbb650047	-0.0034942792
93	0xbd3b9b03	-0.045802128
94	0x3d59090e	0.05298715
95	0x3e3f4300	0.18677902
96	0xbd737385	-0.05943634
97	0xbbeff431	-0.007322811
98	0x3d8f1fa2	0.06988455
99	0xbde18f35	-0.11013643
100	0x3ced8500	0.028994083
101	0x3dbfd29f	0.09366345
102	0x3ddd3eee	0.108030185
103	0x3d3b6fc5	0.04576089
104	0x3d856266	0.06512909
105	0x3c8492e1	0.016183319
106	0x3d03e835	0.03220387
107	0x3e21477c	0.15749925
108	0xbd01fe46	-0.031736635
109	0xbd536d6b	-0.05161802
110	0xbdfc88b6	-0.12330763
111	0x3db888f2	0.09010495
112	0xbc03b051	-0.008037643
113	0x3d4be0c9	0.04977492
114	0x3dc38dda	0.095485404
115	0x3e7257b3	0.23666267
116	0x3c0c28b5	0.008554627
117	0xbdd4f24a	-0.103977755
118	0xbc440a9f	-0.011965423
119	0xbd5ec206	-0.054384254
120	0xbcfb28f3	-0.030659175
121	0x3dab9c79	0.08379454
122	0x3d3460bf	0.044037577
123	0xbcd57cde	-0.026060518
124	0xbccda85d	-0.025104696
125	0x39d3f8a1	0.000404303
126	0xbde2efc9	-0.11080892
127	0xbe0564cf	-0.13026737
128	0xbd5181d3	-0.0511492
129	0xbd69d355	-0.057086308
130	0x3d9a640c	0.07538614
131	0x3d1e16a2	0.038595803
132	0xbda6906a	-0.081330135
133	0x3c344290	0.011002198
134	0xbdb9716a	-0.09054835
135	0xbd97523a	-0.0738873
136	0xbc8f653f	-0.017504333
137	0xbdb2407b	-0.08703705
138	0xbca1ee92	-0.01976708
139	0xbd945e9b	-0.07244607
140	0x3dc1800a	0.0944825
141	0x3d0874fd	0.033314694
142	0x3ce2e080	0.02769494
143	0xbbe98165	-0.0071260207
144	0x3d73144e	0.059345536
145	0x3dc27239	0.094944425
146	0xbe7290ec	-0.23688096
147	0x3e0ea382	0.13929561
148	0x3c32459d	0.010880855
149	0xbbf6e481	-0.007534564
150	0x3c98bd27	0.018644882
151	0xbc4d687c	-0.012537118
152	0x3daa660e	0.08320247
153	0x3d8bee60	0.06832576
154	0x3d6051ba	0.05476544
155	0x3c8529a2	0.016255204
156	0x3dad878f	0.084731214
157	0x3d299991	0.041406218
158	0xbd12d815	-0.035850603
159	0x3d35e153	0.04440434
160	0x3c62724a	0.013821194
161	0x3ca245cb	0.01980867
162	0x3ccac909	0.024754064
163	0x3dd6bcff	0.10485267
164	0xbcaf6c6a	-0.021414
165	0x3dd8dbf1	0.105888255
166	0x3daac0c9	0.08337552
167	0xbbcf68d4	-0.006329635
168	0x3d5cc914	0.0539027
169	0x3c511453	0.012761193
170	0x3d1604e4	0.036625758
171	0xbd1ac10c	-0.03778176
172	0xbd519090	-0.051163256
173	0xbdfc0c61	-0.123070486
174	0xbd800f71	-0.06252945
175	0xbdb0a459	-0.08625097
176	0xbdf1c95e	-0.11805986
177	0xbd9edc70	-0.07756889
178	0x3ba713d5	0.0050987997
179	0xbd4a2ac1	-0.04935718
180	0x3e211251	0.15729643
181	0x3d2de255	0.042452175
182	0x3e08a63e	0.13344666
183	0xbda09136	-0.07840197
184	0xbd45b5ac	-0.04826896
185	0x3dc00dae	0.09377609
186	0xbe143bda	-0.14475957
187	0xbc9939b7	-0.018704278
188	0x3b1b4902	0.002369464
189	0x3cba59a5	0.022747824
190	0x3d2cc68f	0.042181548
191	0x3de3c348	0.11121231
192	0x3e589582	0.21150783
193	0x3e1dde0c	0.15416735
194	0x3e294d91	0.16533495
195	0x3dbc34e1	0.09189773
196	0x3dbda2e3	0.09259584
197	0x3df29521	0.1184485
198	0x3da08a23	0.078388475
199	0x3d1cc034	0.038269237
200	0xbdc129a1	-0.09431768
201	0xbbec085a	-0.007203144
202	0x3dedb245	0.11606268
203	0xbbf42945	-0.007451209
204	0x3da5cc27	0.080955796
205	0x3e11cb46	0.14237699
206	0x3d94647c	0.072457284
207	0x3d5057b2	0.050864883
208	0x3c394d16	0.011309883
209	0x3d87f532	0.06638564
210	0x3da659e1	0.08122612
211	0x3dc99ae2	0.09843995
212	0x3d9bc661	0.07606197
213	0x3bb67bd9	0.005568963
214	0xbbfc1d35	-0.0076939114
215	0x3dcd33e8	0.10019666
216	0x3d3e604f	0.046478566
217	0x3d1c1aa4	0.038111344
218	0x3da01fc9	0.078185625
219	0xbc77b430	-0.015118644
220	0x3d84f248	0.06491524
221	0x3d89bed5	0.067258514
222	0xbd865d23	-0.06560733
223	0x3db43cf3	0.08800688
224	0x3e20539c	0.15656894
225	0x3c00af45	0.0078542875
226	0xbcae6c9a	-0.02129202
227	0x3cd70e1b	0.026251843
228	0xbd8d5a8c	-0.06902036
229	0xbde895c3	-0.1135669
230	0xbd4b1e3e	-0.049589388
231	0xbca51181	-0.020149948
232	0xbda44205	-0.08020405
233	0xbd872f5e	-0.066008314
234	0x3c30ef60	0.010799259
235	0xba928abb	-0.0011180261
236	0x3cb97dd7	0.022643013
237	0xbce58411	-0.028017076
238	0xbc51e540	-0.012811005
239	0x3b788dfe	0.003792643
240	0x3dd44aed	0.103658535
241	0x3d12a193	0.03579862
242	0xbbfa1821	-0.007632271
243	0x3d3fa660	0.046789527
244	0xbd283761	-0.04106844
245	0xbe2804a2	-0.16408017
246	0x398a8239	0.00026418435
247	0xbe09a55d	-0.13441987
248	0x3de3b698	0.11118811
249	0x3d879949	0.06621034
250	0x3cf3d20e	0.029763248
251	0xbc6398dd	-0.013891426
252	0x3e1ee398	0.15516508
253	0x3dd3be3d	0.103390194
254	0x3cc4114b	0.023934027
255	0x3e434eb3	0.1907299

bias f4 [32]
0	0x3d873630	0.06602132
1	0xbd1a5c81	-0.037685875
2	0xbcdffd94	-0.027342595
3	0xbdb1869d	-0.086682536
4	0x3d2d4b74	0.042308286
5	0xbcab5feb	-0.02091976
6	0xbc8f8340	-0.01751864
7	0xbcd870d8	-0.026420996
8	0xbd01184f	-0.031517323
9	0xbdab9916	-0.08378808
10	0xbd62725b	-0.05528484
11	0xbd1c851c	-0.03821288
12	0xbd56a8f8	-0.052407235
13	0xbdc88d81	-0.09792615
14	0xbd775aec	-0.060389444
15	0xbd7fa59e	-0.062413804
16	0x3d2f15d7	0.042745437
17	0xbd06d32a	-0.032916225
18	0xbc7d6bd1	-0.0154676
19	0x3d0b3108	0.033982307
20	0xbbe4eb03	-0.0069860234
21	0xbc9c153d	-0.019053096
22	0xbd2a9a7a	-0.041651227
23	0x3c8f5c9b	0.017500212
24	0xbcd08ca5	-0.02545769
25	0xbca9cab4	-0.02072654
26	0xbda8557a	-0.08219428
27	0x3c86ffd5	0.016479412
28	0x3cab8cba	0.020941127
29	0x3b957fd9	0.00456236
30	0xbcff706c	-0.031181537
31	0x3c3065f9	0.0107665

weight f4 [5, 11552]
0	0xbdb4a780	-0.088210106
1	0xbdb95c27	-0.0905078
2	0xbdb8f999	-0.09031982
3	0xbd9ba5b9	-0.075999685
4	0xbdac867e	-0.0842409
5	0xbdb13ed7	-0.08654564
6	0xbda428a6	-0.080155656
7	0xbda4fa8f	-0.08055603
8	0xbdaa6a5d	-0.083210684
9	0xbda84ff8	-0.08218378
10	0xbd9f67b4	-0.07783452
11	0xbd96f6b6	-0.07371275
12	0xbd8611c5	-0.06546358
13	0xbdb160b1	-0.086610205
14	0xbd9bb87a	-0.076035455
15	0xbdab39cc	-0.08360633
16	0xbd902a27	-0.0703929
17	0xbdb32aeb	-0.0874842
18	0xbdba877b	-0.09107872
19	0xbdaacd95	-0.08339993
20	0xbd209742	-0.03920675
21	0xbc8a8d3e	-0.016913053
22	0x3d078f84	0.03309585
23	0x3d829ab2	0.06377162
24	0x3df2c2a1	0.11853529
25	0x3d2272d2	0.039660282
26	0x3e01427e	0.12623021
27	0x3d3ff4f7	0.046864476
28	0x3e0ac11d	0.1355023
29	0x3d27724b	0.040880483
30	0x3de2521e	0.11050819
31	0x3e35e3fa	0.17762747
32	0x3dfd04a8	0.12354404
33	0x3df19451	0.11795867
34	0x3e27327d	0.16327854
35	0x3e58fff1	0.21191384
36	0x3df580f4	0.119874865
37	0x3d42efde	0.047592036
38	0xbda09942	-0.078417316
39	0xbb8b796f	-0.0042564194
40	0x3de31c6e	0.11089407
41	0x3e3fd93f	0.18735217
42	0x3d660d80	0.05616522
43	0x3db88ca5	0.09011201
44	0xbb627e5c	-0.003456018
45	0x3dfcf910	0.123521924
46	0x3e2dae4d	0.16961022
47	0x3e372652	0.17885712
48	0x3dcf8caf	0.10134255
49	0x3df0330e	0.11728488
50	0x3e479a3d	0.19492431
51	0x3e87846d	0.2646822
52	0x3e8f3a8e	0.2797436
53	0x3e6b13b1	0.2295673
54	0x3e33c814	0.17556792
55	0x3db67dda	0.08910723
56	0x3e5a2da4	0.21306473
57	0xbdac29f2	-0.08406438
58	0xbd15e164	-0.036591902
59	0x3d301657	0.042990055
60	0x3d7194bf	0.058979746
61	0x3dd2ac83	0.1028681
62	0x3d48ffb1	0.04907197
63	0x3d2e19db	0.042505126
64	0x3df28ec8	0.118436396
65	0x3e1b21c2	0.15149596
66	0x3e29764a	0.1654903
67	0x3dd273b0	0.10275972
68	0x3e087872	0.13327196
69	0x3e692e38	0.22771537
70	0x3e253a09	0.1613542
71	0x3e7b167d	0.24520297
72	0x3e95edbb	0.29282936
73	0x3e721b21	0.23643161
74	0x3e6a6894	0.22891456
75	0x3e4c280f	0.19937156
76	0xbd929408	-0.07157141
77	0xbcc41a7d	-0.023938412
78	0x3e24dd53	0.16100053
79	0x3e55838c	0.20850962
80	0x3e25a458	0.16175973
81	0x3d8bd275	0.06827251
82	0x3daf5ee3	0.0856302
83	0x3dc8f3a2	0.09812094
84	0x3e211870	0.15731978
85	0x3e2e38f6	0.17013916
86	0x3e0aa8f5	0.13541014
87	0x3e254d51	0.16142775
88	0x3e2e2022	0.17004445
89	0x3e138f98	0.14410245
90	0x3e77ace5	0.24187048
91	0x3e94e3c4	0.2908002
92	0x3e360636	0.17775807
93	0x3ea2965e	0.31755346
94	0x3e28fe67	0.16503297
95	0xbd97c587	-0.07410722
96	0xbd13220a	-0.035921134
97	0x3d0157d0	0.031577885
98	0x3e4957ab	0.19662349
99	0x3e288cd2	0.16459969
100	0x3e16742a	0.1469275
101	0x3dcbd62b	0.09952959
102	0x3d8e619e	0.06952213
103	0x3e0db7fc	0.13839716
104	0x3e2308ec	0.15921372
105	0x3e0ae32b	0.1356322
106	0x3dd50b16	0.10402505
107	0x3d9b1e72	0.07574166
108	0x3e0cd558	0.13753259
109	0x3e037655	0.12838109
110	0x3e21c36b	0.15797202
111	0x3e95cbf8	0.29257178
112	0x3e898289	0.26857403
113	0x3e3f518a	0.18683448
114	0xbd691d5b	-0.05691276
115	0x3d17334b	0.03691415
116	0x3e2ccca1	0.16874935
117	0x3da39c42	0.07988788
118	0x3e1808b4	0.1484707
119	0x3e193ba4	0.14964157
120	0x3d2ecffe	0.042678826
121	0x3e047437	0.12934957
122	0x3e0153e6	0.12629661
123	0x3d818f97	0.06326216
124	0x3c832da8	0.016012982
125	0x3dca1ba4	0.09868553
126	0x3d65ebf8	0.05613324
127	0x3e0caf48	0.1373874
128	0x3dfae88f	0.12251388
129	0x3e169664	0.14705807
130	0x3e9048f3	0.28180656
131	0x3e9dc487	0.30814
132	0x3e4ca6a5	0.19985445
133	0xbd833d33	-0.06408157
134	0x3d41412e	0.0471813
135	0x3e08bb59	0.13352717
136	0x3e21b4e0	0.15791655
137	0x3e5896e5	0.21151312
138	0x3ddde068	0.10833818
139	0x3d7a405c	0.061096534
140	0x3d0c2683	0.034216415
141	0x3d115b80	0.03548765
142	0x3d691150	0.056901276
143	0x3db8f603	0.09031298
144	0x3d284e96	0.04109057
145	0x3d05e0d1	0.032685105
146	0x3dc6cb05	0.09706692
147	0x3e1a262f	0.15053628
148	0x3df2113a	0.11819692
149	0x3e4c68b8	0.19961822
150	0x3e5fa85d	0.21841569
151	0x3df6b699	0.120465465
152	0xbdaf4770	-0.085585475
153	0xbb4b87ac	-0.0031056209
154	0x3deb5f5d	0.114927985
155	0x3e2f8531	0.17140652
156	0x3deffa10	0.117176175
157	0x3d924373	0.07141771
158	0x3c83e83b	0.016101947
159	0xbd2ccd9e	-0.04218828
160	0xbe088c1b	-0.13334696
161	0xbd87daa0	-0.06633496
162	0x3d3cf6f1	0.04613394
163	0x3d1137c5	0.035453577
164	0x3d9dd5ce	0.07706796
165	0x3ca36c33	0.019949054
166	0x3d87f80d	0.06639109
167	0x3da25a27	0.079273514
168	0x3e12863c	0.14309019
169	0x3e24109c	0.16021961
170	0x3e227d9c	0.15868229
171	0xbda71e02	-0.081600204
172	0xbcabffb2	-0.020995948
173	0x3e14189f	0.14462517
174	0x3e0c5dc9	0.13707651
175	0x3d1187bc	0.035529837
176	0x3d9e2980	0.07722759
177	0x3db6813d	0.08911369
178	0x3c28f2e4	0.010311816
179	0xbddc6496	-0.10761373
180	0xbe0568a3	-0.13028197
181	0xbdb88a9e	-0.09010814
182	0xbd7acd0f	-0.061230715
183	0xbd0aa4bb	-0.033848505
184	0x3ba3f1b6	0.0050031794
185	0x3d4c3954	0.04985936
186	0x3d9e22e9	0.07721502
187	0x3dae6e1b	0.08517095
188	0x3e324b98	0.17411649
189	0x3de959a4	0.11394051
190	0xbd3f84ea	-0.046757616
191	0xbd687618	-0.056753248
192	0x3e2b9edd	0.1675982
193	0x3dfdf43d	0.124001004
194	0x3db8b8cd	0.09019623
195	0x3e02a49e	0.12758109
196	0x3de6e256	0.11273639
197	0x3db33394	0.08750072
198	0xbd17a439	-0.03702185
199	0xbe44966f	-0.19198011
200	0xbd9a2c75	-0.07528011
201	0xbd96a1b5	-0.07355062
202	0x3c5056e4	0.012716029
203	0x3c4b649c	0.012414124
204	0x3bf5224a	0.007480894
205	0x3df09d72	0.1174878
206	0x3d1ad4f1	0.037800733
207	0x3daa9bbf	0.083304875
208	0x3e27fea7	0.16405736
209	0xbd84ad0b	-0.06478318
210	0xbcb89649	-0.022532599
211	0x3e070a4b	0.1318752
212	0x3e0fa24c	0.14026755
213	0x3deb371a	0.11485119
214	0x3e0824a0	0.13295221
215	0x3d8b66d1	0.0680672
216	0x3def2553	0.11677041
217	0x3d938058	0.07202214
218	0xbaa480a3	-0.0012550544
219	0x3c14160e	0.009038461
220	0xbc3b0e4b	-0.011416982
221	0x3d9878ff	0.07444953
222	0x3dd1ebff	0.10250091
223	0x3e12e6b4	0.14345819
224	0x3e0d5533	0.13802032
225	0x3e0b66cc	0.13613433
226	0x3e5c8a9e	0.21537253
227	0x3e24f871	0.16110398
228	0xbd85c161	-0.06531025
229	0x3d290080	0.041260242
230	0x3dce19f4	0.10063544
231	0x3e08adbc	0.13347524
232	0x3dc4f683	0.09617331
233	0x3da96cdc	0.082727164
234	0x3d0fc298	0.03509769
235	0x3e29e7b0	0.16592288
236	0x3dad7dc7	0.08471256
237	0x3cb095fc	0.021555893
238	0x3d1f4965	0.038888354
239	0x3cfe999f	0.031079112
240	0x3dd99ede	0.10626005
241	0x3d0b1039	0.033951018
242	0x3dcf8ac9	0.10133893
243	0x3e263e72	0.16234758
244	0x3e3a991d	0.1822247
245	0x3def8d07	0.11696821
246	0x3deec9a8	0.116595566
247	0xbd94367b	-0.07236954
248	0xbdac988e	-0.08427535
249	0x3e02174e	0.12704203
250	0x3ddda572	0.10822572
251	0x3dd61d6e	0.10454832
252	0x3dc9c5eb	0.09852203
253	0x3d904bbd	0.07045696
254	0x3e03d104	0.12872702
255	0x3d935cef	0.0719546

bias f4 [5]
0	0xbdb5955d	-0.088663794
1	0xbda865f4	-0.08222571
2	0xbd8e8845	-0.06959585
3	0xbd5058f3	-0.05086608
4	0xbd8c0d53	-0.06838479
