archived_data/b1_r0_m8_s100--2019-03-03--165203.596044/episode_42250.model (torch_old, 268278 bytes, 8 tensors)

weight f4 [6, 6, 3, 3]
00000000: 728d cabd 664d b33d 601f d93b b4b8 063e
00000010: 8ccb 83bc 9849 cbbc b8c5 41bc 8cc8 bc3d
00000020: 429d 44bd 7c8d 6c3d 2f5f 123d 8abf 893d
00000030: 5d23 5fbd ebb8 783c e71d 91bc 2c34 b3bd
00000040: 2ec0 83bd 59bb 95bc d314 973d 59b2 a33d
00000050: 61f6 003e cb0a e63c 58f2 973d b22e 803d
00000060: 1c2b 20bb c18a f43c bb66 3f3d e64b 8dbd
00000070: 9a4c 69bd 5e39 d4bd fc89 213d 4c90 c33d
00000080: c60b 7ebd 9c11 a83d bf1b f8bd 60b5 2c3d
00000090: d90c 883c 294f 21be eeef 253e 2e3c 6ebe
000000a0: 2e93 cbbd ed3b 5fbe 7c60 d0be 4f59 89be
000000b0: 7fcc 9fbd afa7 8b3d 0273 193d 125d bb3c
000000c0: 347c 973d 2f66 293d 8239 78bd 7969 dd3d
000000d0: d70a 13bd 027e 2e3c 2cba cabd 1064 d93d
000000e0: 607e a03d 2264 e0bd a8cb f03d 48a1 8abd
000000f0: 3240 bb3d c85d c13c c668 a2bd 71d4 4dbd
00000100: 9c48 4fbc 8735 7c3d a484 b23c 0c36 debc
00000110: b173 303d 4f5c e33c 8f14 143d 1dc5 763c
00000120: b493 e43c 909f c33c 178c b23d ffb0 483d
00000130: f13a 263d 58ee bf3d a7c1 2f3d 2cab a23d
00000140: 07ab bf3d fc8d b23d 80af 9abb 80e8 843d
00000150: 4038 3e3c a05d 7a3d 36cc b83d 322e 59bd
00000160: e08e 71bc 9ae8 c03d c0a1 733d 2773 c2be
00000170: 0202 85be 1301 913d 2455 3dbe ed3f 693e
00000180: 990c f33d e546 283e 4b83 9b3e c8f1 1c3e
00000190: 21fc bcbd e395 5c3d 6bf2 c53c 0f0a a23d
000001a0: 63b1 a0bd 3baf 51bd 5839 27bb d669 763d
000001b0: e856 7b3d b01f 033d b093 85bd 46a4 ce3d
000001c0: c4d4 2c3d dc57 afbd 1b7d d1bd 1448 083e
000001d0: 04e1 b8bc 2b40 3b3c 8e3d 433c 4a5e b33b
000001e0: 1e56 913a da70 9fbc fec9 02be 8fd6 28bc
000001f0: b65c 313d f34d aa3a 018d 01bb 7e5f 213d
00000200: 7f63 b73d 56a1 6f3d d4e6 4c3d a8ff 01bd
00000210: 5e25 1d3d bdc1 8a3d a09b 223d 5072 1fbd
00000220: c6ce abbd c0a4 4cbd d096 74bc 3898 aebc
00000230: 421e e43d 5cb9 2abd 2885 cb3c 1c2a 1a3d
00000240: 6d65 823d cfdd 3a3e 1231 563e 53d8 cf3d
00000250: 9a4e 8c3e 0240 9cbe ac4b 563e 6a4c 103e
00000260: 8b23 28be 5497 f33b 700b 1ebd 55e6 443c
00000270: 3bd5 83bc 12f5 0cbd 009b 02be 4f4b 39bb
00000280: f4a1 2d3c 0331 94bd 2a3b ca3d c00e 023e
00000290: ec7c fe3d 24f8 ef3d a0d1 89bd 80bf 3dbb
000002a0: 27a9 02be ac1e c2bc b4ee c3bd 6cc8 aebc
000002b0: 9b34 7cbb e02c 073d cfe6 993c c138 823c
000002c0: d047 9dbc e836 213b 4759 38bc e0f2 eb3c
000002d0: 62e7 b03d da74 ea3d 4c7c 193e 51cd 273e
000002e0: 43c4 503e be52 3a3e 3bc1 ab3d f6d6 0c3e
000002f0: f7fa 223e 8846 733d 04c9 43bd 32ff 9e3d
00000300: 0a6d 10bd ff7b 03be 7e3f adbd e21c 03be
00000310: efa4 95bd 5267 04be c936 af3d cf4e 243e
00000320: cfdf a6be a9b6 be3b 3f44 cabe c582 7ebe
00000330: 2993 3e3e 9295 853e 19fb a1be b743 553d
00000340: 77d2 1fbd 7c01 0b3d 82f1 eebd 85b5 563d
00000350: b15a 9f3c 9a66 d53d a951 babc 0922 603d
00000360: ca2f b53d 0069 f83d c87b ad3c 009b a63c
00000370: 1cbc cf3d 10ab f93d a62a 21bd 109c 5a3d
00000380: 48bb 4b3d 5cb6 1f3d f899 833c 825e 343c
00000390: 3797 25bd 2a18 0b3c 675d 573d 7d52 9abe
000003a0: 9225 c8bd b96c 8dbd c6fd ed3b 4afe 343d
000003b0: 13e9 153d e9fd 193d d441 a53d 047c 8c3d
000003c0: 5e33 61bc 90ce b7bc 65ac 563c f00d f23d
000003d0: d009 713d 5673 803d aa01 56bd a4e3 c0bc
000003e0: 338e e4bd ad2a fdbd 7853 d5bd 812f dabd
000003f0: 7e02 723d cd1f fd3d 0c2a 943e 3253 973d
-0.0989026 0.08754997 0.0066260546 0.13156396 -0.01608827 -0.024815366 -0.011826925 0.09217939
-0.048001535 0.057752118 0.035735305 0.06725986 -0.054477084 0.015180807 -0.017714454 -0.08750185
-0.0643314 -0.01827781 0.07377019 0.079930015 0.12593986 0.028081318 0.0741927 0.062589064
-0.0024439758 0.02985132 0.04672883 -0.06899242 -0.05695782 -0.103625044 0.039438233 0.09549007
-0.062022947 0.08206484 -0.12114667 0.04216516 0.016607689 -0.15752853 0.16204807 -0.23265144
-0.09940182 -0.21800204 -0.40698612 -0.2682595 -0.078026764 0.068190925 0.037463196 0.022871528
0.07396737 0.041357215 -0.06060172 0.10811133 -0.03589901 0.01065016 -0.09898791 0.106147885
0.07836604 -0.10956599 0.11757594 -0.06769043 0.09143104 0.023604289 -0.0793014 -0.050251428
-0.012651589 0.061574485 0.021791764 -0.027125381 0.043079082 0.027753977 0.03615242 0.015061644
0.027902462 0.023879796 0.08718126 0.04899692 0.040583555 0.09371632 0.04290929 0.07942805
0.09358793 0.087184876 -0.0047206283 0.06489658 0.011610091 0.061124444 0.09023325 -0.05302257
-0.014743537 0.09419365 0.05948043 -0.3797848 -0.25978094 0.07080283 -0.1848951 0.22778292
0.11867637 0.16433294 0.30373606 0.15326607 -0.09227777 0.05385388 0.024163445 0.07912075
-0.07846334 -0.051192503 -0.0025516357 0.060159527 0.061362177 0.03201264 -0.0652231 0.100899264
0.042195097 -0.0856168 -0.1022894 0.13308746 -0.022568233 0.011428873 0.011916531 0.0054738866
0.0011088287 -0.019462992 -0.12772366 -0.010305061 0.043301307 0.0012993201 -0.0019767883 0.03939771
0.08954524 0.05850347 0.050024822 -0.031737953 0.038365714 0.06775234 0.039699197 -0.038927376
-0.08389048 -0.049961805 -0.014928535 -0.021312818 0.11138584 -0.04168068 0.024843767 0.037637815
0.06367002 0.18248676 0.20917156 0.101486824 0.27403718 -0.30517584 0.20927304 0.1409165
-0.16419809 0.007433811 -0.038585126 0.012017806 -0.016092887 -0.034413405 -0.1275444 -0.0028273647
0.010597695 -0.07235911 0.09874566 0.12700939 0.12426171 0.11717251 -0.06729436 -0.0028953254
-0.12759839 -0.023696266 -0.095670134 -0.021335803 -0.0038483504 0.03300178 0.018786816 0.015896203
-0.019199282 0.0024599377 -0.011251754 0.028802335 0.08637883 0.11448069 0.14988822 0.16386916
0.20387368 0.18195626 0.08386465 0.13753876 0.15916048 0.059393436 -0.047799125 0.077635184
-0.035260238 -0.1284027 -0.08459376 -0.12803987 -0.07306849 -0.12930039 0.08555371 0.16045688
-0.32592627 0.0058201146 -0.39505193 -0.24854572 0.18610825 0.26090676 -0.31636885 0.05206653
-0.039019074 0.033936962 -0.11667158 0.052419204 0.019452425 0.1041996 -0.022744017 0.05471996
0.08847006 0.12129402 0.021177188 0.020337582 0.10143301 0.12190831 -0.039347313 0.05337149
0.049739152 0.03899227 0.016064629 0.011008861 -0.040427413 0.008489648 0.05257931 -0.3014106
-0.09772791 -0.06905503 0.007262918 0.04418782 0.03659923 0.037595663 0.08069196 0.068595916
-0.013745157 -0.022437364 0.0131026255 0.118190646 0.05884725 0.062719986 -0.05224768 -0.023546048
-0.11159935 -0.123616554 -0.10416311 -0.10653592 0.059084408 0.12359581 0.2893833 0.07388915

bias f4 [6]
00000000: 8104 03be 4fce 2cbe cace 943d 27e0 57be
00000010: 3ec4 babc c43e 84bd
-0.12794687 -0.16875575 0.072660044 -0.21081601 -0.022798654 -0.06457284

weight f4 [16, 6, 3, 3]
00000000: 938d f6bd 2d9e 47bc 8939 c7bd 36e0 473d
00000010: b644 d13c c920 a2bd 4cbe ccbd 0c90 95bc
00000020: 2574 d93d c557 5cbd 4634 7b3d d1a8 2c3e
00000030: 1897 8ebc 823b 0cbe ae0e 18be fe83 893d
00000040: cca2 acbd 73ad 08be b278 913d 7c10 023e
00000050: 5e05 bebd ddd8 54bd 6f00 2b3c bd25 8d3d
00000060: d0ce c93c 8ba8 bf3d 1719 1b3e a22a 0dba
00000070: 0c95 04bd 2da6 00bd 41f4 523e ebd7 1f3d
00000080: 9cb1 163d 7c68 72bd 75a9 62be 446f 593e
00000090: 1c20 edbd 6349 18bc a26d 5dbd c02f 3dbd
000000a0: 3677 96bc 9f41 4c3d 0b47 81bd a281 bcbd
000000b0: cdd3 733d 6516 e03d e9f5 abbd 7c59 fe3d
000000c0: aa3b 0bbd 1f64 3d3d 6e33 aa3d 04ff b93d
000000d0: d2fd 02bd 22d5 a63d 37ad 95bd 910f 6ebc
000000e0: 1a9e c23d 6440 b9bc a9b2 303b 2b9d 00bd
000000f0: 8a6c e5bd 205d df3d 618c ab3d 989b 3c3d
00000100: 0ebc 043a bcf9 abbd fd56 46bd a342 833d
00000110: 60f0 48bc ce71 f2bc 6b40 d13d 43dc f33d
00000120: adfb 363d 8bcb 8dbe 18bc 15bc 813a 4fbe
00000130: 5653 29be aee1 613e 7677 b8bd b031 4abc
00000140: a223 a83d 086a 4a3e fe18 403e 2ffc 043e
00000150: 9295 233e 9a07 ef3c c6d8 f33d 2c8a c4bd
00000160: d69a 92be cc2a 573d a71e b838 593c 553d
00000170: 2563 203d b770 803c 7eb6 a7bd e596 e5bd
00000180: 1dc0 ebbb f9bf 1dbe ba23 81be ac59 263e
00000190: d455 4ebe a0d5 c9bd c094 a23d 7f0d 52be
000001a0: eafc 663c 96d3 02be cf02 1fbd 91e3 343e
000001b0: 50d7 ba3c 3d00 593d 57d9 6abe c737 31be
000001c0: 043b 0b3e 1626 4ebb 6c79 96bb 0099 353d
000001d0: be4d 643d 23a2 f6bc 9d96 dfbd c489 c03d
000001e0: 2aec ff3b 6d80 6abc 6528 c93d 7139 d9bd
000001f0: 796f 55bc f627 18be 627e 57be 401f 0abc
00000200: 6cb4 66be f3f3 33be b634 9abd 6b30 88be
00000210: 0c48 da3d 6b5e e2bc c942 aebd dd40 1b3e
00000220: 9f28 19be fd65 03be 8967 283c 2afd 6abe
00000230: e2f6 99be 4ac8 07be 6453 96bd 5246 233d
00000240: 5fa3 aebd e8a4 1ebd 021f a7be c703 bc3d
00000250: 5598 2bbc d30b 83bd 9c71 123d f5e4 8dbd
00000260: 308d 293d 980a 4c3d e65e 1d3e 2cfb ecbd
00000270: e32e 37bc 199c 1f3e d7b6 89bc 3d88 5a3d
00000280: 46ad 28be cd5b 09bd 3aa2 933c c70d 49be
00000290: 72a4 513d e680 e3bd 420f dcbd 7307 fa3b
000002a0: 72f2 51be 4fa0 7d3c cedc 33be d8ea 1dbd
000002b0: ffb8 033e 3506 ae3d b1af ef3d 1fd0 cf3b
000002c0: 45d4 d53d 23df 9c3d b3a0 3e3e 0fe4 cd3a
000002d0: f02a debd 7a42 a0be f891 75be ae16 f1bd
000002e0: f4b0 fabd bed9 96bb 9b5f 91bd 2946 5fbe
000002f0: e6a3 8d3c b1d5 e0bb 37ae 213e 6a07 173e
00000300: ca85 073e 6163 e9bd 3bfa 96be 3ccf b0bd
00000310: c11a 6ebe 56f8 02be 3470 6dbd c19c 4e3e
00000320: dda5 42bd 38b5 febd 5ade 35bd c3f1 983c
00000330: 938d 95bd 2a39 3c3d 052e f83d 9b08 b03c
00000340: 3344 02be 6006 6dbe 7645 3d3d c581 e5bd
00000350: b02e 803d 9c9a 45be 1026 d7bd 890a 2cbd
00000360: e00c 75bd 28f7 45bd a3e4 69ba 7137 01bd
00000370: 0d81 3e3e 4f8e 043e c479 bc3d eab6 3fbd
00000380: a657 83bc 13f4 393d b799 6dbd 3d27 fd3b
00000390: 8cd6 ddbc bd83 c13d 4752 153e abfa 18bd
000003a0: 3d85 693c 0e3b 2a3e 9068 88be 1365 43bd
000003b0: 1d02 043d 5eee 80be 03fc 8e3d f1db 15be
000003c0: 1194 ec3d 242d 1e3c 4588 41be a182 3fbd
000003d0: 660b 123e ad4f 70be 80c8 34bd 34e9 59be
000003e0: e707 adbd 2177 223e 4ada ff3b 2eb4 ca3d
000003f0: b1b1 433c c223 743c 7d2e c53d 893f 90bd
-0.12038722 -0.012183708 -0.09727771 0.04879781 0.02554546 -0.079164095 -0.09997234 -0.018257163
0.10617856 -0.05379464 0.06132915 0.16861273 -0.017406031 -0.13694575 -0.1484935 0.06714629
-0.084294885 -0.13347416 0.07103099 0.12701601 -0.092783675 -0.05196463 0.010437115 0.06891964
0.024634749 0.09358319 0.1514629 -0.0005385076 -0.032368705 -0.031408478 0.20600988 0.039024275
0.036790475 -0.059181675 -0.22134955 0.2123385 -0.1157839 -0.0092948405 -0.054059632 -0.046188116
-0.018367391 0.04986727 -0.063123785 -0.09204413 0.05952816 0.109417714 -0.08396513 0.124194115
-0.033992447 0.04623806 0.08310591 0.090818435 -0.031980343 0.081461206 -0.07308429 -0.0145300785
0.09502812 -0.022613712 0.0026961959 -0.031399887 -0.11202343 0.10906434 0.083763845 0.046046823
0.0005063423 -0.083972424 -0.048422802 0.06409194 -0.012264341 -0.029595282 0.10217365 0.11907246
0.04467361 -0.27694353 -0.009139083 -0.20237161 -0.16535696 0.22058746 -0.0900716 -0.012340948
0.082099214 0.1976701 0.18759534 0.12986825 0.15975025 0.02917843 0.119065806 -0.09596667
-0.28633755 0.05253105 8.779513e-05 0.052059505 0.03915705 0.015678747 -0.081891045 -0.112104215
-0.0071945325 -0.15405263 -0.2522257 0.16245145 -0.20149928 -0.09855199 0.07938528 -0.20512961
0.014098385 -0.12776026 -0.038821038 0.17664935 0.022807747 0.052978743 -0.22934471 -0.17306434
0.13596731 -0.0031455806 -0.0045921113 0.044335365 0.055738203 -0.03010661 -0.10917399 0.09401277
0.0078101354 -0.014312846 0.09822158 -0.10606659 -0.013027065 -0.14858994 -0.21044305 -0.008430302
-0.22529763 -0.17573528 -0.07529585 -0.2659944 0.10658273 -0.027632913 -0.08508832 0.15161462
-0.14956902 -0.12831874 0.010278591 -0.22948137 -0.3007117 -0.13259998 -0.07340124 0.039861985
-0.08527254 -0.038731486 -0.32640845 0.09180408 -0.0104733305 -0.0639874 0.035752878 -0.06928436
0.041394413 0.04981479 0.15368232 -0.11571345 -0.011180612 0.1558689 -0.016810818 0.053352583
-0.16472349 -0.033534814 0.018021692 -0.19634162 0.051182218 -0.1110857 -0.10745098 0.0076302825
-0.20502642 0.015480115 -0.17564699 -0.038554043 0.12863539 0.08497278 0.11703432 0.0063419486
0.10440878 0.076597475 0.1861599 0.0015708226 -0.108480334 -0.31300718 -0.23981464 -0.11771904
-0.122407824 -0.0046035936 -0.070983134 -0.21804108 0.017290067 -0.0068614115 0.15789114 0.14748922
0.1323463 -0.11395908 -0.29487786 -0.08633277 -0.23252393 -0.12790045 -0.057968333 0.20176984
-0.04752146 -0.124369085 -0.044401504 0.018669968 -0.07302394 0.045952953 0.121181525 0.021488478
-0.12721328 -0.23146963 0.04620882 -0.11206392 0.06258905 -0.1929726 -0.10505307 -0.042002235
-0.05982673 -0.04833141 -0.0008922314 -0.031547014 0.18603916 0.12944911 0.092029124 -0.0468053
-0.016033005 0.045398783 -0.058007922 0.007725625 -0.027079843 0.09448955 0.14582168 -0.03734843
0.014252958 0.1662409 -0.26642275 -0.047703814 0.032228578 -0.2518186 0.06981661 -0.14634682
0.11551679 0.009654317 -0.18899639 -0.046755437 0.1426216 -0.23467894 -0.044136524 -0.21280366
-0.08448773 0.15865757 0.0078080045 0.09897648 0.01194422 0.014901103 0.096280076 -0.07043368

bias f4 [16]
00000000: 5cf9 eabc 6941 913b 3a8f be3c 342c abbb
00000010: e440 11bc e661 00be a54d 2abb bce8 b73d
00000020: 9e15 bdbd 0d1c 003c 78f6 193d 69b3 98bc
00000030: 539f dfbd e72e 013d a602 063d 328b 153e
-0.028683357 0.0044328463 0.023261655 -0.0052237753 -0.008865569 -0.12537345 -0.002598622 0.089799374
-0.09232639 0.007819188 0.037588567 -0.018640237 -0.109190606 0.03153887 0.03271737 0.1460388

weight f4 [32, 16, 3, 3]
00000000: 4ee0 cbbd c26b 81be 89bf 21be 7421 f73b
00000010: c69a 253d 6820 17be cf21 15be 116a b0bc
00000020: 3487 cbbd cc23 98be e627 3fbe 571e d73d
00000030: ad3f d1bd 91dc 553c b0ee 693e 0ea5 233d
00000040: b0c1 443e e5b2 5a3e 4089 11be c270 c7bd
00000050: d282 0dbe 0cc2 a9bd 2f05 413d 7028 fa3d
00000060: 3a4e cbbb 8141 fe3d 4047 c53d d512 e9bd
00000070: 4683 a4bd 5fda 80bd e8ae 38bb 3f1d 393e
00000080: 5680 ff3b 4b4a 653d c57a 523e 8d12 9c3d
00000090: b0b1 c9bd 0fe1 a7bc 7153 aa3d ea51 73be
000000a0: 0f49 26be a89b 323d ec49 a3bd 0edd 383d
000000b0: 4710 fcbc ed18 afbb bb19 fa3c 573b 063d
000000c0: f7cb 38bd 05ac b8bd 3309 c03d 55b1 dcbd
000000d0: add5 cabe 79dc 54bd a934 713d ef17 09be
000000e0: 8f9c a9be 96c1 23be e1b6 82be 5827 debe
000000f0: 279c 8fbd 5004 76bd bfc4 c0be a87e b6bd
00000100: 1f4d 49be 7514 9abd ba37 09bd e46c 1cbd
00000110: be00 01bc 3d1d d4bc b067 613d 675e 3cbc
00000120: 5cc4 e2be 2a67 85bd 6ece 68be f887 a43c
00000130: cf12 193d 243b 54be 0acc 49be 1ddd 83be
00000140: 221d a4be 8321 2ebe 5cf4 ffbc 479e 9d3d
00000150: 3c49 a3bd 40d4 263e f4d9 923d 423e f3bb
00000160: 1371 60bd 8fdd 92bd a682 ecbd 092b f83c
00000170: 482d 8dbb 5384 7cbd e8a5 373d 1ef7 603e
00000180: 2a34 edbd 0e5e d7bc 855a 163d 2c51 a3be
00000190: 7a75 d43c aaa7 483e c4c3 3f3e 5f9a 2abc
000001a0: 1e6d fa3c e150 5e3d b307 633c d81b af3d
000001b0: 5639 823d cf1d 6c3d 3715 a03d 3dcd 65bd
000001c0: 3ef8 aebd e260 6e3e 7f9a 213e ad42 e53d
000001d0: dc05 333d f572 13be b412 49bb 3b0f aebd
000001e0: 658d da3b af58 d13d fb63 a63c 8307 bbbc
000001f0: 763e 2dbd 2933 6bbc 6001 05be 284c bdbd
00000200: 6941 9fbc 5963 10bd 84d5 aa3d 242f 883d
00000210: 0a19 b2bd a9a1 93bc a891 02be eabd dabd
00000220: 8a9f 28bd 82dd c0bd e5d7 b2bc b6aa 3dbd
00000230: 760e 053e f6fc 243c 0790 003d 31fe 3d3c
00000240: d541 243d 5123 8a3d 0cdc 6bbe 41a9 013e
00000250: ddea efba fbd3 afbd 9a7f eabc caff 0dbd
00000260: b1e7 d73c dadf 423d a22f 5e3d 38fd b0ba
00000270: fa05 b33d 56cd 383d d0f2 6dbd 54f8 583d
00000280: 8be2 0f3d a48f 33b9 c603 85bc 84e5 a93d
00000290: 1c9c f4bc 828d 8f3d 2bec 833d e78e 80bc
000002a0: d2fc 313d 5bac 83bc e180 963c 548e 3cbe
000002b0: 8527 1ebe 090c 3abe 2519 45be 8c70 27be
000002c0: 7922 a1bd ac31 5fbe 4191 86bd 22a6 7abd
000002d0: 2919 013e c078 993c 6013 fa3d 506a e6bd
000002e0: b5e4 8bbd 2582 9a3d 5915 08be 7dea 16bd
000002f0: 79db 09bc 1cf1 f038 7a13 0c3d 7ecf a83d
00000300: 1618 373e 16a0 0a3e a007 293e 97bc b53d
00000310: b632 a13d e205 df3d 24ae 463d 630d 16bc
00000320: 5b62 02be f926 2ebd 4197 cc3d ce5e a6bd
00000330: be5a 563d 2550 cb3d 220f 6a3b 79ee 4f3d
00000340: 6b3c 503c 0667 893d c54e a73d 5d5f c63d
00000350: 059f 9d3d 6b60 1a3a f60c 6fbb 62df cf3d
00000360: b4b8 763d bb79 703d 0d05 ac3d 96fc 1abc
00000370: 9aee 893d bd35 763d 8756 91bd 88a7 b33d
00000380: 9ff3 193e 066d 20bd 0017 0cbe 4f19 7fbd
00000390: 8eb6 81bc 9acb 9bbe 595d e9bd 12cc c5bd
000003a0: 6ddc 2bbe 7646 f3bd 6fef 93bd d667 1abe
000003b0: 13d5 0b3d 5da4 cabd 5771 9dbd 4dec 3f3c
000003c0: f4c8 c63d c93f adbb 4570 363c 6086 f83c
000003d0: 6bc5 96bd 8268 86be 665e 1ebd fb54 38be
000003e0: d2c5 d03d da48 ce3c 49b9 63bb e413 843b
000003f0: 8625 ee3d d6ee 743d be12 05bd 7a57 213e
-0.09954892 -0.25277525 -0.15795721 0.0075418297 0.040430807 -0.14758456 -0.14563678 -0.021534951
-0.09937897 -0.2971481 -0.18667564 0.10503834 -0.10217223 0.013053075 0.22844958 0.03995233
0.19214511 0.21357305 -0.14212513 -0.09738304 -0.13819435 -0.08288965 0.047124084 0.12214744
-0.0062043937 0.12414838 0.096327305 -0.11380545 -0.08032851 -0.06291651 -0.0028180424 0.18077563
0.0077972813 0.055979054 0.20554645 0.07620726 -0.09848344 -0.020493058 0.083166964 -0.23761716
-0.16238807 0.043605477 -0.07973084 0.04513269 -0.03076948 -0.0053435476 0.030529847 0.032771435
-0.04511639 -0.09017185 0.093767546 -0.10776011 -0.39616147 -0.05196807 0.05888811 -0.13388036
-0.33127257 -0.15991816 -0.2553015 -0.43389392 -0.070122056 -0.060062706 -0.37650105 -0.089108765
-0.19658326 -0.07523433 -0.03350041 -0.038189784 -0.007873712 -0.025892848 0.055030525 -0.011497117
-0.44290435 -0.065138176 -0.22734997 0.020084366 0.037371453 -0.20725685 -0.19706741 -0.25754634
-0.32053477 -0.17004971 -0.03124445 0.07696205 -0.07972953 0.16291904 0.071704775 -0.007423193
-0.054795336 -0.07171165 -0.11548357 0.030293958 -0.0043083765 -0.06164963 0.044835955 0.21969268
-0.11582215 -0.026289966 0.03670742 -0.31897867 0.025934923 0.19595209 0.18727022 -0.0104127815
0.03056961 0.05427635 0.013856816 0.08550233 0.06358592 0.057645615 0.078165464 -0.056103934
-0.08543442 0.23279145 0.15781592 0.11194358 0.04370676 -0.14399321 -0.0030681314 -0.08498999
0.0066696876 0.10221993 0.020311346 -0.02283073 -0.042295896 -0.014355459 -0.12988806 -0.09243041
-0.01944037 -0.035250995 0.08341506 0.06649616 -0.08696182 -0.018021422 -0.12750876 -0.106807545
-0.041167773 -0.09417249 -0.021831462 -0.04630538 0.12993798 0.010070076 0.031387355 0.0115962485
0.040101845 0.06745017 -0.2303316 0.12662221 -0.0018304248 -0.08585354 -0.028625298 -0.034667768
0.026355596 0.047576763 0.054244645 -0.00135032 0.08741374 0.0451177 -0.058092892 0.0529712
0.035128158 -0.0001712428 -0.01623715 0.0829573 -0.029859595 0.07009412 0.0644153 -0.015693141
0.043454 -0.016073396 0.018372001 -0.18413669 -0.15444763 -0.18168654 -0.19247873 -0.16351527
-0.07867903 -0.21796292 -0.06570674 -0.061193593 0.12607254 0.018734336 0.12210727 -0.11250746
-0.06830732 0.07544354 -0.13289393 -0.03684472 -0.008414143 0.00011489002 0.03419826 0.08242701
0.17880282 0.1353763 0.16506815 0.08873861 0.078710005 0.10889794 0.048505917 -0.009158465
-0.12732832 -0.042517636 0.09989787 -0.08123551 0.052332632 0.09927396 0.0035714586 0.050764535
0.012709717 0.06709103 0.08169321 0.09686158 0.07696346 0.0005889001 -0.0036476231 0.10150029
0.06023474 0.05870984 0.08399401 -0.009459635 0.06734963 0.060109843 -0.07096582 0.087721884
0.1503434 -0.039166473 -0.13680649 -0.062279996 -0.01583412 -0.30428773 -0.11394758 -0.09658064
-0.16783305 -0.11878674 -0.07223403 -0.15078673 0.03413875 -0.09894631 -0.076876335 0.011714053
0.097062975 -0.005287145 0.011135166 0.030337512 -0.07361873 -0.26251608 -0.038664244 -0.18001167
0.10193981 0.025181223 -0.003474789 0.0040306915 0.11628251 0.059798084 -0.032488577 0.15756026

bias f4 [32]
00000000: 2820 a63d f0d2 4ebd b95e debc f92a bcbd
00000010: 8a11 f53c b6a9 16bd 8cf6 00bd 4f06 10bd
00000020: f2c4 35bd e6c5 ecbd 0378 5dbd b1b5 97bd
00000030: 6973 a7bd 2272 03be 06f7 8bbd f39e 80bd
00000040: d758 2b3d d898 25bd 8b80 96bc 2de6 be3c
00000050: 40c2 b0bc ac78 67bd 1cf3 43bd 51ae 9d3c
00000060: 87f2 95bc bda6 16bd 7a55 a8bd 07f1 35bc
00000070: 73ee 523c 7b63 33bc 9e02 18bd 5469 d43b
0.08111602 -0.050494134 -0.027144777 -0.09187884 0.02991559 -0.036782943 -0.031485125 -0.035162266
-0.044377275 -0.11561184 -0.05406953 -0.07407702 -0.081763096 -0.12836507 -0.06834225 -0.06280317
0.04183277 -0.040428966 -0.018371841 0.023303116 -0.021577 -0.056511566 -0.04783927 0.01924816
-0.018304123 -0.036780108 -0.08219428 -0.011104829 0.012874234 -0.010949011 -0.03711187 0.0064822827

weight f4 [5, 11552]
00000000: c275 fdbd 7c7d 06be 4ee3 07be 62ce ebbd
00000010: 7573 f7bd 46da 00be 7053 f8bd 87bc ecbd
00000020: d61a f5bd 75ce f2bd bb97 eebd 84fb ebbd
00000030: dd9e debd 0077 03be e857 f3bd 44e5 04be
00000040: f071 ebbd 6e86 06be f96a 0ebe 6760 04be
00000050: a8be c7bd e752 563d 029a d13d aaa9 9c3e
00000060: 96f7 ba3e ef84 4c3e 1827 973e da64 b33e
00000070: 2062 ef3e 988f a23e 3e2d e83e 86e5 ad3e
00000080: 119b d93e 5a16 f03e 241f e13e c9d9 0e3f
00000090: ed87 233e 2f7e 4a3d 122f fbbd 8ac3 d3bd
000000a0: f06b df3d 253a 973e 830b c43d 9b0e b13e
000000b0: 22d0 8f3e a136 b33e fe7d b33e 13b2 c13e
000000c0: 2615 993e 02b2 da3e 2dc2 d33e 1434 003f
000000d0: 0cf9 123f 8307 073f a395 1f3f ecf6 c53e
000000e0: 661b 6e3e e510 01be 1e0d 9bbd a255 543e
000000f0: ce0d a03d f72a 953e 3cfd b73e e999 e83e
00000100: d7b7 b23e a453 923e 6053 7b3e e912 9d3e
00000110: c549 af3e 7513 d13e 28e5 ba3e c950 e63e
00000120: 5eef 213f c602 353f 5e94 fe3e 9f48 8e3e
00000130: 034b e9bd eb14 8bbb 0b48 2c3e fdf0 453e
00000140: 6f39 de3e f161 b13e 074b e23e be07 a43e
00000150: 5913 a33e bdbb a93e f3e5 b43e d76b 563e
00000160: 62ca cb3e 9b87 8b3e f943 dc3e 7736 083f
00000170: 31ae 1a3f 16f0 f53e e806 823e 6c51 e3bd
00000180: 340a d1bd 8571 5f3d 0424 783e e0a5 903e
00000190: 1c81 af3e cdc4 c43e ec3d 913e bbeb b43e
000001a0: 986d e13e aff6 923e 1278 a93e 188e cf3e
000001b0: 7e36 8c3e b72d 813e 9991 9f3e 9c1c 203f
000001c0: 31f5 3a3f 82e5 cd3e 3a93 c2bd b90f cbbd
000001d0: 28fb 383e 33b8 2c3e f716 d83e 9f01 673e
000001e0: 52a2 7d3e f1ec e43e 6bc0 6f3e 2e7e a93e
000001f0: 23fd f73d ff6f 903e c2fb 7b3e 671e 803e
00000200: efc7 393e 77be 693e d211 093f 0234 393f
00000210: e9dc 7b3e 55e5 cabd d795 743c 10dd 773e
00000220: b666 d93e 6a83 903e b434 7e3e 024a 943e
00000230: 36fc 4c3e 1aed 7d3e 2731 1d3e f937 6b3e
00000240: 8bd2 043e 591d fd3d a6fa 4c3e b785 0c3e
00000250: b888 6d3e ec8a f73e 8fb9 1c3f 0a03 2e3e
00000260: f475 00be ada4 2c3e 5f42 4f3e ff1e bc3e
00000270: 9fb9 a83e 423b ad3e 1cc0 2a3e 7453 413e
00000280: d19c 823d 9a3c 77bd 5e3e aabd e338 263d
00000290: 70d4 ad3d 049e 0a3d 23fa 283e 2359 0c3e
000002a0: 47e4 ce3e fed0 2a3f 23d2 9a3e 0727 fcbd
000002b0: a476 b43c 7d2b 043e 397e 873e 4904 ad3e
000002c0: 971c 8a3e 82e0 803e a902 693e d78f 023e
000002d0: f4bc 97be 7c45 84be 31a2 f8bc fe2c b6bc
000002e0: ce5e a53d 0150 203e a2b1 793e 2f30 893e
000002f0: 6dff 273f f709 b53e c010 c3bd f763 3dbd
00000300: a7e4 913e d639 663e 915a c53e bda7 6f3e
00000310: 5594 9b3e 789a 543e d4a0 db3c c260 61bd
00000320: 6a14 14be ff6d fb3c cb19 ba3c 1d71 043e
00000330: b095 433e 4501 003e 00c1 8b3e b05f 183f
00000340: d2cc b53e 0d6e e6bd ee53 30bd e204 843e
00000350: 863f b63e 642d be3e 66d3 9e3e 5e2f 8b3e
00000360: 49a7 3d3e 1a14 a03e 5e44 8c3e 0efd c23d
00000370: e1d2 2f3e f49e 5e3e a538 8b3e 523e 833e
00000380: ba2c ae3e e192 d23e 6917 1e3f b752 a73e
00000390: 969e e1bd a7a0 ba3d e4c2 953e 7efd bd3e
000003a0: 1f13 de3e 6237 ce3e f282 803e 4518 b33e
000003b0: c5b2 ba3e fe0b 6e3e 5cb0 5c3e 3443 063e
000003c0: 9306 7d3e edd0 8d3e cf58 8c3e c043 c23e
000003d0: 47d6 233f a2a1 243f ba88 c03e 1a18 fdbd
000003e0: ab1e 83ba 7465 c43e e9c1 583e 19d5 8f3e
000003f0: 8e48 ce3e b857 e53e dd6d c13e f2f5 903e
-0.12375976 -0.13133806 -0.13270304 -0.11513974 -0.120825686 -0.12583265 -0.121252894 -0.11559396
-0.11968009 -0.11855785 -0.11650034 -0.11522582 -0.108701445 -0.12838364 -0.11882001 -0.12978083
-0.11496341 -0.13137218 -0.13907994 -0.129274 -0.09753162 0.052325156 0.10234453 0.30598193
0.36517018 0.19972585 0.29522014 0.3503788 0.4675455 0.31750178 0.45347017 0.33964175
0.4250112 0.46892053 0.4396907 0.55801064 0.1596982 0.049436744 -0.12264837 -0.103400305
0.10909259 0.29536548 0.09572508 0.34581456 0.2808848 0.35002616 0.35057062 0.37831172
0.29898947 0.42713934 0.41359082 0.50079465 0.57411265 0.52745837 0.623377 0.3866495
0.23252639 -0.12604101 -0.07570861 0.20735791 0.07815133 0.29134342 0.3593539 0.45429924
0.34905884 0.28579438 0.24543524 0.3067849 0.3423597 0.40835157 0.36502957 0.4498351
0.6325587 0.70707357 0.4972257 0.2778978 -0.113912605 -0.004244437 0.16824357 0.19330211
0.43403193 0.34645036 0.44197866 0.32037157 0.318507 0.33151045 0.35331687 0.20939575
0.39802843 0.27251896 0.4302061 0.53208107 0.60422045 0.48034734 0.25395894 -0.11099514
-0.10207024 0.05455162 0.24232489 0.28251553 0.3427819 0.38431397 0.28367555 0.35336098
0.44028926 0.2870383 0.3309942 0.40538096 0.27385324 0.2523019 0.3116577 0.62543654
0.7303038 0.40214163 -0.095007375 -0.09915108 0.18064559 0.16867141 0.4220502 0.22559212
0.24768952 0.44712022 0.23413245 0.3310408 0.12108829 0.28210446 0.24607757 0.25023195
0.18142675 0.22826563 0.53542817 0.7234498 0.2459599 -0.09907023 0.014928303 0.24205422
0.42461175 0.2822526 0.24824792 0.28962713 0.20018086 0.24797478 0.15350781 0.2297057
0.12970941 0.12359113 0.2001749 0.13722883 0.23196685 0.48348176 0.6122064 0.16993347
-0.12544996 0.16859694 0.20240162 0.36742398 0.32954118 0.33834273 0.16674846 0.18879491
0.063775666 -0.06036053 -0.08312677 0.040581595 0.08487785 0.0338421 0.1650167 0.13705878
0.40408537 0.66725147 0.30238447 -0.123121314 0.022029229 0.12907214 0.26463488 0.33792332
0.26974937 0.25171286 0.22754921 0.12750183 -0.29636347 -0.25834262 -0.030350776 -0.02223825
0.08074723 0.15655519 0.24384168 0.26794574 0.65624124 0.35359165 -0.09524679 -0.046237912
0.2849476 0.22483 0.3854566 0.23403831 0.30386606 0.2076205 0.026810087 -0.055023916
-0.14460912 0.030692099 0.022717377 0.12933774 0.1910007 0.12500484 0.27295685 0.5952101
0.35507828 -0.11251459 -0.04304879 0.25784975 0.3559534 0.37144005 0.3102066 0.27184576
0.18520845 0.31265336 0.2739591 0.095209226 0.17170288 0.21740323 0.27191654 0.25633484
0.340185 0.41127685 0.6175447 0.32680294 -0.11016576 0.09112673 0.29250252 0.37107462
0.43373963 0.4027663 0.25099903 0.34979454 0.36464515 0.23246762 0.21551651 0.13111573
0.24709539 0.2769846 0.27411506 0.37942314 0.63998836 0.6430913 0.37604314 -0.12358113
-0.0010003647 0.38358653 0.21167721 0.28092268 0.4028973 0.44793487 0.37779132 0.2831264

bias f4 [5]
00000000: 07bb ecbd 051a edbd 8bf9 c6bd 3a4d babd
00000010: 97b4 c4bd
-0.1155911 -0.115772285 -0.09715565 -0.09096761 -0.09604757
