archived_data/b1_r0_m8_s100--2019-03-03--165203.596044/episode_750.model (torch_old, 268278 bytes, 8 tensors)

weight f4 [6, 6, 3, 3]
0	0xbdca8d72	-0.0989026
1	0x3db34d66	0.08754997
2	0x3bd91f60	0.0066260546
3	0x3e06b8b4	0.13156396
4	0xbc83cb8c	-0.01608827
5	0xbccb4998	-0.024815366
6	0xbc41c5b8	-0.011826925
7	0x3dbcc88c	0.09217939
8	0xbd449d42	-0.048001535
9	0x3e1d7334	0.15375978
10	0x3dbd8bf4	0.092552096
11	0xbd6ad2b3	-0.057329845
12	0xbd930e15	-0.0718042
13	0x3dd6ebe1	0.10494209
14	0xbcd4d470	-0.025980204
15	0xbe19327b	-0.14960663
16	0x3ce3432a	0.027741987
17	0xbd84b27e	-0.06479357
18	0x3dffbaca	0.12486799
19	0x3d5a764d	0.053335477
20	0x3d833e1b	0.0640833
21	0x3d810572	0.06299867
22	0x3ddab4e3	0.10679033
23	0x3c17c29e	0.009262709
24	0x3dbcfc82	0.092278495
25	0x3e002154	0.12512714
26	0x3d989b41	0.07451487
27	0xbd8d4be6	-0.06899242
28	0xbd694c9a	-0.05695782
29	0xbdd4395e	-0.103625044
30	0x3d2189fc	0.039438233
31	0x3dc3904c	0.09549007
32	0xbd7e0bc6	-0.062022947
33	0x3da8119c	0.08206484
34	0xbdf81bbf	-0.12114667
35	0x3d2cb560	0.04216516
36	0x3e229538	0.15877235
37	0x3d12fd3b	0.03588603
38	0xbe292567	-0.16518174
39	0xbe41461c	-0.18874401
40	0x3d6bbd05	0.05755331
41	0xbdd51fc9	-0.10406453
42	0xbeac89fc	-0.33699024
43	0xbe84464c	-0.25834882
44	0x3cb60c67	0.02222271
45	0x3dcffb2d	0.1015533
46	0x3cf01c62	0.029310409
47	0x3d639b2c	0.055567905
48	0x3d0b1653	0.033956837
49	0xb9fddd5d	-0.0004842085
50	0xbda8ff7f	-0.08251857
51	0x3dedb1b9	0.116061635
52	0xbd8e2bbc	-0.069419354
53	0x3bcb083f	0.0061960514
54	0xbdcaba2c	-0.09898791
55	0x3dd96410	0.106147885
56	0x3da07e60	0.07836604
57	0xbde06422	-0.10956599
58	0x3df0cba8	0.11757594
59	0xbd8aa148	-0.06769043
60	0x3dbb4032	0.09143104
61	0x3cc15dc8	0.023604289
62	0xbda268c6	-0.0793014
63	0xbcc4cc14	-0.024023093
64	0xbd417e5c	-0.047239646
65	0x3d95f9bd	0.073230244
66	0x3d667255	0.05626138
67	0xbd33a35f	-0.043856975
68	0x3debeff2	0.11520375
69	0x3cdbb4c7	0.0268196
70	0x3db0c2a0	0.08630872
71	0x3d41cf77	0.047316995
72	0xbbae90c1	-0.0053273146
73	0xbdc23030	-0.09481847
74	0x3da2eb29	0.079550095
75	0xbda7c811	-0.081924565
76	0x3d953ec7	0.072873645
77	0x3e1bed91	0.15227343
78	0x3de13de2	0.10998131
79	0x3e0140c3	0.12622361
80	0x3d457e23	0.048215996
81	0x3db28dfc	0.087184876
82	0xbb9aaf80	-0.0047206283
83	0x3d84e880	0.06489658
84	0x3c3e3840	0.011610091
85	0x3d7a5da0	0.061124444
86	0x3db8cc36	0.09023325
87	0xbd592e32	-0.05302257
88	0xbc718ee0	-0.014743537
89	0x3dc0e89a	0.09419365
90	0x3df744d2	0.12073673
91	0xbe8c3a51	-0.27388242
92	0xbe9c7393	-0.30556926
93	0x3dd8a090	0.105775
94	0xbe68d9d1	-0.2273934
95	0x3df0ec1e	0.11763786
96	0x3e079699	0.13241042
97	0x3e3e7e14	0.18602782
98	0x3e4d2875	0.20034964
99	0x3daab25f	0.08334803
100	0xbd889115	-0.06668297
101	0x3dd1fbaf	0.10253083
102	0x3c88ffc0	0.016723514
103	0x3da9fe22	0.08300425
104	0xbdb67461	-0.08908916
105	0xbc562974	-0.013071407
106	0x3b9e3f5f	0.0048293318
107	0x3d190b79	0.037364457
108	0x3d7b56e8	0.061362177
109	0x3d031fb0	0.03201264
110	0xbd8593b0	-0.0652231
111	0x3dcea446	0.100899264
112	0x3d2cd4c4	0.042195097
113	0xbdaf57dc	-0.0856168
114	0xbdd17d1b	-0.1022894
115	0x3e084814	0.13308746
116	0xbcb8e104	-0.022568233
117	0x3d857235	0.06515924
118	0x3d3fdfdc	0.04684435
119	0x3d35547e	0.04427003
120	0x3c222437	0.00989633
121	0xbcf82f2d	-0.030295933
122	0xbe42196b	-0.18955009
123	0xbc92607d	-0.017868275
124	0x3d95be02	0.07311632
125	0x3c76b500	0.015057802
126	0x3d01ef27	0.031722214
127	0x3d7decde	0.061993472
128	0xbd90591d	-0.07048247
129	0x3d23b66b	0.03996889
130	0xbcbc9c1d	-0.02302366
131	0xbdae7be2	-0.085197225
132	0x3b6ac912	0.0035825414
133	0xbdaa8001	-0.08325196
134	0xbc47cd1b	-0.012194897
135	0xbd1f7250	-0.038927376
136	0xbdabcec6	-0.08389048
137	0xbd4ca4c0	-0.049961805
138	0xbc7496d0	-0.014928535
139	0xbcae9838	-0.021312818
140	0x3de41e42	0.11138584
141	0xbd2ab95c	-0.04168068
142	0x3ccb8528	0.024843767
143	0x3d1a2a1c	0.037637815
144	0xbc85ff56	-0.016357105
145	0x3d090dd8	0.033460468
146	0x3e2c2980	0.16812706
147	0x3e3c68ef	0.18399404
148	0x3d9c9149	0.076448984
149	0xbe905e6f	-0.28197047
150	0x3cadcbbd	0.021215314
151	0x3e293291	0.16523196
152	0xbce2fd11	-0.027708562
153	0x3dde2504	0.10846904
154	0xbd412c09	-0.047161136
155	0xbbc93b00	-0.0061410666
156	0x3c842848	0.016132489
157	0xbdffd692	-0.12492098
158	0xbe4b875f	-0.19875859
159	0xbd67a009	-0.056549106
160	0x3dc8306e	0.09774862
161	0xbd9b0a38	-0.075703084
162	0x3dca3b2a	0.09874566
163	0x3e020ec0	0.12700939
164	0x3dfe7cec	0.12426171
165	0x3deff824	0.11717251
166	0xbd89d1a0	-0.06729436
167	0xbb3dbf80	-0.0028953254
168	0xbe02a927	-0.12759839
169	0xbcc21eac	-0.023696266
170	0xbdc3eeb4	-0.095670134
171	0xbcca3143	-0.024681693
172	0x3c9c9949	0.01911606
173	0x3d74229b	0.059603315
174	0x3d2339ab	0.03984992
175	0x3b7cdc87	0.0038583593
176	0xbc4adf49	-0.012382337
177	0x3c2bf15f	0.010494559
178	0x3c10f5a9	0.008847632
179	0x3dba9720	0.09110856
180	0xbd6c032c	-0.057620212
181	0x3d00b28a	0.031420268
182	0x3dd08be2	0.101829305
183	0x3dd6ba51	0.10484756
184	0xbacb1d05	-0.0015496319
185	0xbd04071b	-0.03223334
186	0xbd86c54e	-0.06580602
187	0xbd587e62	-0.052854903
188	0x3dd4d385	0.10391907
189	0x3d734688	0.059393436
190	0xbd43c904	-0.047799125
191	0x3d9eff32	0.077635184
192	0xbd106d0a	-0.035260238
193	0xbe037bff	-0.1284027
194	0xbdad3f7e	-0.08459376
195	0xbe031ce2	-0.12803987
196	0xbd95a4ef	-0.07306849
197	0xbe046752	-0.12930039
198	0xbbe021c8	-0.0068399645
199	0x3b0bf47e	0.0021355445
200	0xbe76d49d	-0.24104543
201	0xbd80f7a5	-0.062972344
202	0xbeb30e3d	-0.349718
203	0xbe63a03a	-0.2222909
204	0x3d97e6c5	0.07417063
205	0x3db2aa51	0.087238915
206	0xbe915461	-0.28384688
207	0x3d4983ba	0.04919789
208	0xbd5e6b4c	-0.054301545
209	0x3d861026	0.06546049
210	0xbe00c415	-0.125748
211	0x3de32dc8	0.110927165
212	0x3da7da6a	0.08195956
213	0x3ded1190	0.115756154
214	0xbd015a80	-0.03158045
215	0xbc2f56d6	-0.010701856
216	0x3db52fca	0.08847006
217	0x3df86900	0.12129402
218	0x3cad7bc8	0.021177188
219	0x3ca69b00	0.020337582
220	0x3dcfbc1c	0.10143301
221	0x3df9ab10	0.12190831
222	0xbd212aa6	-0.039347313
223	0x3d5a9c10	0.05337149
224	0x3d4bbb48	0.049739152
225	0x3d8a65e7	0.067577176
226	0xbc643130	-0.013927743
227	0x3ddd64c9	0.10810239
228	0xbce16ad3	-0.027516758
229	0x3cd33f38	0.025786981
230	0x3dd0a414	0.101875454
231	0xbc79059d	-0.015199092
232	0x3d141464	0.03615226
233	0xbbd95531	-0.00663247
234	0x3dbdc93e	0.092668995
235	0xbbd16bb0	-0.006391011
236	0x3da73b2c	0.08165583
237	0x3e0d9d0a	0.13829437
238	0xbd3443da	-0.04401002
239	0x3d719ac6	0.058985494
240	0xbdcc9f44	-0.09991315
241	0x3dcdb288	0.10043818
242	0xbdf9fcb7	-0.12206405
243	0x3df20df0	0.118190646
244	0x3d7109d0	0.05884725
245	0x3d807356	0.062719986
246	0xbd5601aa	-0.05224768
247	0xbcc0e3a4	-0.023546048
248	0xbde48e33	-0.11159935
249	0xbdfd2aad	-0.123616554
250	0xbdd55378	-0.10416311
251	0xbdda2f81	-0.10653592
252	0x3e17cdbb	0.14824574
253	0x3d56d521	0.05244935
254	0x3d9e33b9	0.07724709
255	0x3e292e34	0.16521531

bias f4 [6]
0	0xbdea59c2	-0.11442901
1	0xbdd2ad85	-0.102870025
2	0x3da01866	0.07817154
3	0xbe06c503	-0.13161092
4	0x3d5deb30	0.05417937
5	0xbd296deb	-0.04136459

weight f4 [16, 6, 3, 3]
0	0xbdb3759d	-0.08762667
1	0x3e04f85e	0.1298537
2	0x3d877d74	0.06615725
3	0x3d5c7352	0.053820916
4	0xbc8b960a	-0.017039318
5	0xbd3b020a	-0.04565624
6	0xbe1a37dd	-0.15060373
7	0xbd45893e	-0.048226587
8	0x3dea90d7	0.11453407
9	0x3cb74186	0.022370111
10	0x3ddbc3a7	0.10730677
11	0x3e047d8e	0.1293852
12	0xbd36388d	-0.044487525
13	0x3b4147da	0.002949229
14	0x3c6417de	0.013921706
15	0xbd47e320	-0.048800588
16	0xbd257933	-0.040398788
17	0xbdd2f0e8	-0.102998555
18	0x3d3663f7	0.044528928
19	0x3df62469	0.120186634
20	0x3d06980b	0.032859843
21	0xbcd7209f	-0.026260672
22	0x3db3205d	0.08746407
23	0x3dbf7f9c	0.093505114
24	0xbdaac715	-0.08338753
25	0x3dfa80fb	0.12231632
26	0x3e221365	0.15827711
27	0x3d3de225	0.046358246
28	0xbd5ea866	-0.054359816
29	0xbda2edf0	-0.07955539
30	0x3e3a0a7b	0.1816806
31	0x3e0a04df	0.1347842
32	0xbd835091	-0.06411851
33	0xbe12e21d	-0.14344068
34	0xbdcce804	-0.10005191
35	0x3e1d25ba	0.15346423
36	0xbbb3e45d	-0.0054898695
37	0xbcde9774	-0.027171828
38	0xbda2af96	-0.079436466
39	0x3b09e0e6	0.002103859
40	0xbc7fa1fd	-0.015602586
41	0x3d98a2c9	0.07452924
42	0xbc36f0b6	-0.011165788
43	0xbc51bd57	-0.01280149
44	0x3e49e825	0.19717462
45	0x3d9cfb11	0.076650746
46	0xbc6e81df	-0.014557331
47	0x3df711a8	0.120639145
48	0xbda160a6	-0.07879762
49	0x3c3d1262	0.011540027
50	0xbd0ac6f0	-0.033881128
51	0x3d5378b8	0.0516288
52	0xbd947bf0	-0.07250202
53	0xbd672110	-0.056428015
54	0xbe0cdd35	-0.13756259
55	0xbd7ac3c1	-0.06122184
56	0x3db8e6a4	0.09028366
57	0x3d528015	0.05139168
58	0x3d1fa15a	0.038972236
59	0xbc84d39a	-0.01621418
60	0xbdb1cb3e	-0.086813435
61	0x3d33e6be	0.043921225
62	0x3dc7c468	0.097542584
63	0x3da3558e	0.07975303
64	0x3d78ca13	0.060739588
65	0xbe30db70	-0.17271209
66	0xbd7ebd4c	-0.062192246
67	0x3d912a93	0.070881985
68	0xbc37bd4d	-0.011214566
69	0xbe128c70	-0.14311385
70	0x3d8cbd8c	0.06872091
71	0x3d93b9b6	0.07213156
72	0x3e028f8f	0.12750076
73	0xbd4461c9	-0.047944818
74	0x3a7248c4	0.00092424103
75	0xbda26b3b	-0.07930609
76	0xbcd542a8	-0.02603276
77	0x3e5457a0	0.20736551
78	0xbdb61645	-0.08890966
79	0xbc86a2a2	-0.016434971
80	0x3d72b5e0	0.05925548
81	0x3e0039a6	0.12521991
82	0x3e11e605	0.14247902
83	0x3de95b4a	0.11394365
84	0x3cdf2181	0.027237656
85	0xbd174873	-0.036934327
86	0x3e1e085f	0.15432881
87	0xbc76aa6d	-0.015055281
88	0xbe1d0320	-0.15333223
89	0x3dcb5de6	0.09930019
90	0x3c912844	0.017719395
91	0x3dd71ae6	0.10503177
92	0x3d1233c3	0.035693895
93	0x3db04ac7	0.08608013
94	0xbccafa1d	-0.024777466
95	0xbe2543ba	-0.16139117
96	0x3e0646e9	0.13112988
97	0xbd9cd8ab	-0.07658514
98	0xbe07c6f7	-0.13259493
99	0x3e1305b4	0.14357644
100	0xbe3bd46d	-0.18342753
101	0xbd04908e	-0.03236442
102	0x3d29cc14	0.04145439
103	0xbe042290	-0.1290381
104	0x3cbbb5d8	0.022913858
105	0xbd8cbf52	-0.06872429
106	0x3dc5c56c	0.09656796
107	0x3e0d5642	0.13802436
108	0x3da54701	0.080701835
109	0x3e011ff8	0.12609851
110	0xbdbfe1ef	-0.09369265
111	0xbe197113	-0.1498454
112	0x3df9399f	0.121691935
113	0x3d8e03a0	0.06934285
114	0x3d1e169e	0.03859579
115	0x3cdc2aab	0.026875814
116	0x3e03c6ef	0.12868856
117	0xbd235d26	-0.039883755
118	0xbdba2ee3	-0.09090974
119	0x3de7c560	0.11316943
120	0x39f4e04d	0.00046706424
121	0x3da4a3d8	0.08039063
122	0x3de026fb	0.10944935
123	0xbe03fecd	-0.12890168
124	0x3cab50d3	0.020912563
125	0xbe0fa5b9	-0.14028062
126	0xbe0a5e18	-0.13512456
127	0x3cd10047	0.025512828
128	0xbd948e85	-0.07253746
129	0xbdd8fdf0	-0.1059531
130	0xbd9a32dd	-0.07529233
131	0xbd7f67be	-0.062354796
132	0x3e19a8a2	0.15005735
133	0x3cc41c37	0.023939235
134	0xbdf06afb	-0.11739155
135	0x3e0289fc	0.1274795
136	0xbcb2d656	-0.021830719
137	0x3d7a29e1	0.061075095
138	0xbd54e3f9	-0.051975224
139	0xbe060742	-0.13088706
140	0xbd413277	-0.047167268
141	0xbe1452f8	-0.14484775
142	0xbcf16469	-0.029466825
143	0x3d283ad6	0.041071735
144	0xbdeb9880	-0.115036964
145	0xbcfbf652	-0.030757103
146	0xbe0bc66f	-0.13649915
147	0x3de29e6a	0.11065371
148	0x3bb0abdd	0.0053915814
149	0x3cf95c58	0.03043954
150	0x3dcf8e1d	0.10134528
151	0xbe2560f1	-0.16150261
152	0x39f5fb4c	0.00046917272
153	0xbc055df5	-0.008140077
154	0x3e27399c	0.1633057
155	0x3a7b24e3	0.00095803867
156	0xbdacc9f9	-0.08436961
157	0x3e1bdcad	0.152209
158	0xbba2293d	-0.0049487636
159	0x3d5aba16	0.05340012
160	0xbe06eeed	-0.1317708
161	0xbd6908c3	-0.05689312
162	0x3dc358f2	0.09538449
163	0xbe0eeb5a	-0.13956967
164	0x3dc76406	0.09735875
165	0x3c5a1104	0.013309721
166	0xbe1e3f6d	-0.15453883
167	0x3bbfc683	0.005852522
168	0xbe0d6cde	-0.13811061
169	0xbbf5907a	-0.0074940296
170	0xbe18c7c8	-0.1491996
171	0x3c9257a0	0.017864048
172	0x3e07e11a	0.13269463
173	0xbc0c957c	-0.008580562
174	0x3e11c45e	0.14235064
175	0xbd045aa8	-0.03231302
176	0x3d825c3b	0.06365248
177	0xbc0dc487	-0.008652813
178	0x3e1f7974	0.15573674
179	0xbc3a4484	-0.011368874
180	0xbde33498	-0.11094016
181	0x3cdf84ff	0.027285097
182	0x3bd68bfb	0.0065474487
183	0x3c3d4004	0.011550907
184	0x3e100fcc	0.14068526
185	0x3e2e01ac	0.16992825
186	0x3c9c6bef	0.019094435
187	0xbd94138a	-0.07230289
188	0x3cd55f1a	0.026046325
189	0x3bd6fcca	0.0065608965
190	0xbb986a18	-0.0046513192
191	0x3dea083a	0.1142735
192	0x3de54dd3	0.111964844
193	0xbd6c0007	-0.057617214
194	0xbc18d077	-0.009327046
195	0x3ddee2f8	0.108831346
196	0xbde83f78	-0.11340231
197	0xbd786a72	-0.06064839
198	0xbc82e8d4	-0.015980162
199	0x3de2255d	0.11042283
200	0xbd321be7	-0.04348364
201	0xbd998be0	-0.07497382
202	0xbdb58299	-0.088628
203	0xbd58e51e	-0.05295288
204	0xbd80a985	-0.06282333
205	0x3e065d1e	0.13121459
206	0x3e1339d1	0.14377524
207	0xbd4d24e9	-0.05008403
208	0x3d408bbf	0.047008272
209	0xbd98c64f	-0.07459699
210	0xbaa11aaa	-0.0012291272
211	0xbe223679	-0.15841092
212	0x3d9aa92f	0.075518005
213	0xbe3a2806	-0.1817933
214	0xbdec1c86	-0.11528878
215	0xbde428c4	-0.11140588
216	0xbd322c97	-0.043499555
217	0xbd8ed901	-0.06974984
218	0xbd9dcf55	-0.07705561
219	0x3d3b3b2a	0.04571072
220	0x3e3f062c	0.18654698
221	0x3de57e81	0.11205769
222	0x3e07d150	0.1326344
223	0xbc79546c	-0.015217882
224	0x3c795692	0.015218394
225	0x3bc276c7	0.0059345695
226	0xbd1f191d	-0.03884231
227	0xbd03e8d5	-0.032204468
228	0xbe1acb72	-0.1511667
229	0x3c5cef53	0.013484794
230	0x3d3bac8c	0.04581885
231	0x3c77e382	0.015129926
232	0x3d7933b8	0.06084034
233	0x3e07aa75	0.13248618
234	0xbd965d41	-0.073420055
235	0xbd798f22	-0.060927518
236	0x3c3f102a	0.011661569
237	0xbdad68c3	-0.08467247
238	0x3d7deacf	0.06199151
239	0xbc9e804e	-0.01934829
240	0x3daf63c5	0.085639514
241	0xbca51c35	-0.020155052
242	0x3d142f6c	0.036178038
243	0xbbb904ca	-0.005646323
244	0x3e2d947e	0.16951177
245	0xbdc369c7	-0.0954166
246	0xbc68906b	-0.014194588
247	0xbd8d5b62	-0.069021955
248	0xbd9f869f	-0.07789349
249	0x3e55134e	0.20808145
250	0x3cd3f4a6	0.025873493
251	0x3df80aa9	0.12111408
252	0xbd852380	-0.06500912
253	0xbdcc2d3e	-0.09969567
254	0x3ca04393	0.019563472
255	0xbcf324de	-0.029680666

bias f4 [16]
0	0x3b0f217b	0.0021840024
1	0x3cbe1f66	0.023208331
2	0x3da3ac0b	0.07991799
3	0x3d1f4071	0.038879815
4	0x3c850f23	0.01624257
5	0xbd9026ab	-0.07038625
6	0x3c77fade	0.015135495
7	0x3cbc5094	0.022987641
8	0xbc1533e5	-0.009106611
9	0x3d8ad13f	0.06778192
10	0x3d3fe2a4	0.046847
11	0x3da63724	0.08115986
12	0xbd58adc1	-0.05290008
13	0x3de6ff17	0.11279123
14	0x3d22d096	0.039749704
15	0x3dd914aa	0.105996445

weight f4 [32, 16, 3, 3]
0	0xbc07f527	-0.008298195
1	0xbda844a8	-0.0821622
2	0xbd65af0a	-0.056075133
3	0x3cb63fff	0.022247313
4	0x3d313e1f	0.043272134
5	0x3d9980f9	0.07495303
6	0xbd40ff8a	-0.0471187
7	0x3c6d8015	0.014495869
8	0xbca07a48	-0.019589558
9	0xbd81629c	-0.06317636
10	0xbd9c0ace	-0.07619248
11	0x3d428217	0.047487345
12	0x3d8acd3d	0.06777427
13	0xbd85772d	-0.065168716
14	0x3da0a2ac	0.07843527
15	0x3c4d09f2	0.012514578
16	0x3d2ede87	0.042692687
17	0x3d6486c3	0.05579258
18	0xbc7ce6c0	-0.015435874
19	0xbcf88b13	-0.030339753
20	0xbda31882	-0.07963659
21	0xbca91162	-0.020638172
22	0xbcacd48c	-0.021097444
23	0x3d6b5c34	0.05746098
24	0x3bf2e24c	0.0074122306
25	0x3d8aa414	0.06769577
26	0x3a86a234	0.0010271729
27	0xbcdff344	-0.027337678
28	0xbdaa306f	-0.08310019
29	0x363a08ac	2.7721208e-06
30	0x3c4e11cd	0.012577486
31	0x3d4cea9a	0.05002842
32	0x3ba7364f	0.0051029096
33	0xbd30ffa5	-0.04321255
34	0x3ccf9317	0.025338693
35	0xbcbd7142	-0.023125295
36	0x3c6f9aa7	0.014624274
37	0xbc9e6eac	-0.019339882
38	0xbd0b701e	-0.03404247
39	0xbdba2c67	-0.090905
40	0xbd93961a	-0.07206364
41	0xbd2a66ae	-0.04160183
42	0xbc9c8a6b	-0.019108972
43	0x3d031769	0.032004748
44	0xbcdbe023	-0.026840275
45	0x3c9c0bc1	0.019048573
46	0xbd0cfedf	-0.03442275
47	0x3d470434	0.048587993
48	0x3bcb955b	0.006212873
49	0xbda24426	-0.079231545
50	0x3d109277	0.03529593
51	0xbdcfd660	-0.10148311
52	0xbd7ecf84	-0.06220962
53	0xbdca61c7	-0.09881931
54	0x3d7dcb22	0.0619613
55	0x3d241d9d	0.040067304
56	0xbd45199a	-0.04812012
57	0xbd335b9c	-0.043788537
58	0xbd1b21c0	-0.037873983
59	0xbdaebdb1	-0.085322745
60	0xbc3bf472	-0.0114718545
61	0x3dac9d65	0.08428458
62	0xbd8b6187	-0.06805711
63	0x3d1b8e54	0.03797753
64	0xbd7df4e3	-0.06200112
65	0x3ab05c12	0.0013455173
66	0x3cfed3bb	0.03110682
67	0xbd1ef679	-0.038809273
68	0x3bcd8b8e	0.0062727397
69	0x3c97ec26	0.018545222
70	0x3d97d7a6	0.074141786
71	0x3d6c0a6f	0.057627138
72	0xbd4a20ff	-0.049347874
73	0x3d234e26	0.03986945
74	0xbd06b42c	-0.03288667
75	0x3d10fe43	0.035398733
76	0xbd894487	-0.06702524
77	0x3d8258c7	0.06364589
78	0x3cf92111	0.030411275
79	0xbcd693f7	-0.026193602
80	0xbd9e0f12	-0.07717718
81	0xbd55ee03	-0.05222894
82	0xbd575f29	-0.052580986
83	0xbc7d8f55	-0.015476068
84	0xbd983767	-0.07432442
85	0x3d39e883	0.045387756
86	0xbc69ddc1	-0.014274062
87	0x3db87c5e	0.09008096
88	0x3bdd0719	0.006745231
89	0xbca5286a	-0.020160872
90	0xbd342567	-0.043980982
91	0xbd41d857	-0.04732546
92	0xbc056d16	-0.008143684
93	0xbcaa3315	-0.020776311
94	0xbce48a10	-0.027897865
95	0x3db828c3	0.0899215
96	0xbcc5df2f	-0.024154274
97	0xbd8dabd8	-0.06917542
98	0x3bb57c20	0.0055384785
99	0x3bea282b	0.0071459017
100	0x3c394c2a	0.011309663
101	0x3d5f2fb5	0.054488856
102	0x3c7e3b5d	0.015517083
103	0xbd5634b7	-0.052296367
104	0xbc104c92	-0.008807318
105	0x3ce0de09	0.027449625
106	0xbd4bf80e	-0.04979711
107	0x3d6abd54	0.057309464
108	0x3c3fecff	0.011714219
109	0x3c2f11c5	0.010685389
110	0x3c2875ed	0.010282022
111	0xbd702638	-0.0586302
112	0xbd7714dd	-0.06032263
113	0x3d3071d8	0.04307732
114	0x3d063ffa	0.032775857
115	0xbcb37c83	-0.021909958
116	0x3d05ae1c	0.032636747
117	0xbd31eecc	-0.043440625
118	0xbcbda96f	-0.023152081
119	0xbce68979	-0.028141724
120	0xbd15de5e	-0.03658902
121	0x3d152ae2	0.03641785
122	0x3c70dc84	0.0147010125
123	0xbd024dee	-0.0318126
124	0xbd7fa79d	-0.062415708
125	0xbc615c5c	-0.01375493
126	0xbd5c6ed1	-0.05381662
127	0xbdc293bd	-0.09500835
128	0xbcf71d57	-0.030165358
129	0xbdb3ac7b	-0.087731324
130	0x3d19568c	0.037436053
131	0x3bab2d83	0.0052239313
132	0xbda1e089	-0.07904155
133	0x3cd9258a	0.026507158
134	0xbd7e1d34	-0.06203957
135	0xbd0511f0	-0.03248781
136	0xbab94376	-0.0014134485
137	0xbd7089bf	-0.058725115
138	0xbbd0c59a	-0.006371212
139	0xbdbe0456	-0.09278171
140	0x3d8d4e61	0.06899715
141	0x3d9af894	0.07566944
142	0x3d5b0b4d	0.053477574
143	0xbbf6e230	-0.007534288
144	0x3cce0bfc	0.025152199
145	0x3da3c462	0.079964414
146	0xbdea2dd0	-0.11434519
147	0x3defcf6c	0.117094845
148	0xbcd4c668	-0.025973514
149	0x3d0623ff	0.032749172
150	0x3c27802c	0.01022343
151	0xbcfd1bee	-0.030897107
152	0x3dd52b60	0.10408664
153	0x3d093c59	0.033504818
154	0x3d15310d	0.03642373
155	0xb9c148b5	-0.00036866
156	0x3dacfd0a	0.08446701
157	0x3d048512	0.03235347
158	0xbdac97ae	-0.08427368
159	0x3c493dbf	0.012282788
160	0xbd45ea1f	-0.04831898
161	0xbd3e7ee0	-0.046507716
162	0xbad01bf6	-0.0015877474
163	0x3d82a7a9	0.06379635
164	0xbda92576	-0.08259098
165	0x3d9ee4f6	0.077585146
166	0x3d8affcc	0.06787071
167	0xbcdc3843	-0.026882296
168	0x3cab56bb	0.02091538
169	0xbcce25a6	-0.025164437
170	0x3c0a7eb9	0.008453065
171	0xbd9e8ce6	-0.07741718
172	0xbd8402f9	-0.064458795
173	0xbdf63591	-0.12021936
174	0xbd2cc301	-0.042178158
175	0xbc384c57	-0.01124867
176	0xbcaf875b	-0.021426847
177	0xbd97e5d0	-0.0741688
178	0xbbd029b6	-0.0063526286
179	0xbd18eb36	-0.03733369
180	0x3df050e7	0.11734181
181	0x3c7a4591	0.015275375
182	0x3dcbff6b	0.099608265
183	0xbd928d8c	-0.07155904
184	0xbd574963	-0.05256022
185	0x3daa71fb	0.08322521
186	0xbdcc3041	-0.09970141
187	0x3aded214	0.0016999864
188	0xb99ecef0	-0.0003029029
189	0xbd611b17	-0.054957476
190	0xbd2b44da	-0.04181371
191	0x3d12f845	0.0358813
192	0x3e1e46ee	0.15456745
193	0x3dd9bafc	0.106313676
194	0x3df553eb	0.11978897
195	0x3d3b62ed	0.04574864
196	0x3d9c146d	0.076210834
197	0x3d973f76	0.07385151
198	0x3dd78306	0.105230376
199	0x3d87ebd6	0.06636779
200	0xbda7762c	-0.08176836
201	0x3caeb8d4	0.021328367
202	0x3de22a13	0.11043181
203	0xbb79bf8b	-0.0038108553
204	0x3dec7984	0.11546615
205	0x3e054fe8	0.13018763
206	0x3bc5b931	0.0060340394
207	0x3cc16aef	0.02361056
208	0x3c27e392	0.010247128
209	0x3d8f966c	0.070111126
210	0x3d8bd13d	0.068270184
211	0x3dc73cad	0.0972837
212	0x3da0d8b2	0.07853831
213	0xbbe22f08	-0.006902579
214	0xbd0a1f3a	-0.033721186
215	0x3dbf1a3f	0.09331178
216	0x3d79307f	0.060837265
217	0x3d32e0e4	0.043671504
218	0x3d924ca8	0.07143527
219	0xbcaa31cb	-0.020775696
220	0x3d1a5062	0.037674315
221	0x3ce0e9bf	0.027455209
222	0xbd2ce653	-0.04221184
223	0x3d1b7178	0.03795001
224	0x3d9d06fe	0.07667349
225	0x3d756296	0.059908472
226	0xbc177aef	-0.009245618
227	0x3d9081f4	0.070560366
228	0xbcb20a28	-0.021733359
229	0xbd9a9573	-0.075480364
230	0x3c987cde	0.018614229
231	0x3be5fb42	0.0070184777
232	0xbd0b8191	-0.03405911
233	0x3cc955ed	0.024577105
234	0xbc3dbf31	-0.011581228
235	0xbcc4a147	-0.024002684
236	0xbcb1d6c2	-0.02170885
237	0xbce0b1b7	-0.027428491
238	0xbd015829	-0.031578217
239	0xbda38760	-0.07984805
240	0x3d259405	0.040424366
241	0xbba6fd1f	-0.0050960924
242	0xbd85d9e0	-0.06535697
243	0x3d705de1	0.05868328
244	0xbd90d232	-0.070713416
245	0xbddc1168	-0.107455075
246	0x3c10692e	0.008814139
247	0xbde494ed	-0.11161218
248	0x3cd88996	0.026432794
249	0x3d8b5992	0.068041936
250	0x3ce500ba	0.027954448
251	0xbd3cdf70	-0.046111524
252	0x3deb91f3	0.11502447
253	0x3d8e2043	0.06939747
254	0xbd0baa3a	-0.034097888
255	0x3e3cd0e2	0.18439057

bias f4 [32]
0	0x3d828a71	0.06374062
1	0xbd08d028	-0.03340164
2	0xbaefe281	-0.0018301756
3	0xbd50ff87	-0.05102494
4	0x3d86248f	0.06549942
5	0xbc4a6878	-0.012354009
6	0x3cc70b7b	0.024297467
7	0xbb338817	-0.0027394348
8	0xbc85eb25	-0.016347477
9	0xbd0ac307	-0.0338774
10	0xbcb68f0e	-0.02228501
11	0x3d29bc46	0.041439317
12	0xbcb5ae67	-0.022177888
13	0xbd3f8401	-0.046756748
14	0xbd2a425e	-0.0415672
15	0xbd123016	-0.03569039
16	0x3d127bab	0.03576247
17	0xbcbf651b	-0.02336364
18	0x3c12dcd6	0.008963784
19	0x3cf09c0f	0.02937129
20	0x3c988a8c	0.018620752
21	0x3d8a8faf	0.06765687
22	0xbd169e10	-0.036771834
23	0x3cc25ca5	0.023725817
24	0x3c058647	0.00814969
25	0xbbf01a6d	-0.007327369
26	0xbda1d623	-0.079021715
27	0x3d544abc	0.051829085
28	0x3d276afa	0.040873505
29	0x3cf1c22f	0.02951154
30	0x3b8a15f9	0.004214045
31	0x3c194d4f	0.009356811

weight f4 [5, 11552]
0	0xbc5f5550	-0.01363118
1	0xbc657679	-0.014005297
2	0xbc71b2b0	-0.014752075
3	0x39188b41	0.00014547726
4	0xbbcb6932	-0.0062076086
5	0xbb89ac1f	-0.0042014266
6	0xbbf3f6b7	-0.007445182
7	0xbbb75f1f	-0.005596056
8	0xba7ecd70	-0.00097199436
9	0xbc71b5e6	-0.014752841
10	0xbb39e3c0	-0.002836451
11	0xbbeeb8d7	-0.007285218
12	0xbaebf3cb	-0.0018001733
13	0xbc7038a4	-0.014661942
14	0xbc38302a	-0.011241952
15	0xbc548ca7	-0.012972987
16	0xbacf1ca0	-0.0015801378
17	0xbc08ddf7	-0.008353702
18	0xbc580d1e	-0.013186721
19	0xbc5e5ee7	-0.013572431
20	0xbc02dab9	-0.007986718
21	0xbbbf4fb0	-0.005838357
22	0x3c03aaa1	0.008036287
23	0x3b95387f	0.004553854
24	0xbb094bd8	-0.0020949747
25	0xbbff55c8	-0.0077922083
26	0x3b561718	0.0032667574
27	0xbc5e4d7b	-0.0135682775
28	0xb90f194e	-0.0001364697
29	0xbc4c1e55	-0.012458404
30	0x3c27cfbb	0.010242398
31	0x3c83014a	0.015991826
32	0xbb16bbf8	-0.0023000222
33	0x3bfa62cc	0.007641172
34	0x3b8a55b3	0.004221642
35	0x3b105dd9	0.0022028594
36	0xbb57a13e	-0.0032902504
37	0xbc1147f9	-0.008867257
38	0xbc7167b3	-0.0147341965
39	0x3a8d3e56	0.0010776024
40	0x3a89fdc8	0.0010527903
41	0xbb92e5ea	-0.0044829743
42	0xbc0e4a63	-0.008684727
43	0x3b68b12b	0.003550599
44	0x3b80e54e	0.0039335852
45	0x3b932153	0.0044900565
46	0x3affa24c	0.0019503324
47	0x3c1e3043	0.009655061
48	0xba8b4fcf	-0.0010628643
49	0x3ccb3253	0.02480427
50	0xb929e3dd	-0.00016201982
51	0x3c06b12f	0.008220955
52	0x3c5fd17e	0.013660787
53	0xbc9db7da	-0.019252706
54	0xbc7e50e2	-0.015522214
55	0xbc0d634d	-0.008629632
56	0x3b03ce62	0.0020112027
57	0xbc8d2f06	-0.017234337
58	0xbc00dc11	-0.007864968
59	0xbbdbde7e	-0.0067098727
60	0x3ab60bfa	0.0013889067
61	0xbaa7bd8a	-0.0012797576
62	0xbc2df582	-0.010617616
63	0xbc8e888a	-0.017399091
64	0xbb763e2f	-0.0037573685
65	0xbcbef462	-0.02330989
66	0xbb93a406	-0.004505637
67	0x3bcb4fe9	0.0062045944
68	0xbcb93eb2	-0.022612903
69	0xbc8430e1	-0.016136589
70	0xbc07267b	-0.008248921
71	0xbb3b1b92	-0.0028550369
72	0x3a7b4486	0.0009585101
73	0xbb8a43d3	-0.004219511
74	0x3b1d0c57	0.0023963654
75	0xba8cbe27	-0.0010737822
76	0xbae132c0	-0.0017181262
77	0xbb6eeed6	-0.0036458275
78	0x3ba2fd81	0.0049740677
79	0x3c3952d5	0.011311253
80	0xbb07292e	-0.002062391
81	0xbcc25d5c	-0.023726158
82	0xbb73fa0f	-0.0037227904
83	0xba6a771d	-0.0008944141
84	0x3b25a5fa	0.0025275932
85	0xbc35b190	-0.0110896975
86	0xbba06882	-0.004895271
87	0xbaf61ee3	-0.0018777516
88	0x3b409ffc	0.0029392233
89	0x3b9258ed	0.004466167
90	0x3c0d959f	0.0086416295
91	0xbb348c2c	-0.002754937
92	0x3c965812	0.018352542
93	0x3b17c2dc	0.0023156917
94	0x3b57c2ba	0.0032922463
95	0xbbd08487	-0.0063634547
96	0x3b8b9a53	0.0042603402
97	0xbad0cb38	-0.0015929705
98	0x3a9dccaa	0.0012039144
99	0xbc087818	-0.008329414
100	0xbbefa5a1	-0.0073134457
101	0x3bfed4f2	0.00777685
102	0xbca5ff55	-0.020263353
103	0xbc7b5a8c	-0.015341412
104	0xbbc8a5df	-0.006123289
105	0x3bfaeeed	0.0076578767
106	0x3a39cbe0	0.00070875697
107	0x3a92d1dd	0.001120146
108	0xbb8c7d0e	-0.0042873686
109	0xbc483c71	-0.012221442
110	0xbbfd7c3d	-0.0077357576
111	0xbb4d5803	-0.0031332977
112	0xb9e60d2c	-0.00043878832
113	0xbb0beea4	-0.0021351958
114	0xba761da6	-0.0009388573
115	0xbbfb26c3	-0.007664533
116	0xbc10bc96	-0.008834025
117	0x3c8966ac	0.01677259
118	0xbc08ff40	-0.008361638
119	0xbba6e5ac	-0.005093297
120	0x39b55596	0.00034586777
121	0xbc81238d	-0.015764022
122	0x3b5f4b30	0.0034071915
123	0xbbece4b8	-0.007229414
124	0x3bcb2f23	0.0062006875
125	0xbc18ed4c	-0.00933392
126	0xbc5c0088	-0.013427861
127	0x3b8d18af	0.004305921
128	0xbc04536a	-0.008076528
129	0xbc2e0baf	-0.010622903
130	0x3c4fcc1b	0.01268294
131	0x3b8184ea	0.003952612
132	0xbaffbfdd	-0.0019512136
133	0xbb7c5449	-0.0038502386
134	0xbc17091c	-0.00921848
135	0x3ba52223	0.00503947
136	0xbb16ac86	-0.0022991016
137	0x3b737652	0.0037149382
138	0x38aea958	8.328509e-05
139	0xbc0e4246	-0.008682793
140	0xbcb295b8	-0.021799907
141	0xb9e4ff4a	-0.00043677754
142	0xbbe3cdc4	-0.0069520194
143	0xbc35e7ec	-0.011102658
144	0xbb1e191e	-0.0024123858
145	0xbcb6e8cd	-0.022327805
146	0x3a6bd605	0.000899643
147	0xbbbb5477	-0.005716856
148	0x3ac93d0b	0.0015353275
149	0xbb52c42f	-0.0032160392
150	0xbb446fab	-0.0029973786
151	0xbc000380	-0.007813334
152	0xbc022f4d	-0.007945848
153	0xbb1113d3	-0.002213706
154	0xbab388eb	-0.0013697421
155	0x3aaa31f1	0.0012984854
156	0xbc9791d3	-0.018502152
157	0xbccb9704	-0.024852283
158	0xbb5ad8a6	-0.0033393293
159	0xbaaa0a22	-0.001297299
160	0xbd243ec9	-0.04009894
161	0xbca8d99e	-0.02061158
162	0x3cd341df	0.025788246
163	0xbc9107a7	-0.017703844
164	0x3bc73b36	0.0060800565
165	0xbc94c293	-0.018159186
166	0x3be8de48	0.007106576
167	0x3c148664	0.009065244
168	0xbb49e0b7	-0.0030804106
169	0x3c10bba0	0.008833796
170	0xba87d854	-0.0010364153
171	0xbc0b87e6	-0.008516287
172	0xbc0bd8bc	-0.00853556
173	0xbb972437	-0.0046124714
174	0xbc0e7f11	-0.008697287
175	0xbbf46726	-0.0074585853
176	0xbc411106	-0.011783844
177	0x3c162aff	0.0091655245
178	0x3c62b6f6	0.013837567
179	0x3cd797c2	0.026317481
180	0x3c86021f	0.016358433
181	0xbbebcc16	-0.00719596
182	0xbc0267b6	-0.007959297
183	0x3c311381	0.010807873
184	0x3c5ec5fb	0.013597007
185	0x3c18de99	0.009330415
186	0x3c0c2654	0.00855406
187	0x3c5440d7	0.012954912
188	0x3b9dc984	0.0048152823
189	0xbc2ae997	-0.010431669
190	0xbc00b64f	-0.007855966
191	0x3b83837f	0.0040134783
192	0x3bfcded1	0.0077169915
193	0x3bf1692c	0.007367274
194	0x3c59aafa	0.013285393
195	0xbc4b91aa	-0.012424866
196	0xbc92c02c	-0.0179139
197	0xbc0e254e	-0.008675886
198	0xbb0c39e4	-0.002139681
199	0xbc920d60	-0.017828643
200	0xbcd5ba85	-0.026089916
201	0xbc0ac422	-0.008469613
202	0x3c060933	0.008180904
203	0x3a89ad57	0.001050393
204	0x3c09333d	0.008374033
205	0xb96b5623	-0.00022443435
206	0xbb94afef	-0.0045375745
207	0x3ba8ed29	0.005155225
208	0x3b566bf0	0.0032718144
209	0xbc1aa577	-0.009438864
210	0x3bdb8629	0.0066993427
211	0x3add141c	0.0016866955
212	0xbc3dc3c2	-0.011582317
213	0x3c0a2405	0.008431439
214	0xbb932404	-0.0044903774
215	0xbc3061d9	-0.010765516
216	0x3bda829d	0.0066684023
217	0xbc6f49c9	-0.014604994
218	0xbc386e35	-0.011256744
219	0xba3b3841	-0.00071418664
220	0x3cf886d4	0.030337729
221	0xbb065785	-0.0020498943
222	0xbc49059b	-0.012269403
223	0xba065c22	-0.0005125423
224	0x3c243e3f	0.010024606
225	0x3b0d7b4d	0.0021588386
226	0x3c4cf0f1	0.012508617
227	0xbbe3c9bf	-0.0069515402
228	0xbb42fcf7	-0.002975283
229	0x3c02f82e	0.007993741
230	0x3c4eb90f	0.012617364
231	0xbc4802cd	-0.012207699
232	0xbbf4a7ae	-0.007466278
233	0x3c13fc53	0.009032327
234	0xbb8fcf89	-0.004388754
235	0xbbc034af	-0.0058656554
236	0x3ced0dcd	0.028937245
237	0xbad2fcce	-0.001609707
238	0xb9e3df5d	-0.00043463233
239	0x3b87668f	0.004132099
240	0xbbba9210	-0.0056936815
241	0xba1f7f63	-0.0006084351
242	0x3c28ab04	0.01029468
243	0x3ccf95bf	0.02533996
244	0x3ac70875	0.0015185016
245	0x3a3bf225	0.0007169566
246	0xbc54bd18	-0.012984537
247	0xb99a3df2	-0.00029419322
248	0xbc8192f1	-0.015817137
249	0x3b729f90	0.0037021376
250	0xbc1582fd	-0.009125468
251	0x3b859b7e	0.004077374
252	0x3bf6dd31	0.0075336923
253	0x3ce51d80	0.027968168
254	0xbaa3a899	-0.0012486159
255	0xbc674642	-0.014115872

bias f4 [5]
0	0xbc1f0301	-0.009705306
1	0xbc33f85d	-0.010984507
2	0xbc304e35	-0.0107608335
3	0xbb3fee29	-0.0029286242
4	0xbbce1340	-0.006288916
