archived_data/b1_r0_m8_s100--2019-03-03--165203.596044/episode_26000.model (torch_old, 268278 bytes, 8 tensors)

weight f4 [6, 6, 3, 3]
-0.0989026 0.08754997 0.0066260546 0.13156396 -0.01608827 -0.024815366 -0.011826925 0.09217939
-0.048001535 0.07653069 0.038736667 0.053044766 -0.063047595 0.015429877 -0.026181241 -0.08597669
-0.050221562 -0.035405852 0.10791486 0.08127789 0.08583452 0.04750578 0.09838504 0.042223494
0.056780912 0.050215658 0.026867257 -0.06899242 -0.05695782 -0.103625044 0.039438233 0.09549007
-0.062022947 0.08206484 -0.12114667 0.04216516 -0.0021756089 -0.07339634 0.12358512 -0.22420615
-0.06997202 -0.22349028 -0.4123889 -0.29524744 -0.1261483 0.07461359 0.04753384 0.021564817
0.0612669 0.03717701 -0.0845442 0.11422764 -0.046522755 0.009348268 -0.09898791 0.106147885
0.07836604 -0.10956599 0.11757594 -0.06769043 0.09143104 0.023604289 -0.0793014 -0.05426451
-0.037638467 0.07030941 0.019349204 -0.039209887 0.049398977 0.04899877 0.034482323 0.005946242
0.0010235682 0.0030454628 0.076515734 0.05125645 0.002400247 0.10246702 0.072434425 0.060537856
0.026241425 0.087184876 -0.0047206283 0.06489658 0.011610091 0.061124444 0.09023325 -0.05302257
-0.014743537 0.09419365 0.13577889 -0.39452213 -0.2926851 0.032151423 -0.17273018 0.14061788
0.07311736 0.219478 0.31284255 0.14539737 -0.10517185 0.043932803 0.04445727 0.054312326
-0.09344699 -0.08734 -0.014736041 0.07821706 0.061362177 0.03201264 -0.0652231 0.100899264
0.042195097 -0.0856168 -0.1022894 0.13308746 -0.022568233 0.042397406 0.023071874 0.014399722
-0.0016523403 -0.030235622 -0.157693 -0.02472962 0.052967023 -0.014594107 0.040787738 0.05104003
0.0982698 0.051653348 0.05803822 -0.0870023 0.028407209 0.10130251 0.04411229 -0.038927376
-0.08389048 -0.049961805 -0.014928535 -0.021312818 0.11138584 -0.04168068 0.024843767 0.037637815
0.06929085 0.044912968 0.23799646 0.11900945 0.24128605 -0.31514025 0.09638572 0.17020701
-0.15551026 0.0048244307 -0.036289357 0.019016864 -0.0386491 -0.048338994 -0.1267007 -0.013802702
-0.00038506673 -0.08588008 0.09874566 0.12700939 0.12426171 0.11717251 -0.06729436 -0.0028953254
-0.12759839 -0.023696266 -0.095670134 -0.023962894 -0.014770253 0.027991304 0.029948378 0.016806865
-0.018896893 0.0036062272 -0.016092252 0.027856171 0.060924307 0.08507233 0.13176316 0.13116582
0.15592669 0.13492621 0.055655304 0.09179853 0.13559647 0.059393436 -0.047799125 0.077635184
-0.035260238 -0.1284027 -0.08459376 -0.12803987 -0.07306849 -0.12930039 0.06952783 0.19096546
-0.3144204 -0.036349185 -0.40148875 -0.2509367 0.17349488 0.2051835 -0.31276593 0.02240563
-0.049211994 0.04591697 -0.12059044 0.033462085 0.019614466 0.12598112 -0.028535852 0.050320752
0.08847006 0.12129402 0.021177188 0.020337582 0.10143301 0.12190831 -0.039347313 0.05337149
0.049739152 0.04736529 -0.02395301 0.038353823 -0.011510667 -0.004218767 0.038358595 -0.13860719
-0.09418218 -0.09586466 0.0063943085 0.032753978 0.06252351 0.022404384 0.05344392 0.08178611
0.0023336892 -0.059895724 -0.059983086 0.118190646 0.05884725 0.062719986 -0.05224768 -0.023546048
-0.11159935 -0.123616554 -0.10416311 -0.10653592 0.0833188 0.21719138 0.303457 0.071621664
00000000: 728d cabd 664d b33d 601f d93b b4b8 063e
00000010: 8ccb 83bc 9849 cbbc b8c5 41bc 8cc8 bc3d
00000020: 429d 44bd 1fbc 9c3d 57aa 1e3d 7845 593d
00000030: 191f 81bd 98cd 7c3c 0b7a d6bc 8c14 b0bd
00000040: 20b5 4dbd ba05 11bd 7702 dd3d 0675 a63d
00000050: 02ca af3d 6c95 423d 197e c93d 8bf2 2c3d
00000060: 1a93 683d efae 4d3d b918 dc3c e64b 8dbd
00000070: 9a4c 69bd 5e39 d4bd fc89 213d 4c90 c33d
00000080: c60b 7ebd 9c11 a83d bf1b f8bd 60b5 2c3d
00000090: a994 0ebb d250 96bd 321a fd3d 4c96 65be
000000a0: 7e4d 8fbd a3da 64be a324 d3be ac2a 97be
000000b0: 052d 01be 03cf 983d d8b2 423d b3a8 b03c
000000c0: 00f3 7a3d ec46 183d 8225 adbd 2ef0 e93d
000000d0: a58e 3ebd 7a29 193c 2cba cabd 1064 d93d
000000e0: 607e a03d 2264 e0bd a8cb f03d 48a1 8abd
000000f0: 3240 bb3d c85d c13c c668 a2bd 7644 5ebd
00000100: cb2a 1abd 61fe 8f3d 3982 9e3c 8c9a 20bd
00000110: 9556 4a3d efb2 483d 563d 0d3d b1d8 c23b
00000120: 4029 863a 6396 473b 48b4 9c3d 49f2 513d
00000130: 764d 1d3b 3bda d13d 8058 943d 8bf6 773d
00000140: 42f8 d63c fc8d b23d 80af 9abb 80e8 843d
00000150: 4038 3e3c a05d 7a3d 36cc b83d 322e 59bd
00000160: e08e 71bc 9ae8 c03d 9f09 0b3e cefe c9be
00000170: d2da 95be 36b1 033d 2ee0 30be 22fe 0f3e
00000180: 8ebe 953d d7be 603e e62c a03e 0ce3 143e
00000190: 5764 d7bd e2f2 333d d418 363d 9a76 5e3d
000001a0: 2361 bfbd 50df b2bd 706f 71bc 4430 a03d
000001b0: e856 7b3d b01f 033d b093 85bd 46a4 ce3d
000001c0: c4d4 2c3d dc57 afbd 1b7d d1bd 1448 083e
000001d0: 04e1 b8bc e7a8 2d3d 3a01 bd3c d0ec 6b3c
000001e0: 5793 d8ba b2b0 f7bc 467a 21be c695 cabc
000001f0: f3f3 583d 1f1c 6fbc 0b11 273d 5a0f 513d
00000200: ad41 c93d 7692 533d 7cb9 6d3d 432e b2bd
00000210: 3cb6 e83c b177 cf3d 17af 343d 5072 1fbd
00000220: c6ce abbd c0a4 4cbd d096 74bc 3898 aebc
00000230: 421e e43d 5cb9 2abd 2885 cb3c 1c2a 1a3d
00000240: 5ce8 8d3d a9f6 373d 58b5 733e 3abb f33d
00000250: b113 773e 105a a1be e065 c53d bf4a 2e3e
00000260: 153e 1fbe 4216 9e3b 26a4 14bd 41c9 9b3c
00000270: 854e 1ebd 1cff 45bd d4bd 01be ba24 62bc
00000280: c8e2 c9b9 e5e1 afbd 2a3b ca3d c00e 023e
00000290: ec7c fe3d 24f8 ef3d a0d1 89bd 80bf 3dbb
000002a0: 27a9 02be ac1e c2bc b4ee c3bd d54d c4bc
000002b0: eefe 71bc 054e e53c 4d56 f53c 8dae 893c
000002c0: a8cd 9abc 7456 6c3b e6d3 83bc a032 e43c
000002d0: c48b 793d 673a ae3d ecec 063e 5550 063e
000002e0: 3fab 1f3e 192a 0a3e d1f6 633d de00 bc3d
000002f0: cdd9 0a3e 8846 733d 04c9 43bd 32ff 9e3d
00000300: 0a6d 10bd ff7b 03be 7e3f adbd e21c 03be
00000310: efa4 95bd 5267 04be 9b64 8e3d 738c 433e
00000320: b6fb a0be e2e2 14bd ef8f cdbe c67a 80be
00000330: a4a8 313e a01b 523e db22 a0be 038c b73c
00000340: 8492 49bd 6f13 3c3d 1ff8 f6bd 8a0f 093d
00000350: 84ae a03c 3201 013e 05c4 e9bc 221d 4e3d
00000360: ca2f b53d 0069 f83d c87b ad3c 009b a63c
00000370: 1cbc cf3d 10ab f93d a62a 21bd 109c 5a3d
00000380: 48bb 4b3d 1b02 423d 1a39 c4bc e618 1d3d
00000390: 3d97 3cbc 953d 8abb e71d 1d3d 0bef 0dbe
000003a0: 96e2 c0bd b154 c4bd 5987 d13b 0929 063d
000003b0: 530c 803d 6689 b73c 03e8 5a3d 7a7f a73d
000003c0: cff0 183b 3855 75bd d3b0 75bd f00d f23d
000003d0: d009 713d 5673 803d aa01 56bd a4e3 c0bc
000003e0: 338e e4bd ad2a fdbd 7853 d5bd 812f dabd
000003f0: 0ca3 aa3d 6b67 5e3e b75e 9b3e 61ae 923d

bias f4 [6]
-0.11881593 -0.13409968 0.07902315 -0.18882674 -0.009840351 -0.059137583
00000000: c455 f3bd 6d51 09be e4d6 a13d cc5b 41be
00000010: 6c39 21bc 403a 72bd

weight f4 [16, 6, 3, 3]
-0.16135195 -0.032488678 -0.094391115 -0.0072725727 -0.019527338 -0.13061404 -0.16397566 -0.01035141
0.09509212 -0.068852715 0.058586903 0.12121746 -0.08918476 -0.106391355 -0.1441643 -0.01616656
-0.10526225 -0.085462175 0.07844318 0.13443132 -0.021355202 0.03513938 0.052983686 0.08865536
0.031292837 0.08379839 0.20174572 -0.013617699 -0.15516642 -0.033787306 0.13681956 0.037033778
0.07574463 -0.09145808 -0.2031774 0.23992409 -0.05475246 0.0041553103 -0.05216094 -0.006869084
-0.04125146 0.08796781 -0.06314456 -0.018532462 0.13474824 0.032296922 -0.14481527 0.12885053
-0.07919124 0.023853315 0.06959022 0.082576826 -0.04071316 0.06486604 -0.15441 -0.038529515
0.090506904 -0.029892575 0.045970816 -0.03726595 -0.10929648 0.1137175 0.07526732 0.07624522
0.016521575 -0.17112623 -0.06031376 0.06529593 -0.051759016 0.005574506 0.12065852 0.11287746
0.117979616 -0.23651509 0.005002032 -0.08982732 -0.14965402 0.23417446 -0.10746656 0.024659593
0.07171728 0.19024909 0.20074871 0.1644225 0.170236 0.051161125 0.15035309 -0.011516537
-0.1776859 0.09384615 0.084482074 0.10402635 0.042414356 0.041448522 -0.030883776 -0.15412438
0.04149039 -0.082675256 -0.22493254 0.15174179 -0.19466826 -0.07597336 0.08258974 -0.12944824
0.055237748 -0.13131203 0.032773934 0.17862655 0.013292452 0.0664437 -0.21764879 -0.1854559
0.13923095 0.021896835 -0.003260337 0.057936274 0.091037065 -0.04660367 -0.13946983 0.11316945
0.017025819 -0.008889461 0.091299035 -0.10176094 -0.05141994 -0.1598914 -0.11659436 0.036253687
-0.22336672 -0.13453509 -0.068084635 -0.15375784 0.12648495 0.014015681 0.018435292 0.13413365
-0.12283706 -0.0752992 0.014360538 -0.24521826 -0.17991115 -0.17619786 -0.049697664 0.066972956
-0.079485424 -0.05980552 -0.22912937 0.068755805 -0.031375006 0.036320236 0.050420176 -0.08067084
0.079209834 0.042386804 0.20134637 -0.014631873 -0.022685435 0.17914039 0.023759814 0.08055007
-0.17081387 -0.011672996 -0.023967238 -0.23224242 0.06581782 -0.14191699 -0.10978074 0.041653864
-0.22258356 -0.02946718 -0.13116162 -0.037617035 0.1253024 0.110520326 0.13432917 -0.0071227965
0.11488755 0.0033066669 0.17184533 0.007646163 -0.20284042 -0.19940057 -0.21289082 -0.036538407
-0.05324586 -0.061820135 0.037456423 -0.2258112 -0.01689516 -0.11132466 0.06591177 0.057999402
0.24885572 -0.12670164 -0.29769504 0.13390873 -0.119899236 -0.113938324 -0.006611551 0.1659327
-0.059945073 -0.1782791 -0.058956444 -0.0033136206 -0.13100067 0.027751837 0.13466662 -0.045720845
-0.16572893 -0.23558389 0.038966995 -0.15153673 0.048444245 -0.16149919 -0.12875775 -0.1149285
-0.057820715 -0.043008428 -0.017754251 0.02513212 0.20598471 0.120792255 0.08477973 -0.04643674
-0.029881174 0.038606256 -0.047618166 0.03425309 -0.07505333 0.037715003 0.06900326 0.017000867
0.06540048 0.17574014 -0.22139335 -0.041790407 -0.050701674 -0.28737268 0.072234154 -0.13112281
0.11939752 0.056239285 -0.039233435 -0.06440077 0.20522235 -0.1994344 -0.048483424 -0.12056065
-0.048709236 0.16147278 0.0025433276 0.14993234 -0.021053629 -0.004812994 0.056153692 -0.11351951
00000000: 7239 25be d912 05bd 2150 c1bd c34e eebb
00000010: ccf7 9fbc b0bf 05be 3ce9 27be f698 29bc
00000020: a8bf c23d a702 8dbd d2f8 6f3d dc40 f83d
00000030: 80a6 b6bd b6e3 d9bd ce9f 13be bc6f 84bc
00000040: bc93 d7bd cb06 afbd d1a6 a03d 5da8 093e
00000050: 1bf1 aebc 4fee 0f3d 6c05 593d f190 b53d
00000060: eb2c 003d 7e9e ab3d 6e96 4e3e c51c 5fbc
00000070: f2e3 1ebe 8f64 0abd 6d1a 0c3e bbb0 173d
00000080: 0020 9b3d 604e bbbd bd0d 50be a9ae 753e
00000090: 1e44 60bd 4529 883b b6a6 55bd 0e16 e1bb
000000a0: 4af7 28bd 7828 b43d ef51 81bd 64d1 97bc
000000b0: 71fb 093e c749 043d 744a 14be 65f1 033e
000000c0: 042f a2bd 0768 c33c 5185 8e3d 0a1e a93d
000000d0: d8c2 26bd 7dd8 843d a81d 1ebe 20d1 1dbd
000000e0: af5b b93d 46e1 f4bc e54b 3c3d 2ea4 18bd
000000f0: d5d6 dfbd b8e4 e83d c125 9a3d 7426 9c3d
00000100: 4158 873c b73b 2fbe 900b 77bd dfb9 853d
00000110: 4301 54bd 58aa b63b d01b f73d 4c2c e73d
00000120: 4c9f f13d 0331 72be 16e8 a33b 63f7 b7bd
00000130: e73e 19be 6ecb 6f3e 6e17 dcbd ea02 ca3c
00000140: 82e0 923d a8d0 423e 1291 4d3e 5f5e 283e
00000150: 5952 2e3e 548e 513d 29f6 193e dbaf 3cbc
00000160: 4bf3 35be 6932 c03d f004 ad3d c40b d53d
00000170: adba 2d3d edc5 293d f9ff fcbc c8d2 1dbe
00000180: d4f1 293d a551 a9bd b754 66be 3362 1b3e
00000190: 1e57 47be ec97 9bbd cf24 a93d 148e 04be
000001a0: fa40 623d a976 06be f63d 063d e1e9 363e
000001b0: 96c8 593c a213 883d 53df 5ebe 27e8 3dbe
000001c0: 8f92 0e3e fe60 b33c 61ab 55bb 964e 6d3d
000001d0: a471 ba3d 7de3 3ebd 2ed1 0ebe 62c5 e73d
000001e0: bb79 8b3c 1aa5 11bc fdfa ba3d 0a68 d0bd
000001f0: b79d 52bd 92ba 23be 06c9 eebd bf7e 143d
00000200: 3fba 64be 91c3 09be f56f 8bbd b272 1dbe
00000210: 4585 013e 07a2 653c 9c05 973c 555a 093e
00000220: ff91 fbbd 7836 9abd 7648 6b3c 7f1a 7bbe
00000230: a13a 38be 366d 34be c78f 4bbd 1e29 893d
00000240: 41c9 a2bd a2f6 74bd e4a0 6abe d8cf 8c3d
00000250: 1483 00bd 87c4 143d 6385 4e3d c136 a5bd
00000260: c438 a23d c99d 2d3d be2d 4e3e 86ba 6fbc
00000270: ced6 b9bc 9470 373e f1a3 c23c 6ff7 a43d
00000280: d5e9 2ebe 1840 3fbc f156 c4bc f5d0 6dbe
00000290: 7ecb 863d b052 11be bad4 e0bd 3e9d 2a3d
000002a0: f2ec 63be 2865 f1bc 3b4f 06be 5214 1abd
000002b0: 464f 003e 7b58 e23d 968d 093e 5966 e9bb
000002c0: 2a4a eb3d aab4 583b 39f8 2f3e aa8c fa3b
000002d0: 66b5 4fbe aa2f 4cbe 0d00 5abe 4ca9 15bd
000002e0: 5518 5abd 1c37 7dbd e86b 193d 0d3b 67be
000002f0: b867 8abc 2ffe e3bd c0fc 863d c890 6d3d
00000300: 09d4 7e3e 13be 01be 7c6b 98be 5f1f 093e
00000310: bb8d f5bd 7f58 e9bd b6a5 d8bb 43ea 293e
00000320: f788 75bd cc8e 36be 507c 71bd 5429 59bb
00000330: 0a25 06be d257 e33c 0ce6 093e c845 3bbd
00000340: d8b4 29be e73c 71be db9b 1f3d 722c 1bbe
00000350: 796d 463d 0b60 25be 12d9 03be a25f ebbd
00000360: 6ad5 6cbd 9b29 30bd 5d71 91bc e0e1 cd3c
00000370: a8ed 523e ee61 f73d ffa0 ad3d 7334 3ebd
00000380: 5dc9 f4bc 9821 1e3d 440b 43bd f84c 0c3d
00000390: 8fb5 99bd 0c7b 1a3d 9551 8d3d 6745 8b3c
000003a0: b0f0 853d 39f5 333e f0b4 62be 6b2c 2bbd
000003b0: 8fac 4fbd 8322 93be 80ef 933d 0f45 06be
000003c0: b086 f43d 2a5b 663d 3db3 20bd 8de4 83bd
000003d0: cf25 523e 8838 4cbe 8e96 46bd 81e8 f6bd
000003e0: 5683 47bd 1f59 253e f5ad 263b dd87 193e
000003f0: a978 acbc 52b6 9dbb 6a01 663d eb7c e8bd

bias f4 [16]
-0.03424194 0.007542233 0.045114037 0.031819783 -0.005678107 -0.11527316 -0.01887095 0.055458527
-0.08348179 0.020434694 0.044762053 0.008044052 -0.09978231 0.06115638 0.026437014 0.12550883
00000000: 4741 0cbd d624 f73b 7fc9 383d 7655 023d
00000010: 6a0f babb 5614 ecbd 4097 9abc 7b28 633d
00000020: 80f8 aabd a966 a73c 6a58 373d 33cb 033c
00000030: ab5a ccbd 1d7f 7a3d 7092 d83c 6385 003e

weight f4 [32, 16, 3, 3]
-0.10749487 -0.19734873 -0.18330692 -0.036997717 -0.011138519 -0.09103674 -0.14362273 -0.03570814
-0.13885924 -0.25248903 -0.15505093 0.078795984 -0.07385805 0.005334049 0.20459199 0.007267104
0.13148738 0.1736154 -0.12723571 -0.07940418 -0.14050765 -0.086400524 0.026881434 0.11193705
0.020416103 0.129939 0.081265084 -0.048974156 -0.077624835 0.0006460668 0.030618595 0.14294302
0.039390124 0.08636749 0.15888011 0.03193373 -0.10359878 -0.028910862 0.057696737 -0.23675
-0.11923556 0.046410438 -0.09762252 0.039188493 0.026146945 -0.0071442737 -0.098293304 -0.060243577
-0.18544345 -0.09991199 0.0054202704 -0.09146007 -0.28923056 -0.167724 0.018805085 -0.1200985
-0.29983822 -0.1134909 -0.20653237 -0.4171216 -0.015077075 -0.021244926 -0.3065563 -0.06976609
-0.18492533 -0.06755918 -0.02744237 -0.06636175 -0.012347347 -0.016562821 0.043360323 -0.013487716
-0.3006728 -0.043483377 -0.22706069 -0.028568579 -0.07443703 -0.19090463 -0.13752845 -0.22157346
-0.30881667 -0.16469158 -0.055553738 0.07141881 -0.08959678 0.104972504 0.062670775 0.025669415
-0.045369282 -0.0075717038 -0.108353056 0.004022826 -0.011472129 -0.07161322 0.039928783 0.18233082
-0.057912797 -0.0022624056 0.047018185 -0.14488299 0.02017623 0.08057857 0.116190754 0.050678223
0.062088013 0.041098617 0.027314074 0.15697537 -0.008573556 -0.049657136 -0.090976045 0.07554108
-0.027343927 0.05666743 0.1420288 0.2173111 0.02541977 -0.11347476 -0.010790006 -0.06479085
0.0072804843 0.090614766 0.03697229 -0.005770128 -0.022229807 0.014137696 -0.10937026 -0.11893146
-0.04147472 -0.038614765 0.07767638 0.040692594 -0.051687337 0.028065627 -0.09418178 -0.08960617
-0.029331403 -0.081773706 -0.02019186 -0.05850662 0.113284044 0.025720641 0.029721214 0.0038624788
0.040304363 0.08154507 -0.22966185 0.12820397 0.008150439 -0.03932066 0.01226775 -0.0019124488
0.06457627 0.06268253 0.047241375 0.009490844 0.08868862 0.044520907 -0.046848062 0.056721017
0.031658206 0.018877406 0.0009376465 0.09725752 -0.02860312 0.091731355 0.07742472 -0.011691459
0.049545478 0.00073988485 0.023584777 -0.108296625 -0.10059129 -0.14312294 -0.13064027 -0.19273666
-0.13578783 -0.043037448 0.01918573 -0.012027054 0.1412092 0.034310482 0.13092177 -0.08991666
-0.053819057 0.08487486 -0.16940735 -0.021688912 0.017012846 0.013278136 0.029350696 0.09855795
0.19865267 0.15372595 0.17167543 0.09845327 0.09082301 0.124052525 0.06284192 0.01963549
-0.09299806 -0.020385118 0.11300408 -0.024243724 0.06877821 0.13177542 0.056041032 0.048234887
0.007520414 0.06380562 0.08008401 0.09739653 0.07667852 0.004313919 -0.0046668397 0.10415584
0.053327765 0.044687178 0.07875138 -0.010482819 0.064806454 0.06024956 -0.07101239 0.087168895
0.15769166 -0.031049162 -0.058994867 0.016012918 -0.103727765 -0.2149042 -0.036048796 -0.04588801
-0.095652305 -0.046282127 -0.0045008166 -0.071036875 0.050071206 -0.05847336 -0.08842668 0.020820655
0.07274234 2.7050311e-05 0.0049574054 0.039497703 -0.050172824 -0.18535475 -0.01218779 -0.14193144
0.12014407 0.09506119 0.04651522 -0.0030622303 0.14273383 0.080433324 -0.00084752793 0.1778314
00000000: 4526 dcbd c915 4abe cfb4 3bbe eb8a 17bd
00000010: 567e 36bc 7871 babd d611 13be b342 12bd
00000020: 1e31 0ebe 3e46 81be acc5 1ebe ca5f a13d
00000030: e442 97bd 3fc9 ae3b 9080 513e e320 ee3b
00000040: a1a4 063e 3cc8 313e 144a 02be a99e a2bd
00000050: 3de1 0fbe c2f2 b0bd 7436 dc3c 413f e53d
00000060: ac3f a73c bb0e 053e 4f6e a63d 2099 48bd
00000070: c5f9 9ebd cf5c 293a d9d3 fa3c a85f 123e
00000080: 8a57 213d 70e1 b03d 78b1 223e f1cc 023d
00000090: 992b d4bd 79d6 ecbc 6a53 6c3d 986e 72be
000000a0: c631 f4bd df18 3e3d 51ee c7bd 1d84 203d
000000b0: 1e32 d63c 831a eabb 004e c9bd f8c1 76bd
000000c0: e3e4 3dbe a89e ccbd 869c b13b 6b4f bbbd
000000d0: 0716 94be d7bf 2bbe 1f0d 9a3c 34f6 f5bd
000000e0: 6584 99be eb6d e8bd 397d 53be f690 d5be
000000f0: d605 77bc d709 aebc f3f4 9cbe 86e1 8ebd
00000100: 115d 3dbe 785c 8abd d2ce e0bc abe8 87bd
00000110: 874c 4abc c1ae 87bc 989a 313d 95fb 5cbc
00000120: c9f1 99be a01b 32bd 9982 68be a708 eabc
00000130: 7172 98bd 817c 43be 42d4 0cbe 27e4 62be
00000140: 381d 9ebe e9a4 28be 518c 63bd 0644 923d
00000150: 847e b7bd d3fb d63d 8959 803d aa48 d23c
00000160: 24d5 39bd 0e1c f8bb 35e8 ddbd e9d1 833b
00000170: 99f5 3bbc f4a9 92bd 5d8c 233d eeb4 3a3e
00000180: f835 6dbd de44 14bb 2496 403d 355c 14be
00000190: 9f48 a53c 6106 a53d 6bf5 ed3d f893 4f3d
000001a0: 0050 7e3d 0657 283d c4c1 df3c 27be 203e
000001b0: 1a78 0cbc 4865 4bbd a651 babd 48b5 9a3d
000001c0: 5f00 e0bc 1b1c 683d ff6f 113e cd86 5e3e
000001d0: 1f3d d03c 7465 e8bd 91c8 30bc 11b1 84bd
000001e0: 2191 ee3b 3c94 b93d 4270 173d 5813 bdbb
000001f0: 491b b6bc cba1 673c 84fd dfbd 5692 f3bd
00000200: 65e1 29bd 842a 1ebd cb14 9f3d 47ad 263d
00000210: 1ab6 53bd e3e9 e53c 61e2 c0bd 7183 b7bd
00000220: 6948 f0bc f978 a7bd 6669 a5bc a3a4 6fbd
00000230: 7701 e83d 18b4 d23c e779 f33c a421 7d3b
00000240: 3016 253d 1a01 a73d 7a2c 6bbe e747 033e
00000250: 6b89 053c b30e 21bd acfe 483c 22ab faba
00000260: 9040 843d b35f 803d 2c80 413d 7c7f 1b3c
00000270: 61a2 b53d 8e5b 363d c1e3 3fbd 4c54 683d
00000280: 09ac 013d caa4 9a3c 64cc 753a f32e c73d
00000290: 1751 eabc a6dd bb3d da90 9e3d 898d 3fbc
000002a0: 33f0 4a3d d5f4 413a dd34 c13c 9fca ddbd
000002b0: ce02 cebd d28e 12be 90c6 05be c25c 45be
000002c0: f70b 0bbe 0948 30bd 642b 9d3c 1f0d 45bc
000002d0: 2599 103e 2689 0c3d 5b10 063e 3a26 b8bd
000002e0: 5f71 5cbd dfd2 ad3d 1f79 2dbe f2ac b1bc
000002f0: 865e 8b3c 8a8c 593c df70 f03c c0d8 c93d
00000300: 9b6b 4b3e 566a 1d3e afcb 2f3e dea1 c93d
00000310: 6a01 ba3d 400f fe3d 44b3 803d 9bda a03c
00000320: c475 bebd b1fe a6bc af6e e73d c69a c6bc
00000330: 97db 8c3d 23f0 063e 488b 653d f291 453d
00000340: ce6d f63b 85ac 823d 1603 a43d d577 c73d
00000350: a109 9d3d c75b 8d3b 4aec 98bb a84f d53d
00000360: 376e 5a3d e709 373d 6748 a13d 21c0 2bbc
00000370: 3fb9 843d 3ec8 763d f26e 91bd 9b85 b23d
00000380: ec79 213e d05a febc 9aa4 71bd 862d 833c
00000390: 396f d4bd d90f 5cbe e7a7 13bd 11f5 3bbd
000003a0: 5be5 c3bd 5492 3dbd 967b 93bb c87b 91bd
000003b0: 7717 4d3d c381 6fbd 0c19 b5bd 1490 aa3c
000003c0: f0f9 943d 1aea e237 bb71 a23b 58c8 213d
000003d0: 0582 4dbd a3cd 3dbe 4caf 47bc 7a56 11be
000003e0: 180e f63d 71af c23d be86 3e3d b3af 48bb
000003f0: d128 123e 3aba a43d a32c 5eba 6f19 363e

bias f4 [32]
0.06847617 -0.04332696 -0.030056234 -0.0944835 0.02844994 -0.025914157 -0.020413306 -0.03643538
-0.037231445 -0.1029058 -0.056057204 -0.059901793 -0.0563887 -0.11393071 -0.06415038 -0.066474356
0.046236698 -0.03734241 -0.025902286 0.025959423 -0.022608064 -0.029090052 -0.043129336 0.018183475
-0.02476291 -0.02985104 -0.08219428 0.0065143285 0.011186096 -0.00074170576 -0.029472101 0.0050306898
00000000: 3c3d 8c3d 9c77 31bd 7e38 f6bc 9180 c1bd
00000010: d90f e93c ed49 d4bc ce39 a7bc 443d 15bd
00000020: 0080 18bd 47c0 d2bd 3d9c 65bd 955b 75bd
00000030: d6f7 66bd 8154 e9bd 4661 83bd b523 88bd
00000040: b162 3d3d 5bf4 18bd 0831 d4bc dba8 d43c
00000050: 8c34 b9bc 434e eebc 63a8 30bd 83f5 943c
00000060: 96db cabc 2b8a f4bc 7a55 a8bd 2676 d53b
00000070: e345 373c 086f 42ba 7a6f f1bc 7cd8 a43b

weight f4 [5, 11552]
-0.10098335 -0.10603964 -0.106805414 -0.090043366 -0.09702763 -0.100254595 -0.09398256 -0.09072711
-0.09774964 -0.095529094 -0.09138317 -0.08974587 -0.081924394 -0.102466755 -0.09250196 -0.10115035
-0.087678246 -0.10664626 -0.1113912 -0.09914137 -0.088693656 0.014438594 0.049658004 0.22551675
0.21342246 0.19525883 0.19079575 0.19275649 0.36579087 0.20456357 0.24236916 0.24225783
0.20499709 0.17783785 0.29794222 0.3735387 0.15460482 0.049436744 -0.09206215 -0.04837017
0.06659193 0.22569847 0.12970325 0.27802578 0.15775897 0.18550175 0.23382758 0.26933375
0.18370247 0.17167248 0.22054708 0.28548017 0.41036192 0.37403223 0.36235988 0.17616291
0.21157312 -0.10106544 -0.08887581 0.100411214 0.1338581 0.24389367 0.26211393 0.1899934
0.22867458 0.17333388 0.19365849 0.15401271 0.101129234 0.22233017 0.16992258 0.21312872
0.34036863 0.475276 0.30345425 0.21995114 -0.08811668 -0.10269646 0.1433226 0.23634984
0.3583079 0.18598947 0.22785631 0.24094173 0.19593099 0.22580789 0.26504216 0.171483
0.26649976 0.15523207 0.23720685 0.31308168 0.26997584 0.35796896 0.18543164 -0.08581199
-0.09721772 0.055162586 0.27627066 0.22778241 0.208071 0.23874396 0.20742975 0.28899488
0.2850628 0.27204692 0.22114316 0.19402795 0.16010049 0.123376176 0.18374842 0.3552224
0.4289941 0.23908335 -0.06915184 -0.032940667 0.16451587 0.12462947 0.20301111 0.15513147
0.059240036 0.20275867 0.20427606 0.17243215 0.056962844 0.15338653 0.09028849 0.14504531
0.16476634 0.19870652 0.36726922 0.40405408 0.2019637 -0.07311409 0.0203014 0.11371938
0.20534727 0.22727366 0.15254594 0.14364815 0.11448873 0.13141593 0.053107154 0.10101451
0.023762273 0.09893504 0.16450816 0.15550676 0.13904719 0.2014642 0.29767814 0.10637169
-0.10300664 -0.02062309 0.13627204 0.17558175 0.23015852 0.19442247 0.07592984 0.022388615
-0.015869504 -0.017063512 0.027911255 0.01305101 0.046641264 0.004553804 0.10352063 0.0842294
0.1334338 0.34954545 0.17084141 -0.09575839 -0.10262134 0.15359883 0.21745722 0.08825363
0.13044097 0.18115458 0.10008095 -0.0102115655 -0.20969549 -0.107499614 -0.021170614 -0.10968971
0.012744687 0.08582475 0.13001038 0.091382846 0.29957613 0.24571519 -0.06530294 -0.0744498
0.19254437 0.15534154 0.17820998 0.1379432 0.17080794 0.12593763 -0.03377382 -0.12352884
-0.10381205 -0.070588805 0.005493015 0.06830876 0.09554208 0.12926982 0.12304451 0.18250042
0.24767847 -0.07878993 -0.061431646 0.15437633 0.27047333 0.17385504 0.2083713 0.14472334
0.08262929 0.097714186 0.061980374 0.0375391 0.01128197 0.08865423 0.1548642 0.20841993
0.23504977 0.17721501 0.35688093 0.2548155 -0.081495956 0.021595502 0.11445182 0.15708682
0.23286137 0.2585656 0.141712 0.17689218 0.09936091 0.12513295 0.10953629 0.03803515
0.14679642 0.13180159 0.23008612 0.1944864 0.27686292 0.3130466 0.27035004 -0.088907
-0.06714744 0.20048775 0.08652083 0.14034797 0.23055188 0.2775098 0.16806686 0.21883427
00000000: 5cd0 cebd 502b d9bd ccbc dabd a868 b8bd
00000010: 6cb6 c6bd 4852 cdbd ee79 c0bd 23cf b9bd
00000020: f730 c8bd c2a4 c3bd 1927 bbbd afcc b7bd
00000030: fac7 a7bd 17da d1bd ab71 bdbd ea27 cfbd
00000040: a790 b3bd 5b69 dabd 1221 e4bd a10a cbbd
00000050: 05a5 b5bd da8f 6c3c 3166 4b3d dded 663e
00000060: 6b8b 5a3e eef1 473e f65f 433e f561 453e
00000070: f148 bb3e 1d79 513e 9f2f 783e 7012 783e
00000080: c2ea 513e 201b 363e e28b 983e 7740 bf3e
00000090: ba50 1e3e 2f7e 4a3d 158b bcbd cd1f 46bd
000000a0: 5a61 883d 801d 673e eed0 043e 6559 8e3e
000000b0: 918b 213e 2cf4 3d3e 7f70 6f3e 1de6 893e
000000c0: 801c 3c3e e9ca 2f3e 18d7 613e 752a 923e
000000d0: f51a d23e 2781 bf3e 3c87 b93e 0d64 343e
000000e0: a0a6 583e 66fb cebd 8504 b6bd 65a4 cd3d
000000f0: 1912 093e 43bf 793e cc33 863e a18d 423e
00000100: ab29 6a3e 707e 313e 694e 463e 82b5 1d3e
00000110: d81c cf3d 85aa 633e 2f00 2e3e 6a3e 5a3e
00000120: cc44 ae3e 6057 f33e 5b5e 9b3e df3a 613e
00000130: 8576 b4bd 8652 d2bd 29c3 123e b105 723e
00000140: 2274 b73e 0674 3e3e 2a53 693e 6eb9 763e
00000150: 22a2 483e 2f3a 673e 9bb3 873e 3d99 2f3e
00000160: a872 883e 28f5 1e3e 5ae6 723e 3e4c a03e
00000170: 463a 8a3e b547 b73e cbe1 3d3e 32be afbd
00000180: 151a c7bd 2af2 613d 5973 8d3e cb3f 693e
00000190: 9010 553e 4c79 743e 7768 543e 23f7 933e
000001a0: c0f3 913e bc49 8b3e 5a73 623e 43af 463e
000001b0: 62f1 233e a6ac fc3d 8c28 3c3e b6df b53e
000001c0: 1da5 db3e 44d2 743e 7b9f 8dbd cbec 06bd
000001d0: d976 283e bc3d ff3d 25e2 4f3e c9da 1e3e
000001e0: aea5 723d f89f 4f3e be2d 513e 0e92 303e
000001f0: df51 693d 5c11 1d3e 2ce9 b83d c286 143e
00000200: 82b8 283e b979 4b3e b60a bc3e 2de0 ce3e
00000210: 92cf 4e3e d7bc 95bd 1f4f a63c b5e5 e83d
00000220: 8e46 523e 6dba 683e 0135 1c3e 8018 133e
00000230: 1179 ea3d e691 063e e386 593d b2e0 ce3d
00000240: 19a9 c23c 749e ca3d d474 283e 2a3d 1f3e
00000250: 6362 0e3e a24c 4e3e 4569 983e 67d9 d93d
00000260: 25f5 d2bd c1f1 a8bc e68a 0b3e b4cb 333e
00000270: adae 6b3e af16 473e 1b81 9b3d 5468 b73c
00000280: c300 82bc c7c8 8bbc 25a6 e43c e7d3 553c
00000290: e90a 3f3d 1438 953b a002 d43d 7780 ac3d
000002a0: dfa2 083e 9ff7 b23e 0df1 2e3e fa1c c4bd
000002b0: 232b d2bd 0349 1d3e 1bad 5e3e 52be b43d
000002c0: 5192 053e 9680 393e 3ef7 cc3d 694e 27bc
000002d0: 6aba 56be c228 dcbd ff6d adbc 00a5 e0bd
000002e0: 17cf 503c e3c4 af3d 7121 053e ee26 bb3d
000002f0: 0b62 993e c39c 7b3e 8cbd 85bd 2379 98bd
00000300: 5a2a 453e da11 1f3e ad7c 363e fb40 0d3e
00000310: 47e8 2e3e cbf5 003e 6b56 0abd b0fc fcbd
00000320: 699b d4bd dd90 90bd c0fe b33b 77e5 8b3d
00000330: 91ab c33d 4f5f 043e c3fe fb3d 64e1 3a3e
00000340: 6d9f 7d3e 9d5c a1bd c09f 7bbd d414 1e3e
00000350: 7b7b 8a3e 0e07 323e 495f 553e 5b32 143e
00000360: 8c39 a93d 601e c83d 22df 7d3d 99c2 193d
00000370: 03d8 383c 5990 b53d b994 1e3e 096c 553e
00000380: e3b0 703e da77 353e 19b9 b63e 2d77 823e
00000390: 5ae7 a6bd 0de9 b03c b765 ea3d 5edb 203e
000003a0: 3673 6e3e b662 843e f31c 113e 3923 353e
000003b0: bc7d cb3d da22 003e 9054 e03d bfca 1b3d
000003c0: cd51 163e fff6 063e b29b 6b3e 7127 473e
000003d0: fac0 8d3e a547 a03e 526b 8a3e e014 b6bd
000003e0: 9984 89bd a94c 4d3e d531 b13d 61b7 0f3e
000003f0: cb15 6c3e c415 8e3e b819 2c3e 1716 603e

bias f4 [5]
-0.0995276 -0.09449994 -0.08109661 -0.065436 -0.07796222
00000000: 20d5 cbbd 2f89 c1bd fb15 a6bd 4f03 86bd
00000010: a8aa 9fbd
