archived_data/b1_r0_m8_s100--2019-03-03--165203.596044/episode_9750.model (torch_old, 268278 bytes, 8 tensors)

weight f4 [6, 6, 3, 3]
0	0xbdca8d72	-0.0989026
1	0x3db34d66	0.08754997
2	0x3bd91f60	0.0066260546
3	0x3e06b8b4	0.13156396
4	0xbc83cb8c	-0.01608827
5	0xbccb4998	-0.024815366
6	0xbc41c5b8	-0.011826925
7	0x3dbcc88c	0.09217939
8	0xbd449d42	-0.048001535
9	0x3de63723	0.11240985
10	0x3d586507	0.052830722
11	0x3c48b8ff	0.012251138
12	0xbd9110c3	-0.07083275
13	0x3d49f1bc	0.0493028
14	0xbd176904	-0.036965385
15	0xbdbcedbc	-0.09225032
16	0xbd01117d	-0.03151082
17	0xbd36d4b3	-0.04463644
18	0x3de3114c	0.110872835
19	0x3da0dc45	0.07854513
20	0x3d9780ab	0.07397588
21	0x3c95d8c3	0.018291837
22	0x3e0b27dc	0.13589424
23	0x3d11bb28	0.035578877
24	0x3d97fbd8	0.07421082
25	0x3dac5be7	0.084159665
26	0x3d140e9b	0.03614674
27	0xbd8d4be6	-0.06899242
28	0xbd694c9a	-0.05695782
29	0xbdd4395e	-0.103625044
30	0x3d2189fc	0.039438233
31	0x3dc3904c	0.09549007
32	0xbd7e0bc6	-0.062022947
33	0x3da8119c	0.08206484
34	0xbdf81bbf	-0.12114667
35	0x3d2cb560	0.04216516
36	0x3e12b5d2	0.14327171
37	0x3c626c65	0.013819789
38	0xbd8dc114	-0.06921592
39	0xbe79ad00	-0.243824
40	0x3ce80cfa	0.0283265
41	0xbe2ab875	-0.16671927
42	0xbedab947	-0.4271948
43	0xbe97f5f1	-0.29679826
44	0xbdbc9b29	-0.09209282
45	0x3dcd957e	0.10038279
46	0x3d2fd77e	0.04293012
47	0x3ca9951a	0.02070098
48	0x3d3ef400	0.046619415
49	0x3ce45998	0.027874753
50	0xbdc0f05d	-0.09420846
51	0x3de95eb1	0.11395014
52	0xbd433cd6	-0.04766544
53	0xbc19ad77	-0.009379736
54	0xbdcaba2c	-0.09898791
55	0x3dd96410	0.106147885
56	0x3da07e60	0.07836604
57	0xbde06422	-0.10956599
58	0x3df0cba8	0.11757594
59	0xbd8aa148	-0.06769043
60	0x3dbb4032	0.09143104
61	0x3cc15dc8	0.023604289
62	0xbda268c6	-0.0793014
63	0xbd8a728e	-0.06760131
64	0xbd431d98	-0.047635645
65	0x3da1c778	0.07899374
66	0x3d576d75	0.05259462
67	0xbc637732	-0.013883399
68	0x3daee45d	0.085396506
69	0x3d72d96a	0.059289373
70	0x3d9efee3	0.077634595
71	0x3c8ee52e	0.017443266
72	0x3b85f8ec	0.0040885117
73	0xbd431be1	-0.04763401
74	0x3d283874	0.041069463
75	0x3cbaaaef	0.022786586
76	0x3cbf3cd9	0.023344444
77	0x3dc094be	0.0940337
78	0x3d6712e9	0.05641452
79	0x3d983ab1	0.074330695
80	0x3d02676f	0.031836923
81	0x3db28dfc	0.087184876
82	0xbb9aaf80	-0.0047206283
83	0x3d84e880	0.06489658
84	0x3c3e3840	0.011610091
85	0x3d7a5da0	0.061124444
86	0x3db8cc36	0.09023325
87	0xbd592e32	-0.05302257
88	0xbc718ee0	-0.014743537
89	0x3dc0e89a	0.09419365
90	0x3e6c2937	0.23062597
91	0xbec0c402	-0.37649542
92	0xbea00262	-0.31251818
93	0x3e35ba61	0.17746879
94	0xbe377db6	-0.17919049
95	0x3df78e95	0.12087742
96	0x3daf4d87	0.08559709
97	0x3e5f0b60	0.21781683
98	0x3e97a55b	0.29618344
99	0x3df35167	0.11880761
100	0xbdab5a0f	-0.08366787
101	0x3d8c1b60	0.06841159
102	0x3ccae0bd	0.024765367
103	0x3d857003	0.06515505
104	0xbda9f223	-0.08298137
105	0xbd6ec09a	-0.058289148
106	0xbc51a7cd	-0.0127963545
107	0x3d858596	0.0651962
108	0x3d7b56e8	0.061362177
109	0x3d031fb0	0.03201264
110	0xbd8593b0	-0.0652231
111	0x3dcea446	0.100899264
112	0x3d2cd4c4	0.042195097
113	0xbdaf57dc	-0.0856168
114	0xbdd17d1b	-0.1022894
115	0x3e084814	0.13308746
116	0xbcb8e104	-0.022568233
117	0x3d5311fc	0.051530823
118	0x3d4c0c52	0.049816437
119	0x3d08a05d	0.03335606
120	0x3af72cf5	0.0018858003
121	0x3b9d733d	0.0048049972
122	0xbe34d892	-0.1766074
123	0xbcb8f8a4	-0.022579499
124	0x3d9e437b	0.07727715
125	0x3c224baf	0.00990574
126	0x3d90b0ed	0.07064996
127	0x3d6fee3f	0.05857682
128	0x3d7b8f9e	0.06141626
129	0x3d20c5b4	0.039251044
130	0x3ced4ed5	0.028968254
131	0xbde4334f	-0.11142599
132	0x3cda891c	0.026676707
133	0x3d98af7e	0.074553475
134	0x3bbc5a05	0.005748036
135	0xbd1f7250	-0.038927376
136	0xbdabcec6	-0.08389048
137	0xbd4ca4c0	-0.049961805
138	0xbc7496d0	-0.014928535
139	0xbcae9838	-0.021312818
140	0x3de41e42	0.11138584
141	0xbd2ab95c	-0.04168068
142	0x3ccb8528	0.024843767
143	0x3d1a2a1c	0.037637815
144	0xbd19a195	-0.037507612
145	0x3b042ab1	0.0020167048
146	0x3e3f8b94	0.18705589
147	0x3e573402	0.21015933
148	0x3e178e67	0.14800416
149	0xbeabb104	-0.3353349
150	0x3dcbd6d4	0.099530846
151	0x3e3b174e	0.18270609
152	0xbe0c113e	-0.13678452
153	0x3d3c181e	0.045921437
154	0xbbdbd829	-0.006709118
155	0x3d01c70f	0.031683978
156	0xbd88679f	-0.06660389
157	0xbdd3fdd4	-0.10351148
158	0xbe2c4410	-0.16822839
159	0xbd8cbb57	-0.0687167
160	0x3d08a69a	0.03336201
161	0xbdbf1e51	-0.09331954
162	0x3dca3b2a	0.09874566
163	0x3e020ec0	0.12700939
164	0x3dfe7cec	0.12426171
165	0x3deff824	0.11717251
166	0xbd89d1a0	-0.06729436
167	0xbb3dbf80	-0.0028953254
168	0xbe02a927	-0.12759839
169	0xbcc21eac	-0.023696266
170	0xbdc3eeb4	-0.095670134
171	0xbc78ff27	-0.015197552
172	0x3c01c67c	0.0079208575
173	0x3d210af1	0.039317075
174	0x3d20d1fb	0.039262753
175	0x3ca1e7c6	0.019763838
176	0xbca3f186	-0.020012628
177	0xbc32a522	-0.010903629
178	0xbbec8c6b	-0.0072188876
179	0x3d4e0a7a	0.05030296
180	0x3cef858e	0.029238489
181	0x3d503d01	0.050839428
182	0x3d9d706c	0.076874584
183	0x3dc1cc47	0.09462791
184	0x3d8d4818	0.068985164
185	0x3d30124d	0.042986203
186	0x3cd4c8e6	0.025974702
187	0x3d11673e	0.03549885
188	0x3dadc152	0.084841385
189	0x3d734688	0.059393436
190	0xbd43c904	-0.047799125
191	0x3d9eff32	0.077635184
192	0xbd106d0a	-0.035260238
193	0xbe037bff	-0.1284027
194	0xbdad3f7e	-0.08459376
195	0xbe031ce2	-0.12803987
196	0xbd95a4ef	-0.07306849
197	0xbe046752	-0.12930039
198	0x3d28ab97	0.041179266
199	0x3e15d917	0.14633594
200	0xbe940118	-0.28907084
201	0xbdb9096d	-0.09035001
202	0xbed6dc56	-0.41964978
203	0xbe86d595	-0.26334825
204	0x3de5893b	0.11207815
205	0x3e32c103	0.1745644
206	0xbea5a0f6	-0.32349366
207	0x3c427ab9	0.01187008
208	0xbd530d55	-0.051526386
209	0x3d877ca6	0.06615572
210	0xbe1c73f4	-0.15278608
211	0x3d1ce3d1	0.0383032
212	0x3d0279d2	0.03185446
213	0x3e036b0d	0.12833805
214	0xbd23cfe2	-0.039993174
215	0x3c81fccc	0.015867613
216	0x3db52fca	0.08847006
217	0x3df86900	0.12129402
218	0x3cad7bc8	0.021177188
219	0x3ca69b00	0.020337582
220	0x3dcfbc1c	0.10143301
221	0x3df9ab10	0.12190831
222	0xbd212aa6	-0.039347313
223	0x3d5a9c10	0.05337149
224	0x3d4bbb48	0.049739152
225	0x3d942f76	0.07235615
226	0xbd6861fe	-0.056734078
227	0x3dd278d6	0.10276954
228	0xbc8e64a5	-0.017381975
229	0xbcc679be	-0.024227973
230	0x3dc60fb8	0.09670967
231	0xbc4e21ac	-0.01258127
232	0xbd260db3	-0.04054041
233	0xbcad9c2b	-0.02119263
234	0x3c8f5f15	0.017501393
235	0xbd5d3a02	-0.0540104
236	0xbc0ceca5	-0.008601342
237	0xbcfb6f94	-0.030692853
238	0xbd68184b	-0.056663793
239	0x3d261cd5	0.04055484
240	0xbd725eb6	-0.059172355
241	0x3c864e6d	0.016394818
242	0xbd8df7d1	-0.06932033
243	0x3df20df0	0.118190646
244	0x3d7109d0	0.05884725
245	0x3d807356	0.062719986
246	0xbd5601aa	-0.05224768
247	0xbcc0e3a4	-0.023546048
248	0xbde48e33	-0.11159935
249	0xbdfd2aad	-0.123616554
250	0xbdd55378	-0.10416311
251	0xbdda2f81	-0.10653592
252	0x3e7005d1	0.23439719
253	0x3d557e8a	0.05212263
254	0x3e6834a2	0.22676328
255	0x3e202622	0.15639547

bias f4 [6]
0	0xbded0d6c	-0.11574826
1	0xbdd96aa2	-0.10616042
2	0x3daaa1a7	0.08331614
3	0xbe2a6e5b	-0.1664366
4	0x3d1c7973	0.03820176
5	0xbd687872	-0.05675549

weight f4 [16, 6, 3, 3]
0	0xbded5580	-0.115885735
1	0x3dc1e6e8	0.0946787
2	0x3d957d6e	0.072993144
3	0x3da7ea8f	0.081990354
4	0xbd847e74	-0.064694315
5	0xbdb0d411	-0.086341985
6	0xbe24bab8	-0.16086853
7	0xbd497bce	-0.049190335
8	0x3df054f9	0.11734957
9	0xbc4d394b	-0.012525867
10	0x3dde2fc2	0.10848953
11	0x3df58de1	0.11989952
12	0xbda43c22	-0.08019282
13	0x3c08e206	0.008354669
14	0xbd219342	-0.039447077
15	0xbdc0e727	-0.09419089
16	0xbd22b430	-0.03972262
17	0xbdd71248	-0.10501534
18	0x3d919ee8	0.07110387
19	0x3dae45e8	0.08509427
20	0xbd09ab22	-0.03361047
21	0x3d5aa94c	0.05338411
22	0x3d44632e	0.047946148
23	0x3dc39982	0.09550764
24	0xbd97f49a	-0.07419701
25	0x3d846d80	0.06466198
26	0x3e59bf81	0.21264459
27	0x3d4f28e6	0.050576113
28	0xbd996c57	-0.07491367
29	0xbd89697f	-0.06709575
30	0x3e51be9e	0.20482871
31	0x3e228c82	0.15873912
32	0x3d195345	0.037432928
33	0xbdc8dee4	-0.09808138
34	0xbe3aa3cd	-0.18226548
35	0x3e725ca1	0.23668148
36	0xbd178e27	-0.0370008
37	0xbd688bdb	-0.056774
38	0xbdf4fb19	-0.119619556
39	0xbd4ae709	-0.04953674
40	0xbd722588	-0.059117824
41	0x3d3cb57e	0.046071522
42	0xbd3bf333	-0.04588623
43	0xbc920dd1	-0.017828854
44	0x3e23af06	0.15984735
45	0x3d3cefa5	0.04612698
46	0xbd85e612	-0.06538023
47	0x3e0f51b4	0.13996011
48	0xbdc77f26	-0.097410485
49	0xbc88d422	-0.016702715
50	0xbb7d668e	-0.0038665864
51	0x3d960a9d	0.07326243
52	0xbd78dff0	-0.06076044
53	0xbb9b36c2	-0.0047367522
54	0xbe301567	-0.17195664
55	0xbd9c41f7	-0.07629769
56	0x3ddd3a22	0.108021036
57	0x3c111ff9	0.0088577205
58	0x3d8540ab	0.06506475
59	0xbc1d42e8	-0.009598471
60	0xbdd8cd62	-0.10586049
61	0x3db2c1a9	0.08728344
62	0x3d9d6779	0.076857515
63	0x3de83a46	0.1133924
64	0x3cf02294	0.029313363
65	0xbe4233dd	-0.18965097
66	0xbd8676b8	-0.065656126
67	0x3d35beec	0.04437153
68	0xbd9b5d7c	-0.0758619
69	0xbde4ce67	-0.111721806
70	0x3d65da61	0.056116465
71	0x3dc0dae4	0.0941675
72	0x3d9d0bb8	0.07668251
73	0xbe49604b	-0.19665639
74	0x3c6d2c77	0.014475933
75	0xbe46b913	-0.19406538
76	0xbe0eef89	-0.13958563
77	0x3e72fcdb	0.23729269
78	0xbe5ef312	-0.21772411
79	0xbd5963e5	-0.053073782
80	0x3d3ad8cb	0.045616906
81	0x3e419f6e	0.18908474
82	0x3e3c1f0f	0.18371223
83	0x3e404594	0.18776542
84	0x3df9a509	0.12189681
85	0xbb367f11	-0.0027846734
86	0x3e0a7a4a	0.13523212
87	0x3d491764	0.049094573
88	0xbe4468ad	-0.19180556
89	0x3d88e593	0.06684413
90	0x3c5894c1	0.013219059
91	0x3d845c90	0.064629674
92	0x3d9b0b63	0.07570531
93	0x3d1e78ea	0.03868953
94	0xbd9587fb	-0.07301327
95	0xbe1215fb	-0.14266197
96	0x3dc71a7e	0.0972185
97	0xbe16498c	-0.14676493
98	0xbe1c818e	-0.15283796
99	0x3e2d813a	0.16943827
100	0xbe4b8a88	-0.19877064
101	0xbdd953a5	-0.10611657
102	0x3deed556	0.11661784
103	0xbdd7ab43	-0.105307125
104	0x3bad6d05	0.005292537
105	0xbd8d9eeb	-0.06915077
106	0x3db0b88c	0.086289495
107	0x3e2d45a3	0.16921096
108	0x3cac4b13	0.021031892
109	0x3d7355c9	0.059407983
110	0xbe35cdad	-0.1775424
111	0xbe4591f8	-0.19293964
112	0x3da056b3	0.078290366
113	0x3c139421	0.009007485
114	0x3c86cfc5	0.016456494
115	0x3bf0e823	0.0073518916
116	0x3d9f9447	0.077919535
117	0xbdb2f0f4	-0.087373644
118	0xbe11cf26	-0.14239177
119	0x3dbc1e65	0.09185485
120	0x3c0767eb	0.008264522
121	0x3d6b801b	0.057495218
122	0x3dea2111	0.11432088
123	0xbdf8fbac	-0.121573776
124	0xbcce1bff	-0.025159834
125	0xbe30d666	-0.17269287
126	0xbe10f151	-0.14154555
127	0x3d222e0e	0.039594702
128	0xbe2f7d77	-0.17137705
129	0xbdf4b693	-0.11948886
130	0xbd4505c3	-0.048101198
131	0xbdfb4030	-0.12268102
132	0x3e0dbefc	0.13842386
133	0x3ce6b35a	0.028161693
134	0xbceeed2d	-0.029165829
135	0x3df4c818	0.11952227
136	0xbddd652e	-0.10810314
137	0x39f5462e	0.0004678233
138	0xbcbf7755	-0.023372332
139	0xbe57e3ac	-0.21082944
140	0xbe58ef78	-0.211851
141	0xbe39ca19	-0.181435
142	0xbdd48e54	-0.103787094
143	0x3c1f68ff	0.009729623
144	0xbdc92f63	-0.098234914
145	0xbcebf8d8	-0.028805181
146	0xbe56797e	-0.20944783
147	0x3dd38f43	0.103300594
148	0x3c413c59	0.011794173
149	0xbae9f7a8	-0.0017850297
150	0x3df2190f	0.11821186
151	0xbdd169a3	-0.10225227
152	0x3cb867d2	0.022510443
153	0x3cd08083	0.025451904
154	0x3e60a8d7	0.21939407
155	0x3c2f9691	0.01071705
156	0xbd8cdad6	-0.06877677
157	0x3e261f5b	0.16222899
158	0xbd65e3e1	-0.056125525
159	0x3daa208c	0.08306989
160	0xbe0b0979	-0.13577832
161	0xbd367eba	-0.04455445
162	0xbcab56bc	-0.020915382
163	0xbe5e5b1e	-0.21714446
164	0x3d8141ea	0.063114
165	0xbd85afcb	-0.065276705
166	0xbe428fa1	-0.19000103
167	0x3c7404bb	0.014893706
168	0xbe8d096a	-0.27546245
169	0xbd97e37b	-0.07416435
170	0xbe1347c4	-0.14382845
171	0x3bcaf0f3	0.006193274
172	0x3de415fb	0.11137005
173	0x3c8714e7	0.01648946
174	0x3df65acd	0.120290376
175	0xbd34bb83	-0.044124138
176	0x3d9e9d91	0.07744897
177	0xbba23039	-0.0049495962
178	0x3e27e38f	0.163954
179	0xbc9acfba	-0.01889788
180	0xbe5e88d6	-0.21731886
181	0xbd41f619	-0.047353838
182	0xbd6efd40	-0.058346987
183	0xbd808eb6	-0.0627722
184	0x3d7c4279	0.06158683
185	0x3dda7879	0.106675096
186	0x3c5f08e7	0.013612962
187	0xbdfb70f2	-0.12277402
188	0xbcf60e1f	-0.03003603
189	0xbced31a9	-0.028954344
190	0x3d0c4dcb	0.034253877
191	0x3e11df12	0.14245251
192	0x3e05f61d	0.13082166
193	0xbe11166b	-0.14168708
194	0xbe639e83	-0.22228436
195	0x3dfdb6da	0.12388392
196	0xbe597f7a	-0.21240035
197	0xbe2762a9	-0.1634623
198	0xbd00d948	-0.031457216
199	0x3e07fab9	0.13279237
200	0xbc829e68	-0.015944675
201	0xbd8cf52d	-0.06882701
202	0xbdbc1348	-0.09183365
203	0xbc4a48bb	-0.012346442
204	0xbdc91f84	-0.09820464
205	0x3da7d673	0.081952
206	0x3e0d47e8	0.13796961
207	0xbd964743	-0.07337811
208	0xbdb6ac43	-0.08919575
209	0xbe2923b0	-0.1651752
210	0xbcf5a6a5	-0.029986689
211	0xbe8a05e2	-0.26957613
212	0xbb452b33	-0.0030085563
213	0xbe685890	-0.22690034
214	0xbe4dbcf1	-0.20091607
215	0xbe2d0f9a	-0.16900483
216	0xbcfa2efd	-0.030539984
217	0xbd186449	-0.037205014
218	0xbcc14c2e	-0.023595896
219	0x3d384015	0.04498299
220	0x3e4efa2b	0.20212619
221	0x3dd5eb5b	0.10445281
222	0x3def2548	0.11677033
223	0xbd0c9b13	-0.034327578
224	0xbc1189e0	-0.00888297
225	0xbd1900e6	-0.037354372
226	0xbde2d601	-0.11075974
227	0xbd483665	-0.04888
228	0xbe31c4ca	-0.17360225
229	0x3c3c310c	0.011486303
230	0x3d931f15	0.07183663
231	0x3b50f5b2	0.0031884727
232	0x3dbf5efd	0.093442895
233	0x3e2b6d93	0.16741018
234	0xbe68a32b	-0.22718494
235	0xbd850e36	-0.06496851
236	0xbd529216	-0.05140885
237	0xbe8b6cfc	-0.27231586
238	0x3d4311ad	0.04762428
239	0xbd24249b	-0.040073972
240	0x3dce8876	0.100846216
241	0x3d7f8b56	0.06238874
242	0x3d0b9875	0.03408094
243	0xbbd1c15a	-0.006401223
244	0x3e5f70ce	0.21820375
245	0xbdab7caf	-0.08373391
246	0x3c7718f5	0.015081634
247	0xbd6e94e4	-0.058247462
248	0xbcf31065	-0.029670903
249	0x3e3c0e87	0.18364917
250	0x3c8c4cba	0.01712643
251	0x3e4cfeac	0.20019025
252	0xbe27d026	-0.16387996
253	0xbd7d7835	-0.061882216
254	0x3d826397	0.063666515
255	0xbe1cda48	-0.15317643

bias f4 [16]
0	0xbd14852d	-0.03625982
1	0x3bc6039f	0.006042912
2	0x3d490de7	0.049085524
3	0x3c2b5204	0.010456566
4	0x3c381fc2	0.01123804
5	0xbdc55bfa	-0.09636684
6	0xbc1f2c58	-0.009715162
7	0x3c7ef31c	0.0155608915
8	0xbd503001	-0.05082703
9	0x3d01c18f	0.031678732
10	0x3d1600f2	0.036621995
11	0x3ce471d2	0.027886305
12	0xbd903f2d	-0.070433
13	0x3dd0bccd	0.10192261
14	0x3cf21e80	0.02955556
15	0x3dd01c76	0.101616785

weight f4 [32, 16, 3, 3]
0	0x3c221364	0.009892318
1	0xbda57ea1	-0.08080793
2	0xbdbfe481	-0.093697555
3	0x3c81a638	0.01582633
4	0x3d3c2937	0.045937743
5	0x3d2f2f4f	0.042769726
6	0xbd88a12f	-0.06671368
7	0x3ca83460	0.020532787
8	0xbdaeb312	-0.08530249
9	0xbe04a142	-0.1295214
10	0xbd669504	-0.056294456
11	0x3db2f630	0.08738363
12	0x3d9c26c7	0.07624584
13	0x3c3938ca	0.0113050435
14	0x3e1deb63	0.15421824
15	0x3d35b910	0.044365942
16	0x3d54b399	0.05192909
17	0x3dbe150e	0.092813596
18	0xbd64d532	-0.05586738
19	0xbcc50094	-0.024048127
20	0xbdc967c3	-0.09834244
21	0xbd745dd9	-0.059659813
22	0xbb052bdc	-0.0020320332
23	0x3d8b19fd	0.06792066
24	0x3c9be13d	0.0190283
25	0x3de81e33	0.11333885
26	0x3caa218f	0.020767955
27	0xbd059d1f	-0.032620545
28	0xbdf4ca05	-0.11952595
29	0xbd2f7f78	-0.042846173
30	0x3bb11cdc	0.0054050516
31	0x3d88cff5	0.0668029
32	0x3c02c930	0.007982537
33	0xbc925abb	-0.01786553
34	0x3d3ff9a9	0.046868954
35	0xbc970af0	-0.018437833
36	0xbd7f3482	-0.062305935
37	0xbd5c554f	-0.053792294
38	0x3b7bfdbd	0.00384508
39	0xbdfb5963	-0.122729085
40	0xbd8e62d5	-0.069524445
41	0x3ca8f6ab	0.020625433
42	0xbd0cb59a	-0.034352876
43	0x3d578d4c	0.052624986
44	0xbc039445	-0.008030956
45	0xbd48ea6b	-0.049051683
46	0xbdf629f3	-0.1201972
47	0xbd7500e2	-0.059815295
48	0xbde2924f	-0.110630624
49	0xbde461b6	-0.111514494
50	0x3d13d643	0.036093008
51	0xbdc69e82	-0.09698202
52	0xbd3ef65a	-0.046621658
53	0xbe03e0de	-0.12878749
54	0x3da49230	0.080356956
55	0xbd8a62d8	-0.06757134
56	0xbe052c1c	-0.13005108
57	0xbd3fa6e0	-0.046790004
58	0xbe02fe83	-0.12792401
59	0xbe84552b	-0.25846228
60	0xba5c12a9	-0.00083951146
61	0x3c8452a3	0.016152686
62	0xbe697c95	-0.2280143
63	0xbc81dc65	-0.015852163
64	0xbe181b3c	-0.14854139
65	0xbd90ce04	-0.07070544
66	0xbb785ab9	-0.0037895872
67	0xbd9104df	-0.07081007
68	0xbd3ed300	-0.046587944
69	0x3b1ee921	0.0024247842
70	0x3d64d110	0.05586344
71	0xbd0a0961	-0.03370035
72	0xbe4b7aa7	-0.19871007
73	0xbe030a30	-0.12796855
74	0xbdfe1a3b	-0.12407347
75	0x3d68771c	0.056754217
76	0xbddbad1b	-0.107263766
77	0xbe467a83	-0.19382672
78	0xbc46130a	-0.0120895
79	0xbe0dda2d	-0.13852759
80	0xbe9175b2	-0.28410107
81	0xbdef2a2e	-0.11677967
82	0xbda3c608	-0.07996756
83	0x3cd19179	0.025582062
84	0xbdc1557e	-0.094401345
85	0x3d7a58db	0.061119895
86	0xbc87df03	-0.016585832
87	0x3d2578bb	0.04039834
88	0xbce24690	-0.027621537
89	0xbcbd228e	-0.023087766
90	0xbd31cfb4	-0.04341097
91	0xbd20b10d	-0.03923135
92	0xbc1be599	-0.00951519
93	0xbd38613c	-0.045014605
94	0xbcfab325	-0.030603
95	0x3e1310b2	0.14361838
96	0xbd7e5db7	-0.062101092
97	0xbd90c3e1	-0.07068611
98	0x3d2388ec	0.0399255
99	0xbd51ea0f	-0.051248606
100	0x3cfdaa23	0.030964917
101	0x3dcd41fe	0.10022353
102	0x3d728ae2	0.05921448
103	0xbbd01fd1	-0.006351449
104	0x3c7d3b9d	0.015456107
105	0x3d38a6fd	0.045081127
106	0xbc539f49	-0.0129163945
107	0x3de61ae4	0.11235598
108	0x3bc30244	0.005951198
109	0xbdbea421	-0.09308649
110	0xbde6afd2	-0.11264004
111	0x3d6eaf30	0.05827254
112	0xbd930224	-0.07178143
113	0x3d79b9fd	0.060968388
114	0x3d246326	0.040133618
115	0x3d0eddef	0.03487962
116	0xbd82c5e1	-0.06385399
117	0xbd78c48b	-0.060734313
118	0xbc310af5	-0.010805835
119	0xbd1c20e1	-0.038117293
120	0xbcc086f8	-0.023501858
121	0x3d735155	0.059403736
122	0x3cf49f04	0.02986098
123	0xbc7a6094	-0.015281815
124	0xbd2baf95	-0.041915495
125	0xbc0cb898	-0.008588932
126	0xbdf306e2	-0.11866547
127	0xbe05dea6	-0.13073215
128	0xbd652f17	-0.05595311
129	0xbde532e8	-0.1119135
130	0x3d466c63	0.04844321
131	0x3c2e902f	0.010654493
132	0xbdcb6dbd	-0.0993304
133	0x3c7a14db	0.015263761
134	0xbdc4f657	-0.09617298
135	0xbd15ecf6	-0.036602937
136	0x3a283f71	0.0006418145
137	0xbd88043c	-0.06641433
138	0xbc85697c	-0.01628565
139	0xbdbda1d6	-0.092593834
140	0x3d924832	0.071426764
141	0x3d710f20	0.058852315
142	0x3d1c7ae4	0.038203135
143	0xbc398bfa	-0.011324877
144	0x3d47aa09	0.048746143
145	0x3dab6a33	0.08369865
146	0xbe582eec	-0.2111165
147	0x3e0bdb9d	0.13657995
148	0x3b7d9616	0.0038694195
149	0xbaae6a11	-0.0013306757
150	0x3cce2b49	0.025167124
151	0xbcac5fd1	-0.021041783
152	0x3de35225	0.11099652
153	0x3d86e536	0.06586687
154	0x3d48b6d9	0.049002502
155	0x3cb3f972	0.02196953
156	0x3dc22a1e	0.094806895
157	0x3cb8adcc	0.02254381
158	0xbd1f252f	-0.03885382
159	0x3d28ca1d	0.041208375
160	0x3c32acee	0.010905487
161	0x3c82c089	0.015960949
162	0x3caa0507	0.02075435
163	0x3dd8c33a	0.105841115
164	0xbd5b8b6b	-0.053599756
165	0x3dddb546	0.10825591
166	0x3db56b17	0.088583164
167	0xbc0e1e23	-0.008674177
168	0x3d76ea98	0.06028232
169	0x3bf065e9	0.0073363674
170	0x3d146986	0.036233447
171	0xbcfa8eb4	-0.030585624
172	0xbd1902ae	-0.03735607
173	0xbdc2de25	-0.09515027
174	0xbdbdd3f4	-0.092689425
175	0xbd9dde65	-0.07708434
176	0xbdc49b9f	-0.09599995
177	0xbda9aae2	-0.082845464
178	0xbcefb85d	-0.029262716
179	0xbdb118c9	-0.086473055
180	0x3e2c9a3d	0.16855712
181	0x3d353687	0.044241454
182	0x3e000473	0.12501697
183	0xbd735d66	-0.059415244
184	0xbd44be2e	-0.048032932
185	0x3d9d0a0c	0.07667932
186	0xbe0e3953	-0.13889055
187	0xbcb7906e	-0.022407737
188	0xbc51e5c3	-0.012811127
189	0xbac38822	-0.001491789
190	0x3ce4b2df	0.027917324
191	0x3dd15681	0.102215774
192	0x3e508dcb	0.2036659
193	0x3e0c5176	0.1370295
194	0x3e18ca99	0.14921035
195	0x3dacc8b6	0.0843672
196	0x3db4b86d	0.08824239
197	0x3dd8b7ac	0.10581908
198	0x3d8efe3b	0.06982084
199	0x3cd5858d	0.026064659
200	0xbdb33ac3	-0.08751442
201	0xbbe515ec	-0.0069911387
202	0x3de1fa2d	0.11034045
203	0x3b05ade9	0.0020397848
204	0x3db2f335	0.08737794
205	0x3e090ade	0.13383052
206	0x3dacedd8	0.084438026
207	0x3d4d5d5f	0.050137874
208	0x3b7ec94d	0.0038877309
209	0x3d5eef33	0.054427337
210	0x3d9c9a01	0.076465614
211	0x3db14353	0.08655419
212	0x3d8b1820	0.06791711
213	0xba83e3fc	-0.0010062451
214	0xbc8891e9	-0.016671138
215	0x3dbd2692	0.09235872
216	0x3d263fba	0.040588118
217	0x3cf762a2	0.030198399
218	0x3d8db119	0.06918544
219	0xbc3050e1	-0.0107614705
220	0x3d5c92fd	0.053851116
221	0x3d646041	0.055755857
222	0xbd84cef9	-0.064847894
223	0x3da97aca	0.08275373
224	0x3e1682cf	0.14698337
225	0x3d3675d3	0.04454596
226	0x3c7cede2	0.015437575
227	0x3d7376fa	0.059439637
228	0xbd443a5a	-0.04790721
229	0xbd9db39e	-0.07700275
230	0xbc8deec8	-0.017325774
231	0xbcc22cf3	-0.023703074
232	0xbd6e4e39	-0.058180068
233	0xbd6668d5	-0.05625232
234	0x3d002f7a	0.031295277
235	0x3d431457	0.04762682
236	0x3d2ffe5e	0.042967193
237	0xbc5de89b	-0.013544227
238	0x3b1f8073	0.0024338036
239	0xbc4c944b	-0.012486528
240	0x3db8593b	0.09001394
241	0x3cb2684e	0.021778252
242	0xbcd46cbd	-0.025930757
243	0x3d5b6942	0.05356718
244	0xbd41cdb1	-0.047315303
245	0xbe16f569	-0.14742054
246	0x3c3217bf	0.010869919
247	0xbe0102f7	-0.12598787
248	0x3dac8725	0.08424214
249	0x3da107b5	0.07862798
250	0x3d2b4b5e	0.041819923
251	0xbd19cece	-0.03755074
252	0x3e1d0c74	0.15336782
253	0x3dcc8499	0.099862285
254	0x3cbfdff1	0.023422213
255	0x3e4c687a	0.1996173

bias f4 [32]
0	0x3d5fd6db	0.05464826
1	0xbcf4d20b	-0.029885313
2	0xbc85292d	-0.016254986
3	0xbd9538f5	-0.07286254
4	0x3cf39bd1	0.029737385
5	0xbc8a8884	-0.016910799
6	0x3bf61187	0.0075094136
7	0xbcb5072e	-0.02209815
8	0xbced57a3	-0.028972453
9	0xbd8709aa	-0.0659364
10	0xbd0ef1f9	-0.03489873
11	0xbc8dd7ed	-0.017314875
12	0xbd2a92be	-0.04164385
13	0xbd8d3c81	-0.06896306
14	0xbd4b2c12	-0.049602576
15	0xbd3d2525	-0.046178002
16	0x3ce97d2b	0.028502068
17	0xbce2884c	-0.027652882
18	0xbc03beb5	-0.008041074
19	0x3c9a0b64	0.01880426
20	0x3b31c7cf	0.0027127152
21	0x3bbbf438	0.0057359003
22	0xbd1e5740	-0.038657427
23	0x3ca6ea8c	0.020375513
24	0xbcb28152	-0.02179018
25	0xbc58e8fb	-0.013239141
26	0xbda8557a	-0.08219428
27	0x3c716618	0.014733814
28	0x3ce4bdb5	0.02792249
29	0x3c1dd297	0.009632728
30	0xbc37869f	-0.01120153
31	0x3c425bb8	0.011862688

weight f4 [5, 11552]
0	0xbd7bc370	-0.06146568
1	0xbd7c3a85	-0.061579246
2	0xbd79c76d	-0.060981203
3	0xbd3b2825	-0.04569258
4	0xbd5d4d76	-0.05402895
5	0xbd6e8b36	-0.05823823
6	0xbd66b9e4	-0.056329623
7	0xbd624d9c	-0.055249795
8	0xbd561225	-0.052263398
9	0xbd4f4932	-0.050606914
10	0xbd2fb343	-0.042895567
11	0xbd25e368	-0.040500075
12	0xbd093cf1	-0.033505384
13	0xbd58933e	-0.052874796
14	0xbd27664a	-0.040869035
15	0xbd4c95de	-0.049947612
16	0xbd1fb45d	-0.038990367
17	0xbd69b102	-0.057053573
18	0xbd7ec385	-0.06219818
19	0xbd616fe2	-0.05503834
20	0x3cda397b	0.026638737
21	0x3d136f3b	0.03599475
22	0x3d2acae7	0.04169741
23	0x3da93dd7	0.08263748
24	0x3db29cb4	0.08721295
25	0x3ce3323a	0.02773391
26	0x3d6ad9c0	0.05733657
27	0xbc8456a3	-0.016154593
28	0x3d85facb	0.065419756
29	0xbb8f7c62	-0.0043788413
30	0x3d279325	0.040911812
31	0x3ded2924	0.115801126
32	0x3dfcaa6b	0.12337192
33	0x3d10a75d	0.03531586
34	0x3d96c639	0.07362027
35	0x3ddb9049	0.107208796
36	0x3d77dfcb	0.06051616
37	0xbc7c1eb5	-0.0153881805
38	0xbd3b68e6	-0.045754336
39	0x3cdc0548	0.026857987
40	0x3dcad5a8	0.09904033
41	0x3da7bfe6	0.081908986
42	0x3db423b2	0.08795871
43	0x3d674cab	0.0564696
44	0xbbb5c693	-0.0055473535
45	0xb99ae984	-0.00029547152
46	0x3b459831	0.0030150528
47	0x3d82752a	0.063700035
48	0x3d019d8c	0.03164439
49	0x3db9326a	0.09042819
50	0x3dd4f2f1	0.103979
51	0x3e139756	0.14413199
52	0x3e285d5d	0.16441865
53	0x3e063094	0.13104469
54	0x3dc8a671	0.09797371
55	0x3b9b3f76	0.0047377897
56	0x3d47f13b	0.04881404
57	0xbd730bca	-0.059337415
58	0xbc6fb8a9	-0.014631429
59	0xbccb7550	-0.024836212
60	0x3adcc47c	0.0016843225
61	0x3c58b6c8	0.013227172
62	0x3c84f177	0.01622842
63	0x3c8f0e20	0.01746279
64	0x3d9149d2	0.07094158
65	0x3d1134ea	0.035450853
66	0x3dade7c4	0.084914714
67	0x3d74e189	0.0597854
68	0x3d97a9b3	0.074054144
69	0x3dd25ba2	0.10271384
70	0x3d7f056f	0.06226104
71	0x3df293e8	0.11844617
72	0x3deb2d8e	0.11483298
73	0x3df07bd7	0.117423706
74	0x3d7091d7	0.058732834
75	0x3d73478a	0.059394397
76	0xbd2115bf	-0.03932738
77	0x3cf0b3c4	0.029382594
78	0x3d9e0eae	0.07717644
79	0x3d7cacfb	0.061688405
80	0x3d4dedba	0.05027554
81	0x3d0dabcc	0.034587666
82	0x3d4ace94	0.049513415
83	0x3de19ad8	0.11015862
84	0x3d7818b7	0.060570445
85	0x3d3e62c0	0.046480894
86	0x3cb30d70	0.021856993
87	0x3d885845	0.06657461
88	0x3d83b863	0.06431653
89	0x3ccb9721	0.024852337
90	0x3e0dc846	0.1384593
91	0x3d840350	0.06445944
92	0x3da15e07	0.078792624
93	0x3db341c1	0.08752776
94	0x3d01d06d	0.03169291
95	0xbd27d360	-0.040973067
96	0xbcbd8be6	-0.023137998
97	0xbb9c409e	-0.004768445
98	0x3da48176	0.08032505
99	0xbb916d3a	-0.0044380696
100	0x3d6190ee	0.055069856
101	0xbb56d208	-0.0032778997
102	0xbc891e54	-0.016738094
103	0x3c731cf2	0.014838444
104	0x3d46b8d5	0.048516113
105	0x3cfad340	0.03061831
106	0x3dc6c276	0.09705059
107	0x3d3dfe0d	0.04638486
108	0x3d2efc46	0.042721055
109	0x3d4aa9b5	0.04947825
110	0x3d4e48e4	0.050362483
111	0x3e20d2bf	0.15705393
112	0x3e0d927e	0.13825414
113	0x3cb5a2eb	0.022172412
114	0xbd0a93fe	-0.033832543
115	0x3d13bc7b	0.03606842
116	0x3dce349e	0.1006863
117	0x3d059445	0.032612104
118	0x3dc991e4	0.098422796
119	0x3dbc48cc	0.091935724
120	0xbc24057e	-0.010011075
121	0xbc5fbb38	-0.013655476
122	0xbc8031ad	-0.015648687
123	0xbc92fb96	-0.017942231
124	0xbd336374	-0.043796018
125	0x3cbffd9a	0.023436356
126	0x3d0a78d0	0.033806622
127	0x3d8982c6	0.06714396
128	0x3cce9e6b	0.025222024
129	0x3d33f472	0.043934293
130	0x3de9b2d5	0.11411063
131	0x3dedd33a	0.11612554
132	0x3d081964	0.03322734
133	0xbd18967c	-0.037252888
134	0x3b83444f	0.0040059458
135	0x3d65f60e	0.05614286
136	0x3d80cbbf	0.062888615
137	0x3dbc1b9c	0.091849536
138	0x3d8e589d	0.069504954
139	0xbccfeda8	-0.025381878
140	0x3d6489d7	0.055795517
141	0xbc539039	-0.012912803
142	0x3954abfc	0.00020281965
143	0x3d83b0ae	0.06430183
144	0x3d1659a3	0.036706578
145	0x3d12ab26	0.03580775
146	0x3dc7a4b4	0.097482115
147	0x3e1011b0	0.14069247
148	0x3d253d30	0.040341556
149	0x3d99af06	0.07504086
150	0x3d3acee7	0.045607474
151	0x3c37d4fb	0.011220212
152	0xbd603810	-0.054740965
153	0xbb8e8fc6	-0.004350635
154	0x3c6683db	0.014069523
155	0xbc7de776	-0.015497079
156	0xbcc49011	-0.023994477
157	0x3d01a7d2	0.031654187
158	0x3c960060	0.018310726
159	0xbc9cafd5	-0.019126812
160	0xbddfd729	-0.109297104
161	0xbd9a01c8	-0.07519871
162	0x3c900d34	0.01758442
163	0xbd2b5a23	-0.041834008
164	0x3c9f8775	0.01947377
165	0xbb565dc5	-0.00327097
166	0x3c9e5622	0.01932818
167	0x3d3d23c6	0.046176694
168	0x3dc11f33	0.09429779
169	0xbc3ca5da	-0.0115141515
170	0x3b2b3f92	0.002613042
171	0xbd62f828	-0.05541244
172	0xbd18effe	-0.03733825
173	0x3d441b18	0.0478774
174	0x3c1899fa	0.009314055
175	0xbd039bc9	-0.03213099
176	0x3d42ed3e	0.047589533
177	0xbcec14cc	-0.02881851
178	0xbd794156	-0.060853325
179	0xbd285e75	-0.041105706
180	0xbd357e66	-0.044309996
181	0xbda7c57d	-0.08191965
182	0xbd1ddf67	-0.03854313
183	0x3ca5ef29	0.020255642
184	0xbca3cbda	-0.019994665
185	0x3ce8697a	0.028370608
186	0x3d698da8	0.05701986
187	0x3d8e198c	0.069384664
188	0x3d169d30	0.036771
189	0xbb1d888b	-0.0024037685
190	0xbd023162	-0.031785376
191	0xbca5df65	-0.020248124
192	0x3d72f445	0.059314985
193	0x3cec1f1f	0.028823433
194	0x3d0ee918	0.034890264
195	0x3d832445	0.06403402
196	0xbbeb5fad	-0.0071830363
197	0xbd4f8704	-0.05066587
198	0xbd309ad0	-0.04311639
199	0xbdeace65	-0.11465148
200	0xbcc4d48a	-0.024027128
201	0xbc8d5688	-0.017253175
202	0x3bf16b91	0.0073675592
203	0x3ae166ae	0.0017196739
204	0x3be2b474	0.0069184843
205	0x3ddacbea	0.10683425
206	0xbba5a4c7	-0.0050550434
207	0xbae75dfd	-0.0017651912
208	0x3bc5c429	0.006035347
209	0xbd23a5e9	-0.039953146
210	0xbc266f37	-0.010158352
211	0x3d86bded	0.06579194
212	0x3ab1c0fc	0.0013561542
213	0x3bdb4042	0.0066910097
214	0x3cc24e22	0.023718897
215	0xbc35ffb3	-0.011108327
216	0x3c87df28	0.016585901
217	0x3c6dca8f	0.014513626
218	0xbc8b572f	-0.017009346
219	0x3c2377e7	0.009977317
220	0x3c55a082	0.013038756
221	0x3d97b165	0.07406882
222	0x3d72dee8	0.05929461
223	0x3d348752	0.044074364
224	0x3cfd77e2	0.030940954
225	0x3d237f8a	0.039916553
226	0x3ced54a7	0.02897103
227	0xbceda30a	-0.029008407
228	0xbd1b07ab	-0.03784911
229	0x3d257966	0.040398978
230	0x3d2830d6	0.0410622
231	0xbd2e4bea	-0.042552866
232	0xbcb62888	-0.022236124
233	0x3d18aa5b	0.03727184
234	0x3d4247b9	0.04743168
235	0x3d694d25	0.056958336
236	0x3d37644a	0.044773377
237	0xbcdc5900	-0.026897907
238	0x3c8e7b45	0.017392764
239	0xbc0f9ac2	-0.0087649245
240	0x3d4593ce	0.04823666
241	0x3d0ab7f7	0.03386685
242	0x3da9c4bb	0.082894765
243	0x3db28187	0.08716112
244	0x3d9fbe5f	0.07799982
245	0x3c8b27db	0.016986778
246	0xbcfce8ec	-0.030872785
247	0xbd3ba5f7	-0.045812573
248	0xbd5927f1	-0.053016607
249	0x3c2f2de5	0.010692094
250	0xbd60c6bc	-0.054877028
251	0xbd276744	-0.040869966
252	0x3cfc659c	0.03081017
253	0x3d9326ba	0.07185121
254	0x3d35e74d	0.04441004
255	0x3d66217f	0.056184288

bias f4 [5]
0	0xbd7f7b97	-0.062373724
1	0xbd6121dd	-0.054963935
2	0xbd287303	-0.04112531
3	0xbcdc24c3	-0.026872998
4	0xbd1cce8f	-0.038282927
