archived_data/b1_r0_m8_s100--2019-03-03--165203.596044/episode_11500.model (torch_old, 268278 bytes, 8 tensors)

weight f4 [6, 6, 3, 3]
-0.0989026 0.08754997 0.0066260546 0.13156396 -0.01608827 -0.024815366 -0.011826925 0.09217939
-0.048001535 0.109923325 0.04369257 0.016401073 -0.08013045 0.036638897 -0.051994827 -0.09063379
-0.035867326 -0.0467429 0.13462766 0.108102076 0.06559062 0.030089121 0.14764984 0.051716432
0.08789736 0.09121745 0.035452813 -0.06899242 -0.05695782 -0.103625044 0.039438233 0.09549007
-0.062022947 0.08206484 -0.12114667 0.04216516 0.09288335 0.008502288 -0.0504698 -0.24428672
0.018920086 -0.19541998 -0.41891757 -0.29187486 -0.13179907 0.09447244 0.04625333 0.021701932
0.051694896 0.036092214 -0.08785665 0.12485371 -0.03750969 -0.0033657474 -0.09898791 0.106147885
0.07836604 -0.10956599 0.11757594 -0.06769043 0.09143104 0.023604289 -0.0793014 -0.059689716
-0.045268178 0.06123073 0.064320445 -0.01448576 0.08343708 0.05430825 0.079972185 0.008478564
-0.012897239 -0.0409481 0.04532045 0.04345876 0.032408483 0.105193354 0.07010992 0.081382774
0.060979232 0.087184876 -0.0047206283 0.06489658 0.011610091 0.061124444 0.09023325 -0.05302257
-0.014743537 0.09419365 0.19162081 -0.382913 -0.33852708 0.15096736 -0.17996077 0.16698027
0.09003119 0.22735721 0.29343167 0.13653313 -0.07419007 0.084312566 0.027318774 0.06716372
-0.0732484 -0.05715004 -0.0065752547 0.08174305 0.061362177 0.03201264 -0.0652231 0.100899264
0.042195097 -0.0856168 -0.1022894 0.13308746 -0.022568233 0.05251102 0.051679 0.03497374
0.004745511 0.0037828353 -0.17831743 -0.01923764 0.069385864 0.0019997254 0.06420341 0.06941011
0.06587661 0.04515499 0.0388908 -0.10207976 0.021032639 0.10247824 0.019787544 -0.038927376
-0.08389048 -0.049961805 -0.014928535 -0.021312818 0.11138584 -0.04168068 0.024843767 0.037637815
-0.019302126 0.012508526 0.18895487 0.17217208 0.14963658 -0.33331996 0.07900117 0.15998831
-0.13594724 0.0234364 -0.022316003 0.028223893 -0.050506815 -0.111211784 -0.16566426 -0.05324527
0.014378374 -0.08596813 0.09874566 0.12700939 0.12426171 0.11717251 -0.06729436 -0.0028953254
-0.12759839 -0.023696266 -0.095670134 -0.02683044 0.0017495309 0.03249205 0.03798809 0.0067231413
-0.027365346 -0.022993613 -0.021035127 0.045191716 0.032156516 0.06630222 0.09340322 0.08330268
0.081017405 0.056138974 0.021375882 0.050369624 0.10540876 0.059393436 -0.047799125 0.077635184
-0.035260238 -0.1284027 -0.08459376 -0.12803987 -0.07306849 -0.12930039 0.04629722 0.14116174
-0.29635155 -0.08912919 -0.41794786 -0.25948063 0.11285648 0.19169232 -0.32599324 0.0010164429
-0.057556495 0.07231354 -0.14405224 0.040216353 0.04921258 0.12486672 -0.04518696 0.023628237
0.08847006 0.12129402 0.021177188 0.020337582 0.10143301 0.12190831 -0.039347313 0.05337149
0.049739152 0.05106806 -0.06459137 0.09473338 -0.04738057 -0.03241899 0.090384126 -0.028858954
-0.046177745 -0.036347713 0.061665982 -0.044852007 -0.006164044 -0.024441343 -0.02716372 0.035397295
-0.042648334 -0.027486779 -0.05666202 0.118190646 0.05884725 0.062719986 -0.05224768 -0.023546048
-0.11159935 -0.123616554 -0.10416311 -0.10653592 0.24721901 0.023129111 0.2461794 0.089718804
00000000: 728d cabd 664d b33d 601f d93b b4b8 063e
00000010: 8ccb 83bc 9849 cbbc b8c5 41bc 8cc8 bc3d
00000020: 429d 44bd 7b1f e13d fbf6 323d 8b5b 863c
00000030: 6f1b a4bd ab12 163d 87f8 54bd 359e b9bd
00000040: 9ee9 12bd 7c75 3fbd d5db 093e 9f64 dd3d
00000050: 6054 863d 767d f63c 8531 173e 9cd4 533d
00000060: 8803 b43d 37d0 ba3d f836 113d e64b 8dbd
00000070: 9a4c 69bd 5e39 d4bd fc89 213d 4c90 c33d
00000080: c60b 7ebd 9c11 a83d bf1b f8bd 60b5 2c3d
00000090: a039 be3d 2e4d 0b3c 6cb9 4ebd 4c26 7abe
000000a0: 4cfe 9a3c 2d1c 48be 5d7c d6be 9f70 95be
000000b0: 56f6 06be c47a c13d 2274 3d3d 40c8 b13c
000000c0: 07be 533d 6ed5 133d 30ee b3bd 4db3 ff3d
000000d0: c3a3 19bd df93 5cbb 2cba cabd 1064 d93d
000000e0: 607e a03d 2264 e0bd a8cb f03d 48a1 8abd
000000f0: 3240 bb3d c85d c13c c668 a2bd 347d 74bd
00000100: 206b 39bd 13cd 7a3d 70ba 833d ae55 6dbc
00000110: 0fe1 aa3d 5472 5e3d 75c8 a33d ade9 0a3c
00000120: f14e 53bc 32b9 27bd f0a1 393d d001 323d
00000130: c2be 043d 9d6f d73d ca95 8f3d 03ac a63d
00000140: 5cc5 793d fc8d b23d 80af 9abb 80e8 843d
00000150: 4038 3e3c a05d 7a3d 36cc b83d 322e 59bd
00000160: e08e 71bc 9ae8 c03d 3f38 443e 2c0d c4be
00000170: 6c53 adbe 3097 1a3e a347 38be e0fc 2a3e
00000180: 4662 b83d 54d0 683e ad3c 963e 57cf 0b3e
00000190: f7f0 97bd 11ac ac3d 9fcb df3c 228d 893d
000001a0: 4203 96bd 2916 6abd 3c75 d7bb e668 a73d
000001b0: e856 7b3d b01f 033d b093 85bd 46a4 ce3d
000001c0: c4d4 2c3d dc57 afbd 1b7d d1bd 1448 083e
000001d0: 04e1 b8bc cc15 573d 5cad 533d a040 0f3d
000001e0: 3b80 9b3b 72e9 773b d898 36be 4198 9dbc
000001f0: 2d1a 8e3d d30d 033b 147d 833d e326 8e3d
00000200: 51ea 863d 70f4 383d f64b 1f3d 310f d1bd
00000210: a44c ac3c 1de0 d13d 7d19 a23c 5072 1fbd
00000220: c6ce abbd c0a4 4cbd d096 74bc 3898 aebc
00000230: 421e e43d 5cb9 2abd 2885 cb3c 1c2a 1a3d
00000240: 7e1f 9ebc 90f0 4c3c 637d 413e e14d 303e
00000250: 553a 193e eaa8 aabe 5ecb a13d fad3 233e
00000260: c135 0bbe b1fd bf3c 0dd0 b6bc cb35 e73c
00000270: 3ce0 4ebd 01c3 e3bd e4a3 29be b617 5abd
00000280: 4693 6b3c 0f10 b0bd 2a3b ca3d c00e 023e
00000290: ec7c fe3d 24f8 ef3d a0d1 89bd 80bf 3dbb
000002a0: 27a9 02be ac1e c2bc b4ee c3bd 83cb dbbc
000002b0: 8450 e53a 6216 053d 6699 1b3d cc4d dc3b
000002c0: 4a2d e0bc 1a5d bcbc dc51 acbc f31a 393d
000002d0: 8db6 033d 75c9 873d 304a bf3d 989a aa3d
000002e0: 74ec a53d fbf1 653d 791c af3c 6150 4e3d
000002f0: 8ce0 d73d 8846 733d 04c9 43bd 32ff 9e3d
00000300: 0a6d 10bd ff7b 03be 7e3f adbd e21c 03be
00000310: efa4 95bd 5267 04be 27a2 3d3d b48c 103e
00000320: 64bb 97be 5d89 b6bd 43fd d5be a5da 84be
00000330: 4c21 e73d fe4a 443e 96e8 a6be 2a3a 853a
00000340: 5cc0 6bbd 1f19 943d 6e82 13be e7b9 243d
00000350: 2193 493d 1fba ff3d f615 39bd 0190 c13c
00000360: ca2f b53d 0069 f83d c87b ad3c 009b a63c
00000370: 1cbc cf3d 10ab f93d a62a 21bd 109c 5a3d
00000380: 48bb 4b3d be2c 513d 7b48 84bd 9303 c23d
00000390: 2112 42bd c6c9 04bd 501b b93d 9d69 ecbc
000003a0: e024 3dbd 57e1 14bd 7895 7c3d bdb6 37bd
000003b0: c0fb c9bb 3639 c8bc 7386 debc c1fc 103d
000003c0: 05b0 2ebd f42b e1bc 6f16 68bd f00d f23d
000003d0: d009 713d 5673 803d aa01 56bd a4e3 c0bc
000003e0: 338e e4bd ad2a fdbd 7853 d5bd 812f dabd
000003f0: fb26 7d3e 4379 bd3c 7416 7c3e 7ebe b73d

bias f4 [6]
-0.107318856 -0.0971747 0.08215901 -0.16712588 0.016926877 -0.05528956
00000000: fdc9 dbbd 8703 c7bd fc42 a83d 0c23 2bbe
00000010: 3caa 8a3c 4e77 62bd

weight f4 [16, 6, 3, 3]
-0.11968664 0.07077784 0.05077292 0.040755488 -0.049787488 -0.09540616 -0.17327045 -0.05486223
0.12141305 -0.027887441 0.09655657 0.12109847 -0.112140834 -0.009458609 -0.055076126 -0.10694356
-0.04668857 -0.10530716 0.0902594 0.1184625 -0.024407025 0.053758085 0.04803931 0.104788594
-0.024205556 0.0730683 0.21633278 0.048119154 -0.08122594 -0.038785335 0.19974029 0.10720221
0.0366832 -0.14952692 -0.19891472 0.23331414 -0.01854875 -0.0460925 -0.13845496 -0.024129512
-0.051656194 0.044105727 -0.06894557 -0.023204347 0.1317809 0.021953288 -0.09449563 0.1488846
-0.13777506 -0.018663045 0.010331981 0.04720272 -0.084239215 0.014518578 -0.16296136 -0.067677766
0.12788151 0.007025798 0.057669405 0.0033578079 -0.11732849 0.078468055 0.089746274 0.104769684
0.019639457 -0.18745597 -0.06484137 0.048861496 -0.04573407 -0.101787396 0.063274555 0.11410678
0.07047654 -0.2134819 0.02032229 -0.17638208 -0.15518394 0.23203366 -0.20474406 -0.017773686
0.044533152 0.18723391 0.1806423 0.20808858 0.12958008 0.010155463 0.13751371 0.025379945
-0.1771828 0.09494019 -0.0036242243 0.04901136 0.07573231 0.0030613395 -0.07265666 -0.13740346
0.08928982 -0.11898742 -0.12727825 0.16854113 -0.2051773 -0.10320033 0.12047893 -0.12670504
0.019690165 -0.08081451 0.0729471 0.17850941 0.00094817556 0.047642015 -0.17690276 -0.19920865
0.075051226 0.00025461058 -0.008422287 -0.017593578 0.05786942 -0.09575534 -0.17176364 0.08704816
-0.01129065 0.03685485 0.118933015 -0.14471309 -0.023599427 -0.16602457 -0.13471045 0.056524858
-0.16672817 -0.10852358 -0.030680824 -0.1283068 0.14576072 0.041920204 -0.014904256 0.09555397
-0.13386267 -0.020462973 -0.0447166 -0.21117228 -0.20531106 -0.21127446 -0.10719627 0.022281032
-0.09814158 -0.04037814 -0.18907347 0.11101239 0.012623677 0.04990263 0.12854974 -0.078976385
0.054953787 0.011688108 0.20440826 0.009663025 -0.108654276 0.15444452 -0.05226867 0.046691794
-0.17046237 -0.05795545 -0.0059773894 -0.19122109 0.08226676 -0.082802944 -0.15859964 0.019920526
-0.2707699 -0.060208425 -0.16081956 -0.009277127 0.11559377 0.032871548 0.13931715 -0.024381656
0.09922124 0.015176496 0.17169455 -0.005012759 -0.22124451 -0.07139172 -0.06697825 -0.063447334
0.04196101 0.07210712 0.03191185 -0.09547081 0.008233709 -0.0633927 0.024162767 0.095248505
0.11452721 -0.17829801 -0.2453619 0.0647614 -0.21849722 -0.18345195 -0.08378468 0.1151277
-0.022569017 -0.08489177 -0.10607821 -0.010627022 -0.11316013 0.07300579 0.13690989 -0.12628862
-0.11808403 -0.18860447 -0.038781893 -0.24706434 0.020757616 -0.20879738 -0.17607121 -0.14645478
-0.03814006 -0.047433123 -0.03783517 0.04414205 0.20495068 0.10596544 0.11739465 -0.035866145
-0.011544736 -0.025121443 -0.082836755 -0.019401833 -0.18563956 -0.0014697257 0.06745295 -0.02802851
0.07554852 0.1499877 -0.22678073 -0.05854909 -0.07279853 -0.2757884 0.04729156 -0.039986145
0.11337553 0.07894731 0.04591291 -0.007880927 0.22028302 -0.09890833 -0.042737406 -0.08452649
-0.033016168 0.17788087 0.010606819 0.20199923 -0.10729481 -0.046954375 0.07068331 -0.12340256
00000000: 451e f5bd f9f3 903d 44f7 4f3d 3aef 263d
00000010: f7ed 4bbd 4e64 c3bd cf6d 31be 38b7 60bd
00000020: 68a7 f83d 3474 e4bc 73bf c53d 7a02 f83d
00000030: 18aa e5bd 48f8 1abc 8197 61bd 3a05 dbbd
00000040: 843c 3fbd 48ab d7bd ecd9 b83d 789c f23d
00000050: 3ef1 c7bc 7031 5c3d dec4 443d 679b d63d
00000060: bb4a c6bc d5a4 953d 5786 5d3e 9718 453d
00000070: c959 a6bd 5fdd 1ebd b888 4c3e d58c db3d
00000080: 2041 163d 961d 19be 4db0 4bbe e7e9 6e3e
00000090: 8cf3 97bc 7dcb 3cbd 23c7 0dbe 41ab c5bc
000000a0: 7295 53bd 35a8 343d 5633 8dbd 0b17 bebc
000000b0: 92f1 063e 62d7 b33c ed86 c1bd 3475 183e
000000c0: e814 0dbe 3ee3 98bc 7847 293c a457 413d
000000d0: 9c85 acbd 54df 6d3c 58df 26be a49a 8abd
000000e0: 5ff3 023e aa38 e63b c136 6c3d ab0e 5c3b
000000f0: eb49 f0bd dcb3 a03d e5cc b73d 7d91 d63d
00000100: ede2 a03c 75f4 3fbe 8dcb 84bd fe22 483d
00000110: a653 3bbd e975 d0bd 1796 813d d1b0 e93d
00000120: 0156 903d 009b 5abe ee7a a63c 819d 34be
00000130: 8ae8 1ebe 3b9a 6d3e 6da8 51be 1f9a 91bc
00000140: 6568 363d 3fba 3f3e 4cfa 383e 2c15 553e
00000150: a4b0 043e 1963 263c 65d0 0c3e 9ae9 cf3c
00000160: 686f 35be 0170 c23d 6584 6dbb 23c0 483d
00000170: 8b19 9b3d c1a0 483b 04cd 94bd 7eb3 0cbe
00000180: 95dd b63d adaf f3bd 3b55 02be 0c96 2c3e
00000190: 001a 52be b25a d3bd a8bd f63d f7be 01be
000001a0: 454d a13c 1482 a5bd 4a65 953d 2ccb 363e
000001b0: fc8e 783a 4624 433d ff25 35be 5afd 4bbe
000001c0: 75b4 993d 417d 8539 a2fd 09bc 6820 90bc
000001d0: 7c08 6d3d 601b c4bd cfe2 2fbe 4e46 b23d
000001e0: 6bfc 38bc 1cf5 163d 2793 f33d ab2f 14be
000001f0: 9653 c1bc 5802 2abe 89f1 09be 9c86 673d
00000200: caba 2abe 9c41 debd 5a56 fbbc dc62 03be
00000210: 4c42 153e 85b4 2b3d fb30 74bc cdb1 c33d
00000220: 4c13 09be f7a1 a7bc c128 37bd 8c3d 58be
00000230: 103d 52be 5558 58be b889 dbbd b686 b63c
00000240: 74fe c8bd 8c63 25bd 7a9c 41be 775a e33d
00000250: 8ad3 4e3c b366 4c3d 8ba2 033e 5fbe a1bd
00000260: 3917 613d 7a7f 3f3c 6650 513e aa51 1e3c
00000270: 2286 debd b426 1e3e ac17 56bd e53f 3f3d
00000280: b08d 2ebe b262 6dbd fadd c3bb 76cf 43be
00000290: 7a7b a83d 9794 a9bd f267 22be 5f30 a33c
000002a0: 5aa2 8abe 1c9d 76bd e2ad 24be 17ff 17bc
000002b0: 6dbc ec3d 51a4 063d 28a9 0e3e 0abc c7bc
000002c0: 8134 cb3d d6a6 783c b2d0 2f3e 1242 a4bb
000002d0: ec8d 62be d235 92bd e52b 89bd adf0 81bd
000002e0: 4fdf 2b3d e6ac 933d 00b6 023d 3386 c3bd
000002f0: aee6 063c 08d4 81bd fff0 c53c a611 c33d
00000300: 3e8d ea3d c193 36be 2640 7bbe a0a1 843d
00000310: bcbd 5fbe d4da 3bbe 4d97 abbd 12c8 eb3d
00000320: a9e2 b8bc bcdb adbd 883f d9bd f61c 2ebc
00000330: 80c0 e7bd 0f84 953d 1b32 0c3e ce51 01be
00000340: 0ad6 f1bd 8821 41be c3d9 1ebd 6ffe 7cbe
00000350: e00b aa3c fbce 55be 034c 34be 3ef8 15be
00000360: c038 1cbd 3c49 42bd 0df9 1abd 4bce 343d
00000370: 97de 513e 6904 d93d 9b6c f03d 61e8 12bd
00000380: 2226 3dbc 7ccb cdbc 51a6 a9bd 98f0 9ebc
00000390: 4c18 3ebe d0a3 c0ba c624 8a3d 0c9c e5bc
000003a0: 2fb9 9a3d 6096 193e 3539 68be 2cd1 6fbd
000003b0: 6517 95bd 2334 8dbe cbb4 413d 83c8 23bd
000003c0: 6e31 e83d 21af a13d 2d0f 3c3d 011f 01bc
000003d0: df91 613e 7390 cabd 6b0d 2fbd 391c adbd
000003e0: f63b 07bd 6726 363e 39c8 2d3c e3d8 4e3e
000003f0: 62bd dbbd 3b53 40bd 69c2 903d 7bba fcbd

bias f4 [16]
-0.04487036 0.0128010865 0.052963488 0.013977439 0.015814617 -0.09719439 -0.0066276165 0.018945662
-0.053690832 0.03060151 0.027816862 0.03306599 -0.075552836 0.10402939 0.02082107 0.103681356
00000000: fcc9 37bd a6bb 513c 3ef0 583d a101 653c
00000010: a88d 813c da0d c7bd 7a2c d9bb ef33 9b3c
00000020: ebea 5bbd 05b0 fa3c 30e0 e33c 3470 073d
00000030: 72bb 9abd 5c0d d53d f390 aa3c e456 d43d

weight f4 [32, 16, 3, 3]
-0.04078136 -0.14808479 -0.13991968 -0.0066739004 -0.002161485 0.013094446 -0.09134052 0.022955555
-0.06837033 -0.13580388 -0.03206777 0.111056924 0.075440675 0.024049727 0.16808407 0.04450349
0.053986877 0.11505664 -0.08963419 -0.05965268 -0.11043703 -0.06374647 0.012280507 0.08694274
0.03977105 0.137016 0.04430029 -0.016810035 -0.10541382 -0.022231419 0.023777291 0.082190886
0.020407086 0.002139344 0.051614873 -0.021150542 -0.06052934 -0.051024947 0.01833361 -0.13721238
-0.07523794 0.028775224 -0.035856366 0.057041675 0.004783292 -0.08520407 -0.11734946 -0.055734202
-0.14547667 -0.09137442 0.06845146 -0.11571915 -0.07778957 -0.1426067 0.0890008 -0.029059298
-0.1532977 -0.02915375 -0.12192816 -0.25141245 0.004498588 0.016684547 -0.22019202 -0.024886755
-0.15612017 -0.06261138 -0.0072924187 -0.065368466 -0.044701967 0.0086860685 0.055418577 -0.028409954
-0.20607252 -0.14163364 -0.17570788 0.038512122 -0.10366856 -0.23531033 -0.041199654 -0.16879189
-0.27319592 -0.11753225 -0.07579238 0.036327202 -0.08910205 0.05883344 -0.0059754224 0.03252441
-0.03773642 -0.01936818 -0.049313396 -0.034980815 -0.015185437 -0.034691177 -0.012352365 0.13841912
-0.057296555 -0.06169555 0.03142639 -0.07280286 0.018611575 0.07512851 0.07325034 0.006410779
0.034792874 0.026046058 0.00015434071 0.17039925 -0.008892468 -0.11247355 -0.08858799 0.097896345
-0.047409058 0.031022618 0.04238756 0.09237876 -0.09072795 -0.07458319 -0.003275064 -0.036335364
-0.01727128 0.06671664 0.033653248 -0.0077045867 -0.029637974 -0.0045205485 -0.11033408 -0.12228929
-0.047702532 -0.10138787 0.047972176 0.010211824 -0.080760814 0.010136192 -0.102859035 -0.04401146
-5.0152725e-05 -0.06951055 -0.010866011 -0.08528794 0.0773557 0.05533505 0.039537914 -0.003103476
0.055720925 0.08982276 -0.1997106 0.13721085 0.0027266962 0.018456899 0.024741216 -0.02071349
0.11981361 0.06158368 0.050989505 0.03672516 0.087361075 0.024016842 -0.026669139 0.03228725
0.0041028257 0.025046138 0.03664746 0.12169816 -0.028577557 0.106919125 0.09613616 -0.0023771515
0.059406515 0.010411313 0.04061412 -0.048878416 -0.052310508 -0.10867061 -0.090032384 -0.0970963
-0.11334378 -0.07323097 -0.009781824 -0.06664164 0.16158341 0.03875404 0.13913907 -0.07344202
-0.05702851 0.09162358 -0.14479384 -0.02753768 -0.0020126286 0.011177559 0.038089514 0.11230034
0.20154046 0.13747862 0.15197317 0.07346721 0.083043665 0.10404067 0.08150616 0.038037904
-0.07757637 -0.0013509773 0.11966402 0.010851927 0.094668195 0.1393462 0.09467452 0.05398803
0.0075269714 0.06084011 0.08184602 0.08976278 0.07246485 0.00022412627 -0.016725644 0.0965798
0.03242399 0.026654944 0.07111628 -0.019626833 0.052119467 0.05910382 -0.066864535 0.083966665
0.14930701 0.033182226 0.009985776 0.066539004 -0.054525696 -0.09070449 -0.015226809 -0.01819164
-0.06727991 -0.06095646 0.016778583 0.04544798 0.043866917 -0.02368892 0.0046365694 -0.009562772
0.091073476 0.03317288 -0.0064428193 0.06845302 -0.028901817 -0.12224947 0.0142470505 -0.11924017
0.1098661 0.0815995 0.04673339 -0.0025580588 0.15945353 0.1009512 0.022951037 0.19898352
00000000: 5b0a 27bd 8aa3 17be 1b47 0fbe bcb0 dabb
00000010: b3a7 0dbb 168a 563c bd10 bbbd 4a0d bc3c
00000020: be05 8cbd 2c10 0bbe 7e59 03bd d071 e33d
00000030: a480 9a3d ef03 c53c 3b1e 2c3e 4b49 363d
00000040: 5821 5d3d d1a2 eb3d 2192 b7bd 5e56 74bd
00000050: cf2c e2bd 828d 82bd 2e34 493c 090f b23d
00000060: f8e6 223d ec4d 0c3e 3974 353d 33b5 89bc
00000070: 33e3 d7bd aa1e b6bc 98c8 c23c b253 a83d
00000080: c32c a73c 3d34 0c3b 1e6a 533d e743 adbc
00000090: 9ded 77bd 89ff 50bd 5e30 963c 6781 0cbe
000000a0: 5916 9abd 05ba eb3c 20de 12bd 88a4 693d
000000b0: 29bd 9c3b 797f aebd ea54 f0bd 8c49 64bd
000000c0: d6f7 14be 8322 bbbd 4730 8c3d 29fe ecbd
000000d0: 2350 9fbd 7e07 12be 0d46 b63d c40d eebc
000000e0: 13fa 1cbe d8d3 eebc 79b5 f9bd 22b9 80be
000000f0: e468 933b 08ae 883c 047a 61be 4fdf cbbc
00000100: f7dd 1fbe 653a 80bd 3ef5 eebb e7df 85bd
00000110: 6919 37bd 0350 0e3c 97fe 623d febb e8bc
00000120: ad04 53be 6908 11be c4ec 33be e3be 1d3d
00000130: 2f50 d4bd 31f5 70be f8c0 28bd c8d7 2cbe
00000140: 56e0 8bbe c0b4 f0bd 0939 9bbd d5cb 143d
00000150: 237b b6bd 55fb 703d 7acd c3bb 5138 053d
00000160: 8191 1abd 04aa 9ebc d8fc 49bd 0b48 0fbd
00000170: 57cc 78bc 5618 0ebd 9361 4abc bebd 0d3e
00000180: cbaf 6abd 79b4 7cbd f5b8 003d aa19 95bd
00000190: 4d77 983c fadc 993d 4604 963d 8311 d23b
000001a0: f982 0e3d 8b5e d53c 85d6 2139 247d 2e3e
000001b0: b7b1 11bc 8858 e6bd 9f6d b5bd e17d c83d
000001c0: 0030 42bd 2523 fe3c 949e 2d3d 1331 bd3d
000001d0: 93cf b9bd 12bf 98bd 75a2 56bb 64d4 14bd
000001e0: 807c 8dbc bca2 883d fdd7 093d c276 fcbb
000001f0: 56cb f2bc 1c21 94bb d6f6 e1bd cf72 fabd
00000200: bb63 43bd 72a4 cfbd 797e 443d 7f4f 273c
00000210: ed65 a5bd 4512 263c c2a7 d2bd 5c45 34bd
00000220: 145b 52b8 8c5b 8ebd 5a07 32bc 72ab aebd
00000230: aa6c 9e3d 01a7 623d 82f2 213d b063 4bbb
00000240: a03b 643d fff4 b73d ef80 4cbe 0081 0c3e
00000250: 5fb2 323b ec32 973c 17ae ca3c 56af a9bc
00000260: d760 f53d 2b3f 7c3d 5fda 503d 1f6d 163d
00000270: 5dea b23d f8be c43c 3d79 dabc a33f 043d
00000280: ff70 863b 8f2d cd3c a61b 163d e33c f93d
00000290: 7b1b eabc 6af8 da3d 09e3 c43d fcc9 1bbb
000002a0: 3f54 733d 3694 2a3c fe5a 263d bc34 48bd
000002b0: 8b43 56bd b28e debd e662 b8bd 6dda c6bd
000002c0: c920 e8bd 1efa 95bd f243 20bc 6a7b 88bd
000002d0: 1f76 253e 8ebc 1e3d 797a 0e3e c568 96bd
000002e0: ba96 69bd 25a5 bb3d d644 14be b396 e1bc
000002f0: 4ee6 03bb 1522 373c c003 1c3d b8fd e53d
00000300: 9f60 4e3e 32c7 0c3e db9e 1b3e fa75 963d
00000310: cc12 aa3d 4613 d53d b4ec a63d a2cd 1b3d
00000320: 5ce0 9ebd 4713 b1ba 6912 f53d 48cc 313c
00000330: 66e1 c13d c5b0 0e3e b7e4 c13d 8d22 5d3d
00000340: d0a4 f63b 7b33 793d e39e a73d 8cd5 b73d
00000350: 7468 943d 7003 6b39 3804 89bc a1cb c53d
00000360: 05cf 043d 785b da3c 6aa5 913d 74c8 a0bc
00000370: 397b 553d d916 723d 46f0 88bd b7f6 ab3d
00000380: f0e3 183e 16ea 073d 619b 233c 9a45 883d
00000390: 5656 5fbd 47c3 b9bd de79 79bc a206 95bc
000003a0: 0dca 89bd 7bad 79bd 3d73 893c a927 3a3d
000003b0: ccad 333d 440f c2bc 5dee 973b 2cad 1cbc
000003c0: bb84 ba3d 49e0 073d 491e d3bb 1931 8c3d
000003d0: 81c3 ecbc ee5d fabd 766c 693c 3134 f4bd
000003e0: 7a01 e13d a31d a73d 836b 3f3d 1ba5 27bb
000003f0: c947 233e 81bf ce3d d003 bc3c 56c2 4b3e

bias f4 [32]
0.058122028 -0.027178207 -0.01833106 -0.07059158 0.03363768 -0.016469613 0.0031953785 -0.028941056
-0.029858338 -0.069136314 -0.04160961 -0.024750419 -0.048845388 -0.08106514 -0.052825704 -0.046549015
0.032217003 -0.032251894 -0.008843173 0.021958763 -0.00025902802 0.0030802572 -0.04651653 0.020241052
-0.018799301 -0.018576007 -0.08219428 0.0126292305 0.02769209 0.008985326 -0.029704228 0.009777205
00000000: 5d11 6e3d d5a4 debc 052b 96bc 5192 90bd
00000010: aac7 093d 48eb 86bc 8e69 513b cb15 edbc
00000020: 7999 f4bc 5797 8dbd d76e 2abd 64c1 cabc
00000030: 1a12 48bd 7b05 a6bd c45f 58bd 2eaa 3ebd
00000040: faf5 033d 901a 04bd f5e2 10bc dde2 b33c
00000050: 27ce 87b9 24de 493b 1e88 3ebd 90d0 a53c
00000060: fe00 9abc b62c 98bc 7a55 a8bd d5ea 4e3c
00000070: 86da e23c 3037 133c 4856 f3bc 9230 203c

weight f4 [5, 11552]
-0.07266509 -0.07278642 -0.07247588 -0.059203126 -0.06722843 -0.070386514 -0.06774681 -0.066846415
-0.06408085 -0.061242916 -0.056213718 -0.051647663 -0.043468025 -0.06434616 -0.05394514 -0.06317137
-0.050165724 -0.067050345 -0.07053625 -0.06729704 0.0054535912 0.0100529045 0.037417796 0.11110047
0.10704665 0.012343846 0.07781933 -0.02031856 0.06440545 -0.008960952 0.06180559 0.13467015
0.11986385 0.014099561 0.046462674 0.08677453 0.064926416 -0.01972417 -0.058137275 0.016020013
0.11991741 0.093590334 0.08901772 0.061447177 -0.005095516 0.031854894 0.06623501 0.10390447
0.047769055 0.10452044 0.07535812 0.14208534 0.19780762 0.14187369 0.14620124 0.0005308141
0.08166212 -0.07084755 -0.039320566 -0.028116196 0.026855953 0.037845146 0.07258562 0.05606479
0.085939564 0.057298925 0.08825417 0.060295876 0.08240117 0.14151724 0.06624021 0.1345381
0.15543194 0.1412289 0.070769936 0.0624858 -0.050189164 0.0103136655 0.09350036 0.08208975
0.06524995 0.07710155 0.09738654 0.10060278 0.09915535 0.11947469 0.102240376 0.13126515
0.09602181 0.06937001 0.1689489 0.110390104 0.08341918 0.1293609 0.07806053 -0.052635718
-0.037703216 0.009998485 0.09183182 0.058912303 0.092888296 -0.0016293152 0.015899252 0.015288046
0.07307609 0.059809357 0.09648682 0.06697288 0.10412122 0.074161075 0.07515319 0.17175876
0.20549858 0.12664072 -0.04310591 0.018872239 0.120083995 0.04757486 0.13584358 0.14121011
0.029181227 0.0055166297 0.0076226112 0.007677723 -0.06323464 0.036827493 0.0628532 0.08784594
0.028778702 0.07357718 0.15389274 0.19156176 0.095367976 -0.048882224 -0.000687805 0.056739606
0.11093533 0.1020235 0.07281332 -0.010307282 0.031731196 0.020308949 -0.021291738 0.044493414
0.015342649 0.02597355 0.08817072 0.15204193 0.07841616 0.124128945 0.07851643 0.045608338
-0.06567416 -0.02516634 0.05624565 0.078694984 0.004980436 0.038763653 0.013511124 -0.021092666
-0.11692574 -0.05710686 0.022047509 -0.0328823 0.016441982 -0.011845862 0.026554234 0.07412274
0.124522194 0.101134 0.059750285 -0.06636462 -0.043580618 0.085028835 0.04944876 -0.043646585
0.058532424 -0.007875798 -0.045746185 -0.055540986 -0.04574961 -0.03636198 -0.04242991 -0.015107049
-0.0406891 0.007990369 0.051488828 0.07846568 0.12452277 0.036556866 -0.040104896 -0.039840657
0.055994052 0.049400955 0.063663 0.08426084 0.05076975 -0.022018041 -0.040810723 -0.14183454
-0.033152 -0.04920558 -0.00993629 -0.013469729 -0.0066330805 0.08949775 -0.011519655 0.003883707
0.023060182 -0.050606787 -0.027909636 0.07670241 0.06659489 0.058601853 0.045776438 0.0026873904
0.0333004 0.024072165 -0.012513342 -0.006062146 -0.0043240283 0.041850474 0.04566906 0.05822175
0.04229604 0.047440607 0.038707703 -0.007036057 -0.04952808 0.02288556 0.01786274 -0.010327028
0.027882295 0.048271444 0.06254898 0.069902614 0.07285816 -0.015894085 0.005905681 -0.016999958
0.07494265 0.054879844 0.063406594 0.08108165 0.0982954 0.03108367 -0.0030903975 -0.05635747
-0.06939599 0.016373191 -0.021060366 -0.010793422 0.039316032 0.08765085 0.04146946 0.025012925
00000000: 6fd1 94bd 0c11 95bd 3c6e 94bd fa7e 72bd
00000010: 0faf 89bd ce26 90bd d7be 8abd c6e6 88bd
00000020: d23c 83bd dad9 7abd 5b40 66bd 808c 53bd
00000030: 870b 32bd ebc7 83bd 94f5 5cbd fe5f 81bd
00000040: 937a 4dbd b151 89bd 4f75 90bd 08d3 89bd
00000050: 0ab4 b23b f0b4 243c 6743 193d a588 e33d
00000060: 463b db3d d83d 4a3c be5f 9f3d 1c73 a6bc
00000070: 01e7 833d f5d0 12bc dc27 7d3d f9e6 093e
00000080: 2e7b f53d d801 673c a54f 3e3d d8b6 b13d
00000090: 24f8 843d 9594 a1bc 5a21 6ebd 673c 833c
000000a0: 4297 f53d 4aac bf3d ec4e b63d 09b0 7b3d
000000b0: 49f8 a6bb 477a 023d 39a6 873d decb d43d
000000c0: 7ca9 433d d00e d63d 5c55 9a3d d27e 113e
000000d0: 158e 4a3e 5647 113e c7b5 153e 5526 0b3a
000000e0: 783e a73d 8518 91bd 9a0e 21bd f053 e6bc
000000f0: 0401 dc3c 8303 1b3d c5a7 943d 31a4 653d
00000100: 1501 b03d 47b2 6a3d 9abe b43d cff8 763d
00000110: f2c1 a83d e5e9 103e f2a8 873d 5bc4 093e
00000120: 8d29 1f3e 4f9e 103e d4ef 903d 1cf1 7f3d
00000130: 2793 4dbd a6fa 283c 1e7d bf3d ac1e a83d
00000140: c4a1 853d 6be7 9d3d 9872 c73d d508 ce3d
00000150: f611 cb3d 25af f43d 6763 d13d 5f6a 063e
00000160: 15a7 c43d dd11 8e3d f100 2d3e 3514 e23d
00000170: add7 aa3d 2f77 043e 33de 9f3d 8d98 57bd
00000180: b06e 1abd b0d0 233c 5212 bc3d 074e 713d
00000190: 383c be3d bf8e d5ba 263f 823c b67a 7a3c
000001a0: eba8 953d a8fa 743d e29a c53d 1429 893d
000001b0: 823d d53d c3e1 973d eae9 993d 87e1 2f3e
000001c0: 386e 523e 1bae 013e d38f 30bd f499 9a3c
000001d0: 99ee f53d dbdd 423d 941a 0b3e 6299 103e
000001e0: 780d ef3c d8c4 b43b 19c7 f93b 6995 fb3b
000001f0: 2a81 81bd 6dd8 163d 2eb9 803d 92e8 b33d
00000200: 50c1 eb3c a2af 963d 0f96 1d3e c428 443e
00000210: 4950 c33d ba38 48bd d04d 34ba ca67 683d
00000220: 1032 e33d b2f1 d03d 261f 953d e0df 28bc
00000230: 92f8 013d f45e a63c 036c aebc ba3e 363d
00000240: bc5f 7b3c 7bc6 d43c da92 b43d e1b0 1b3e
00000250: a798 a03d 5137 fe3d 39cd a03d cfcf 3a3d
00000260: 2d80 86bd a429 cebc d761 663d d62a a13d
00000270: ed32 a33b a3c6 1e3d c35d 5d3c 87ca acbc
00000280: c376 efbd e2e8 69bd fa9c b43c 97af 06bd
00000290: 56b1 863c 2515 42bc 4488 d93c aacd 973d
000002a0: 7e05 ff3d 581f cf3d b7bc 743d 2dea 87bd
000002b0: 9781 32bd 9923 ae3d c88a 4a3d c3c6 32bd
000002c0: b2bf 6f3d 7e09 01bc 5a60 3bbd f27e 63bd
000002d0: f163 3bbd 4df0 14bd fcca 2dbd 8e83 77bc
000002e0: 9da9 26bd 09ea 023c f3e5 523d 9db2 a03d
000002f0: cb05 ff3d a7bc 153d 0845 24bd f52f 23bd
00000300: 055a 653d a858 4a3d bf61 823d f390 ac3d
00000310: f1f3 4f3d 2e5f b4bc 2529 27bd 133d 11be
00000320: 64ca 07bd ca8b 49bd d2cb 22bc 23b0 5cbc
00000330: 505a d9bb 994a b73d efbc 3cbc cb85 7e3b
00000340: b5e8 bc3c 1049 4fbd c0a2 e4bc 2716 9d3d
00000350: e762 883d 7f08 703d 1380 3b3d ee1e 303b
00000360: 0066 083d fd32 c53c c304 4dbc f7a4 c6bb
00000370: 94b0 8dbb 676b 2b3d 7b0f 3b3d ee79 6e3d
00000380: 9d3e 2d3d 1551 423d f88b 1e3d b98e e6bb
00000390: f5dd 4abd 7f7a bb3c e254 923c b232 29bc
000003a0: 6969 e43c 47b8 453d ae19 803d 1a29 8f3d
000003b0: a936 953d 5034 82bc 7184 c13b 7f43 8bbc
000003c0: 887b 993d b0c9 603d 51db 813d 230e a63d
000003d0: 194f c93d 2ea3 fe3c 4488 4abb 17d7 66bd
000003e0: 7c1f 8ebd 1221 863c ca86 acbc e5d6 30bc
000003f0: d909 213d 4a82 b33d e1db 293d e8e7 cc3c

bias f4 [5]
-0.073105775 -0.05578549 -0.045659807 -0.03166936 -0.046511967
00000000: 7bb8 95bd 537f 64bd c705 3bbd bbb7 01bd
00000010: 5583 3ebd
