archived_data/b1_r0_m8_s100--2019-03-03--165203.596044/episode_49000.model (torch_old, 268278 bytes, 8 tensors)

weight f4 [6, 6, 3, 3]
000000 72 8d ca bd 66 4d b3 3d 60 1f d9 3b b4 b8 06 3e
       -0.0989026 0.08754997 0.0066260546 0.13156396
000010 8c cb 83 bc 98 49 cb bc b8 c5 41 bc 8c c8 bc 3d
       -0.01608827 -0.024815366 -0.011826925 0.09217939
000020 42 9d 44 bd a1 af 66 3d 26 b6 51 3d c1 1f 9a 3d
       -0.048001535 0.056319837 0.0511991 0.07525588
000030 5b 1a 3a bd 46 9e 8a 3c f2 cf 2a bc f8 42 8d bd
       -0.04543529 0.016921174 -0.010425555 -0.06897539
000040 01 ba 81 bd 47 4c a2 bc e1 62 e2 3d 9a df c4 3d
       -0.063343056 -0.019811762 0.11054016 0.09612961
000050 4a 23 0d 3e 84 df 2e 3d c2 3b b2 3d 3e 3b 94 3d
       0.13782993 0.04269363 0.08702804 0.07237862
000060 9f e4 97 bc 40 45 55 3c 83 02 72 3d e6 4b 8d bd
       -0.018541632 0.013016999 0.059084427 -0.06899242
000070 9a 4c 69 bd 5e 39 d4 bd fc 89 21 3d 4c 90 c3 3d
       -0.05695782 -0.103625044 0.039438233 0.09549007
000080 c6 0b 7e bd 9c 11 a8 3d bf 1b f8 bd 60 b5 2c 3d
       -0.062022947 0.08206484 -0.12114667 0.04216516
000090 46 67 ba ba c1 1a 33 be 33 7d de 3d e0 be 72 be
       -0.0014221452 -0.17490675 0.108637236 -0.23705626
0000a0 1d e7 ef bd f2 9d 68 be be df cf be 10 64 8d be
       -0.11714003 -0.22716501 -0.4060039 -0.27615404
0000b0 79 59 c6 bd 69 1c 83 3d 28 1e da 3c 53 90 e8 3c
       -0.09685034 0.06401903 0.026625708 0.028389132
0000c0 aa 17 82 3d d6 8e 0f 3d 6e 33 7c bd 68 3d ce 3d
       0.0635217 0.03504833 -0.061572485 0.10070306
0000d0 ce d3 59 bd 6a fb 32 bb 2c ba ca bd 10 64 d9 3d
       -0.05318051 -0.00273105 -0.09898791 0.106147885
0000e0 60 7e a0 3d 22 64 e0 bd a8 cb f0 3d 48 a1 8a bd
       0.07836604 -0.10956599 0.11757594 -0.06769043
0000f0 32 40 bb 3d c8 5d c1 3c c6 68 a2 bd eb dd 78 bd
       0.09143104 0.023604289 -0.0793014 -0.060758512
000100 a3 63 f8 bb ac 98 09 3d 0c e8 19 3d f2 3b 1c bc
       -0.007580237 0.033592865 0.037574813 -0.009535776
000110 c3 e3 28 3d bb 38 f0 3c 3b e7 fb 3c 5b d5 56 3c
       0.041232836 0.029323926 0.030749908 0.013112391
000120 69 3c 05 3d b0 53 28 bb 8c 7c 4b 3d 3d 7e 18 3d
       0.032528315 -0.0025684647 0.049679324 0.037229765
000130 20 00 a0 3d 07 36 11 3e 69 2e 4e 3d 7f 7a d8 3d
       0.07812524 0.14180766 0.05033723 0.10570239
000140 0f ed c9 3d fc 8d b2 3d 80 af 9a bb 80 e8 84 3d
       0.098596685 0.087184876 -0.0047206283 0.06489658
000150 40 38 3e 3c a0 5d 7a 3d 36 cc b8 3d 32 2e 59 bd
       0.011610091 0.061124444 0.09023325 -0.05302257
000160 e0 8e 71 bc 9a e8 c0 3d e1 30 c0 3d 4a e9 c5 be
       -0.014743537 0.09419365 0.09384323 -0.38654548
000170 9b 15 9b be 25 49 97 3d d4 4f 2b be e1 b3 47 3e
       -0.3028992 0.07386998 -0.16729671 0.19502212
000180 9f 68 35 3e 50 e9 0c 3e 52 fe 89 3e 8d 92 19 3e
       0.17715691 0.13760877 0.26951844 0.14997311
000190 a8 ec bf bd 18 0c 52 3d e2 e5 8f bb 6e 13 15 3d
       -0.093713105 0.051281065 -0.004391418 0.036395483
0001a0 fc 59 b4 bd 12 20 46 bd f7 b5 e6 bb 09 ae 81 3d
       -0.08806226 -0.04837043 -0.007040735 0.06332023
0001b0 e8 56 7b 3d b0 1f 03 3d b0 93 85 bd 46 a4 ce 3d
       0.061362177 0.03201264 -0.0652231 0.100899264
0001c0 c4 d4 2c 3d dc 57 af bd 1b 7d d1 bd 14 48 08 3e
       0.042195097 -0.0856168 -0.1022894 0.13308746
0001d0 04 e1 b8 bc 33 0e 9f 3c b6 f0 c9 3c dc 40 42 3c
       -0.022568233 0.01941595 0.024650913 0.011856284
0001e0 c9 eb 4b 3c b7 fb d8 bc 29 fa c8 bd f7 9c ed bb
       0.012446352 -0.026487214 -0.09813339 -0.0072513777
0001f0 6e 84 c7 3c e0 65 e4 3a e0 56 90 3c b9 73 88 3d
       0.02435514 0.0017425381 0.01761955 0.06662697
000200 de a7 b7 3d 8d b0 2c 3d cb ae 8d 3d 28 ab 32 bd
       0.08967565 0.04216056 0.06918105 -0.04362026
000210 11 73 0b 3d 5d 1e 80 3d 4e e1 58 3d 50 72 1f bd
       0.034045283 0.06255791 0.052949242 -0.038927376
000220 c6 ce ab bd c0 a4 4c bd d0 96 74 bc 38 98 ae bc
       -0.08389048 -0.049961805 -0.014928535 -0.021312818
000230 42 1e e4 3d 5c b9 2a bd 28 85 cb 3c 1c 2a 1a 3d
       0.11138584 -0.04168068 0.024843767 0.037637815
000240 8f 1b 9f 3d c4 a0 5f 3e 15 b9 49 3e 99 78 f0 3d
       0.07768928 0.21838671 0.1969951 0.11741752
000250 9b 4e 89 3e 22 80 98 be ce 49 4c 3e d1 22 5c 3e
       0.26817784 -0.29785258 0.19950029 0.21497656
000260 a6 6a 1e be e2 ef 89 bc 94 ac b9 bd f4 6f 46 ba
       -0.1547037 -0.016838018 -0.0906612 -0.0007569783
000270 ab 35 70 bc 38 7a 78 bc 92 a0 2d be 60 91 f6 3b
       -0.014661233 -0.015165858 -0.16955784 0.0075246543
000280 40 29 74 3c 0c 79 9d bd 2a 3b ca 3d c0 0e 02 3e
       0.014902413 -0.076891035 0.09874566 0.12700939
000290 ec 7c fe 3d 24 f8 ef 3d a0 d1 89 bd 80 bf 3d bb
       0.12426171 0.11717251 -0.06729436 -0.0028953254
0002a0 27 a9 02 be ac 1e c2 bc b4 ee c3 bd 0d 95 3c bc
       -0.12759839 -0.023696266 -0.095670134 -0.011510146
0002b0 c9 b5 f3 bb 56 a0 ba 3c f5 ba b4 3c 70 98 47 3c
       -0.007437442 0.022781532 0.022061804 0.01218234
0002c0 b3 2d 60 bc cb b8 20 3c 61 74 dd bb 22 81 c3 3c
       -0.013682771 0.009809683 -0.006758258 0.023865286
0002d0 0e 5a d8 3d 80 30 21 3e 5c d5 27 3e f1 e1 33 3e
       0.105640516 0.15741158 0.16389984 0.17566659
0002e0 f6 b4 55 3e c4 f4 43 3e 2c 96 c4 3d e9 fc 0c 3e
       0.20869812 0.1913634 0.095989555 0.13768353
0002f0 84 73 44 3e 88 46 73 3d 04 c9 43 bd 32 ff 9e 3d
       0.1918469 0.059393436 -0.047799125 0.077635184
000300 0a 6d 10 bd ff 7b 03 be 7e 3f ad bd e2 1c 03 be
       -0.035260238 -0.1284027 -0.08459376 -0.12803987
000310 ef a4 95 bd 52 67 04 be 26 59 94 3d 04 c4 31 3e
       -0.07306849 -0.12930039 0.07243566 0.1735993
000320 b2 bc a6 be 88 be 42 3d f6 01 ca be dd c7 80 be
       -0.32565838 0.047544986 -0.3945462 -0.25152484
000330 85 87 56 3e cb 32 86 3e fc de a2 be 4d 07 99 3c
       0.20950134 0.26210627 -0.3181075 0.01868024
000340 e7 17 41 bd ad fe 23 3d 53 74 e9 bd 31 92 31 3d
       -0.047141936 0.0400378 -0.1139914 0.04335231
000350 74 b6 0a 3c 8c 9d e8 3d 01 04 aa bc da b7 6b 3d
       0.008466352 0.11358175 -0.020753862 0.05754838
000360 ca 2f b5 3d 00 69 f8 3d c8 7b ad 3c 00 9b a6 3c
       0.08847006 0.12129402 0.021177188 0.020337582
000370 1c bc cf 3d 10 ab f9 3d a6 2a 21 bd 10 9c 5a 3d
       0.10143301 0.12190831 -0.039347313 0.05337149
000380 48 bb 4b 3d fc 75 88 3c ce 13 19 3c 48 e6 8b 3c
       0.049739152 0.016657822 0.009343101 0.01707758
000390 ee bd b9 bd 90 c3 56 bb 21 f4 86 3c 7d 52 9a be
       -0.09069429 -0.0032770373 0.016473832 -0.3014106
0003a0 31 79 01 be d4 7f a1 bd f0 3f 09 3b 6b 38 b0 3d
       -0.12643887 -0.078857094 0.002094265 0.08604511
0003b0 98 40 95 3d d9 65 d4 bb 03 ea 2b 3d 8c ea 9f 3d
       0.07287711 -0.0064818677 0.041971218 0.07808408
0003c0 39 15 50 bd 0e 0a a5 bd b8 99 95 bc f0 0d f2 3d
       -0.05080149 -0.080585584 -0.018261775 0.118190646
0003d0 d0 09 71 3d 56 73 80 3d aa 01 56 bd a4 e3 c0 bc
       0.05884725 0.062719986 -0.05224768 -0.023546048
0003e0 33 8e e4 bd ad 2a fd bd 78 53 d5 bd 81 2f da bd
       -0.11159935 -0.123616554 -0.10416311 -0.10653592
0003f0 a8 79 cb 3d 3b dd 40 3e f9 b7 89 3e 28 a4 13 3e
       0.099353135 0.18834393 0.26898172 0.1441809

bias f4 [6]
000000 43 d4 06 be 5e 28 45 be 14 ea 8c 3d af da 5f be
       -0.13166909 -0.1925368 0.06880584 -0.21860765
000010 f7 ab b0 bc fa 25 86 bd
       -0.021566374 -0.06550212

weight f4 [16, 6, 3, 3]
000000 3c df 91 bd 7f 81 61 3c 7a ad cd bd 42 13 b8 3d
       -0.07122657 0.013763784 -0.10042854 0.08988048
000010 1e 34 96 3c 75 0e 9d bd f2 c3 97 bd f6 1d 03 bc
       0.018335398 -0.07668773 -0.074104205 -0.008002749
000020 a7 43 c9 3d c6 f6 87 bc a4 41 39 3d e0 a4 57 3e
       0.09827357 -0.016597163 0.045228615 0.21058989
000030 ac 06 b2 bb 25 06 19 be 8d 86 2d be 3a 52 bf 3d
       -0.0054329243 -0.1494375 -0.16945858 0.09341855
000040 17 cd 16 bd 0f d7 ea bd e6 fa 9c 3d e8 30 24 3e
       -0.036816683 -0.114668004 0.076650426 0.16034281
000050 00 19 e0 bd 56 e1 4f bd eb ea a1 3c 86 f2 85 3d
       -0.10942268 -0.050752006 0.019765338 0.06540398
000060 dc b0 12 3d 17 80 8e 3d f3 bd 17 3e f2 a0 53 bd
       0.035813197 0.06958025 0.14818554 -0.05166716
000070 dd 13 5d bd 0c 0f 83 bd 50 9a 58 3e 39 d9 bb 3c
       -0.05397402 -0.06399354 0.21152616 0.022930728
000080 f1 49 4b 3d 9e 1e bf bd eb ab 6b be 3c f6 59 3e
       0.049631063 -0.09332012 -0.230148 0.21285337
000090 3f 3c 0b bd 6d 07 a4 3c 5f 81 ad bd 14 25 d1 3c
       -0.033993002 0.020023072 -0.08471941 0.025530376
0000a0 78 1b bc 39 89 56 43 3d 96 9e 15 3c 6b 90 0d be
       0.0003587862 0.04768995 0.009132048 -0.13824622
0000b0 8a 75 22 3d 91 82 a9 3d d8 b7 af bd da 59 da 3d
       0.039662875 0.08276857 -0.08579987 0.10661669
0000c0 d9 2f 4e bd 90 64 38 3d b6 b2 b1 3d 88 a7 c3 3d
       -0.0503386 0.04501778 0.086766645 0.095534384
0000d0 69 2c 05 bd 0a 77 a7 3d e3 05 77 bd 77 bb 5c 3a
       -0.032513056 0.08177002 -0.06030835 0.00084202684
0000e0 e6 5d 01 3e 3b f8 15 bd 98 d6 fc bb cd e1 e5 bc
       0.12633476 -0.036613684 -0.0077160113 -0.028061772
0000f0 e8 7c 0c be 40 61 bc 3d 15 6f 9a 3d 61 0f 0d 3d
       -0.13719523 0.091982365 0.075407185 0.034438495
000100 ab cf 0d bc fa 93 c2 bd 9b 21 97 bd eb 41 6f 3d
       -0.008655469 -0.095008805 -0.073794566 0.058412474
000110 a8 bc 28 bd 9a a9 ab bc 11 94 f4 3d cb ec ad 3d
       -0.04119554 -0.020954896 0.11942304 0.0849243
000120 d2 d0 43 3d ff 18 6a be 40 95 f8 3c 63 db 13 be
       0.04780657 -0.22861098 0.030344605 -0.14439158
000130 e4 ec 37 be aa de 51 3e 55 ad ad bd c4 e4 1e bb
       -0.1796146 0.20495096 -0.08480326 -0.0024245242
000140 6f d1 c0 3d f3 d5 5a 3e 6c 5e 45 3e a7 38 fa 3d
       0.09414946 0.21370678 0.192743 0.12217837
000150 5f ce 2b 3e 57 6b a0 3d 06 7a 07 3e e4 6e 86 bd
       0.16777943 0.078329735 0.13230142 -0.065641195
000160 bc 88 93 be f2 1f 4c 3d 7f 1c 87 3c 33 f0 28 3d
       -0.28815258 0.049835153 0.01649308 0.041244697
000170 0d 80 11 3d 15 70 db 3c bd ff cd bd 80 f3 fd bd
       0.03552251 0.026786843 -0.10058544 -0.123999596
000180 b1 ad 71 bb e6 5d e0 bd 7e c8 5e be 3a 80 25 3e
       -0.003687721 -0.1095541 -0.21756169 0.16162196
000190 ba 29 4a be 9b ca a9 bd 1c 46 b0 3d f2 bf 42 be
       -0.1974248 -0.08290597 0.08607122 -0.19018534
0001a0 07 7e d8 3c 92 4a d1 bd aa 81 2a bd 46 ae 34 3e
       0.026427282 -0.10219301 -0.041627564 0.17644605
0001b0 d5 04 f5 3c 0e a0 11 3d 5c 92 7f be 1f cf 4c be
       0.02990953 0.03555303 -0.24958175 -0.20000885
0001c0 24 25 08 3e ea 7c fb bb 19 9d 83 bc 46 21 77 3d
       0.13295418 -0.007674803 -0.016066121 0.060334466
0001d0 f4 1f 90 3d 99 0b 72 bd 3a fa b3 bd e6 d7 dc 3d
       0.070373446 -0.05909309 -0.08787961 0.10783367
0001e0 c2 40 08 3c b0 86 49 3c ad 93 de 3d 79 b8 d6 bd
       0.008316221 0.012300178 0.10868011 -0.10484404
0001f0 82 61 4c bd ae 77 63 bd 0e e6 37 be 3b 0b 76 3c
       -0.04989768 -0.055534057 -0.17958853 0.015017326
000200 bb ea 37 be 6f d0 3e be 15 e2 44 bd b1 c7 7f be
       -0.17960636 -0.18634199 -0.04806717 -0.2497852
000210 f0 b9 b0 3d b7 95 96 3d d8 41 d3 bd 05 a8 07 3e
       0.08629215 0.073527746 -0.10315293 0.13247688
000220 f5 f0 26 be 46 86 dc bd b5 78 d8 bb 47 9b 1c be
       -0.16302855 -0.10767798 -0.0066061863 -0.15293609
000230 ea f5 97 be 2a 4c e4 bd ae db a4 bd f6 58 ad 3d
       -0.29679805 -0.1114734 -0.08049713 0.084642336
000240 77 92 0e 3b a3 5a 46 bd 2b 41 a6 be 5e b2 c4 3d
       0.002175478 -0.04842628 -0.32471594 0.09604333
000250 93 08 8f 3c e5 c5 77 bc db 8f 38 3d 1c ac d7 bd
       0.017460143 -0.015122865 0.045059066 -0.10530874
000260 2d 29 ab 3d 10 87 0e 3d cd 4d 14 3e 0f f6 e1 bd
       0.08357463 0.034796774 0.14482804 -0.1103326
000270 7c ed 9a bc 67 d2 19 3e cd 4e 5a bc 71 05 22 3d
       -0.01891207 0.15021668 -0.013324452 0.03955597
000280 8b 33 32 be 6b 76 0e bd 6f 09 25 3d 2e 3d 34 be
       -0.17402475 -0.0347809 0.0402922 -0.17601463
000290 5b b4 a1 3d 1c 2b e8 bd 7e 61 f4 bd 57 59 0b 3d
       0.07895728 -0.113363475 -0.11932658 0.034020748
0002a0 3a a1 46 be b2 db cb 3c ed d3 ef bd 57 70 06 bc
       -0.1939744 0.024885032 -0.117103435 -0.008205495
0002b0 e0 f4 08 3e d1 95 d2 3d 92 ee 23 3e 16 0b 8b 3b
       0.13374662 0.102824815 0.16008976 0.004243265
0002c0 6f 41 ef 3d 62 3d ab 3d 99 7e 63 3e 4b 01 82 3d
       0.11682402 0.08361317 0.22216262 0.06347903
0002d0 50 35 ef bd d0 fe 89 be 6d 5e 98 be 49 07 1a be
       -0.116800904 -0.2695222 -0.2975954 -0.15041842
0002e0 61 5f 90 bd ed 4d 8c bd 42 0b a4 bd ad a4 7f be
       -0.07049442 -0.06850801 -0.0800996 -0.24965163
0002f0 c4 db b7 bc f1 00 43 bd 58 0d 25 3e 9a 67 26 3e
       -0.02244366 -0.04760832 0.16118371 0.16250458
000300 7f e8 19 3e b6 6d 75 bd a9 cf 91 be fc c9 d0 bc
       0.15030096 -0.05991908 -0.28478745 -0.025486939
000310 f0 40 37 be c8 14 36 be cb 85 fd bc d3 9b 4f 3e
       -0.17895865 -0.17781365 -0.030947587 0.20274286
000320 20 dc 4e bd 24 e7 ee bd e2 09 46 bd cf 04 27 3d
       -0.050502896 -0.1166518 -0.04834927 0.04077607
000330 8e c1 52 bc 51 68 51 3d 06 c4 d0 3d 31 92 36 3d
       -0.01286353 0.051124875 0.101936385 0.044573013
000340 c3 f7 a4 bd d8 1c 57 be 3a a9 91 3d 30 89 c5 bd
       -0.08055069 -0.21007097 0.071123555 -0.09645307
000350 f5 26 0d 3c fe fc 43 be ba 12 b1 bd 61 f7 71 bd
       0.008615245 -0.19139478 -0.0864615 -0.05907381
000360 94 cf 82 bd 8d 63 9e bc 73 d5 bc 3c e0 f2 de bc
       -0.06387249 -0.019334579 0.023051 -0.027215421
000370 a5 cc 41 3e b9 0a 0a 3e b3 c0 ae 3d 3f c7 2d bd
       0.18925722 0.13480653 0.08532848 -0.042426344
000380 29 e1 c4 bb 95 81 50 3c c6 3c 08 3d db bc a0 3d
       -0.0060082865 0.012726207 0.033261083 0.07848521
000390 6a 6f 0c bd 9c d0 16 3e 60 bb 19 3e cb fd 2e bd
       -0.03428594 0.14728016 0.15012884 -0.042722505
0003a0 2d b9 1e 3c 69 60 2b 3e 59 e7 5d be fd 59 40 bb
       0.009687704 0.16735996 -0.21670283 -0.0029350512
0003b0 51 23 13 3d 18 e0 6c be 34 11 a0 3d 19 8e e1 bd
       0.035922352 -0.2313236 0.07815781 -0.11013431
0003c0 77 16 c3 3d c3 a6 04 3c 17 c5 2b be af 29 7e bb
       0.09525769 0.0080964 -0.16774403 -0.003878217
0003d0 ac ee 20 3e eb fb 59 be 1f dc 6a bd 82 91 5a be
       0.15716046 -0.21287505 -0.05733883 -0.2134457
0003e0 1a 29 8d bd dd b1 19 3e 68 1d 17 bc 1e 76 f5 3d
       -0.06892605 0.15009256 -0.00922332 0.1198542
0003f0 dd 0a 3b bb fb 64 21 3d 5b 46 70 3d 73 47 ee bd
       -0.002854041 0.039402943 0.058660846 -0.116347216

bias f4 [16]
000000 06 f6 87 bc d9 ca 1a 3c 52 39 b7 3c 2b c0 e5 3b
       -0.016596805 0.009447777 0.0223662 0.0070114336
000010 35 b2 3f bc 3f 74 06 be 96 4b a5 bc 88 10 d6 3d
       -0.011700203 -0.13130282 -0.020177644 0.10452372
000020 84 c2 c3 bd b5 9e d6 3b 31 db 09 3d 97 a8 1b bd
       -0.09558585 0.006549681 0.033656303 -0.038002577
000030 01 61 ea bd 44 20 5c 3c 4c 49 e5 3c 4e 5d 1c 3e
       -0.11444283 0.013435427 0.027989052 0.15269968

weight f4 [32, 16, 3, 3]
000000 80 ce 74 bd b0 22 89 be 21 e9 19 be 16 84 10 bc
       -0.059767246 -0.26784277 -0.15030338 -0.008820554
000010 00 c4 ad 3d cd a0 15 be 2d f3 39 be 5a ec 4d bb
       0.0848465 -0.14612122 -0.1815917 -0.0031421394
000020 21 c2 02 be 23 93 9f be 23 68 14 be b6 9e 18 3e
       -0.12769367 -0.31166944 -0.1449285 0.14904293
000030 ef 02 e1 bd 67 7b 38 3d f2 06 88 3e a8 5b 3f 3c
       -0.10986888 0.04503956 0.265678 0.011679567
000040 1e 2f 56 3e e1 18 74 3e 7e 17 14 be 89 07 d7 bd
       0.20916411 0.23837616 -0.14462087 -0.10499484
000050 82 3c 04 be b5 50 8b bd e2 bc 45 3d 9d 3d 0e 3e
       -0.12913707 -0.06802503 0.048275836 0.13890691
000060 ca 55 b4 bb ad 32 ec 3d cd 45 e9 3d 8d 56 2a be
       -0.005503391 0.11533103 0.113902666 -0.16634579
000070 a7 c3 c4 bd ec 83 f5 bd a6 e8 1b bc 8d d3 32 3e
       -0.0960763 -0.11988053 -0.009515917 0.17463513
000080 5c 21 21 bd 05 54 8e 3c 54 57 3a 3e 99 63 13 3d
       -0.039338455 0.017374048 0.18197376 0.035983656
000090 13 89 11 be 53 44 1e bd 3a ae 08 3d 5f 82 97 be
       -0.14212446 -0.038639378 0.03336928 -0.29591653
0000a0 91 d4 3e be f7 6a 4b 3c 86 5a e3 bd b0 d5 c0 3c
       -0.18635775 0.012415639 -0.1110125 0.023539394
0000b0 0f 57 52 bd 03 67 6d bd 1e 72 40 3d e3 9e 96 3d
       -0.051352557 -0.057959568 0.04698383 0.07354524
0000c0 4e 30 80 bd 32 62 81 bd 3f ec ed 3d 0d d8 fc bd
       -0.062592134 -0.063175574 0.11617326 -0.12345896
0000d0 87 73 d2 be f9 98 ad bc ae 04 72 3d 1d 49 3f be
       -0.41103765 -0.021191107 0.059086494 -0.18680234
0000e0 a5 73 9b be 9e 27 27 be 2e 4b b7 be a4 44 c3 be
       -0.30361667 -0.16323707 -0.35799545 -0.38138306
0000f0 9d 56 82 bd aa 40 a0 bd 25 62 9f be 4e 9c c9 bd
       -0.063641764 -0.07824834 -0.31129566 -0.09844266
000100 c1 4b 4f be 14 88 a0 bd 00 b9 26 bd da 68 2d bd
       -0.20243742 -0.07838455 -0.040703773 -0.042336322
000110 aa aa 05 bc 5b 7e 12 bd 93 21 54 3d d3 d8 7e bc
       -0.008158365 -0.035765033 0.05178983 -0.015554625
000120 2b 9d 03 bf dc e9 d2 bd 7d 8e 75 be f0 e2 29 3c
       -0.51411694 -0.102985114 -0.23980136 0.0103690475
000130 f9 6a 8f 3d dc 63 04 be a3 c2 5b be 48 c5 13 be
       0.07002825 -0.12928718 -0.21460967 -0.14430726
000140 84 b6 5c be fa bf 48 be a0 47 1f bd 56 8b a0 3d
       -0.21553999 -0.19604483 -0.038886666 0.07839076
000150 55 25 e5 bd e4 60 19 3e c5 bc 93 3d 95 9f 4e bd
       -0.11188761 0.14978367 0.07213739 -0.050445158
000160 18 70 a5 bd e5 cb c2 bd c6 ed de bd 32 75 8a 3d
       -0.08078021 -0.09511546 -0.108851954 0.067606345
000170 02 15 24 bc 14 f4 17 bd 5d f3 95 3d c7 df 60 3e
       -0.010014774 -0.037098005 0.073218085 0.21960364
000180 0f 12 02 be 42 47 88 bc 57 02 c2 3c 4e 84 aa be
       -0.12702201 -0.01663554 0.023682756 -0.33304065
000190 f5 0e 99 bc 08 13 2d 3e a0 37 41 3e f4 9e 82 3c
       -0.01868389 0.16901791 0.18868876 0.015944935
0001a0 8a e1 89 3d 98 ff 82 3d b1 dd b6 3c 07 57 b4 3d
       0.06732471 0.06396407 0.022322508 0.08805662
0001b0 74 99 4e 3d 59 65 a0 3d a4 93 1b 3e be d7 9f bd
       0.050439313 0.078318305 0.15193039 -0.078048214
0001c0 de f8 eb bd 98 56 9b 3e 40 0d e2 3d 85 6d 20 3e
       -0.11522077 0.30339503 0.110376835 0.15666778
0001d0 91 11 03 3e 64 ad 28 be cb 31 2d bb a1 95 c2 bd
       0.1279967 -0.16472393 -0.0026427384 -0.09501196
0001e0 31 5b 6e 3c 37 00 07 3e de 49 2d 3d bd ac 81 bc
       0.014548109 0.13183676 0.042306773 -0.015829438
0001f0 74 c7 bd bc 42 66 35 bc f6 56 12 be b8 7f a4 bd
       -0.023166396 -0.011071743 -0.14290985 -0.08032173
000200 db 25 77 bb b7 42 43 bd 8d 7e d2 3d a4 93 ba 3d
       -0.0037711773 -0.047671046 0.10278044 0.091101915
000210 61 51 c6 bd ab 33 a5 bb 63 11 f6 bd fb d4 e6 bd
       -0.096834905 -0.0050415597 -0.12015035 -0.112710916
000220 89 68 30 bd f3 73 cb bd ee 9b ab bc 99 3d 1a bd
       -0.043068442 -0.09934225 -0.020948377 -0.0376564
000230 b1 fa 08 3e da 12 93 3b 7e 6c d0 3c e3 74 ac 3b
       0.13376881 0.0044883313 0.025442358 0.0052629574
000240 2d 63 03 3d a0 ac 65 3d a7 14 83 be 99 a3 fb 3d
       0.032077003 0.05607283 -0.25601694 0.12287063
000250 fa d8 79 3b 79 81 ca bd 8d 8a b8 bc 69 11 df bc
       0.0038123713 -0.09887976 -0.022527004 -0.027229981
000260 7a 17 c0 3c a0 77 17 3d 1d 3f 3b 3d 12 ad 0b bc
       0.023448694 0.036979318 0.045714486 -0.00852515
000270 c5 dd 94 3d 05 ce 14 3d f2 6e 87 bd da dc 64 3d
       0.07268862 0.036329288 -0.06612958 0.055874683
000280 77 f2 3a 3d b2 e0 62 bb 6a 17 ad bc 13 76 c3 3d
       0.04564139 -0.0034618792 -0.021129329 0.09544005
000290 28 cf a5 bc 6c 24 97 3d 09 6d 8b 3d c2 f3 a4 bb
       -0.020240381 0.07379994 0.06807906 -0.005033941
0002a0 8b d1 3f 3d 62 de b0 bc 57 65 71 3c b5 94 80 be
       0.046830695 -0.021590415 0.014733634 -0.25113454
0002b0 a0 6f f0 bd 1f 76 52 be 9e ff 5f be 8f 46 4c be
       -0.11740041 -0.20552872 -0.21874854 -0.19948791
0002c0 9b 72 d5 bd 63 72 6e be bc 9d c5 bd 34 59 12 be
       -0.1042225 -0.23285823 -0.09649226 -0.14291841
0002d0 6a 70 fd 3d 84 ce 7c 3c a6 a4 e1 3d 81 c5 12 be
       0.12374957 0.015430097 0.11017732 -0.14333154
0002e0 f3 ef b5 bd e2 a9 71 3d 17 16 10 be ae 44 56 bd
       -0.08883657 0.058999904 -0.14070927 -0.05231159
0002f0 90 ab 0e bc 28 75 f9 3a 22 90 3f 3d fc e4 b3 3d
       -0.008707896 0.0019032108 0.046768315 0.0878391
000300 84 95 33 3e 65 a3 0a 3e f7 df 2d 3e 69 4f 9e 3d
       0.17537504 0.13538893 0.16979967 0.0772999
000310 5f 7e 9b 3d f9 37 e1 3d db f3 54 3d db 39 2c bc
       0.07592463 0.10997004 0.05199037 -0.010511841
000320 72 58 0d be f0 7b 39 bd e7 84 bf 3d 37 1e d4 bd
       -0.1380327 -0.04528421 0.09351521 -0.103573255
000330 cf 25 6f 3d 67 aa c4 3d 90 c4 8f bb 8e 5c 5c 3d
       0.058385666 0.09602814 -0.0043874457 0.053799205
000340 e8 ad 80 3c ee 5b 8b 3d 1a 99 a6 3d 56 0e c2 3d
       0.015707925 0.068046436 0.081346706 0.094753906
000350 f7 ca 9a 3d 39 81 86 bb e5 69 00 bc ae 68 ca 3d
       0.07558244 -0.00410476 -0.007837747 0.09883247
000360 f6 ac 63 3d f1 87 71 3d 4a 48 9e 3d 6a 3a 44 bc
       0.05558487 0.058967534 0.07728632 -0.011976818
000370 6b 90 86 3d d0 0c 82 3d f9 c4 93 bd e3 c6 b9 3d
       0.06570514 0.063501 -0.07215304 0.09071138
000380 d8 2e 27 3e ce 51 b0 bd 01 f7 ea bd 82 db 76 bd
       0.16326463 -0.08609353 -0.114728935 -0.060267933
000390 54 47 bc 3a f7 51 bb be d9 a7 0b be c3 aa e1 bd
       0.0014364519 -0.36585972 -0.13638248 -0.11018898
0003a0 6c ab 47 be 96 a6 2f be ed d4 18 be cc fd 86 be
       -0.19498986 -0.17153391 -0.14924975 -0.26365507
0003b0 40 96 51 3d e0 f1 1e be 9a b8 8f bd 15 59 a1 3c
       0.05116868 -0.15521955 -0.07017632 0.019695798
0003c0 94 a6 79 3d 28 21 98 bc e7 4e 20 3c 2d 14 64 3c
       0.060949877 -0.018570498 0.009784437 0.013920826
0003d0 7f 59 f0 bd 68 fd 89 be d4 ab 65 bd 72 bd 42 be
       -0.1173582 -0.26951146 -0.05607207 -0.1901758
0003e0 19 31 a3 3d 70 80 27 3b c7 3c 7f bc a9 62 c6 bb
       0.07968349 0.0025558732 -0.015578455 -0.0060542417
0003f0 b7 98 02 3e ca 18 82 3d ba 25 03 bd 8e 2f 21 3e
       0.12753569 0.063523844 -0.0320184 0.15740797

bias f4 [32]
000000 dc 98 ae 3d a5 40 5c bd 2d 15 00 bd 80 89 b6 bd
       0.08525249 -0.053772587 -0.031270195 -0.08912945
000010 66 c3 b8 3c 59 4c ff bc 8c b1 fd bc b9 14 28 bd
       0.02255411 -0.031164335 -0.03096845 -0.041035388
000020 32 11 48 bd 0e 66 f8 bd ae 02 5e bd 26 bb ae bd
       -0.048844524 -0.121288404 -0.054201774 -0.085317895
000030 ea 52 8e bd fa 9e 15 be 07 83 98 bd b2 57 90 bd
       -0.06949408 -0.14611426 -0.074468665 -0.070479766
000040 e3 3a 23 3d 12 a7 2f bd f8 2d 8e bc 32 e9 9a 3c
       0.03985108 -0.04288394 -0.017355904 0.018910024
000050 d5 70 e8 bc df 46 81 bd 93 18 35 bd 67 4b 8a 3c
       -0.028374115 -0.06312346 -0.04421289 0.016881658
000060 fd a1 d9 bc 1f 1e 20 bd 7a 55 a8 bd 41 01 80 bc
       -0.0265665 -0.039091226 -0.08219428 -0.015625598
000070 60 44 eb 3b 6f 43 15 bc 08 0c 1f bd 8f 2e 30 39
       0.007179782 -0.009110316 -0.038829833 0.00016802012

weight f4 [5, 11552]
000000 f7 62 07 be e5 71 10 be 5c f5 10 be 15 1d fe bd
       -0.13221346 -0.14105947 -0.14156097 -0.12407891
000010 b3 b3 04 be eb e4 07 be 40 17 04 be 1f d8 fd bd
       -0.12959175 -0.13270919 -0.12899494 -0.123947375
000020 5f 0d 02 be 71 e3 01 be 75 a6 00 be b5 5b 00 be
       -0.12700413 -0.12684418 -0.12563498 -0.12534983
000030 e4 d9 ed bd ef 22 0a be 74 32 02 be 79 8b 0f be
       -0.11613825 -0.13489889 -0.12714559 -0.14018048
000040 96 87 00 be b1 2b 10 be e0 81 18 be 5c d7 12 be
       -0.12551722 -0.14079167 -0.14893293 -0.14339966
000050 65 32 ac bd f5 07 ba 3c b9 b0 5d 3d 5b d5 71 3e
       -0.084080495 0.022708872 0.054123614 0.23616545
000060 f1 e7 d7 3e 4d d3 7e 3e a9 02 b1 3e b8 c9 dc 3e
       0.42169145 0.24885292 0.34572342 0.4312265
000070 67 50 f2 3e 2f cf c7 3e 05 a0 f7 3e 82 c3 c1 3e
       0.47326967 0.39025256 0.48364273 0.37844473
000080 7d a0 f4 3e 40 64 ec 3e 6f da ee 3e 63 7f 1b 3f
       0.47778693 0.46170235 0.46651027 0.6074125
000090 5e ac 26 3e 2f 7e 4a 3d e8 4e 0e be d9 0a b7 bd
       0.1627669 0.049436744 -0.13897288 -0.08937616
0000a0 50 ea 8c 3d a6 8a 96 3e de fa ed 3d 5f a4 ad 3e
       0.06880629 0.29402655 0.11620115 0.33914468
0000b0 2f 33 cb 3e 0b 95 c5 3e 01 33 cc 3e 0f 42 d3 3e
       0.39687487 0.38590273 0.39882663 0.41261336
0000c0 60 24 bb 3e 3c 5b eb 3e 9a 1a ed 3e 7f ae 13 3f
       0.3655119 0.45968044 0.46309358 0.57688135
0000d0 ff 87 19 3f f7 fd 0a 3f d7 c8 23 3f f7 72 bb 3e
       0.5997314 0.5429377 0.6397833 0.3661115
0000e0 51 93 87 3e 22 a4 0f be be a7 2d bd 19 0b 76 3e
       0.2647958 -0.14027455 -0.0423963 0.24027671
0000f0 15 96 0b 3e 01 dc c1 3e cb b5 e4 3e 7d 79 f8 3e
       0.1363147 0.37863162 0.44669947 0.48530188
000100 6e f8 c5 3e ee fd ae 3e f1 db 92 3e c7 9e c9 3e
       0.386661 0.34178108 0.28683427 0.3937895
000110 3d 9b e2 3e 2a 08 dc 3e f4 fc dd 3e fe a4 f4 3e
       0.44259062 0.4297498 0.4335705 0.4778213
000120 63 a2 23 3f d5 bc 40 3f f5 b7 07 3f f0 4c 90 3e
       0.6391966 0.75288135 0.5301507 0.281837
000130 8d 42 00 be d4 e9 b0 3c dc b6 14 3e 13 67 92 3e
       -0.12525387 0.021595873 0.1452288 0.28594264
000140 c3 37 e7 3e 25 b1 d5 3e cc 51 00 3f e5 fb c6 3e
       0.4515973 0.41736713 0.5012481 0.38864055
000150 4e 9f bd 3e af 5f d7 3e 45 3e 0e 3f 76 40 a4 3e
       0.37035602 0.42065188 0.55563766 0.3208043
000160 63 88 e5 3e ab cf ae 3e ee 76 f1 3e 93 4d 11 3f
       0.44830617 0.34142813 0.4716105 0.56758994
000170 36 06 40 3f a5 9b 0e 3f c1 ec 8a 3e 07 a7 f6 bd
       0.7500948 0.55706245 0.27133754 -0.12043577
000180 6d 08 cf bd 07 df 93 3c 98 6d 9a 3e 46 65 82 3e
       -0.10109029 0.018050684 0.30161738 0.2546789
000190 2d 9f ae 3e 51 5e c9 3e b7 2c 87 3e 8b 38 c8 3e
       0.34105816 0.3932977 0.26401302 0.3910564
0001a0 88 16 08 3f c3 11 c6 3e 1e f8 c4 3e d8 d2 da 3e
       0.5315938 0.38685426 0.38470548 0.42738986
0001b0 f9 fa bf 3e 20 7b 92 3e d3 f2 b8 3e 7b f2 3b 3f
       0.37496164 0.28609562 0.3612276 0.7341687
0001c0 49 7c 3a 3f 87 61 d6 3e 84 c6 d1 bd 18 11 71 bd
       0.72845894 0.41871282 -0.10242942 -0.058854192
0001d0 c8 d6 78 3e de 8e 3b 3e fa d5 db 3e cb 36 9b 3e
       0.24300683 0.18316218 0.4293669 0.3031524
0001e0 92 9e 6a 3e 9a bb ce 3e 51 13 81 3e 74 c6 cb 3e
       0.22912052 0.40377504 0.2521005 0.39799845
0001f0 32 1e 43 3e e9 f2 c2 3e 4e e7 94 3e ea 50 98 3e
       0.19054487 0.3807595 0.2908272 0.29749233
000200 de 26 73 3e dd d5 80 3e dc 2d 22 3f 8b dd 47 3f
       0.23745295 0.25163165 0.63351226 0.7807242
000210 03 9d 84 3e d6 d0 dd bd 32 e3 d4 3c 6d 5c 62 3e
       0.2590104 -0.10830848 0.025987241 0.2210557
000220 5d 29 cf 3e b6 49 8f 3e 2d d0 93 3e 2f 9b 98 3e
       0.40461245 0.27985924 0.28869763 0.29805896
000230 4d 7d 18 3e 92 61 a2 3e 8a 35 7f 3e 63 22 9c 3e
       0.14891548 0.31715065 0.24922767 0.30494985
000240 6f cc ed 3d ad ab 27 3e 85 db 66 3e 2a 6c 21 3e
       0.11611258 0.16374083 0.22544678 0.15763918
000250 5f df 67 3e e1 dd f8 3e 7d 85 34 3f c6 65 16 3e
       0.22643803 0.4860678 0.70516187 0.14687261
000260 c0 6d 0a be bd 97 12 3e fb b4 51 3e 6d 7c ac 3e
       -0.13518429 0.14315696 0.20479195 0.3368868
000270 f4 0b ba 3e f8 fa c3 3e 44 75 1b 3e ea e5 58 3e
       0.36337245 0.3827741 0.15181452 0.21181455
000280 4e 7a 0b 3d 8a 5e 63 bb 5e dc 48 bc 67 82 2e 3d
       0.034052186 -0.00346938 -0.012259571 0.04260483
000290 65 f5 11 3d cd a9 10 3d 4e f9 4c 3e 7f a4 f9 3d
       0.035634417 0.035318185 0.20016977 0.12189578
0002a0 96 7f fc 3e a6 f1 4c 3f 63 36 b4 3e da 3a 08 be
       0.4931609 0.80056226 0.35197744 -0.133037
0002b0 a8 46 38 3d ec 4e fa 3d bd 7c ac 3e 7a d3 bf 3e
       0.044989258 0.122220844 0.33688918 0.3746603
0002c0 ca 5f b3 3e a6 8c 61 3e 3b 03 2d 3e f1 02 80 3d
       0.3503402 0.2202631 0.16895764 0.06250561
0002d0 ec 0b 91 be 07 7b 98 be 0f cb 09 be a2 5e 56 bd
       -0.28329408 -0.29781362 -0.13456367 -0.052336343
0002e0 5a a9 a4 3d 30 d5 55 3e 21 b7 87 3e 2b 96 ba 3e
       0.08040114 0.20882106 0.26506904 0.36442694
0002f0 fe f3 46 3f 2a 36 c6 3e 1f 96 d9 bd ef 73 f5 bc
       0.7771605 0.387132 -0.106243365 -0.029962508
000300 67 15 b7 3e bb 39 91 3e e1 07 03 3f 5d ab a4 3e
       0.35758516 0.28364357 0.511839 0.3216199
000310 ce 05 8c 3e 7e 2b 79 3e 2f 16 de 3d 8c 23 86 bd
       0.2734818 0.24332997 0.10844075 -0.06549749
000320 1d c3 14 be 62 2d 4a 3b a9 d5 5c 3d 5b cc 2e 3e
       -0.14527555 0.0030849804 0.0539147 0.17070143
000330 f0 83 89 3e e9 ee 0a 3e 99 b9 73 3e 64 89 3d 3f
       0.26858473 0.135677 0.23801269 0.74037766
000340 5e 1e d3 3e 46 9a fe bd d5 ab 57 bd fe 42 b4 3e
       0.41234106 -0.12431769 -0.052654106 0.3520736
000350 7a 80 c0 3e 17 4a f7 3e 61 6a c4 3e 02 94 8d 3e
       0.3759802 0.48298714 0.3836241 0.27651983
000360 3b 36 76 3e ea 48 d6 3e 77 0f 67 3e 8e c4 f3 3d
       0.24044125 0.41852504 0.22564493 0.11902724
000370 74 29 7e 3e e5 c9 88 3e b8 f9 99 3e 68 a8 af 3e
       0.248205 0.26716533 0.30073333 0.3430817
000380 57 92 b7 3e a4 ec f4 3e f6 87 60 3f 28 af bc 3e
       0.35853836 0.47836792 0.8770746 0.36852384
000390 2d b6 f9 bd 44 35 21 3d 56 f9 98 3e 72 0e d9 3e
       -0.121929504 0.03935744 0.29877728 0.42393833
0003a0 df 25 fe 3e 63 88 ca 3e bd 07 92 3e 52 62 f3 3e
       0.49638268 0.3955718 0.2852153 0.4753595
0003b0 65 e6 c8 3e c8 3e b3 3e 3a a8 7f 3e a6 c3 a2 3e
       0.39238277 0.35008836 0.24966517 0.31789893
0003c0 9a e0 73 3e 98 c3 91 3e 5a 8d d7 3e 9b eb d3 3e
       0.23816147 0.2846954 0.4210003 0.4139069
0003d0 fc b1 38 3f d1 fc 64 3f df 3a c0 3e aa bb 0a be
       0.7214658 0.8944827 0.37544915 -0.1354815
0003e0 b8 c0 33 3d d5 8b e7 3e 87 4b 71 3e e5 a3 95 3e
       0.043884963 0.4522387 0.23563968 0.29226604
0003f0 82 c8 e5 3e 3a f2 e9 3e f8 7d f6 3e de 22 b3 3e
       0.44879538 0.45692617 0.48142982 0.3498754

bias f4 [5]
000000 56 cd f5 bd 47 33 f9 bd ef e8 dc bd ec 1b d7 bd
       -0.12002055 -0.121679835 -0.10786616 -0.105033726
000010 e5 47 df bd
       -0.10902385
