archived_data/b1_r0_m8_s100--2019-03-03--165203.596044/episode_22250.model (torch_old, 268278 bytes, 8 tensors)

weight f4 [6, 6, 3, 3]
-0.0989026 0.08754997 0.0066260546 0.13156396 -0.01608827 -0.024815366 -0.011826925 0.09217939
-0.048001535 0.08726397 0.040631726 0.055727445 -0.07375326 0.016095417 -0.0406565 -0.085525386
-0.04421951 -0.03877033 0.101653 0.089128256 0.086661085 0.04580267 0.07924674 0.045926493
0.09125076 0.0565514 0.031831127 -0.06899242 -0.05695782 -0.103625044 0.039438233 0.09549007
-0.062022947 0.08206484 -0.12114667 0.04216516 0.04131832 -0.05887519 0.085367054 -0.2329938
-0.06934179 -0.23692563 -0.41550308 -0.2907938 -0.13763165 0.06947391 0.04556674 0.019732809
0.062178142 0.05168904 -0.07765338 0.11313257 -0.040214773 0.010387016 -0.09898791 0.106147885
0.07836604 -0.10956599 0.11757594 -0.06769043 0.09143104 0.023604289 -0.0793014 -0.05872479
-0.0436187 0.06753881 0.029246224 -0.041944973 0.041700356 0.04323066 0.03547435 -0.029024836
-0.00068882643 -0.059264347 0.06704554 0.060240965 0.016060887 0.062205978 0.06340183 0.07638179
0.020832563 0.087184876 -0.0047206283 0.06489658 0.011610091 0.061124444 0.09023325 -0.05302257
-0.014743537 0.09419365 0.14688833 -0.4001465 -0.32073689 0.055462163 -0.1788664 0.14303531
0.080937244 0.18731375 0.31735352 0.1370113 -0.112684034 0.04130793 0.037973672 0.05642591
-0.07452281 -0.08043772 -0.009899387 0.09689244 0.061362177 0.03201264 -0.0652231 0.100899264
0.042195097 -0.0856168 -0.1022894 0.13308746 -0.022568233 0.042851623 0.028373938 0.028007159
0.013992199 -0.018590512 -0.1638 -0.012948847 0.055396374 -0.0041795555 0.04264924 0.050571334
0.10130272 0.043738153 0.055166155 -0.13260873 0.031531088 0.08765528 0.029162556 -0.038927376
-0.08389048 -0.049961805 -0.014928535 -0.021312818 0.11138584 -0.04168068 0.024843767 0.037637815
0.04592931 0.038835302 0.19798918 0.1458199 0.21735813 -0.32472903 0.12187714 0.16302253
-0.16963714 0.007197095 -0.039770737 0.021611195 -0.030989345 -0.02276144 -0.12653123 -0.013222273
0.01801431 -0.100309335 0.09874566 0.12700939 0.12426171 0.11717251 -0.06729436 -0.0028953254
-0.12759839 -0.023696266 -0.095670134 -0.023598982 -0.012328193 0.032410774 0.037898533 0.011018856
-0.020341689 0.0029439265 -0.012439366 0.039418016 0.04604968 0.08036161 0.11283493 0.111864254
0.13828522 0.113926485 0.057480868 0.09208445 0.13150287 0.059393436 -0.047799125 0.077635184
-0.035260238 -0.1284027 -0.08459376 -0.12803987 -0.07306849 -0.12930039 0.040226955 0.18735741
-0.29900667 -0.051117778 -0.40653253 -0.25944504 0.17732072 0.22678106 -0.32015926 0.018221866
-0.061030857 0.052521896 -0.10410797 0.03043232 0.019997729 0.12770787 -0.03980948 0.03561321
0.08847006 0.12129402 0.021177188 0.020337582 0.10143301 0.12190831 -0.039347313 0.05337149
0.049739152 0.010460375 -0.036485717 0.022020789 -0.036407355 -0.020534655 0.04764443 -0.091449596
-0.11470081 -0.073006205 -0.022973094 0.0009804523 0.052205633 0.0020763043 0.007074163 0.056831304
0.0025875433 -0.030464726 -0.10207734 0.118190646 0.05884725 0.062719986 -0.05224768 -0.023546048
-0.11159935 -0.123616554 -0.10416311 -0.10653592 0.07968904 0.17880379 0.31352064 0.075505935
00000000: 728d cabd 664d b33d 601f d93b b4b8 063e
00000010: 8ccb 83bc 9849 cbbc b8c5 41bc 8cc8 bc3d
00000020: 429d 44bd 74b7 b23d 746d 263d 7642 643d
00000030: f30b 97bd 89da 833c 6e87 26bd ef27 afbd
00000040: 841f 35bd a3cd 1ebd 732f d03d e088 b63d
00000050: 5e7b b13d 959b 3b3d 1d4c a23d 6b1d 3c3d
00000060: aee1 ba3d 71a2 673d 5b61 023d e64b 8dbd
00000070: 9a4c 69bd 5e39 d4bd fc89 213d 4c90 c33d
00000080: c60b 7ebd 9c11 a83d bf1b f8bd 60b5 2c3d
00000090: 663d 293d 1c27 71bd ecd4 ae3d ed95 6ebe
000000a0: 1203 8ebd a29c 72be d2bc d4be ede2 94be
000000b0: 50ef 0cbe 5648 8e3d 31a4 3a3d b3a6 a13c
000000c0: 82ae 7e3d e3b7 533d bc08 9fbd 0db2 e73d
000000d0: 3fb8 24bd 4e2e 2a3c 2cba cabd 1064 d93d
000000e0: 607e a03d 2264 e0bd a8cb f03d 48a1 8abd
000000f0: 3240 bb3d c85d c13c c668 a2bd 6889 70bd
00000100: 86a9 32bd ca51 8a3d c795 ef3c 7ece 2bbd
00000110: fecd 2a3d a212 313d 8d4d 113d 7ec5 edbc
00000120: 5c92 34ba 2cbf 72bd 2c4f 893d 3bbf 763d
00000130: 1f92 833c b2cb 7e3d d2d8 813d 0e6e 9c3d
00000140: 0da9 aa3c fc8d b23d 80af 9abb 80e8 843d
00000150: 4038 3e3c a05d 7a3d 36cc b83d 322e 59bd
00000160: e08e 71bc 9ae8 c03d e569 163e 01e0 ccbe
00000170: a037 a4be 4b2c 633d c128 37be d977 123e
00000180: 6dc2 a53d 2dcf 3f3e 297c a23e b14c 0c3e
00000190: e3c6 e6bd 8132 293d 488a 1b3d db1e 673d
000001a0: 6a9f 98bd 88bc a4bd 0a31 22bc 8b6f c63d
000001b0: e856 7b3d b01f 033d b093 85bd 46a4 ce3d
000001c0: c4d4 2c3d dc57 afbd 1b7d d1bd 1448 083e
000001d0: 04e1 b8bc 2f85 2f3d 7670 e83c 456f e53c
000001e0: 893f 653c 214b 98bc 30bb 27be 6727 54bc
000001f0: 4fe7 623d a7f4 88bb f8b0 2e3d e323 4f3d
00000200: cd77 cf3d c726 333d e8f5 613d 95ca 07be
00000210: be26 013d 9d84 b33d 50e6 ee3c 5072 1fbd
00000220: c6ce abbd c0a4 4cbd d096 74bc 3898 aebc
00000230: 421e e43d 5cb9 2abd 2885 cb3c 1c2a 1a3d
00000240: 5f20 3c3d c411 1f3d adbd 4a3e d051 153e
00000250: 2193 5e3e e242 a6be b99a f93d 61ef 263e
00000260: 5cb5 2dbe 9cd5 eb3b a4e6 22bd f609 b13c
00000270: 5edd fdbc 3376 babc 6791 01be 3ca2 58bc
00000280: bf92 933c fb6e cdbd 2a3b ca3d c00e 023e
00000290: ec7c fe3d 24f8 ef3d a0d1 89bd 80bf 3dbb
000002a0: 27a9 02be ac1e c2bc b4ee c3bd a752 c1bc
000002b0: 30fc 49bc 29c1 043d 7e3b 1b3d 6f88 343c
000002c0: 9da3 a6bc e4ee 403b 7cce 4bbc c974 213d
000002d0: 979e 3c3d a194 a43d 0016 e73d 1619 e53d
000002e0: a49a 0d3e 4a52 e93d 0f71 6b3d c696 bc3d
000002f0: b0a8 063e 8846 733d 04c9 43bd 32ff 9e3d
00000300: 0a6d 10bd ff7b 03be 7e3f adbd e21c 03be
00000310: efa4 95bd 5267 04be 05c5 243d 9fda 3f3e
00000320: 6717 99be e060 51bd 0825 d0be fbd5 84be
00000330: 9093 353e 4b39 683e eaeb a3be 0646 953c
00000340: 7efb 79bd 3321 573d 8f36 d5bd 334d f93c
00000350: 47d2 a33c dac5 023e 440f 23bd 28df 113d
00000360: ca2f b53d 0069 f83d c87b ad3c 009b a63c
00000370: 1cbc cf3d 10ab f93d a62a 21bd 109c 5a3d
00000380: 48bb 4b3d fe61 2b3c 0c72 15bd f164 b43c
00000390: e11f 15bd 4b38 a8bc ce26 433d ed49 bbbd
000003a0: 42e8 eabd 4784 95bd 1232 bcbc 8582 803a
000003b0: 93d5 553d 9b12 083b 61ce e73b f1c7 683d
000003c0: c693 293b 2991 f9bc ed0d d1bd f00d f23d
000003d0: d009 713d 5673 803d aa01 56bd a4e3 c0bc
000003e0: 338e e4bd ad2a fdbd 7853 d5bd 812f dabd
000003f0: 0234 a33d 5718 373e c785 a03e dba2 9a3d

bias f4 [6]
-0.10857046 -0.12584348 0.082779065 -0.18155912 0.002963901 -0.05794553
00000000: 305a debd 1ddd 00be 1288 a93d a2ea 39be
00000010: 023e 423b 4b58 6dbd

weight f4 [16, 6, 3, 3]
-0.18552375 -0.003325292 -0.08090776 -0.015092741 -0.002545023 -0.15413423 -0.15833594 -0.021518443
0.10856761 -0.0698331 0.07683673 0.15251459 -0.12893915 -0.10185892 -0.13374458 -0.019331092
-0.08872564 -0.095999524 0.10970396 0.147896 0.0025524022 0.053940665 0.068221584 0.09527469
0.009763506 0.08996212 0.21681355 -0.013561264 -0.15094881 -0.009292896 0.14605984 0.04851092
0.06674436 -0.04739434 -0.23099592 0.24813564 -0.048952244 -0.010380384 -0.080916144 0.035316195
-0.04825809 0.09965497 -0.060358852 -0.038059935 0.121763885 0.041235294 -0.15626226 0.14657013
-0.052223623 -0.0004979297 0.06379862 0.09715424 -0.0252448 0.071109824 -0.12424293 -0.04308989
0.1024321 0.014841913 0.060816735 -0.01389017 -0.097175926 0.123122394 0.09443997 0.0564718
0.014069467 -0.19895318 -0.099271014 0.05905286 -0.06640811 -0.018798718 0.09605364 0.10080648
0.10577189 -0.21319826 0.016036708 -0.098774776 -0.15035129 0.24028157 -0.17373317 0.018938394
0.063604906 0.18036348 0.17516722 0.16439566 0.16427375 0.04616668 0.13726975 0.04481361
-0.19173697 0.110529035 0.095025145 0.07146585 0.04608467 0.047049105 -0.02793709 -0.14884672
0.061032597 -0.09892043 -0.19310251 0.16704151 -0.20895422 -0.094806544 0.08760276 -0.13217387
0.03484407 -0.15370296 0.054151613 0.16840348 -0.022090156 0.052371502 -0.21909687 -0.20683482
0.11110521 -0.014561448 -0.022527901 0.020910071 0.073715396 -0.05724712 -0.13686587 0.12127453
-0.0051365737 -0.0046760156 0.11490089 -0.14846908 -0.086808115 -0.14282897 -0.088040315 0.06452736
-0.22765492 -0.13257201 -0.0593989 -0.1521997 0.097317 0.02081925 -0.0007678072 0.12401758
-0.14266862 -0.047830973 -0.016622495 -0.23408572 -0.16959853 -0.2127033 -0.0950377 0.024303705
-0.11767842 -0.045185793 -0.22833687 0.038473774 -0.04286486 0.06333001 0.045186605 -0.07578291
0.07571294 0.029743236 0.20112133 0.0024517651 -0.0555191 0.16517445 -0.0027325256 0.073882
-0.17603202 -0.03456761 -0.013691977 -0.23572472 0.064738184 -0.09516771 -0.115094 0.043883257
-0.17610556 -0.0537714 -0.13646558 -0.023593815 0.11378036 0.06821886 0.13376753 -0.024451805
0.10733545 -0.0014064033 0.17005233 0.0040523377 -0.2600312 -0.20449969 -0.14356859 -0.08003177
-0.070239075 -0.0014717887 -0.036472972 -0.18420476 -0.032451853 -0.107742555 0.020783667 0.024874358
0.2616159 -0.21823274 -0.3352981 0.1414983 -0.13684194 -0.18360971 -0.044456184 0.1125772
-0.043251127 -0.13802558 -0.08011009 -0.0216555 -0.13111661 0.06990882 0.12126146 -0.04199884
-0.18191713 -0.3022933 0.038572118 -0.17919187 -0.032075085 -0.1532945 -0.17112504 -0.18180954
-0.06848623 -0.051217943 -0.021414094 0.009780706 0.20129828 0.12372692 0.07084261 -0.06208585
-0.035742152 0.0419657 -0.07072507 -0.017924605 -0.11324257 0.0013007959 0.061028525 0.025947455
0.07171264 0.194278 -0.27074912 -0.030580577 -0.031522416 -0.28576317 0.0901839 -0.07891514
0.11779961 0.059920195 -0.020231444 -0.05747868 0.21658608 -0.12658064 -0.027675314 -0.108263455
-0.030200697 0.17603177 0.015951317 0.14890625 -0.04627191 -0.0032996628 0.105371356 -0.1242258
00000000: f0f9 3dbe 24ed 59bb f8b2 a5bd 8b47 77bc
00000010: 67ca 26bb 5dd5 1dbe d122 22be 7247 b0bc
00000020: b258 de3d a804 8fbd 935c 9d3d c92c 1c3e
00000030: a008 04be 699b d0bd 57f4 08be 3d5c 9ebc
00000040: cab5 b5bd 669b c4bd 78ac e03d 0d72 173e
00000050: 3446 273b e3f0 5c3d c2b7 8b3d 601f c33d
00000060: 1df7 1f3c 0f3e b83d 5f04 5e3e 1030 5ebc
00000070: 5392 1abe 3b41 18bc b690 153e 63b3 463d
00000080: 44b1 883d 9120 42bd 328a 6cbe 4517 7e3e
00000090: 2682 48bd 7c12 2abc 5db7 a5bd b7a7 103d
000000a0: 46aa 45bd e817 cc3d d83a 77bd bce4 1bbd
000000b0: 585f f93d 57e6 283d 3703 20be 7b16 163e
000000c0: 70e8 55bd 7f87 02ba daa8 823d cdf8 c63d
000000d0: 2fce cebc 07a2 913d 1473 febd 067f 30bd
000000e0: ecc7 d13d 7f2b 733c f81a 793d 9893 63bc
000000f0: 2c04 c7bd 9827 fc3d be69 c13d f94e 673d
00000100: 9f83 663c 62ba 4bbe 9a4e cbbd 69e1 713d
00000110: fa00 88bd c5ff 99bc c5b7 c43d a173 ce3d
00000120: ef9e d83d a550 5abe 6a5f 833c 6e4a cabd
00000130: b0f5 19be 5f0c 763e 1ce7 31be b124 9b3c
00000140: 4a43 823d 34b1 383e 095f 333e 5657 283e
00000150: 6137 283e 4619 3d3d 7190 0c3e 7a8e 373d
00000160: b256 44be 0c5d e23d 8b9c c23d b05c 923d
00000170: 47c3 3c3d 90b6 403d 53dc e4bc 466b 18be
00000180: 51fd 793d cb96 cabd aabc 45be ee0c 2b3e
00000190: 18f8 55be ef29 c2bd 1369 b33d 9658 07be
000001a0: a8b8 0e3d 4f64 1dbe 15ce 5d3d f671 2c3e
000001b0: 6af6 b4bc 8083 563d ee5a 60be 82cc 53be
000001c0: 218b e33d 2493 6ebc 6f8c b8bc 994b ab3c
000001d0: 19f8 963d f57b 6abd 9126 0cbe c85e f83d
000001e0: b450 a8bb 4339 99bb 2851 eb3d 4708 18be
000001f0: 74c8 b1bd c241 12be 7b4e b4bd ec26 843d
00000200: 5f1e 69be f5c0 07be 434c 73bd 3dda 1bbe
00000210: 234e c73d 228d aa3c ab46 49ba eefc fd3d
00000220: b917 12be 69ea 43bd e62b 88bc 2bb4 6fbe
00000230: 3dab 2dbe e5ce 59be 20a3 c2bd 9018 c73c
00000240: 6201 f1bd bd14 39bd 24d1 69be ad96 1d3d
00000250: 1093 2fbd 2ab3 813d 9715 393d 1234 9bbd
00000260: 630f 9b3d 16a8 f33c c0f2 4d3e cbad 203b
00000270: ff67 63bd 7e23 293e 2c14 33bb 724f 973d
00000280: bd41 34be c496 0dbd 5054 60bc d261 71be
00000290: 7495 843d 4ae7 c2bd 67b6 ebbd eebe 333d
000002a0: 0455 34be 663f 5cbd a2bd 0bbe d147 c1bc
000002b0: ad05 e93d 54b6 8b3d 5bfa 083e 274f c8bc
000002c0: b0d2 db3d 1057 b8ba 3322 2e3e 79c9 843b
000002d0: cf22 85be 5e68 51be a503 13be b2e7 a3bd
000002e0: 81d9 8fbd 09e9 c0ba af64 15bd 2ca0 3cbe
000002f0: 3cec 04bd 21a8 dcbd 8242 aa3c 4fc5 cb3c
00000300: 85f2 853e 6778 5fbe 31ac abbe eee4 103e
00000310: 4b20 0cbe 2f04 3cbe b017 36bd e08e e63d
00000320: 1828 31bd 9456 0dbe c210 a4bd e066 b1bc
00000330: 6f43 06be 5b2c 8f3d ee57 f83d fa06 2cbd
00000340: 7c48 3abe 30c6 9abe ccfd 1d3d 137e 37be
00000350: 2a61 03bd 3cf9 1cbe 673b 2fbe 482c 3abe
00000360: 8242 8cbd e8c9 51bd 9c6c afbc 413f 203c
00000370: 2321 4e3e 8a64 fd3d ee15 913d bb4d 7ebd
00000380: 5d66 12bd 3ae4 2b3d 4ed8 90bd 9fd6 92bc
00000390: b8eb e7bd 787f aa3a 0cf9 793d c28f d43c
000003a0: 14de 923d d0f0 463e a19f 8abe 1e84 fabc
000003b0: a61d 01bd 8d4f 92be 56b2 b83d 439e a1bd
000003c0: ec40 f13d e16e 753d 6abc a5bc c46e 6bbd
000003d0: bec8 5d3e 5b9e 01be 57b7 e2bc 3bb9 ddbd
000003e0: 7467 f7bc ac41 343e 56ac 823c e17a 183e
000003f0: 9d87 3dbd 283f 58bb f0cc d73d 196a febd

bias f4 [16]
-0.01626183 0.0019707982 0.044560518 0.026822496 -0.014518995 -0.110507205 -0.02366154 0.040013436
-0.081621364 0.03302658 0.04893374 0.019060265 -0.095520064 0.07542881 0.025883159 0.11834161
00000000: 8837 85bc 8228 013b 1785 363d daba db3c
00000010: 14e1 6dbc 9a51 e2bd d9d5 c1bc 21e5 233d
00000020: 1a29 a7bd e146 073d bf6e 483d 4624 9c3c
00000030: 06a0 c3bd 6c7a 9a3d eb08 d43c 165d f23d

weight f4 [32, 16, 3, 3]
-0.11652767 -0.21064433 -0.17792203 -0.009938924 0.03199894 -0.03416191 -0.13458337 -0.011151331
-0.104099095 -0.22349927 -0.12792607 0.10160089 -0.041945506 -0.0008185601 0.2190919 0.030063841
0.12136335 0.17963871 -0.12180942 -0.07395241 -0.14010471 -0.09020137 0.013714774 0.087087646
0.016704177 0.12031767 0.06363932 -0.035367675 -0.07412377 -0.0062356167 0.03167715 0.1409549
0.03820938 0.04869167 0.1293579 0.019796437 -0.09050292 -0.034401327 0.048767343 -0.19193219
-0.11956683 0.028164078 -0.050582927 0.0460029 0.020907462 -0.07718461 -0.045179404 -0.029061146
-0.21111335 -0.047731474 0.08184884 -0.10354854 -0.2318878 -0.1401509 0.027569627 -0.10451682
-0.26577914 -0.11469973 -0.1864857 -0.39754596 0.002623893 -0.017941695 -0.31428304 -0.05813183
-0.17743 -0.06128518 -0.016410857 -0.06511866 -0.0137015665 -0.0055490118 0.044945717 -0.013689427
-0.27087343 -0.044900384 -0.19301365 -0.011887271 -0.11388733 -0.15518002 -0.112173244 -0.23101334
-0.30189997 -0.15339217 -0.059449203 0.05856535 -0.08131389 0.085625686 0.031946212 0.04032036
-0.038189646 -0.035470802 -0.0934518 0.012298656 0.0061319987 -0.087706015 0.030953124 0.19008538
-0.07347024 -0.014534453 0.06040407 -0.11762671 0.017629411 0.0868754 0.11181232 0.035698045
0.05005182 0.030199124 0.03325138 0.14333342 -0.02648215 -0.034990147 -0.06798992 0.08942271
0.0062471 0.06722822 0.11350998 0.23208733 0.051659938 -0.10626441 -0.019985802 -0.066476494
-0.019316114 0.07653011 0.026218472 -0.021390568 -0.031623695 -0.0016411861 -0.106734104 -0.13674273
-0.041206658 -0.046583965 0.061793335 0.029303655 -0.056732304 0.01607331 -0.09501064 -0.07991724
-0.021287607 -0.08220472 -0.019507488 -0.063884154 0.10418493 0.029847562 0.02896056 0.00025660128
0.048132952 0.092031494 -0.22560443 0.12978783 0.014104778 -0.020625524 0.0051690387 0.0040012277
0.07516967 0.06538013 0.05118388 0.011269527 0.08485566 0.04245906 -0.040053774 0.0482328
0.021687696 0.017869163 0.0035929524 0.0964366 -0.025101112 0.0917146 0.074712165 -0.014041637
0.049193345 0.0047991686 0.027992295 -0.06721082 -0.06179346 -0.13172439 -0.11348682 -0.13600329
-0.1197133 -0.024332095 0.05690259 -0.013725823 0.14830911 0.038004406 0.13038869 -0.087157376
-0.049039144 0.08940217 -0.15704887 -0.0150083685 0.01441018 0.009908702 0.024560833 0.09530907
0.19749781 0.15011017 0.16406298 0.090055734 0.08793003 0.11460311 0.06984458 0.033580374
-0.09850266 -0.009807772 0.11566132 -0.013015731 0.07785387 0.14058605 0.07122333 0.047934555
0.0071226056 0.062231213 0.0806177 0.09711286 0.07538148 0.0074064 -0.005446683 0.10268141
0.045871913 0.037783626 0.07162787 -0.014010962 0.0630416 0.058467288 -0.061900146 0.08548405
0.15511543 -0.017953202 -0.04448885 0.024347771 -0.072703056 -0.16745417 -0.0405678 -0.008795305
-0.068755396 -0.050569177 0.013481429 -0.032977436 0.03994096 -0.02993662 -0.05558505 0.018885871
0.086441085 0.00080845953 -0.012643506 0.039306417 -0.04450875 -0.16782199 -0.007793975 -0.13411465
0.11588767 0.079953484 0.040223178 -0.013210739 0.14239533 0.08457355 0.00087837374 0.1788754
00000000: 0fa6 eebd 26b3 57be 3131 36be ded6 22bc
00000010: 5211 033d 5ced 0bbd 39d0 09be 12b4 36bc
00000020: e831 d5bd fedc 64be 0dff 02be 2114 d03d
00000030: 0dcf 2bbd a394 56ba a159 603e 7248 f63c
00000040: 598d f83d 36f3 373e 3877 f9bd 5c74 97bd
00000050: 9c77 0fbe 7fbb b8bd eeb3 603c 025b b23d
00000060: 33d7 883c 1c69 f63d 5555 823d b2dd 10bd
00000070: 34ce 97bd 2554 ccbb e6bf 013d 7b56 103e
00000080: 7081 1c3d eb70 473d 6676 043e 232c a23c
00000090: 9859 b9bd 68e8 0cbd 44c0 473d df89 44be
000000a0: 74df f4bd 5ab8 e63c 0b30 4fbd 896d 3c3d
000000b0: 2046 ab3c f712 9ebd 0a0e 39bd a411 eebc
000000c0: 192e 58be 1482 43bd 5da0 a73d 4211 d4bd
000000d0: ff73 6dbe b883 0fbe b3d9 e13c ea0c d6bd
000000e0: 3414 88be b1e7 eabd 1bf6 3ebe 258b cbbe
000000f0: 9ff5 2b3b 76fa 92bc b5e9 a0be a41b 6ebd
00000100: 36b0 35be 2b06 7bbd 1070 86bc ef5c 85bd
00000110: 897c 60bc 7cd4 b5bb 0019 383d 9e49 60bc
00000120: ecaf 8abe 77e9 37bd 5fa5 45be d4c2 42bc
00000130: c33d e9bd 83e7 1ebe 16bb e5bd c38e 6cbe
00000140: a292 9abe d612 1dbe 0281 73bd 38e2 6f3d
00000150: e687 a6bd 855c af3d 08da 023d f626 253d
00000160: bf6c 1cbd d549 11bd a863 bfbd 4d80 493c
00000170: efee c83b 369f b3bd 6891 fd3c bea5 423e
00000180: 9177 96bd ea21 6ebc 426a 773d 46e6 f0bd
00000190: 8e6b 903c bbeb b13d dcfd e43d 1d38 123d
000001a0: 2303 4d3d 2764 f73c 9932 083d ffc5 123e
000001b0: 18f1 d8bc d451 0fbd 4d3e 8bbd 4123 b73d
000001c0: 79b4 cc3b f3ae 893d ec77 e83d 4da8 6d3e
000001d0: 5f99 533d 28a1 d9bd 44b9 a3bc d424 88bd
000001e0: d43c 9ebc d1bb 9c3d 1fc8 d63c 463b afbc
000001f0: d987 01bd 111d d7ba 6997 dabd 4906 0cbe
00000200: 50c8 28bd d4ce 3ebd 021b 7d3d 380e f03c
00000210: 2260 68bd 2dac 833c f094 c2bd a6ab a3bd
00000220: 5963 aebc f35a a8bd 2bce 9fbc b2d5 82bd
00000230: e95e d53d e082 f43c b23e ed3c 7188 8639
00000240: 0f27 453d 027b bc3d d904 67be 1ae7 043e
00000250: ba17 673c dcf6 a8bc 0a61 a93b bb1c 833b
00000260: 8ef2 993d 05e6 853d 30a6 513d d2a3 383c
00000270: cec8 ad3d 8de9 2d3d 6d0f 24bd c28f 453d
00000280: 65aa b13c 5a62 923c bd77 6b3b 8d80 c53d
00000290: d9a0 cdbc ddd4 bb3d b102 993d e50e 66bc
000002a0: f67e 493d 5842 9d3b 1950 e53c d4a5 89bd
000002b0: 241b 7dbd c2e2 06be c76b e8bd 7244 0bbe
000002c0: 3f2c f5bd 1a54 c7bc b112 693d 46e2 60bc
000002d0: 58de 173e 82aa 1b3d 9d84 053e 917f b2bd
000002e0: 45dd 48bd 7c18 b73d 6bd1 20be a9e5 75bc
000002f0: ad18 6c3c 1c58 223c cd33 c93c 6731 c33d
00000300: de3c 4a3e 7bb6 193e 2000 283e 246f b83d
00000310: a914 b43d 09b5 ea3d ad0a 8f3d 938b 093d
00000320: c3bb c9bd c7b0 20bc d8df ec3d ef3f 55bc
00000330: da71 9f3d caf5 0f3e 8add 913d 0657 443d
00000340: bf64 e93b 28e6 7e3d e51a a53d 1be3 c63d
00000350: 9b61 9a3d 63b1 f23b 177a b2bb a24a d23d
00000360: 30e4 3b3d 01c3 1a3d a2b1 923d 3c8e 65bc
00000370: f41b 813d 657b 6f3d 028b 7dbd 4312 af3d
00000380: 94d6 1e3e 9812 93bc f139 36bd fa74 c73c
00000390: 57e5 94bd 1b79 2bbe 6c2a 26bd 2f1a 10bc
000003a0: a1cf 8cbd a021 4fbd 36e1 5c3c 5913 07bd
000003b0: 2299 233d a43d f5bc 26ad 63bd 8bb6 9a3c
000003c0: 0608 b13d cdee 533a b526 4fbc c4ff 203d
000003d0: cf4e 36bd 87d9 2bbe 9a64 ffbb 5a55 09be
000003e0: 8456 ed3d a7be a33d 0fc1 243d db71 58bc
000003f0: 15d0 113e e634 ad3d aa42 663a 1d2b 373e

bias f4 [32]
0.06514421 -0.040880833 -0.028178612 -0.08276459 0.028799284 -0.026539702 -0.013561852 -0.037560705
-0.03992185 -0.088475086 -0.0466196 -0.05144722 -0.056571312 -0.10624069 -0.06979208 -0.059720345
0.03868001 -0.033483446 -0.020294026 0.015324498 -0.01998471 -0.023357686 -0.041404374 0.011287779
-0.026086621 -0.028234698 -0.08219428 0.013340335 0.018164808 -0.0044546975 -0.034757312 -0.0009556297
00000000: 546a 853d a972 27bd d5d6 e6bc 7b80 a9bd
00000010: 7aec eb3c ca69 d9bc 8832 5ebc 41d9 19bd
00000020: 1885 23bd 6d32 b5bd 32f4 3ebd 52ba 52bd
00000030: 52b7 67bd b894 d9bd 26ef 8ebd 529d 74bd
00000040: ee6e 1e3d f025 09bd a83f a6bc 9a13 7b3c
00000050: f9b6 a3bc 9e58 bfbc a297 29bd 60f0 383c
00000060: 9cb3 d5bc 744c e7bc 7a55 a8bd 6c91 5a3c
00000070: 5dce 943c b6f8 91bb af5d 0ebd 3983 7aba

weight f4 [5, 11552]
-0.096176706 -0.10033557 -0.10016777 -0.08520613 -0.093108706 -0.09465607 -0.08771748 -0.08636576
-0.09280739 -0.09266611 -0.08747313 -0.08440595 -0.07583516 -0.09678039 -0.08684224 -0.09507418
-0.08209784 -0.10183238 -0.105461374 -0.09205485 -0.051452443 0.04381856 0.079512164 0.14427722
0.16198781 0.10918801 0.15903571 0.14140205 0.27324384 0.19889554 0.26613164 0.2551863
0.18693115 0.13202843 0.19288774 0.27450442 0.15354837 0.049436744 -0.08424586 -0.0111123165
0.08357125 0.2198199 0.06274713 0.17585245 0.09535287 0.16354445 0.18240903 0.23159999
0.19653445 0.18112856 0.21251117 0.2575866 0.37779808 0.28888416 0.23723638 0.10596772
0.21157312 -0.09379803 -0.069287255 0.099121645 0.14094904 0.17471859 0.15549058 0.115395784
0.20191337 0.14888625 0.19488147 0.1456578 0.122420125 0.23182507 0.15854765 0.23873246
0.31205833 0.33853358 0.22627613 0.21476226 -0.08106743 -0.07836505 0.12833847 0.19031522
0.26163444 0.094531894 0.10257493 0.14312872 0.20385556 0.1969533 0.21885708 0.16838956
0.20981479 0.176656 0.24965355 0.31016454 0.20967007 0.32202235 0.1910746 -0.08165365
-0.08362703 0.029818173 0.20692949 0.18474081 0.18530308 0.13881265 0.1090811 0.22155969
0.22736 0.23216644 0.13568382 0.1042769 0.13825957 0.13301541 0.15998484 0.336946
0.37822676 0.23383278 -0.065000646 -0.009568086 0.15187146 0.10678027 0.17175254 0.16203217
0.04085998 0.15684788 0.18360326 0.14944437 0.022408029 0.1057736 0.05971722 0.12989841
0.16330622 0.17103496 0.28961307 0.3760557 0.21705598 -0.06966778 0.046095412 0.1438323
0.17066239 0.25806943 0.1526379 0.11111669 0.13300478 0.08441244 0.062403586 0.08769777
0.023926442 0.06973748 0.14860213 0.18016742 0.10335721 0.18863933 0.2720171 0.13525519
-0.09481752 0.0075576613 0.14648682 0.15202554 0.22988683 0.16864881 0.0614802 0.063448906
-0.040255282 -0.020582022 0.058382686 0.044273753 0.08056593 -0.00078050315 0.069473706 0.06477085
0.14045386 0.3534808 0.20636927 -0.08697318 -0.08002956 0.15129754 0.20830646 0.06015817
0.09218221 0.12050691 0.10222601 -0.022688804 -0.18209727 -0.07879312 -0.048462592 -0.08931025
0.01946997 0.088634185 0.111964665 0.10467113 0.3201051 0.24857883 -0.05901342 -0.04402986
0.1999402 0.14963765 0.08514035 0.15311284 0.16897616 0.16184996 -0.0054123253 -0.15765396
-0.060969204 -0.045798432 -0.014625299 0.0049574883 0.034991127 0.11442867 0.12728852 0.1432872
0.2296694 -0.07832634 -0.035082385 0.1452535 0.21547052 0.13447373 0.16548483 0.11253558
0.078956574 0.10755279 0.020353727 0.054662853 0.04628038 0.065302365 0.09008649 0.14110248
0.15179513 0.15001732 0.32077873 0.2321182 -0.0789227 0.03160506 0.116549686 0.15317464
0.21814251 0.18656291 0.094957635 0.12960286 0.08299189 0.011242414 0.069178954 0.061003074
0.16853233 0.092442885 0.12539373 0.14964207 0.27545404 0.20666684 0.27621838 -0.0837152
-0.077522166 0.18624116 0.10466324 0.12487907 0.1837757 0.16184717 0.16464536 0.15205716
00000000: 4bf8 c4bd bc7c cdbd c324 cdbd 8d80 aebd
00000010: c7af bebd 0bdb c1bd 39a5 b3bd 88e0 b0bd
00000020: cd11 bebd bbc7 bdbd 1d25 b3bd 07dd acbd
00000030: 774f 9bbd cc34 c6bd 58da b1bd 40b6 c2bd
00000040: ea22 a8bd 7f8d d0bd 22fc d7bd 4187 bcbd
00000050: ccbf 52bd 177b 333d 46d7 a23d 68bd 133e
00000060: 22e0 253e f79d df3d 42da 223e b3cb 103e
00000070: 9ee6 8b3e 46ab 4b3e 6842 883e c7a7 823e
00000080: e16a 3f3e 7632 073e 5d84 453e d88b 8c3e
00000090: c93b 1d3e 2f7e 4a3d 1889 acbd 6f10 36bc
000000a0: 6727 ab3d 7818 613e 9181 803d aa12 343e
000000b0: 5e48 c33d 3278 273e 6fc9 3a3e 8c28 6d3e
000000c0: 5440 493e c479 393e 879c 593e 64e2 833e
000000d0: c06e c13e a0e8 933e 18ee 723e 9b05 d93d
000000e0: a0a6 583e 2e19 c0bd 7ae6 8dbd 4a00 cb3d
000000f0: f254 103e 6ee9 323e ec38 1f3e a054 ec3d
00000100: 61c2 4e3e a375 183e 028f 473e 5127 153e
00000110: 67b7 fa3d 8d63 6d3e 515a 223e 4876 743e
00000120: 1cc6 9f3e 4654 ad3e eeb4 673e a3ea 5b3e
00000130: ae06 a6bd db7d a0bd 296b 033e fee1 423e
00000140: f3f4 853e f099 c13d ce12 d23d 5690 123e
00000150: 83bf 503e 20ae 493e 121c 603e 506e 2c3e
00000160: b0d9 563e 4fe5 343e 2ea5 7f3e e3cd 9e3e
00000170: c0b3 563e 1de0 a43e 0fa9 433e 073a a7bd
00000180: a644 abbd 3e45 f43c 53e5 533e b22c 3d3e
00000190: 17c0 3d3e e724 0e3e e965 df3d 8be0 623e
000001a0: 0fd1 683e 0abd 6d3e b3f0 0a3e 218f d53d
000001b0: eb93 0d3e 3135 083e 11d3 233e 3084 ac3e
000001c0: f0a6 c13e dc71 6f3e 0f1f 85bd 76c3 1cbc
000001d0: 3184 1b3e 9daf da3d e6df 2f3e c3eb 253e
000001e0: cb5c 273d bb9c 203e 7e02 3c3e f207 193e
000001f0: 0b91 b73c d49f d83d 0b9a 743d 1704 053e
00000200: bf39 273e ca23 2f3e 2a48 943e 5f8a c03e
00000210: ec43 5e3e fbad 8ebd 8bce 3c3d c648 133e
00000220: 1fc2 2e3e ad21 843e 1c4d 1c3e 2691 e33d
00000230: 6832 083e 6ee0 ac3d e79a 7f3d e39a b33d
00000240: 6301 c43c 86d2 8e3d 282b 183e cf7d 383e
00000250: f2ac d33d ab2a 413e d345 8b3e 5680 0a3e
00000260: b02f c2bd 42a6 f73b a400 163e 95ac 1b3e
00000270: 7467 6b3e 46b2 2c3e aad2 7b3d 80f1 813d
00000280: b9e2 24bd a19b a8bc af22 6f3d 6558 353d
00000290: c0ff a43d ae9a 4cba 3b48 8e3d 94a6 843d
000002a0: 23d3 0f3e 6ffb b43e 7752 533e ff1e b2bd
000002b0: 8ae6 a3bd beed 1a3e 4a4e 553e 6a68 763d
000002c0: 07ca bc3d 54cc f63d df5b d13d dfdd b9bc
000002d0: b577 3abe 4a5e a1bd b680 46bd 4be8 b6bd
000002e0: 7d7f 9f3c d785 b53d bb4d e53d d15d d63d
000002f0: d1e4 a33e 738b 7e3e 0eb8 71bd a858 34bd
00000300: 20bd 4c3e 9d3a 193e 105e ae3d 9dc9 1c3e
00000310: 1608 2d3e ffbb 253e e059 b1bb 0a70 21be
00000320: d8ba 79bd 2397 3bbd f39e 6fbc 6d72 a23b
00000330: db52 0f3d 9459 ea3d ec57 023e e1b9 123e
00000340: 752e 6b3e 8f69 a0bd 8cb2 0fbd 55bd 143e
00000350: 4ea4 5c3e 7bb3 093e db74 293e 0e79 e63d
00000360: fcb3 a13d a344 dc3d dcbc a63c 28e6 5f3d
00000370: 7f90 3d3d 3fbd 853d 447f b83d 2b7d 103e
00000380: 2f70 1b3e 249e 193e 1c3d a43e 65b0 6d3e
00000390: 39a2 a1bd 4f74 013d 9ab1 ee3d d0d9 1c3e
000003a0: c060 5f3e 590a 3f3e 2679 c23d 9db6 043e
000003b0: a7f7 a93d 1a32 383c b2ad 8d3d 5cde 793d
000003c0: bd93 2c3e b252 bd3d 3767 003e c53b 193e
000003d0: 5008 8d3e 79a0 533e 7f6c 8d3e e072 abbd
000003e0: f1c3 9ebd 01b6 3e3e ae59 d63d 99c0 ff3d
000003f0: b22f 3c3e 44bb 253e cb98 283e dfb4 1b3e

bias f4 [5]
-0.09570768 -0.08906187 -0.06686549 -0.055450086 -0.0699015
00000000: 6302 c4bd 1266 b6bd c6f0 88bd a11f 63bd
00000010: 8528 8fbd
