archived_data/b1_r0_m8_s100--2019-03-03--165203.596044/episode_13000.model (torch_old, 268278 bytes, 8 tensors)

weight f4 [6, 6, 3, 3]
000000 72 8d ca bd 66 4d b3 3d 60 1f d9 3b b4 b8 06 3e
       -0.0989026 0.08754997 0.0066260546 0.13156396
000010 8c cb 83 bc 98 49 cb bc b8 c5 41 bc 8c c8 bc 3d
       -0.01608827 -0.024815366 -0.011826925 0.09217939
000020 42 9d 44 bd 38 48 e6 3d 95 94 3b 3d 10 4c 93 3c
       -0.048001535 0.112442434 0.045795996 0.017980605
000030 94 03 84 bd 5f d5 2d 3d d6 d7 23 bd 1f 03 ab bd
       -0.06445995 0.042439815 -0.04000076 -0.08350205
000040 c5 ef 20 bd 92 e8 1f bd ad a7 06 3e f9 22 dd 3d
       -0.039291162 -0.039040156 0.131499 0.10797686
000050 8b 64 88 3d 25 ef 51 3d fd 30 08 3e 10 cd 07 3d
       0.06659802 0.051253457 0.13299938 0.033154547
000060 49 98 bd 3d 92 0d b1 3d 2e e8 18 b9 e6 4b 8d bd
       0.09257562 0.086451665 -0.00014582343 -0.06899242
000070 9a 4c 69 bd 5e 39 d4 bd fc 89 21 3d 4c 90 c3 3d
       -0.05695782 -0.103625044 0.039438233 0.09549007
000080 c6 0b 7e bd 9c 11 a8 3d bf 1b f8 bd 60 b5 2c 3d
       -0.062022947 0.08206484 -0.12114667 0.04216516
000090 09 e8 84 3d 5b 52 27 bc 30 f7 50 bd ed 84 77 be
       0.0648957 -0.010212506 -0.051016986 -0.24171801
0000a0 69 ab 42 bd a1 67 3b be 1b a1 d7 be 35 5f 9b be
       -0.04752675 -0.1830125 -0.421151 -0.30346075
0000b0 ee 48 08 be c3 7f bb 3d c9 95 30 3d 42 28 97 3c
       -0.1330907 0.09155228 0.043111596 0.018451814
0000c0 18 f0 39 3d da 96 d2 3c f2 46 cb bd 78 21 f2 3d
       0.045394987 0.025706697 -0.09925641 0.1182279
0000d0 f0 4d 0c bd 35 0a ed bb 2c ba ca bd 10 64 d9 3d
       -0.034254014 -0.007233883 -0.09898791 0.106147885
0000e0 60 7e a0 3d 22 64 e0 bd a8 cb f0 3d 48 a1 8a bd
       0.07836604 -0.10956599 0.11757594 -0.06769043
0000f0 32 40 bb 3d c8 5d c1 3c c6 68 a2 bd 0c b2 8c bd
       0.09143104 0.023604289 -0.0793014 -0.06869897
000100 07 3c 73 bd 3c 0e 5b 3d 01 bc 3b 3d 00 af d3 bc
       -0.05938342 0.05348037 0.04583359 -0.025840282
000110 86 80 82 3d 2f b0 43 3d 7b 53 59 3d 0c fd 36 bc
       0.0637217 0.047775444 0.05305813 -0.0111687295
000120 e2 c3 c8 bc c4 60 62 bd 75 54 41 3d 00 94 42 3d
       -0.024507467 -0.055268064 0.047199685 0.047504425
000130 58 d4 b9 3b 1e d9 92 3d 67 ad 92 3d ed 3a 90 3d
       0.0056710653 0.07170318 0.0716198 0.07042489
000140 41 0f e0 3c fc 8d b2 3d 80 af 9a bb 80 e8 84 3d
       0.027351024 0.087184876 -0.0047206283 0.06489658
000150 40 38 3e 3c a0 5d 7a 3d 36 cc b8 3d 32 2e 59 bd
       0.011610091 0.061124444 0.09023325 -0.05302257
000160 e0 8e 71 bc 9a e8 c0 3d 34 19 29 3e 7c 79 c5 be
       -0.014743537 0.09419365 0.1651352 -0.38569248
000170 df 53 ad be 47 43 10 3e b6 b5 26 be 07 75 41 3e
       -0.3385305 0.14088164 -0.16280255 0.18892299
000180 3e 10 88 3d 0b 02 45 3e 06 42 97 3e 8e 90 0b 3e
       0.06643723 0.1923906 0.2954256 0.13629362
000190 c8 e7 ab bd 94 cb 95 3d b2 28 89 3c 2b c1 79 3d
       -0.08393818 0.0731422 0.016743038 0.060975235
0001a0 58 10 90 bd c8 43 96 bd b9 b7 a0 bb f7 0c b8 3d
       -0.07034367 -0.07337147 -0.004904714 0.08986848
0001b0 e8 56 7b 3d b0 1f 03 3d b0 93 85 bd 46 a4 ce 3d
       0.061362177 0.03201264 -0.0652231 0.100899264
0001c0 c4 d4 2c 3d dc 57 af bd 1b 7d d1 bd 14 48 08 3e
       0.042195097 -0.0856168 -0.1022894 0.13308746
0001d0 04 e1 b8 bc 23 d8 3a 3d b1 b7 35 3d 3e ae 15 3d
       -0.022568233 0.04561628 0.044364635 0.036543123
0001e0 14 9a 5a 3b 8a 4d d4 b9 65 64 2c be ab 49 82 bc
       0.0033355998 -0.00040493562 -0.16835172 -0.015904268
0001f0 76 de 8d 3d b7 c0 25 3c 37 18 76 3d 5e 38 9a 3d
       0.06927197 0.010116748 0.060081687 0.075302824
000200 25 79 ba 3d d8 6d 58 3d c4 5c 3c 3d e7 5c e7 bd
       0.09105138 0.05283913 0.045986906 -0.112970166
000210 61 18 05 3d a0 33 e3 3d 35 c4 b4 3c 50 72 1f bd
       0.032493953 0.11093831 0.022066215 -0.038927376
000220 c6 ce ab bd c0 a4 4c bd d0 96 74 bc 38 98 ae bc
       -0.08389048 -0.049961805 -0.014928535 -0.021312818
000230 42 1e e4 3d 5c b9 2a bd 28 85 cb 3c 1c 2a 1a 3d
       0.11138584 -0.04168068 0.024843767 0.037637815
000240 81 49 cc bc 8c 7d 84 bb c9 46 43 3e 46 dc 2e 3e
       -0.024937393 -0.0040432867 0.19069971 0.17076215
000250 77 13 31 3e 07 25 a8 be e0 19 ae 3d 40 15 40 3e
       0.17292581 -0.3284075 0.08501029 0.18758106
000260 9c 8e 11 be 98 f2 06 3d ee f5 55 ba 9e 9e f6 3c
       -0.14214557 0.0329462 -0.00081619516 0.030104931
000270 fe 50 42 bd 0a 7d 84 bd f0 fb 22 be 28 5d 47 bd
       -0.04744052 -0.06469162 -0.15916419 -0.048672825
000280 2b af ea 3c 90 d1 c4 bd 2a 3b ca 3d c0 0e 02 3e
       0.02864798 -0.096102834 0.09874566 0.12700939
000290 ec 7c fe 3d 24 f8 ef 3d a0 d1 89 bd 80 bf 3d bb
       0.12426171 0.11717251 -0.06729436 -0.0028953254
0002a0 27 a9 02 be ac 1e c2 bc b4 ee c3 bd 63 0b dc bc
       -0.12759839 -0.023696266 -0.095670134 -0.026860898
0002b0 55 09 d9 38 31 00 28 3d 41 78 32 3d f3 9a 36 3c
       0.000103491046 0.041015808 0.043571714 0.011145341
0002c0 4f 06 9f bc f5 ef 83 bb 44 b8 4c bc 22 08 36 3d
       -0.019412188 -0.004026408 -0.012495104 0.04444135
0002d0 4d 89 3e 3d b7 e1 af 3d b3 ea e1 3d 03 74 ab 3d
       0.04651766 0.085879736 0.110310934 0.08371737
0002e0 92 17 a0 3d 47 5c 87 3d 76 ab a9 3c 49 45 68 3d
       0.07816996 0.066093974 0.020711642 0.0567067
0002f0 4a 45 eb 3d 88 46 73 3d 04 c9 43 bd 32 ff 9e 3d
       0.11487825 0.059393436 -0.047799125 0.077635184
000300 0a 6d 10 bd ff 7b 03 be 7e 3f ad bd e2 1c 03 be
       -0.035260238 -0.1284027 -0.08459376 -0.12803987
000310 ef a4 95 bd 52 67 04 be 82 f6 59 3d ca 64 38 3e
       -0.07306849 -0.12930039 0.053213604 0.18007198
000320 7d ef 92 be d2 16 aa bd 1a 9a d5 be bd 66 84 be
       -0.2869834 -0.08305134 -0.41719133 -0.25859633
000330 18 f3 06 3e 41 5d 21 3e 71 44 a5 be da 8c d4 3c
       0.1317867 0.1575823 -0.3227878 0.02594607
000340 78 13 57 bd 9e 42 7b 3d 70 fd 08 be a1 0f 45 3d
       -0.0525088 0.061342828 -0.13377929 0.048110608
000350 5e ed 27 3d d4 1a ea 3d ab db 45 bd 1b 8f ed 3c
       0.040997855 0.11430898 -0.048305195 0.028998902
000360 ca 2f b5 3d 00 69 f8 3d c8 7b ad 3c 00 9b a6 3c
       0.08847006 0.12129402 0.021177188 0.020337582
000370 1c bc cf 3d 10 ab f9 3d a6 2a 21 bd 10 9c 5a 3d
       0.10143301 0.12190831 -0.039347313 0.05337149
000380 48 bb 4b 3d 45 23 24 3d b3 11 7f bd 15 a8 c8 3d
       0.049739152 0.0400727 -0.06227274 0.09797684
000390 81 01 7a bd 0d 01 19 bd ac 05 bd 3d 20 e0 8b bc
       -0.06103659 -0.037354518 0.092295974 -0.017074645
0003a0 07 d9 f6 bc 45 4f a8 bc df 89 81 3d 0f 46 64 bd
       -0.030132784 -0.020545611 0.06325125 -0.055730876
0003b0 2d cc 04 3d 30 60 2f bd 5e 84 b0 bc ae c3 48 3d
       0.03242128 -0.04281634 -0.021547493 0.04901474
0003c0 1f 8c 8b bd ae ee 4c bd a3 9c 38 bd f0 0d f2 3d
       -0.06813835 -0.05003231 -0.045071255 0.118190646
0003d0 d0 09 71 3d 56 73 80 3d aa 01 56 bd a4 e3 c0 bc
       0.05884725 0.062719986 -0.05224768 -0.023546048
0003e0 33 8e e4 bd ad 2a fd bd 78 53 d5 bd 81 2f da bd
       -0.11159935 -0.123616554 -0.10416311 -0.10653592
0003f0 5c 2b 51 3e ac 71 d9 3c 62 02 97 3e 96 da ce 3d
       0.20426697 0.02654346 0.29494005 0.10100286

bias f4 [6]
000000 b2 4e e1 bd bb fc dd bd a8 c1 b2 3d cf 16 2b be
       -0.11001338 -0.1083922 0.08728343 -0.1670792
000010 44 a3 7b 3c 61 2c 6b bd
       0.01535875 -0.05741537

weight f4 [16, 6, 3, 3]
000000 4b f7 08 be e4 82 8f 3d e6 2b 88 3c 1c 6d 12 3d
       -0.13375585 0.07007387 0.016622495 0.035748586
000010 4f d5 66 bd e5 bc d8 bd 8e ce 39 be 0a 6e 8a bd
       -0.05635577 -0.10582904 -0.181452 -0.067592695
000020 48 c4 c2 3d 76 f1 b5 3b 91 e8 05 3e 71 7f 25 3e
       0.09510094 0.005552466 0.13076998 0.16161896
000030 11 4f fa bd e7 fc 89 bc 50 33 59 bd e5 fa a5 bd
       -0.12222112 -0.016844226 -0.05302745 -0.08104495
000040 60 10 8e bc 45 60 8e bd 62 1f f2 3d 1e a2 10 3e
       -0.017341793 -0.06951956 0.11822392 0.14124343
000050 fc a1 b8 bc e4 05 9e 3d 01 18 94 3d 00 0e c3 3d
       -0.022538178 0.07715967 0.07231141 0.09524155
000060 18 39 8a bc 59 82 ad 3d b9 7e 5c 3e 67 92 59 3d
       -0.016872928 0.084721275 0.21532716 0.053118136
000070 f5 bb b2 bd b7 d2 20 bd 0f 52 53 3e 66 34 dc 3d
       -0.08727256 -0.039263453 0.20636772 0.10752182
000080 e9 f4 26 3d ad a5 15 be 54 f8 43 be fd 22 6f 3e
       0.04076091 -0.14613982 -0.19137698 0.2335319
000090 c4 c6 8d 3c c6 dd 02 bd b5 35 cb bd 73 57 66 3a
       0.017306693 -0.03194978 -0.09922353 0.00087868347
0000a0 e4 cf 03 bd 01 90 8a 3d 35 fc 5c bd 8c 34 03 bd
       -0.03218068 0.06765748 -0.05395146 -0.032032534
0000b0 25 e0 0d 3e ad 02 cc 3c 03 ba c2 bd 83 43 1d 3e
       0.13855036 0.02490362 -0.09508135 0.15357785
0000c0 5e 2c 0e be 9f 03 64 bc b3 1b a8 3c 7a 09 8c 3d
       -0.13884112 -0.013916879 0.02052102 0.06837745
0000d0 22 b1 46 bd a0 66 99 3c 5e 09 25 be d6 00 8f bd
       -0.04850877 0.018725693 -0.16116855 -0.06982581
0000e0 a2 95 fa 3d 75 38 68 3c 20 da 6c 3d db ad 74 bb
       0.122355714 0.014173617 0.057825208 -0.0037335071
0000f0 49 b1 bf bd fd 9c c9 3d b4 3a bf 3d d2 9b ca 3d
       -0.09359986 0.09844396 0.093373686 0.098930016
000100 de d7 b4 3c 62 5b 49 be b3 83 7e bd 9f 04 29 3d
       0.02207559 -0.19663766 -0.062137317 0.041264173
000110 7a 01 56 bd cc f8 b6 bd d2 21 80 3d f1 80 df 3d
       -0.052247502 -0.08934173 0.06256451 0.109132655
000120 80 11 95 3d 74 d5 64 be 8f d2 da 3b db 33 1b be
       0.072787285 -0.22347051 0.0066779326 -0.151565
000130 8c 8c 1e be 81 b3 6d 3e 65 5d 37 be f7 e1 e1 bc
       -0.15483302 0.23213007 -0.17906721 -0.027573569
000140 4e f0 58 3d 20 a8 3e 3e 72 52 31 3e aa 85 3f 3e
       0.052963547 0.18618822 0.17316607 0.18703333
000150 96 f3 10 3e 00 b0 d4 3c be 29 10 3e 78 c0 21 3d
       0.1415542 0.02596283 0.14078423 0.039490193
000160 6c 15 60 be a7 d3 af 3d db ea b3 bb e5 c8 53 3d
       -0.21883172 0.08585291 -0.0054906434 0.05170526
000170 73 48 a4 3d 6e 42 02 bc c9 21 9d bd c9 0d 0f be
       0.08021631 -0.007950408 -0.0767246 -0.13970102
000180 94 da a6 3d 82 a1 08 be 30 bf 14 be 59 0b 34 3e
       0.08147159 -0.1334286 -0.14526057 0.17582454
000190 d3 c4 51 be a4 4b d9 bd ee 19 f7 3d 43 a8 04 be
       -0.20485239 -0.106101304 0.120654926 -0.12954812
0001a0 4f 9e 9f 3c b9 d6 a2 bd 98 ce 87 3d 0c 7a 32 3e
       0.019484667 -0.07951111 0.066312015 0.1742937
0001b0 ae 77 98 ba c2 47 41 3d 97 2e 41 be 76 6f 3f be
       -0.0011632347 0.047187574 -0.18865429 -0.18694863
0001c0 11 24 ac 3d 73 95 6a bc 05 a3 8a 3b 27 8e 79 bc
       0.084053166 -0.014317858 0.004230859 -0.015231646
0001d0 c4 9a 60 3d 58 22 bb bd 18 71 2b be 38 c8 c1 3d
       0.054835096 -0.0913741 -0.1674236 0.09462017
0001e0 fc fa f8 bb 31 ff 43 3d c8 13 04 3e c9 e7 04 be
       -0.007598279 0.04785079 0.12898171 -0.12979044
0001f0 4b c1 7e bc e3 74 0b be c9 cd 02 be 5c 3e 78 3d
       -0.015549014 -0.13618807 -0.12773813 0.060606346
000200 48 60 0c be 75 9e e5 bd 67 7f 93 bc 9e ff e0 bd
       -0.13708603 -0.11211864 -0.018005086 -0.10986255
000210 ad 53 10 3e 02 2e 30 3d 30 8f 37 3c 59 11 be 3d
       0.1409442 0.043012626 0.011203572 0.092806526
000220 36 d8 12 be e4 4e 02 bd 03 49 cd bc f6 71 6b be
       -0.1434029 -0.031813517 -0.025059229 -0.22992691
000230 51 8c 45 be 1e b2 4f be 68 67 c6 bd 1c 89 6d 3c
       -0.19291808 -0.2028279 -0.09687692 0.014498021
000240 3e 0e cf bd 13 99 3b bd 87 ee 4d be 73 7a ef 3d
       -0.10110138 -0.04580028 -0.20110522 0.11693277
000250 d3 90 86 3a 0a 1e 04 3d cc 34 04 3e d0 18 c1 bd
       0.001026655 0.03225521 0.12910765 -0.09428561
000260 98 d3 1e 3d 2d b0 4f 3c f4 6b 57 3e 1a 1e 55 3c
       0.03877601 0.012676281 0.21037275 0.013007665
000270 d9 c9 b5 bd ff 1f 29 3e e7 b1 e5 bc c2 3e 9b 3d
       -0.0887639 0.16516112 -0.028038932 0.075803295
000280 93 16 22 be ad 68 3a bd c0 47 e2 bc ef 5a 58 be
       -0.15828924 -0.045509983 -0.027622104 -0.21128438
000290 d9 0c 96 3d 9f fc b9 bd 68 2f 21 be 76 99 a6 3c
       0.07326669 -0.09081387 -0.1574074 0.020336848
0002a0 fc 68 86 be f9 07 97 bd 80 33 24 be 35 76 32 bc
       -0.26251972 -0.073745675 -0.1603527 -0.010892441
0002b0 f6 aa f0 3d 59 48 1f 3d 9d 10 18 3e 66 f5 60 bc
       0.11751358 0.038887355 0.14850087 -0.013730383
0002c0 e0 e9 d6 3d 38 ef ff 3c a9 59 38 3e 62 6f f2 bb
       0.10493827 0.031241998 0.18002953 -0.007398532
0002d0 fa 0f 64 be a1 ef b1 bd 9c 90 b0 bd 6e 0f 32 bd
       -0.2227172 -0.08688284 -0.08621332 -0.043471746
0002e0 74 b5 fc 3c 21 9f 49 3d 91 c6 26 3d 73 0b 9a bd
       0.030848242 0.049224023 0.04071671 -0.07521715
0002f0 18 c3 17 3c b4 dd 7a bd d7 6b 17 3d 9c 97 e2 3d
       0.009262823 -0.06124659 0.03696808 0.110640734
000300 dd 25 17 3e 24 56 43 be 73 c3 89 be ff 11 be 3d
       0.14760537 -0.19075829 -0.26906928 0.09280776
000310 90 50 59 be 24 da 46 be da f5 88 bd e4 ae 00 3e
       -0.21222138 -0.19419152 -0.066875175 0.12566715
000320 92 8b 8c bc 77 d7 cd bd 5c 41 d8 bd 4a df 9f bc
       -0.017156396 -0.10050862 -0.10559341 -0.019515652
000330 6d 6e c8 bd c0 92 af 3d fd 59 09 3e df e1 05 be
       -0.09786687 0.08572912 0.13413234 -0.13074444
000340 16 68 02 be f8 0a 44 be a7 ff 11 bd 25 65 6c be
       -0.12735018 -0.19144809 -0.0356442 -0.23085459
000350 6f ad 10 3d 8b b7 4d be 52 ec 2d be 9c 6e 19 be
       0.03532165 -0.20089547 -0.1698468 -0.149836
000360 83 98 32 bd 57 34 33 bd aa 99 b7 bc 8a 86 d6 3c
       -0.043602478 -0.043751087 -0.02241214 0.0261872
000370 5c 5d 4d 3e fd c2 ef 3d e1 a4 e0 3d 43 f8 2f bd
       0.20055145 0.11707113 0.10968948 -0.04296137
000380 58 28 8c bc b3 33 88 3b 7d b4 b7 bd 7c 2b c2 bc
       -0.017109081 0.0041565537 -0.08969972 -0.023702376
000390 a4 43 23 be 5b bf 35 3b 8c c6 5e 3d 60 f2 0d bd
       -0.15943772 0.0027732465 0.054388568 -0.034654975
0003a0 e9 53 83 3d da 13 17 3e 44 5e 81 be 3b 81 8a bd
       0.06412489 0.14753667 -0.2526723 -0.0676293
0003b0 aa 2f e8 bd 6a 75 9f be 78 f4 c2 3c f0 29 ae bd
       -0.11337216 -0.31144267 0.023798212 -0.08504093
0003c0 c8 48 e4 3d 60 33 ac 3d 4e d3 10 3d a1 d8 0c bd
       0.111466944 0.084082365 0.035357766 -0.03438628
0003d0 7a db 46 3e 91 a8 ca bd bd e6 1f bd 5d e8 c0 bd
       0.19419661 -0.09895433 -0.03903841 -0.0941932
0003e0 e0 d8 7b bd a7 ae 33 3e 92 ce b0 3b 06 48 48 3e
       -0.061486125 0.17547093 0.005395719 0.19558725
0003f0 d8 7c 03 be 27 24 8a bd f6 62 08 3d 79 6d 19 be
       -0.12840593 -0.06745177 0.0332975 -0.14983167

bias f4 [16]
000000 33 62 a0 bc 6c 59 82 3b 02 1e 55 3d 8d 11 7d 3c
       -0.019578075 0.003977945 0.05203057 0.015446079
000010 0d 89 b9 3b 05 21 d1 bd fa 9b 0c bc 16 68 b6 3c
       0.0056620897 -0.10211376 -0.00858211 0.022266429
000020 26 c5 83 bd 76 98 fc 3c 8e b9 d9 3c a4 7f 18 3d
       -0.064340875 0.030834418 0.026577737 0.037231103
000030 03 91 a1 bd 3f aa d5 3d 95 62 dd 3c 33 cc d3 3d
       -0.07888987 0.104328625 0.027024547 0.10341682

weight f4 [32, 16, 3, 3]
000000 a8 09 25 bd 3f 2d 1a be ad ef 02 be e2 44 96 3c
       -0.040292412 -0.15056323 -0.12786742 0.018343393
000010 8c 33 a5 3c f3 24 ec 3c a7 b4 b4 bd 3f 67 d8 3c
       0.020166181 0.028826213 -0.08823519 0.02641642
000020 57 f9 59 bd 47 ac 14 be 1c a4 52 bd 86 c8 c3 3d
       -0.053216305 -0.14518844 -0.05142604 0.09559731
000030 c1 ce 95 3d 05 c2 ed 3c 36 2b 33 3e 93 8f 66 3d
       0.07314826 0.02902318 0.17496952 0.056289267
000040 6a 62 8a 3d 9c aa f7 3d e6 3e ba bd e2 a4 5f bd
       0.06757052 0.12093088 -0.09094028 -0.054600604
000050 32 06 02 be d8 aa a0 bd a6 79 4e 3c c2 30 9a 3d
       -0.12697676 -0.07845086 0.012602245 0.07528831
000060 27 09 ea 3c 45 81 01 3e 19 41 07 3d e7 e7 b1 bc
       0.028568817 0.12646969 0.033021066 -0.021717025
000070 9f 74 d8 bd e5 c7 86 bc 0f 75 9f 3c 54 cd a7 3d
       -0.10569119 -0.016452739 0.019464998 0.0819346
000080 d6 57 c9 3c 60 74 2e bb 2c ca 67 3d b1 6f 5e bc
       0.024578016 -0.0026619658 0.05658929 -0.013576434
000090 dc ce 77 bd 2b 94 41 bd 95 78 c0 3c 17 b4 0c be
       -0.06050001 -0.047260445 0.023494998 -0.13740574
0000a0 93 dc 83 bd 07 d4 38 3d 94 33 b6 bc 78 aa 8d 3d
       -0.064385556 0.04512408 -0.022241391 0.0691728
0000b0 f0 51 41 3c f6 e9 9e bd 1e 4d 00 be 02 6a 7f bd
       0.011799321 -0.07759468 -0.12529418 -0.062356956
0000c0 87 85 23 be 2e 61 e5 bd f5 6a 48 3d 13 7f e1 bd
       -0.15968905 -0.11200176 0.048930127 -0.110105656
0000d0 14 fa c8 bd f3 7f 0c be 59 73 38 3d 1b 4a 53 bd
       -0.098133236 -0.13720684 0.04503188 -0.051584344
0000e0 bb 69 4d be e9 18 8d bd 0e 09 20 be d0 42 9c be
       -0.20059864 -0.06889517 -0.15628454 -0.30519724
0000f0 5b cb be 3c 50 e1 77 3b 4a e8 78 be b8 26 09 bd
       0.023290327 0.0037823506 -0.24307361 -0.03348419
000100 16 71 27 be f3 72 8a bd 48 a2 a4 bb b7 70 90 bd
       -0.16351733 -0.06760206 -0.0050242282 -0.07052749
000110 8b 22 36 bd 9c f2 9c 3c d8 58 5d 3d 60 1c c4 bc
       -0.044466536 0.019158654 0.054039806 -0.023939312
000120 04 d7 5f be f8 25 04 be 5c 7d 30 be 23 e1 ce 3c
       -0.21859366 -0.12905109 -0.17235321 0.025253838
000130 8d e0 dc bd c5 7b 6b be dc 88 0e bd c0 2d 18 be
       -0.10785017 -0.22996433 -0.034798488 -0.14861202
000140 2f 58 8c be 7d fe f2 bd 85 76 9b bd 71 12 1b 3d
       -0.2741103 -0.11864946 -0.07590965 0.037859384
000150 29 47 9a bd e8 4a 81 3d e2 1a 8f 3a 75 1d 10 3d
       -0.07533104 0.06313115 0.0010918046 0.035184342
000160 5b 80 36 bd c3 dc df bc b6 43 49 bd c5 d7 95 bc
       -0.044556003 -0.027326947 -0.04913684 -0.018291363
000170 d0 ed 40 bc a4 74 0c bd 69 fc bc 3b ed 18 02 3e
       -0.011775449 -0.034290925 0.0057673943 0.12704821
000180 83 69 91 bd 9f 8d 58 bd dd 7d db 3c ce 20 a3 bd
       -0.07100203 -0.052869435 0.026793415 -0.079652414
000190 c1 ea bf 3c d0 f9 b9 3d 8f db af 3d c0 73 82 3c
       0.02342737 0.09080851 0.08586799 0.015924335
0001a0 2c 32 4b 3d 8e 73 02 3d 9c 1a 87 3b 26 c9 45 3e
       0.049608395 0.031848483 0.004123045 0.19315013
0001b0 97 29 25 3c 10 eb f3 bd 8f 06 01 be 2a 16 bf 3d
       0.010080717 -0.11910069 -0.12600158 0.09330399
0001c0 21 55 a7 bc 86 b6 6e 3d 40 f1 fd 3c 41 e3 fb 3d
       -0.020426335 0.058279537 0.030998826 0.122992046
0001d0 c2 f5 1d bd c0 23 a3 bd 4e ef 5b bc 75 01 4f bd
       -0.03856445 -0.07965803 -0.013423754 -0.0505385
0001e0 38 70 86 bc 9e f5 87 3d 36 7e f0 3c 6f 5c fc bb
       -0.016410932 0.06638645 0.029357057 -0.0077014486
0001f0 0f 27 f6 bc 52 38 f6 bb e5 60 df bd 9d 87 10 be
       -0.030047921 -0.007514038 -0.10907153 -0.14114232
000200 92 76 85 bd 7e 44 ab bd d0 40 29 3d f7 e4 5e 3c
       -0.06516756 -0.08362673 0.041321576 0.013604394
000210 90 e0 88 bd 51 fa 94 3b c3 d1 bf bd 5d 10 49 bd
       -0.06683457 0.0045464416 -0.09366181 -0.04908787
000220 50 32 36 bb c1 2c 9b bd bb 06 35 bc ae 62 a5 bd
       -0.0027800985 -0.075768955 -0.011048968 -0.08075462
000230 90 22 a0 3d 7e c4 3b 3d a5 bb 06 3d 27 4f 21 bc
       0.07819092 0.045841686 0.032893796 -0.009845532
000240 3e 4b 3d 3d a5 02 b2 3d 05 b4 53 be f5 5e 09 3e
       0.046214335 0.08691911 -0.20674141 0.1341513
000250 8d 6e 84 3b 8c 87 5c 3c be ab 89 3c 5d 97 b3 bc
       0.004041499 0.013460051 0.016805526 -0.021922762
000260 ff 5f f7 3d b6 9e 7e 3d 5a 01 49 3d 82 81 0e 3d
       0.12078857 0.062163077 0.049073555 0.034791477
000270 a4 c0 a5 3d 3f 01 d8 3c d1 7e df bc 69 1d 06 3d
       0.08093384 0.026367782 -0.02728215 0.03274289
000280 60 dc ef 3b 95 d0 ae 3c 21 58 17 3d 38 a2 fb 3d
       0.007319972 0.021339694 0.03694928 0.122868
000290 78 1e ff bc af fc dd 3d 87 58 cc 3d 16 5a 6f bb
       -0.031142458 0.10839211 0.09977823 -0.0036522201
0002a0 2e 1b 7b 3d 7b 7a 37 3c f5 5d 2d 3d 07 51 0f bd
       0.061305217 0.011198635 0.042325933 -0.034989383
0002b0 03 21 13 bd f0 10 b4 bd c0 19 b4 bd a7 7d c1 bd
       -0.035920154 -0.08792293 -0.08793974 -0.094477944
0002c0 7c ee b6 bd 7d 3a 86 bd cd 99 17 bb 95 6d 48 bd
       -0.08932206 -0.065541245 -0.0023132444 -0.04893263
0002d0 00 f9 1f 3e 5d 0d 0f 3d 69 ba 0c 3e c6 bd 95 bd
       0.1562233 0.034924854 0.13742985 -0.07311587
0002e0 26 5c 64 bd 8a f6 c6 3d 8f d3 0e be d7 b2 a4 bc
       -0.055751942 0.09714992 -0.1394789 -0.020104809
0002f0 ef e9 ee 3b 64 fc db 3b a6 0e ff 3c b9 a8 d3 3d
       0.0072910707 0.006713437 0.031134915 0.10334916
000300 71 eb 47 3e 81 ea 0a 3e fe 1e 17 3e 54 f8 8c 3d
       0.19523408 0.13566019 0.14757916 0.06883302
000310 54 43 9c 3d bf 1a d3 3d b4 e9 94 3d e1 8d 0d 3d
       0.07630029 0.10307836 0.07271138 0.034559134
000320 a5 cc 99 bd ae eb 1e bc 90 0d f4 3d 4b e1 2b 3c
       -0.07509736 -0.009699745 0.11916649 0.010490726
000330 4f 0b b1 3d fb 51 0f 3e 5d ac b2 3d 46 85 5a 3d
       0.08644735 0.13996117 0.08724282 0.053349756
000340 63 7c 06 3c 39 94 82 3d f8 19 ac 3d 37 5d bc 3d
       0.008208367 0.063759275 0.08403391 0.09197467
000350 18 42 98 3d ea f3 8c 3b 56 eb 5e bc 56 40 cb 3d
       0.074344814 0.0043015378 -0.013605913 0.099243805
000360 c3 b4 01 3d ae 3f d9 3c 1c f5 93 3d 7a 1b 8f bc
       0.03166653 0.026519623 0.07224485 -0.017469157
000370 10 28 62 3d 95 1d 7c 3d bc 98 80 bd 2d 30 b5 3d
       0.055213988 0.06155165 -0.06279132 0.088470794
000380 15 e6 21 3e 47 cd f7 3c ed b4 04 3c f2 66 85 3d
       0.15810426 0.030249251 0.008099777 0.06513776
000390 af b1 60 bd f2 6f bb bd b4 0a 3a bc 61 9a 83 bc
       -0.054856952 -0.09152211 -0.011355091 -0.016064825
0003a0 2b 08 85 bd 7c e2 46 bd 7b e6 c1 3c 51 4b 50 3d
       -0.064956985 -0.048555836 0.023669472 0.050853077
0003b0 a6 a2 51 3d 90 1b 51 bc ea 25 5a 3c 06 be af 3b
       0.051180504 -0.012762919 0.0133147035 0.0053632287
0003c0 40 9a d8 3d 85 43 37 3d 31 a8 3f 3b e6 61 4c 3d
       0.10576296 0.044742126 0.0029244537 0.04989805
0003d0 56 72 08 bd ff 7e 0e be ec 3e 45 3b f5 a7 f1 bd
       -0.033312164 -0.13915633 0.0030097319 -0.117996134
0003e0 53 ca e7 3d be f8 88 3d 2d b4 12 3d ea 60 05 3c
       0.11317887 0.06688069 0.03581636 0.008140782
0003f0 3b c6 1c 3e 1f 39 c6 3d a2 eb ba 3c e1 06 44 3e
       0.15309994 0.09678864 0.022817437 0.19143249

bias f4 [32]
000000 b8 f6 6b 3d 93 4c dd bc ba db 92 bc 22 07 9f bd
       0.057608336 -0.027014052 -0.01792704 -0.07765032
000010 bc 0e f0 3c eb 5e 7f bc 98 9a 52 3a 4e 67 df bc
       0.0293039 -0.015586595 0.00080339005 -0.02727094
000020 e0 dc e7 bc 9f 39 9d bd b0 34 20 bd 2d 08 f4 bc
       -0.028303564 -0.07677006 -0.039112747 -0.029789055
000030 a0 d8 47 bd 0a a4 ab bd 7a 8f 89 bd bc ef 46 bd
       -0.048790574 -0.08380897 -0.06716819 -0.048568472
000040 e0 5f 02 3d 9e 22 f9 bc 40 b1 9b bc 50 a4 d7 3c
       0.031829715 -0.030412015 -0.019005418 0.026323467
000050 e5 a0 3e 3b 2f 6f 09 3b 8e eb 17 bd 38 07 8d 3c
       0.00290876 0.0020970812 -0.037089877 0.017215356
000060 0c 4e ac bc de 61 92 bc 7a 55 a8 bd 5c dd e4 3b
       -0.02103331 -0.017868932 -0.08219428 0.006984396
000070 8e 84 c0 3c 3c d4 de 3b ab cc c3 bc cb 94 72 3c
       0.023500707 0.0068002027 -0.023901304 0.014805983

weight f4 [5, 11552]
000000 75 06 98 bd 94 01 9a bd b6 68 99 bd 3f 1c 7d bd
       -0.074231066 -0.07519832 -0.07490675 -0.061794516
000010 0e ae 8f bd a9 83 94 bd 30 3e 8d bd 78 26 8d bd
       -0.0701562 -0.07251675 -0.06896627 -0.06892103
000020 a1 95 89 bd 29 d9 83 bd 02 96 74 bd c6 35 60 bd
       -0.067179926 -0.064379044 -0.05971337 -0.054738782
000030 15 84 3d bd a5 49 89 bd ef 78 68 bd b0 78 86 bd
       -0.04626854 -0.067035 -0.056755956 -0.06565988
000040 2d d1 59 bd 19 d5 8f bd 15 c1 98 bd b5 ed 8b bd
       -0.053178 -0.07023067 -0.074587025 -0.068324484
000050 f7 b3 05 3b a4 90 4e 3b 46 df 3e 3c b2 ef ae 3d
       0.0020401457 0.0031519318 0.011649912 0.08541812
000060 74 5b be 3d 34 a2 ea 3c 4e 3e bd 3d 6c d7 c5 3b
       0.09294787 0.028641798 0.09240399 0.006037643
000070 64 ed ba 3d cb 3a 86 bc b0 4a 28 3d f8 d7 06 3e
       0.0912731 -0.016385457 0.041086853 0.13168323
000080 5c 14 db 3d c8 5e 7d 3d 28 72 af 3d c8 5d c2 3d
       0.106972426 0.06185797 0.085666955 0.094905436
000090 e3 a5 53 3d 5e 96 92 bb 9a 81 81 bd eb 55 ad 3a
       0.051671874 -0.0044734916 -0.06323548 0.0013224458
0000a0 9c ed ed 3d 3f 5c 00 3e 31 a4 b2 3d bd 76 58 3d
       0.11617586 0.12535189 0.08722723 0.052847613
0000b0 6d 90 1e 3c 85 8a 9e 3d 6e 5b 03 3e 1a 4a 07 3e
       0.0096779885 0.07741264 0.12827846 0.13211861
0000c0 d4 00 85 3d 42 12 d9 3d 07 14 0c 3e ca bd 52 3e
       0.064942986 0.105991855 0.13679515 0.20580211
0000d0 8a a1 5f 3e dd 3f 3c 3e 03 e5 1b 3e fe d2 da 3c
       0.21838966 0.18383737 0.1522408 0.026711937
0000e0 8e b9 04 3e 37 2d 94 bd 83 a1 45 bd 80 00 de 3c
       0.12961408 -0.072351865 -0.048249733 0.027099848
0000f0 76 2b 75 3d 08 1b e1 3d 1c 58 9f 3d 06 f5 b1 3d
       0.0598559 0.10991484 0.077804774 0.08689313
000100 f1 c3 b1 3d 28 15 ae 3d 65 7f f6 3d 06 21 94 3d
       0.08679951 0.08500129 0.12036017 0.07232861
000110 ae 5a e0 3d 5c ee 28 3e ed 67 ba 3d d9 7e 19 3e
       0.10954796 0.16497177 0.091018535 0.14989795
000120 68 62 3e 3e 61 b4 37 3e b6 46 0d 3e 25 7c 23 3e
       0.18592227 0.17939903 0.13796505 0.15965326
000130 33 e0 5a bd d3 6b ca b9 3e 72 ef 3d 1f 89 15 3e
       -0.05343647 -0.00038608778 0.11691712 0.14603089
000140 0e d5 10 3e 2b 12 ef 3d 31 95 0c 3e f5 89 ec 3d
       0.14143774 0.11673387 0.13728787 0.11549751
000150 f5 0a f5 3d 78 d7 fb 3d b8 76 e2 3d 03 d4 08 3e
       0.119649805 0.12296957 0.110578 0.13362126
000160 35 54 ef 3d 2d 10 d7 3d 05 ae 3d 3e 6e ce 27 3e
       0.11685983 0.10501132 0.18523414 0.1638734
000170 63 55 13 3e 6c 18 6c 3e cb 10 c1 3d 21 33 6c bd
       0.14388041 0.23056191 0.09427031 -0.057665948
000180 f1 6c 5c bd 34 55 dc 3c d4 c2 0c 3e 6d 94 d4 3d
       -0.053814832 0.026896097 0.13746196 0.103798725
000190 06 dd e7 3d 8c b5 8d 3c bc 51 86 3c 75 dd 99 3d
       0.11321454 0.017298482 0.016396396 0.07512943
0001a0 1c 11 c8 3d ed 1f 67 3d 71 ff c5 3d ae 4a 69 3d
       0.09768888 0.05642693 0.09667862 0.056955986
0001b0 9b 05 cd 3d 5a 06 b7 3d 7f 71 c6 3d db 6b 46 3e
       0.10010835 0.08936758 0.096896164 0.19377081
0001c0 e2 6d 5c 3e 69 a0 07 3e 02 2b 35 bd 04 79 38 3c
       0.21526292 0.13244785 -0.04423047 0.011259321
0001d0 39 f5 20 3e 16 7d 28 3d 97 73 b8 3d 35 93 e2 3d
       0.15718545 0.041134916 0.09006422 0.11063234
0001e0 62 41 bc 3c fa 6e 5e 3d 80 6a 84 3d 90 1b fe 3c
       0.022980396 0.054305054 0.06465626 0.031019002
0001f0 11 9f 21 bd 6c 26 3e 3d be 75 2c 3d e5 ce b9 3d
       -0.03945834 0.04642336 0.042104475 0.09072665
000200 73 3d 0a 3d 96 5c ab 3d 02 25 2c 3e 07 dd 5d 3e
       0.03375001 0.08367269 0.16810992 0.21666346
000210 17 7c 01 3e c2 0f 57 bd ad d1 08 bd a6 9c 98 3d
       0.12644993 -0.052505262 -0.033403087 0.07451753
000220 f5 26 dd 3d 85 47 f4 3d 96 e0 75 3d e3 fc 72 bb
       0.10798446 0.11927704 0.060028635 -0.0037077002
000230 b8 97 71 3d f2 a4 23 3d 96 c3 35 bc 1a ca 57 3d
       0.05898258 0.039952226 -0.011093995 0.052682973
000240 82 f6 2d 3d 42 7c 0b 3d 16 1e ce 3d d6 d4 13 3e
       0.042471416 0.03405405 0.10064332 0.14436659
000250 4c 3b 93 3d e3 70 0a 3e 0b e1 e3 3d 8c 2a 87 3d
       0.07189044 0.13519625 0.11126908 0.06599912
000260 b6 02 8b bd c5 39 32 39 e2 cb 9a 3d 0a af 2b 3e
       -0.067876264 0.00016996924 0.07558419 0.16765991
000270 73 88 f7 3c 65 ef 88 3d 22 9c 58 3c a3 7f 34 bc
       0.030216431 0.06686286 0.013220819 -0.011016759
000280 b2 85 f8 bd 29 e3 85 bd 5f bf 81 3c 6c 5e 8d bd
       -0.12134875 -0.06537468 0.015838323 -0.06902775
000290 b1 8e 18 3d db 9f a0 3c f4 33 78 3d 77 d2 9a 3d
       0.037245456 0.019607475 0.06059642 0.07559674
0002a0 9d c0 d7 3d e5 e6 05 3e 5c 63 e6 3d 3c 42 70 bd
       0.10534785 0.1307636 0.1124942 -0.058656916
0002b0 59 df 06 bd d6 17 fe 3d 77 26 70 3d f8 51 da bc
       -0.032927845 0.1240689 0.058630433 -0.026650414
0002c0 fa 32 82 3d 11 8f d6 3c 25 4d 83 bd 0d c1 91 bd
       0.06357379 0.026191266 -0.064111985 -0.071169
0002d0 f5 46 8b bd af 51 72 bd ed 96 21 bd 90 5a 2b 3d
       -0.06800643 -0.05915993 -0.039450575 0.041834414
0002e0 72 de ca bb 71 c9 b2 3b 9f 75 1a 3d a0 4f be 3d
       -0.0061910683 0.0054561426 0.03770983 0.09292531
0002f0 af 43 0d 3e 28 55 35 3d 7b 5e 1c bd cb cc 2a bd
       0.1379535 0.044270664 -0.03817604 -0.041699212
000300 6f 03 ca 3d 60 3b 94 3d 98 02 5e 3d bc ab 70 3d
       0.09863936 0.072378874 0.054201692 0.05875753
000310 66 7c 8c 3d 28 bf 08 bd 73 a7 66 bd 8b a5 31 be
       0.068596646 -0.033385426 -0.056312036 -0.17348306
000320 a8 c3 17 bd 2f 00 ff bc fd f5 95 3c 3c 95 82 3c
       -0.037051827 -0.031128017 0.018305773 0.015940301
000330 fb 1e 57 bc 4c aa a4 3d 6b 67 10 3c c6 98 fc 3c
       -0.013129945 0.08040294 0.008813719 0.030834567
000340 6f e3 c2 3d be 5c 57 bd 51 31 ec bc fb b5 86 3d
       0.09516036 -0.05257868 -0.02883211 0.06577679
000350 4b e8 d8 3d b8 a7 a5 3c d0 34 a4 3c 53 da 3f 3c
       0.10591181 0.020221576 0.020044714 0.011709767
000360 06 94 14 3d bc 73 38 3d 20 53 e5 bc b6 74 eb 3b
       0.03627398 0.045032248 -0.027993739 0.007185544
000370 2a 96 de 3c 11 29 9a 3d d0 54 92 3d 1b ce 76 3d
       0.027171213 0.07527364 0.07145083 0.06025515
000380 d6 18 37 3d 5f a6 7a 3d 08 67 df 3d e7 8c 4a 3d
       0.04470142 0.06119382 0.109083235 0.04945078
000390 29 7e 49 bd fc e7 d8 3c 6e 1c a7 3c ba 90 c7 bc
       -0.04919258 0.026477806 0.020399299 -0.024361003
0003a0 78 0a 84 3c e3 fd bb 3c 69 e3 7b 3d 82 8f b2 3d
       0.016118273 0.022948211 0.061496172 0.08718778
0003b0 91 ee a0 3d ee da c7 bc 93 98 1b bc 6b 30 9e bb
       0.07858003 -0.024396386 -0.009496826 -0.004827549
0003c0 74 e4 b4 3d 36 ce 6b 3d b6 ed c1 3d 65 e4 d1 3d
       0.088326365 0.057569705 0.09469168 0.10248641
0003d0 3a 99 00 3e 26 98 72 3d 0d a5 7c 3c af 88 62 bd
       0.12558451 0.05922713 0.015420211 -0.055306133
0003e0 51 9e 5b bd 44 3d 31 3d ca 96 0a bd f3 ba 0f bb
       -0.05361778 0.043271318 -0.03383521 -0.0021931499
0003f0 9e e3 8f 3c f4 80 5f 3d 2b ca 7b 3d 39 7f 0f 3d
       0.017564591 0.05456634 0.0614721 0.03503344

bias f4 [5]
000000 ee 11 9a bd 25 b1 7c bd a9 ea 5c bd 5d df 1b bd
       -0.07522951 -0.061692376 -0.053934727 -0.038054813
000010 25 32 47 bd
       -0.048631806
