archived_data/b1_r0_m8_s100--2019-03-03--165203.596044/episode_33500.model (torch_old, 268278 bytes, 8 tensors)

weight f4 [6, 6, 3, 3]
00000000: 728d cabd 664d b33d 601f d93b b4b8 063e
00000010: 8ccb 83bc 9849 cbbc b8c5 41bc 8cc8 bc3d
00000020: 429d 44bd 24c8 6d3d 5f6a 183d 0d99 653d
00000030: d88b 85bd 06a2 943c a65f 0abd d09e a5bd
00000040: 17ff 80bd f15f 09bd 333a bc3d ed5e a03d
00000050: 55e9 073e 642b 353d a7ea a93d 9930 9f3d
00000060: 1360 313d 72b4 1b3d 1834 de3c e64b 8dbd
00000070: 9a4c 69bd 5e39 d4bd fc89 213d 4c90 c33d
00000080: c60b 7ebd 9c11 a83d bf1b f8bd 60b5 2c3d
00000090: 2240 263c a65a 10be a548 d93d 4655 6bbe
000000a0: bdb8 d9bd f979 5fbe 877e cfbe eb90 93be
000000b0: f424 61bd 8aa6 903d 7dda f93c dffd 9a3c
000000c0: 5804 813d cfee 0f3d 01a2 99bd c306 e63d
000000d0: edd0 33bd 9668 4b3c 2cba cabd 1064 d93d
000000e0: 607e a03d 2264 e0bd a8cb f03d 48a1 8abd
000000f0: 3240 bb3d c85d c13c c668 a2bd a2c4 3dbd
00000100: 944d a4bc 9f18 873d a0d1 0b3d f171 b8bc
00000110: 5143 2d3d 8500 163d 826e 233d e909 00bc
00000120: e06c 6e3c ad2e 193d 6808 923d 00dd da3c
00000130: e80f 0c3d 6fe9 ca3d 197c 033d 1db0 713d
00000140: 04ee 873d fc8d b23d 80af 9abb 80e8 843d
00000150: 4038 3e3c a05d 7a3d 36cc b83d 322e 59bd
00000160: e08e 71bc 9ae8 c03d 3cf2 eb3d 596e c7be
00000170: 5713 8ebe c6dd a73c 2f5d 43be 4f4e 133e
00000180: 3b19 493d 6cb9 463e dd59 b43e b003 183e
00000190: 91ec d0bd fd9b 2f3d 5dba e23c c54b 4e3d
000001a0: 912e c6bd 2ba6 91bd 2edc 20bc b220 983d
000001b0: e856 7b3d b01f 033d b093 85bd 46a4 ce3d
000001c0: c4d4 2c3d dc57 afbd 1b7d d1bd 1448 083e
000001d0: 04e1 b8bc 465a 813c 23e5 943c b5bc 483c
000001e0: a35f 2ebb 991d 99bc eae0 0ebe 6d6c bebb
000001f0: 7ffb 333d 90c2 6abc 1710 c93c b731 663d
00000200: b30d c53d 68ba f33c a6d1 3a3d 56da bfbd
00000210: 6fe8 273d d088 b23d 8981 293d 5072 1fbd
00000220: c6ce abbd c0a4 4cbd d096 74bc 3898 aebc
00000230: 421e e43d 5cb9 2abd 2885 cb3c 1c2a 1a3d
00000240: 05ff 7a3d 9c40 2d3e 1181 783e 7132 c53d
00000250: d2c5 7f3e 5aeb 9cbe 2611 333e 3635 1b3e
00000260: bef6 1cbe 95c5 103c 46d7 59bd 0729 053c
00000270: 41a8 c2bc a572 12bd ed8d 3abe 0e7f 39bc
00000280: 8c07 853c 3716 aebd 2a3b ca3d c00e 023e
00000290: ec7c fe3d 24f8 ef3d a0d1 89bd 80bf 3dbb
000002a0: 27a9 02be ac1e c2bc b4ee c3bd 21ee d4bc
000002b0: 62e3 18bc ec1e 043d 1100 d43c 32d0 ac3c
000002c0: 7884 53bc 3950 fa3b 6f96 46bc 5fdf 173d
000002d0: 6341 8e3d 0894 e73d d747 0b3e 222b 193e
000002e0: f2d2 413e 8a92 233e 9d73 b63d 455b dd3d
000002f0: 5b14 1d3e 8846 733d 04c9 43bd 32ff 9e3d
00000300: 0a6d 10bd ff7b 03be 7e3f adbd e21c 03be
00000310: efa4 95bd 5267 04be 4b9d a13d c220 063e
00000320: a89e a8be be0a 2e3b c699 cabe 02c9 82be
00000330: 123c 543e 1be1 593e c073 a3be 32ec 293d
00000340: c330 30bd 8655 2b3d 2801 eebd 5ee7 0f3d
00000350: cc2d 313c a031 d73d 4460 fabc 9f18 373d
00000360: ca2f b53d 0069 f83d c87b ad3c 009b a63c
00000370: 1cbc cf3d 10ab f93d a62a 21bd 109c 5a3d
00000380: 48bb 4b3d 2d77 083d 46a6 87bb e4d0 0a3d
00000390: 81a4 69bd 1dcb 9ebc 50ae 3b3d 2ecf 8ebe
000003a0: 07ad 8ebd f866 73bd 185e 933b 7ed1 123d
000003b0: 7e56 833d 1524 62bc add9 433d 92fe 983d
000003c0: 0f00 94bb 8ea2 86bc 6b1f debc f00d f23d
000003d0: d009 713d 5673 803d aa01 56bd a4e3 c0bc
000003e0: 338e e4bd ad2a fdbd 7853 d5bd 812f dabd
000003f0: 00af 993d 2505 0c3e 64dd a33e 9f28 e13d
-0.0989026 0.08754997 0.0066260546 0.13156396 -0.01608827 -0.024815366 -0.011826925 0.09217939
-0.048001535 0.058052197 0.03721082 0.056054164 -0.06520814 0.018143665 -0.033782624 -0.08086932
-0.062986545 -0.033538762 0.09190788 0.07830606 0.13272603 0.044230834 0.082967095 0.07772941
0.043304514 0.038013883 0.02712445 -0.06899242 -0.05695782 -0.103625044 0.039438233 0.09549007
-0.062022947 0.08206484 -0.12114667 0.04216516 0.010147126 -0.1409708 0.10609559 -0.22981748
-0.10630939 -0.21823873 -0.4052622 -0.288215 -0.054966882 0.07063015 0.030499691 0.018919883
0.06299657 0.035139855 -0.07501603 0.112317584 -0.04390042 0.012415072 -0.09898791 0.106147885
0.07836604 -0.10956599 0.11757594 -0.06769043 0.09143104 0.023604289 -0.0793014 -0.0463301
-0.020056523 0.06596493 0.03413546 -0.022515269 0.042300526 0.03662159 0.03990031 -0.007814863
0.014552325 0.03739803 0.071305096 0.02671671 0.034194857 0.09907805 0.03210077 0.059005845
0.06637195 0.087184876 -0.0047206283 0.06489658 0.011610091 0.061124444 0.09023325 -0.05302257
-0.014743537 0.09419365 0.11520812 -0.38951376 -0.2774913 0.020491492 -0.19078515 0.14385341
0.049096327 0.1940667 0.3522481 0.14845157 -0.102013715 0.04287337 0.027676756 0.05036523
-0.096768506 -0.07111772 -0.00981812 0.07428111 0.061362177 0.03201264 -0.0652231 0.100899264
0.042195097 -0.0856168 -0.1022894 0.13308746 -0.022568233 0.015790116 0.018175667 0.0122520225
-0.0026607297 -0.018690871 -0.13952985 -0.005811265 0.043941017 -0.014328614 0.024543805 0.056199756
0.096217535 0.029751971 0.045610093 -0.09367816 0.04099315 0.08717501 0.0413833 -0.038927376
-0.08389048 -0.049961805 -0.014928535 -0.021312818 0.11138584 -0.04168068 0.024843767 0.037637815
0.06127836 0.16919178 0.24267985 0.096287616 0.24977806 -0.3064831 0.1748701 0.15157017
-0.153285 0.00883617 -0.053183816 0.008127457 -0.02376187 -0.035753865 -0.18218203 -0.011321796
0.01623895 -0.08500331 0.09874566 0.12700939 0.12426171 0.11717251 -0.06729436 -0.0028953254
-0.12759839 -0.023696266 -0.095670134 -0.025992455 -0.009331556 0.032256052 0.025878938 0.021095369
-0.012910001 0.007638958 -0.012120827 0.037078258 0.06946065 0.113075316 0.13601623 0.1495786
0.18928126 0.15973869 0.0890877 0.10808424 0.15339796 0.059393436 -0.047799125 0.077635184
-0.035260238 -0.1284027 -0.08459376 -0.12803987 -0.07306849 -0.12930039 0.078913294 0.13098434
-0.32933545 0.0026556696 -0.39570445 -0.25543982 0.2072604 0.21277277 -0.31924248 0.04148502
-0.043015253 0.04182961 -0.11621314 0.03513276 0.0108141415 0.10507512 -0.030563481 0.044701215
0.08847006 0.12129402 0.021177188 0.020337582 0.10143301 0.12190831 -0.039347313 0.05337149
0.049739152 0.03331678 -0.0041396944 0.03389062 -0.05704165 -0.019383961 0.045820534 -0.2789244
-0.06966596 -0.05942437 0.004497301 0.03584432 0.064129815 -0.013802548 0.047815014 0.074704304
-0.0045166085 -0.016434934 -0.02711459 0.118190646 0.05884725 0.062719986 -0.05224768 -0.023546048
-0.11159935 -0.123616554 -0.10416311 -0.10653592 0.07504082 0.13673837 0.32004845 0.10994076

bias f4 [6]
00000000: 84c1 03be 5ab3 1ebe 6aec 933d 1d70 49be
00000010: ab4c d8bc 9263 7ebd
-0.12866789 -0.15498105 0.07222827 -0.19671674 -0.026403746 -0.062106676

weight f4 [16, 6, 3, 3]
00000000: 2da5 b8bd 57e7 ff3b f18f 95bd 37b3 723d
00000010: bee0 543c 6416 09be 47d4 dcbd d35e a0bb
00000020: bdff c13d 1236 b2bd ccbd bd3c 8a6f 213e
00000030: efb5 2dbd 49ae 05be a78f 65be 6c5c 8e3d
00000040: f668 9dbd 6b54 2cbe 168e c73d c024 003e
00000050: 27b9 b0bd 679d 22bb e0e7 5f3d d0c3 5a3d
00000060: f231 ff3c 235b b83d 1e6c 313e 6bc5 c6bc
00000070: 42be d9bd da0c 89bd 4d6f 553e a3f3 543d
00000080: c176 bd3c 8cf2 52bd b382 69be d120 4f3e
00000090: 0cae 3bbd c4a4 533c e8d9 c1bd 5836 b5bb
000000a0: 1b5a 11bd 151d 7b3d 000d 30bd 8974 8abd
000000b0: 5795 b73d 33ef 943d c834 efbd 1a94 0e3e
000000c0: 6744 66bd e7d8 bc3c 2cb8 893d df33 cf3d
000000d0: 6a68 2dbd a6e6 863d ba27 b5bd c2de d0bb
000000e0: 3d30 e13d d990 883c bae9 213d 6cf8 08bd
000000f0: 8d18 bdbd 76f8 de3d 76c4 aa3d 0221 8d3d
00000100: 4e41 0d3c 2151 10be 5d33 50bd af81 8b3d
00000110: 93d3 803b 1579 54bc d8d1 f23d 17a5 023e
00000120: 5c9c 8e3d 534b 85be eff2 913c ccfa 18be
00000130: 9d88 20be 6150 5f3e ed09 f7bd a086 b63c
00000140: 4f9f 863d aa81 483e ef7e 423e e15a 1c3e
00000150: 0a13 1d3e 4f16 cf3c b95b 083e 9926 49bd
00000160: df75 60be 0f6f 9f3d 07fb 993d 19b0 9d3d
00000170: e3d9 1e3d bfe8 e33c 0f8a 9dbd 8c18 28be
00000180: 921f 7c3c 1cb9 11be 9060 7fbe f8f2 2e3e
00000190: 0181 3dbe e4be a9bd 5bbf bf3d 3d69 1abe
000001a0: a8f5 273d a163 f1bd 7460 cf3c 1741 373e
000001b0: ffab d73c f0c3 543d 0692 6cbe 9daa 13be
000001c0: 535c 2d3e 3aad ac3c 1e57 933c 66f8 4e3d
000001d0: dc89 933d b4d8 afbc a794 e3bd b69f 013e
000001e0: fff6 81bb e65f 0bbd ff4d cd3d 2a19 dabd
000001f0: 318c 0abd 9110 0cbe 6471 1ebe a8ed 003d
00000200: dc27 53be a52f 1fbe 7ce1 81bd 3a98 50be
00000210: dd0f d03d 637e 88bc dc42 59bc fa98 113e
00000220: 6adc 0fbe f3e0 a1bd b96f a73b 544d 77be
00000230: 840e 80be bdc8 07be 9646 8ebd 177a 053d
00000240: e17b 86bd d923 dabc d0b9 82be 2711 a63d
00000250: b273 26bd 2272 d33b 4d81 013d 9ba7 b3bd
00000260: 7fe3 933d 025d 783d 2657 363e 87ae 83bd
00000270: 32f6 a7bb 3d35 2f3e 9bcc 083c 07a0 853d
00000280: d552 2dbe 982c babc 1d96 983c 80f6 78be
00000290: 9f34 4c3d 7675 f3bd b69c b6bd 1952 c03c
000002a0: 16fe 5bbe b1da c9bb cc3e 1abe d43d 83bd
000002b0: f2d7 ba3d 6762 b63d 04ec 0a3e c637 1cbd
000002c0: 5c9e 8b3d fa45 623d 5fd2 243e ffa7 08bd
000002d0: 47ba 0abe e005 8fbe 885c 68be 1465 59bd
000002e0: 09ac 93bd 10f0 9dbd 4ed4 fa3c ab56 8cbe
000002f0: 2eeb 41bd ade3 7fbd e4cc 113e 1549 f73d
00000300: f9fe 723e a85c 18be b34c 9fbe c8be debc
00000310: a2b0 4ebe b317 adbd fb76 f7bc a423 2e3e
00000320: a38a 92bd aeea 1dbe 485f 82bd a2b9 a1bc
00000330: 5841 cfbd f081 7d3d 9214 c23d 7334 1a3c
00000340: 0c5e 04be 84ee 5ebe 1686 543d d5c1 f3bd
00000350: c3a3 183d 3e59 2dbe 0b3e efbd 26cc dfbd
00000360: 830b 80bd 5230 29bd 27df e7bb abb0 2c3c
00000370: d488 443e 67a4 e23d d0f1 ac3d abc8 83bd
00000380: 3562 3fbd 249f 993d 3507 27bd 8ead 453d
00000390: 55c3 12bd 3c43 5b3d 8e97 e73d 4d30 5dba
000003a0: 84de 533d 8ae8 433e 0211 39be a1ac 0a3c
000003b0: 326e 01bc 16aa 83be 8d30 e23d da9a 19be
000003c0: 58c5 f73d 785b ff3c 71c5 0bbe f597 96bd
000003d0: bb48 573e cdb2 81be 07f2 25bd b4bd 1cbe
000003e0: f5ed 25bd b3be 223e b4ff 6d3c b8c3 e03d
000003f0: dc82 123c 07f8 35bc accd 243d cb5a 56bd
-0.0901588 0.0078095603 -0.07302845 0.059252944 0.012993036 -0.13387448 -0.10782676 -0.0048941164
0.09472606 -0.08701719 0.023161791 0.15765205 -0.042409834 -0.13054766 -0.2241808 0.06951222
-0.07686035 -0.16829078 0.097438976 0.12514019 -0.08629065 -0.0024813057 0.054664493 0.053409398
0.031151745 0.09001758 0.173264 -0.024264058 -0.10631992 -0.06691904 0.20843239 0.051990163
0.023127915 -0.051500842 -0.22803764 0.20227362 -0.04582028 0.012917701 -0.094653904 -0.00553016
-0.035486322 0.06130703 -0.042981148 -0.067605086 0.08964031 0.07272186 -0.11679989 0.13923684
-0.056217577 0.023052646 0.06724581 0.101173155 -0.042335905 0.065869614 -0.08845468 -0.006374211
0.10995529 0.016670631 0.03952954 -0.03344004 -0.09233198 0.10887234 0.08338253 0.06891061
0.008621527 -0.14093448 -0.050830234 0.068118446 0.0039314716 -0.012968321 0.11856431 0.1275829
0.06963417 -0.2603403 0.017816035 -0.14939421 -0.15677114 0.21808006 -0.1206244 0.022280991
0.065733545 0.19580713 0.18993734 0.15269043 0.15339294 0.025279192 0.1331624 -0.049109075
-0.21919964 0.077848546 0.07518583 0.076996036 0.03878201 0.027820943 -0.07692348 -0.16415614
0.015388386 -0.1423077 -0.2493918 0.17084873 -0.18506242 -0.082883626 0.0936267 -0.15079208
0.04100576 -0.11786581 0.025314547 0.17895924 0.026327131 0.051944673 -0.23102579 -0.14420553
0.1692975 0.021078695 0.017985877 0.05052986 0.07204029 -0.021465637 -0.111123376 0.12658581
-0.003966212 -0.034027003 0.10024642 -0.10649331 -0.033825103 -0.13678195 -0.15472943 0.031476647
-0.20620674 -0.15545519 -0.06341836 -0.2037057 0.10159276 -0.016661828 -0.013260569 0.14218512
-0.14048925 -0.07904234 0.005109754 -0.24150592 -0.25011075 -0.1326017 -0.06947057 0.032587137
-0.06566597 -0.026628422 -0.2553239 0.0810874 -0.04063768 0.0064528147 0.03161745 -0.087722026
0.07221126 0.060635574 0.17806682 -0.06429773 -0.0051257843 0.17110153 0.008349563 0.065246634
-0.16926129 -0.022726342 0.018626267 -0.24312782 0.04985487 -0.11887638 -0.08916609 0.023476647
-0.21483645 -0.0061601033 -0.15063018 -0.06408277 0.091232195 0.089054875 0.13566595 -0.038139127
0.06817314 0.055242516 0.16095875 -0.03336334 -0.13547622 -0.2793417 -0.22691548 -0.05307491
-0.072105475 -0.07711804 0.030618813 -0.27409872 -0.047343425 -0.062472988 0.14238316 0.12074486
0.23730077 -0.14879096 -0.31113204 -0.027190581 -0.20184568 -0.08451786 -0.030208101 0.17005783
-0.07155349 -0.15421554 -0.0636583 -0.019741837 -0.10119885 0.061891496 0.0947658 0.009411919
-0.12926501 -0.21770674 0.051885687 -0.11902205 0.03726555 -0.16928574 -0.11681756 -0.1092761
-0.06252196 -0.041305847 -0.0070761624 0.010540168 0.19192821 0.110665135 0.084445596 -0.06434759
-0.046724517 0.07501057 -0.040778358 0.048261218 -0.035830814 0.053530917 0.11308204 -0.00084376783
0.05172588 0.19131675 -0.18072894 0.0084640095 -0.007899808 -0.25715703 0.110444166 -0.15000477
0.12098187 0.031171545 -0.13649537 -0.07353202 0.21023838 -0.25331727 -0.04051402 -0.15306741
-0.040510137 0.15893058 0.014526296 0.109748304 0.008942332 -0.011106498 0.040235206 -0.05233268

bias f4 [16]
00000000: 7256 10bd 596d 443c 7e3a 313d 0d34 533c
00000010: 40e0 efbb 3c3f f9bd c707 c6bc bcbf 943d
00000020: 824c bbbd 7464 6c3c 8375 363d 7dc8 16bc
00000030: 191f d9bd 9d55 443d 7f82 103d 7c7d 063e
-0.03523869 0.011988961 0.043268673 0.012890828 -0.007320434 -0.12170264 -0.02417363 0.07263133
-0.09145452 0.014428247 0.04454566 -0.009203074 -0.106016345 0.04793321 0.0352807 0.13133806

weight f4 [32, 16, 3, 3]
00000000: 8261 48bd 77fa 63be 0155 2dbe 71c7 72bb
00000010: 54c6 6e3c de8c acbd c375 0dbe 5171 50bd
00000020: ccb7 08be dd63 8dbe 35c6 34be 31d4 c03d
00000030: bfb5 9fbd 38ae 833b c8c9 533e 013a 2b3d
00000040: d66b 2b3e 9f72 673e 70ed 12be 95c6 cbbd
00000050: 221b 0dbe 9e20 a6bd 0766 173d 265e d23d
00000060: 57a6 ccb9 0810 033e fd17 b83d 3b4a 96bd
00000070: 4ff3 91bd 8001 83bc 7bf5 5d3c 2c33 203e
00000080: f616 f73c 1a66 ad3d d34f 343e 849c 2c3d
00000090: 847b ddbd 8254 0dbd 0ec2 9e3d 0d15 6fbe
000000a0: d4f8 0abe 4677 303d d5f5 56bd e2fb 4b3d
000000b0: a083 3b3c 4393 a83c 6e42 8dbd b059 14bd
000000c0: 231a 2abe 71d5 cebd 0610 813d ec9e 12be
000000d0: b41b b5be 6569 babd ba10 763c 2fa0 14be
000000e0: 3eba a3be 2dd8 28be 877d 7dbe 6b98 debe
000000f0: d3c2 97bd 5a8d 5dbd a76f bfbe 568a abbd
00000100: ee75 42be c8a6 91bd fdf2 febc 4183 49bd
00000110: 3ac2 2abc 24c1 96bc a59c 4e3d 2657 4cbc
00000120: feeb c5be bb1e 84bd 26e2 5bbe 6c8c abbc
00000130: 05bb 18bd 88e2 81be d8c4 05be 5ac5 35be
00000140: cd72 92be 57f3 2cbe f0a8 54bd c927 963d
00000150: 2324 90bd f615 013e b5a9 833d 12b6 c63c
00000160: 4c96 18bd a3e4 4fbd 26b4 e1bd 16d6 0d3d
00000170: 61e6 afbb 25a5 87bd 68c4 533d 3160 583e
00000180: 5390 bcbd 163a b8bb 54f6 6a3d 8bdd 7abe
00000190: f220 d8bc 4834 163e 8991 323e 82ae 393d
000001a0: 4727 cb3d 6d31 f53c 3f8a f13c 4cce 1e3e
000001b0: 4f79 083d 1f7c 503d 99ed b43b d373 183d
000001c0: d0da 36bd 773c 123e 9d98 363e 7aa5 9f3e
000001d0: 4393 ee3d 6539 07be 5137 b0bc 6e32 afbd
000001e0: f09b 12bc 41b0 a73d abf8 b93c 7aa3 8dbc
000001f0: 94bc 00bd 4230 473c 904c f2bd 089e ddbd
00000200: ba98 b5bc 72a1 eabc fd44 9a3d 64e9 8c3d
00000210: 9f0b 63bd 5819 f63b 547f d5bd a763 c9bd
00000220: f720 16bd 2a6a babd d976 afbc b8c6 4bbd
00000230: a715 f93d 2dcc 6f3c 62fa fe3c 21c5 c03b
00000240: b1ba ef3c fec4 6f3d 5839 84be 9d09 f73d
00000250: 004c 7bbc 46a3 babd 77b6 8dbb 46f6 10bd
00000260: 03e6 523c d030 6e3d 3dcf 2e3d b466 003c
00000270: 9d59 af3d 6391 383d e1b0 20bd cc9f 563d
00000280: fb12 023d 19e2 893c 139c 8cbc a043 b63d
00000290: 50eb e5bc 4507 983d ab39 833d 4ef3 86bc
000002a0: 2b75 393d 0bb9 f5bb 134b a53c 4c6e 44be
000002b0: 90b8 eebd b7af 29be 046a 13be e792 30be
000002c0: 78b9 dabd e7e6 bcbd 4813 50bc ac78 32bd
000002d0: 5db9 083e 6d35 f83c 027a 033e 5253 cabd
000002e0: 8146 79bd e95a a43d d7bd 1bbe 7435 cabc
000002f0: e323 443c c4cd 243c 50e5 243d 3b4f c53d
00000300: 55de 433e 47a7 1a3e 76ae 323e f5de b53d
00000310: 34b1 ac3d bc66 f63d dca5 793d 36d9 753b
00000320: ba5a 01be 5153 e0bc 1375 cb3d 480b 80bd
00000330: 9d7d 813d a260 db3d 589f d83c 4b0c 513d
00000340: 99ff 353c cf4f 853d 4562 a73d b3ea c83d
00000350: 3a13 a23d 88ca 6d3b 6bec 71bb cea7 d33d
00000360: 173c 683d 3d7f 4a3d 7163 9e3d 5273 54bc
00000370: 457b 7d3d b21c 663d e4fc 96bd 5b72 b13d
00000380: a52b 1b3e c349 24bd aec6 aabd 0843 c6bb
00000390: f7a1 f2bc cef0 99be 3e05 d0bd 9046 86bd
000003a0: d2a8 0bbe d482 d2bd 2be4 23bd c337 dcbd
000003b0: c9a0 7d3d d369 bbbd d999 b8bd 00f9 ee3c
000003c0: 4207 ac3d 5672 af3c 80a5 a73c 8e00 ec3c
000003d0: 4f87 84bd 2a34 6bbe 2970 f7bc 2848 24be
000003e0: d134 bf3d 11c8 513d 589c b93c 428d 2fba
000003f0: 5d94 ed3d 1228 763d 5363 ecbc c228 243e
-0.048921116 -0.22263514 -0.16926958 -0.0037045146 0.014573652 -0.08425306 -0.13814454 -0.050889317
-0.13351363 -0.27615252 -0.17653735 0.09415472 -0.07798337 0.004018571 0.20682442 0.041803364
0.16740355 0.22602318 -0.14348388 -0.09949986 -0.13779882 -0.0811169 0.036962535 0.10271864
-0.00039033845 0.12799084 0.089889504 -0.07338377 -0.071264856 -0.015991926 0.013547297 0.1564452
0.030162316 0.0846674 0.17608576 0.042141452 -0.10814574 -0.03450442 0.07751857 -0.23347874
-0.13571483 0.043082498 -0.052480537 0.04980076 0.011444956 0.020578032 -0.06897436 -0.036218345
-0.16611533 -0.100993045 0.06301884 -0.14318436 -0.35372698 -0.09102134 0.015018636 -0.1451423
-0.3197803 -0.16488715 -0.24754916 -0.4347566 -0.07410207 -0.05408988 -0.3738987 -0.08375995
-0.18990299 -0.07111889 -0.031121725 -0.04919744 -0.010422284 -0.018402644 0.050442357 -0.01247195
-0.3865661 -0.06451174 -0.21472988 -0.020940982 -0.03728773 -0.25368142 -0.13063371 -0.17751065
-0.2860321 -0.16889702 -0.051918924 0.07331807 -0.070381425 0.12606034 0.064288534 0.02425674
-0.03725271 -0.050755154 -0.11020689 0.034627996 -0.0053680395 -0.06623296 0.05170098 0.21130444
-0.09207215 -0.0056221588 0.057363823 -0.24498574 -0.026382897 0.14668381 0.1743833 0.04533244
0.09919601 0.029930795 0.029484866 0.15508384 0.033318814 0.05089962 0.005521488 0.037219834
-0.04464227 0.14280878 0.17831655 0.31180936 0.11649182 -0.13205488 -0.021510752 -0.085545406
-0.008948311 0.08187915 0.022701582 -0.017289866 -0.031429842 0.012157502 -0.118310094 -0.10821158
-0.022167552 -0.028641436 0.0753269 0.06880453 -0.055431005 0.0075103454 -0.104246765 -0.0983346
-0.03665253 -0.091022804 -0.021418976 -0.04975006 0.12162333 0.014636082 0.031125251 0.0058828746
0.029263826 0.058537476 -0.25825 0.120623805 -0.015337944 -0.09113173 -0.00432473 -0.035391115
0.012872222 0.05815202 0.042678107 0.007836986 0.08562014 0.045060527 -0.039231185 0.052398488
0.031756382 0.016831445 -0.017164266 0.08899617 -0.028066307 0.074232616 0.06407484 -0.016473439
0.045277756 -0.0074988655 0.0201774 -0.191827 -0.11656296 -0.16570936 -0.1439591 -0.17243539
-0.106799066 -0.092237286 -0.0126999095 -0.043572113 0.1335196 0.030298913 0.12839511 -0.09879173
-0.060858253 0.08025152 -0.15209137 -0.024683692 0.011971447 0.010058824 0.040257752 0.09634253
0.19127782 0.15102874 0.17449364 0.08880416 0.08432236 0.12031314 0.06094919 0.00375135
-0.12632266 -0.027383478 0.099344395 -0.06252152 0.06322787 0.107117906 0.026443169 0.051037114
0.0111083025 0.06509363 0.0817304 0.0981039 0.079138234 0.0036284048 -0.0036914598 0.103347406
0.05669793 0.04943775 0.07733811 -0.012966948 0.061885137 0.05617971 -0.07372454 0.0866439
0.15153368 -0.040109407 -0.083386764 -0.006050471 -0.029618246 -0.30066532 -0.1015725 -0.065564275
-0.13638619 -0.1027886 -0.04001252 -0.10752823 0.061920915 -0.09151044 -0.09013719 0.029171467
0.08399822 0.021416824 0.020464659 0.028808858 -0.064711206 -0.22969118 -0.03020485 -0.1604315
0.09336246 0.05121619 0.022657558 -0.0006696769 0.11600564 0.060096808 -0.028855955 0.16031173

bias f4 [32]
00000000: 79d8 993d d4d4 41bd 36e5 dabc aef3 c5bd
00000010: bc53 f13c 11f8 dfbc a341 bbbc e94f f9bc
00000020: 77f0 1fbd a7ae edbd 0478 55bd ddb0 61bd
00000030: 4465 80bd d930 f8bd ea7b 83bd 8098 84bd
00000040: 0cda 303d 271a 21bd c233 4abc dbef f53c
00000050: bf9c f6bc 1993 18bd 20da 43bd eb8c 393c
00000060: 0ddd abbc 116b 0cbd 7a55 a8bd 2c52 c53b
00000070: 7d4c 6e3c b731 b4bb da84 14bd 9b01 f8b8
0.07511992 -0.04732211 -0.026720624 -0.09665619 0.029458873 -0.027339967 -0.022858446 -0.030433612
-0.039047685 -0.11605578 -0.05211641 -0.05510031 -0.06269315 -0.12118692 -0.06420119 -0.064743996
0.043176696 -0.03933158 -0.012341442 0.030021599 -0.03010404 -0.03724966 -0.047815442 0.011325101
-0.020979429 -0.034281794 -0.08219428 0.0060217585 0.014544603 -0.0054990905 -0.03625951 -0.000118258606

weight f4 [5, 11552]
00000000: cc11 ecbd 240e fabd f071 fbbd a067 d5bd
00000010: 95a8 e4bd ffea efbd 17c9 e1bd 05c8 d8bd
00000020: 8050 e2bd 702e e1bd 8808 dbbd 0943 d3bd
00000030: 403e c6bd b92e efbd 1f63 debd 1ac8 f1bd
00000040: b1f1 d3bd 02b3 f8bd 649f 02be d183 edbd
00000050: aa61 6abd 5de3 833c 45c8 dc3d bc03 6c3e
00000060: 74c5 823e 475c 903e e6ba 863e 0f6b 9b3e
00000070: d85e e63e aa10 b03e 2bf0 b83e f3b8 a03e
00000080: 3a16 c03e 5471 b83e bee9 c83e 9501 063f
00000090: 226e 203e 2f7e 4a3d 8908 debd 663f 51bd
000000a0: 9312 663d bc21 293e 2fe3 df3d 7619 a13e
000000b0: 190d 553e 3919 653e 453f 8b3e b0b0 913e
000000c0: c1cd 663e b809 853e 322c 9f3e 4326 d33e
000000d0: 26ca e33e 4207 cb3e 8f7a ea3e 4c5b 8b3e
000000e0: a0a6 583e 5cf1 ecbd 2ff5 d9bd e6cf 023e
000000f0: 36ec f33d 3188 8c3e f7bb 8b3e 87e1 833e
00000100: 2b46 703e a1e4 603e 9059 723e 0425 6a3e
00000110: ceb9 503e 0e85 9a3e e753 893e ffb2 903e
00000120: df7f d43e 05b8 1d3f 8440 e13e b29d 803e
00000130: e02f d5bd 8e58 95bd 7c3a 1e3e 07d9 6d3e
00000140: 5a21 c43e 8ee3 5f3e a072 8c3e 9b85 613e
00000150: 9b4b 8a3e c5d5 7b3e d79b 983e c2ea 4f3e
00000160: 52a8 af3e 2d7a 7a3e e578 a93e 6ca7 dc3e
00000170: 500f f33e eb83 db3e ae8f 6c3e a4c7 d2bd
00000180: d0cf dfbd 1942 bc3d 0185 733e fe9b 863e
00000190: 342c 6b3e 97c7 913e 077f 883e 9b42 803e
000001a0: b6c1 923e 919d 7e3e dcc8 933e 9b26 873e
000001b0: 7f9d 713e ad22 203e 7cca 8d3e 09a7 ec3e
000001c0: 17a3 263f 1e5e 9b3e 98c4 b3bd 6060 dfbd
000001d0: 0642 4b3e c534 2b3e 43f1 893e 8c5d 603e
000001e0: 384a e83d 36e8 b33e ba99 6d3e 80ff 533e
000001f0: fab2 de3d 5ed1 563e 45a5 3b3e befe 653e
00000200: 22d9 583e c849 8c3e 3724 e93e ba14 173f
00000210: ea27 833e 01f6 bcbd e0ed 86ba f5a2 ea3d
00000220: ba47 853e 1aed 6c3e 91d9 6d3e 3e88 8f3e
00000230: 1a3d 803e c282 093e 4869 b83d ad6a 7e3e
00000240: 7987 d03d 3755 043e d7dd 3b3e 3042 083e
00000250: b496 433e 1114 953e d597 da3e 62d8 033e
00000260: 86e9 f7bd b308 833d f6a9 1a3e ea37 893e
00000270: caa7 963e ffb7 5d3e ca97 b83d 37e8 0d3e
00000280: 2ec7 963d df73 873b 9ff4 5f3d 6825 01bd
00000290: bc79 143d e9e2 453c ec6c d33d eb65 f53d
000002a0: 2f9d 373e f66b fe3e f2ac 653e 16e9 e9bd
000002b0: b6cf 75bd 0da0 0d3e f486 a03e fb04 8d3e
000002c0: a469 373e 41c3 183e c4e1 153e 1632 563d
000002d0: 230c 7fbe 857a 26be c55b 04bd c415 c9bd
000002e0: c2a1 243c 4918 f93d 6be3 423e b809 b03d
000002f0: 0850 d33e c65b 883e 6f25 a7bd 5565 afbd
00000300: 6c72 813e eca1 7c3e 6d7d a23e e9bb 283e
00000310: 631b 2e3e 6ea8 063e 806a 6d3d fead 66bc
00000320: eae8 10be 8dd8 83bd 45db 123d a7a1 803d
00000330: ce0d f03d b909 2e3e a5f4 443e 7328 e63e
00000340: 06c4 a13e aa08 cdbd d4d7 06bd 8943 523e
00000350: 630f 893e b53b 823e 397e 843e d9ea 633e
00000360: de0f 043e 79e3 883e b74b 843e bd35 583d
00000370: eb3a 863d 735d 133e 6de4 493e 0abd 623e
00000380: 2cd3 a23e e919 8f3e b72f 0e3f 198f 993e
00000390: a570 c7bd 06a1 1b3e dd1f 323e bb1f 563e
000003a0: a1a6 8e3e 22e3 b13e 12e6 3f3e f7e5 a83e
000003b0: b431 923e dcb4 3a3e 1daf f53d 3b06 893d
000003c0: 3bdb 523e 454a 2d3e b5a5 803e 0b7f ba3e
000003d0: 5b8d ea3e 133e 0a3f 7808 a73e f8ea dfbd
000003e0: 9f26 a2bc 680f 7d3e 5a62 143e bacf 853e
000003f0: fc91 ae3e 0f95 9d3e 1d83 853e 5063 8e3e
-0.11526832 -0.12209728 -0.12277591 -0.104201555 -0.11164967 -0.11714744 -0.11024683 -0.10585026
-0.110505104 -0.109951854 -0.106949866 -0.1031552 -0.09679842 -0.116788335 -0.108587496 -0.118057445
-0.10348833 -0.12143518 -0.12756115 -0.115974076 -0.057222046 0.016099626 0.10780386 0.230483
0.2554127 0.28195402 0.26314467 0.30355117 0.44994235 0.34387714 0.36120734 0.31391105
0.37516958 0.36023962 0.3924083 0.52346164 0.15667012 0.049436744 -0.10841472 -0.051085852
0.056170058 0.16516775 0.10932004 0.31464738 0.20805778 0.22372903 0.27196708 0.28455114
0.22539426 0.25983977 0.31088406 0.4124013 0.44490165 0.39653975 0.4579663 0.2721809
0.21157312 -0.11569473 -0.10642468 0.1277462 0.11910288 0.27447656 0.27291843 0.25758
0.23464267 0.21962215 0.23666978 0.22865683 0.20383379 0.30179638 0.26821825 0.28261563
0.41503808 0.61608917 0.43994534 0.25120312 -0.10409522 -0.07292281 0.15451998 0.2322732
0.38306695 0.21864149 0.27431202 0.22023623 0.27010807 0.24593265 0.29806396 0.20304397
0.34308106 0.24460669 0.33100048 0.43096483 0.4747262 0.42874083 0.23101684 -0.10291985
-0.10928309 0.091922946 0.23781206 0.26290888 0.22966081 0.28472587 0.26659414 0.25050816
0.28663415 0.24864794 0.2886418 0.2639664 0.23595236 0.15638228 0.27693546 0.46221188
0.65092605 0.30345243 -0.08777732 -0.10907054 0.19849405 0.16719349 0.2694188 0.21910685
0.11342281 0.351381 0.23203173 0.20702934 0.10873981 0.20978305 0.18324764 0.22460458
0.2117658 0.2740004 0.45535442 0.59016 0.2561639 -0.09226609 -0.0010294281 0.11456863
0.26031286 0.23137322 0.23227526 0.28033632 0.25046617 0.13428786 0.09004456 0.24845381
0.10182089 0.12923132 0.18346344 0.13306499 0.19100457 0.29116872 0.42693964 0.12875512
-0.12105088 0.063981436 0.15103897 0.26800472 0.29424888 0.2165222 0.090133265 0.13858114
0.07362209 0.004133686 0.05467665 -0.031529814 0.036248907 0.012078025 0.103235096 0.1198233
0.17931055 0.49691743 0.22429255 -0.11421411 -0.06001254 0.13830586 0.3135296 0.27542862
0.17911392 0.14918233 0.14636904 0.05229386 -0.24906974 -0.16257675 -0.03231408 -0.098186046
0.010048332 0.12162835 0.19032066 0.08595604 0.41271996 0.26632518 -0.08161437 -0.085642494
0.2528261 0.24671143 0.31736317 0.16477932 0.17002635 0.13150188 0.057962894 -0.014079569
-0.1415135 -0.06437788 0.035853643 0.06280833 0.11721383 0.16995896 0.1923395 0.44952735
0.31594867 -0.10011418 -0.032920673 0.20533575 0.26769552 0.25436178 0.2587755 0.22257556
0.12896678 0.26736048 0.25839016 0.052785624 0.065542065 0.14391117 0.19716044 0.22142425
0.31801736 0.27949455 0.5554156 0.29991987 -0.09738282 0.15198144 0.17394967 0.20910542
0.27861503 0.347436 0.18740109 0.3298795 0.28553545 0.18233055 0.11996291 0.066906415
0.20591442 0.16922863 0.25126424 0.3642505 0.4581097 0.5400097 0.3262365 -0.109334886
-0.019793807 0.24712908 0.14490643 0.26135045 0.34095752 0.30777785 0.26076594 0.27810144

bias f4 [5]
00000000: a551 e4bd b0bf d8bd df86 b5bd 68a1 9cbd
00000010: ee8c babd
-0.11148385 -0.105834365 -0.08863615 -0.07647973 -0.091089115
