archived_data/b1_r0_m8_s100--2019-03-03--165203.596044/episode_45750.model (torch_old, 268278 bytes, 8 tensors)

weight f4 [6, 6, 3, 3]
000000 72 8d ca bd 66 4d b3 3d 60 1f d9 3b b4 b8 06 3e
       -0.0989026 0.08754997 0.0066260546 0.13156396
000010 8c cb 83 bc 98 49 cb bc b8 c5 41 bc 8c c8 bc 3d
       -0.01608827 -0.024815366 -0.011826925 0.09217939
000020 42 9d 44 bd 42 8a 50 3d 73 78 1a 3d d3 e8 91 3d
       -0.048001535 0.050913103 0.037712526 0.07124486
000030 38 69 74 bd 07 99 85 bb 25 e2 c9 bc ef e9 b5 bd
       -0.059670657 -0.00407708 -0.024643967 -0.0888251
000040 60 a9 84 bd e6 cd a9 bc 13 c6 5f 3d 18 12 d9 3d
       -0.06477618 -0.020728063 0.054632258 0.10599154
000050 f7 4c 26 3e 85 7d a0 3c 34 0e b2 3d f2 68 b0 3d
       0.16240297 0.019591102 0.08694115 0.08613767
000060 20 5a 8f bc 04 cc a6 3c 8f 37 a3 3d e6 4b 8d bd
       -0.01749903 0.020360954 0.07969581 -0.06899242
000070 9a 4c 69 bd 5e 39 d4 bd fc 89 21 3d 4c 90 c3 3d
       -0.05695782 -0.103625044 0.039438233 0.09549007
000080 c6 0b 7e bd 9c 11 a8 3d bf 1b f8 bd 60 b5 2c 3d
       -0.062022947 0.08206484 -0.12114667 0.04216516
000090 73 ad 29 3c 59 f1 1b be b3 fb 2c 3e b6 c1 63 be
       0.010356295 -0.15228786 0.1689289 -0.22241864
0000a0 9b c5 c7 bd 13 d8 60 be ef 31 d0 be 80 a2 89 be
       -0.09754487 -0.21957426 -0.40663096 -0.2688179
0000b0 16 66 af bd c8 b8 8f 3d 56 90 05 3d 5e f2 9d 3c
       -0.08564393 0.07017666 0.032608353 0.019280609
0000c0 3c 54 ab 3d 5d 93 54 3d f8 13 64 bd ed ab d7 3d
       0.08365676 0.05189835 -0.055683106 0.10530839
0000d0 aa 5a 48 bd 13 b1 bf 3b 2c ba ca bd 10 64 d9 3d
       -0.04891459 0.0058499663 -0.09898791 0.106147885
0000e0 60 7e a0 3d 22 64 e0 bd a8 cb f0 3d 48 a1 8a bd
       0.07836604 -0.10956599 0.11757594 -0.06769043
0000f0 32 40 bb 3d c8 5d c1 3c c6 68 a2 bd 1f fd 3d bd
       0.09143104 0.023604289 -0.0793014 -0.046383973
000100 75 2e c1 bb d4 9b 46 3d 9e 5e 03 3d 38 9a 8e bc
       -0.0058954307 0.048488453 0.032072656 -0.017407522
000110 a2 b4 51 3d 01 5b 11 3d f7 9b 03 3d 3b 68 9f 3c
       0.051197655 0.03548718 0.03213116 0.01945888
000120 55 47 9b 3c 48 ff ad 3c c3 79 b5 3d 67 68 68 3d
       0.018954912 0.021239892 0.08861115 0.05674019
000130 e4 b4 6e 3d 0f 79 c4 3d 7f b7 be 3d 68 9b bf 3d
       0.05827798 0.095934026 0.09312343 0.09355813
000140 7c b1 bd 3d fc 8d b2 3d 80 af 9a bb 80 e8 84 3d
       0.09262368 0.087184876 -0.0047206283 0.06489658
000150 40 38 3e 3c a0 5d 7a 3d 36 cc b8 3d 32 2e 59 bd
       0.011610091 0.061124444 0.09023325 -0.05302257
000160 e0 8e 71 bc 9a e8 c0 3d 0d 59 91 3d 02 df c5 be
       -0.014743537 0.09419365 0.07097063 -0.38646704
000170 80 10 92 be 39 c5 61 3d 83 b1 2c be 4e db 74 3e
       -0.28528214 0.055119727 -0.1686459 0.23911783
000180 72 0a 14 3e 5d 4c f8 3d 8e ac 9a 3e 09 c4 13 3e
       0.1445711 0.1212394 0.30209774 0.1443025
000190 a7 03 cd bd 02 b8 5a 3d 08 a0 94 3c 25 c6 a5 3d
       -0.10010462 0.05339814 0.018142715 0.08094434
0001a0 ce 9f af bd ff eb f1 bc af 8d 80 3c 1b 37 57 3d
       -0.08575402 -0.029531477 0.01569256 0.052542787
0001b0 e8 56 7b 3d b0 1f 03 3d b0 93 85 bd 46 a4 ce 3d
       0.061362177 0.03201264 -0.0652231 0.100899264
0001c0 c4 d4 2c 3d dc 57 af bd 1b 7d d1 bd 14 48 08 3e
       0.042195097 -0.0856168 -0.1022894 0.13308746
0001d0 04 e1 b8 bc 68 75 76 3c 97 86 7b 3c 57 62 68 bb
       -0.022568233 0.01504264 0.015351913 -0.0035459006
0001e0 8c 70 3e 3c 8a 68 e8 bc 60 d2 0a be fa 67 47 bc
       0.011623513 -0.02837016 -0.13556814 -0.012170786
0001f0 19 67 de 3c ee 91 75 bc 3a c7 c4 3c 5d 1d 5e 3d
       0.02714877 -0.014988406 0.02402078 0.05422722
000200 fb 0c af 3d 78 99 3e 3d c4 04 7d 3d a7 41 c9 bc
       0.08547398 0.046533078 0.061772123 -0.024567438
000210 46 a9 14 3d 07 e4 c0 3d 2a 5a e2 3c 50 72 1f bd
       0.036294244 0.09418493 0.027630884 -0.038927376
000220 c6 ce ab bd c0 a4 4c bd d0 96 74 bc 38 98 ae bc
       -0.08389048 -0.049961805 -0.014928535 -0.021312818
000230 42 1e e4 3d 5c b9 2a bd 28 85 cb 3c 1c 2a 1a 3d
       0.11138584 -0.04168068 0.024843767 0.037637815
000240 41 07 14 3d 5a 12 42 3e a8 b7 42 3e 87 cd e6 3d
       0.03613973 0.18952313 0.19015372 0.1126967
000250 e3 bf 8c 3e 6d dc 98 be b1 4a 2e 3e e4 39 3e 3e
       0.27490148 -0.29855672 0.1702068 0.18576771
000260 64 fc 24 be 3e 8b ea b9 67 e7 88 bd 60 12 99 3b
       -0.16111904 -0.00044735702 -0.066847615 0.00467138
000270 24 3d 79 bc ab a2 e4 bc b3 f9 21 be 80 01 35 3c
       -0.015212331 -0.027909597 -0.15817909 0.011047721
000280 ea c3 85 3c a5 7d 80 bd 2a 3b ca 3d c0 0e 02 3e
       0.01632877 -0.06273965 0.09874566 0.12700939
000290 ec 7c fe 3d 24 f8 ef 3d a0 d1 89 bd 80 bf 3d bb
       0.12426171 0.11717251 -0.06729436 -0.0028953254
0002a0 27 a9 02 be ac 1e c2 bc b4 ee c3 bd dd 0a 78 bc
       -0.12759839 -0.023696266 -0.095670134 -0.015139309
0002b0 7f f2 42 bc c2 f1 8f 3c fd 24 a4 3c f2 4f 2b 3c
       -0.011898636 0.017571334 0.020037169 0.010456072
0002c0 00 ff 62 bc 05 84 32 3c 8b 62 51 bc c8 41 cd 3c
       -0.013854742 0.010895734 -0.012779842 0.025055781
0002d0 c7 53 ca 3d fe d0 0f 3e c2 f0 1c 3e f7 98 2b 3e
       0.098792605 0.14044568 0.15326217 0.1675757
0002e0 78 da 58 3e 0d 32 3b 3e f3 b1 b1 3d ab 4c 14 3e
       0.21177089 0.18280812 0.08676519 0.14482372
0002f0 d7 07 1e 3e 88 46 73 3d 04 c9 43 bd 32 ff 9e 3d
       0.15432678 0.059393436 -0.047799125 0.077635184
000300 0a 6d 10 bd ff 7b 03 be 7e 3f ad bd e2 1c 03 be
       -0.035260238 -0.1284027 -0.08459376 -0.12803987
000310 ef a4 95 bd 52 67 04 be 40 29 9b 3d e8 ff 1e 3e
       -0.07306849 -0.12930039 0.07576227 0.15527308
000320 59 0c a6 be 6a b1 f3 3c e7 a5 ca be 19 5b 74 be
       -0.32431296 0.029747684 -0.39579698 -0.23862876
000330 cc b6 3e 3e f9 75 8d 3e 06 6c a4 be b1 71 e6 3c
       0.18624419 0.27629068 -0.32113665 0.028130384
000340 14 30 f7 bc dd 0f 4d 3d 22 56 09 be 41 06 47 3d
       -0.030174293 0.050063957 -0.13411763 0.04858995
000350 78 cb 24 3b 2b fe d3 3d e5 2f 8a bc 42 90 58 3d
       0.002514569 0.10351213 -0.016868541 0.05287195
000360 ca 2f b5 3d 00 69 f8 3d c8 7b ad 3c 00 9b a6 3c
       0.08847006 0.12129402 0.021177188 0.020337582
000370 1c bc cf 3d 10 ab f9 3d a6 2a 21 bd 10 9c 5a 3d
       0.10143301 0.12190831 -0.039347313 0.05337149
000380 48 bb 4b 3d 59 98 16 3d 3a cc 28 3c 5c ef a4 3c
       0.049739152 0.036766384 0.010302598 0.020133667
000390 9b 26 94 bd 36 25 86 bc c0 31 34 3d 7d 52 9a be
       -0.07233926 -0.016375165 0.043992758 -0.3014106
0003a0 b6 ed c1 bd ab d5 57 bd 9d 4f 69 bc bb ee 11 3d
       -0.09469168 -0.052694004 -0.014240173 0.03562806
0003b0 17 d7 92 3d e1 61 93 ba 6e 78 80 3d d7 9d 88 3d
       0.071699314 -0.001124438 0.0627297 0.066707306
0003c0 24 a3 12 bc 15 0e 0f bd 7b 29 56 bd f0 0d f2 3d
       -0.008950029 -0.03492554 -0.052285653 0.118190646
0003d0 d0 09 71 3d 56 73 80 3d aa 01 56 bd a4 e3 c0 bc
       0.05884725 0.062719986 -0.05224768 -0.023546048
0003e0 33 8e e4 bd ad 2a fd bd 78 53 d5 bd 81 2f da bd
       -0.11159935 -0.123616554 -0.10416311 -0.10653592
0003f0 b6 c0 b5 3d 91 1f 37 3e 54 d1 8e 3e d0 9a d4 3d
       0.08874647 0.17883135 0.2789408 0.10381091

bias f4 [6]
000000 8c e1 05 be 73 f1 31 be 39 21 8a 3d 67 d3 5e be
       -0.1307432 -0.17377262 0.06744618 -0.21760331
000010 e8 7b c6 bc f3 1a 86 bd
       -0.024229005 -0.06548109

weight f4 [16, 6, 3, 3]
000000 74 b0 d4 bd c9 19 ed bb b9 53 0c be 41 9f 59 3d
       -0.10385218 -0.00723574 -0.13703813 0.053130392
000010 41 b6 87 bb f6 54 b5 bd fe c2 f5 bd 00 a7 18 bd
       -0.0041415994 -0.08854096 -0.120000824 -0.03726864
000020 b5 92 a2 3d 5d d5 ab bc a8 19 95 3c 7f a8 2e 3e
       0.079381384 -0.020975763 0.01820071 0.17056464
000030 17 d8 1f 3c fe 62 10 be 4b 78 2b be c3 cf 98 3d
       0.00975611 -0.14100263 -0.16745107 0.074615024
000040 6d 4a 69 bd bb 4c ef bd 92 1e a3 3d cb c6 15 3e
       -0.056955744 -0.11684557 0.07964815 0.14626615
000050 61 c9 df bd d9 c6 dd bc 4a 11 18 3d 0f a0 97 3d
       -0.10927082 -0.027072357 0.037125863 0.07403576
000060 d9 a4 6c 3d cf a6 bc 3d 31 e2 13 3e 52 41 5a bd
       0.0577744 0.09211504 0.14441754 -0.05328495
000070 7d 73 9a bd 2f 74 76 bd c7 ed 55 3e f8 51 35 3d
       -0.07541559 -0.060169395 0.20891486 0.044267625
000080 99 a8 48 3d 2f 44 9d bd 20 1d 60 be 7a 46 5b 3e
       0.048988912 -0.076790206 -0.2188611 0.21413603
000090 4d a4 b8 bd d2 10 86 3c c5 18 8c bd 74 e9 0f bd
       -0.09015713 0.016365442 -0.06840662 -0.035134748
0000a0 84 50 24 3b e5 d3 25 3d 2c 1c 4e bc c1 81 f4 bd
       0.0025072405 0.04048528 -0.012579959 -0.11938811
0000b0 81 64 b9 3c 6d f7 b4 3d e8 c2 03 be 2d fe b4 3d
       0.022630932 0.08836255 -0.1286732 0.08837543
0000c0 27 e0 24 bd dd c0 2b 3d dc 3e b0 3d be 89 ca 3d
       -0.04025283 0.041931976 0.086057395 0.098895535
0000d0 28 4a ad bc f5 39 aa 3d 4b cb 76 bd 11 c4 18 bc
       -0.021153525 0.08311836 -0.06025247 -0.00932409
0000e0 14 0e ec 3d 0a 70 1f bd df e2 af bb 0f a7 bb bc
       0.11526123 -0.03892521 -0.0053676213 -0.022906808
0000f0 9c 79 06 be a0 b4 e1 3d 9e 89 9e 3d b1 53 66 3d
       -0.13132328 0.110207796 0.07741092 0.056232158
000100 0c 72 23 bb 37 16 a7 bd 9b 4e 72 bd 00 be 86 3d
       -0.0024939803 -0.08158534 -0.059156995 0.065792084
000110 23 6f cd bb 78 4b a7 bd 9d 21 83 3d c5 83 ca 3d
       -0.006269352 -0.081686914 0.064028956 0.09888414
000120 44 9b 21 3d 46 a6 6d be d6 62 70 3c 02 b4 4f be
       0.039454713 -0.2320796 0.014672002 -0.20283511
000130 55 1a 40 be 9d 5b 56 3e ee 60 99 bd 39 01 4c bc
       -0.18760045 0.20933385 -0.07489191 -0.012451463
000140 ee 87 b4 3d f9 18 47 3e 52 09 44 3e 8c 9d 0a 3e
       0.08814989 0.1944312 0.1914418 0.13536662
000150 3d ab 20 3e 55 3d 4e 3d 47 72 f5 3d 11 fb 91 bd
       0.15690322 0.05035146 0.11984687 -0.07127965
000160 ca fd 95 be 1a 73 09 3d ec 51 87 bc 2c 41 73 3d
       -0.29295188 0.033557035 -0.016518556 0.059388325
000170 71 27 1e 3d 02 36 c7 3c 48 6f 96 bd 94 85 f4 bd
       0.038611833 0.024317745 -0.07345444 -0.119395405
000180 f6 12 de bb 71 5b 0e be 24 76 74 be d0 ed 26 3e
       -0.0067771627 -0.1390207 -0.23873192 0.16301656
000190 48 3f 4f be c4 1e d2 bd b2 8b ab 3d 6a 70 3e be
       -0.20238984 -0.10259774 0.08376254 -0.1859757
0001a0 e0 fe 86 3c a5 a9 10 be c9 af 59 bd dc e4 3d 3e
       0.016478956 -0.14127214 -0.053146157 0.18544334
0001b0 70 9c 7a 3c 02 f2 2b 3d 98 1e 70 be 62 de 53 be
       0.015296087 0.041978844 -0.2344917 -0.20690301
0001c0 b4 86 07 3e c0 21 2f bc 10 97 91 bc c5 6a 31 3d
       0.13234979 -0.010689199 -0.017772228 0.043314714
0001d0 13 81 86 3d 3c ee 31 bd fc 8b c2 bd 26 d2 b8 3d
       0.06567588 -0.04344009 -0.09499356 0.09024458
0001e0 09 19 60 3c ac dc 4d bc 64 ad ab 3d db f5 d1 bd
       0.013677844 -0.012564819 0.08382681 -0.10251971
0001f0 48 fb 9a bc ba 32 b7 bd 54 be 5b be 6d 99 a9 bc
       -0.018918648 -0.08945222 -0.21459323 -0.020703042
000200 24 2f 47 be ae cf 33 be 3f 67 95 bd 2e 9a 7d be
       -0.19451576 -0.17559692 -0.07295083 -0.24765846
000210 67 f4 e1 3d 31 b9 3e 3c 5d 26 ab bd 39 53 0b 3e
       0.11032944 0.011640833 -0.083569266 0.13605966
000220 da eb 16 be ec c0 01 be 82 86 26 3b 2d 5e 3b be
       -0.14738408 -0.1267125 0.0025409763 -0.18297644
000230 3a cd 7a be f3 e9 f3 bd ca b2 9b bd 00 08 6f 3d
       -0.2449235 -0.11909857 -0.07602461 0.05835724
000240 99 fc d0 bd 16 74 58 bd 43 b8 b7 be 01 f4 86 3d
       -0.10204429 -0.052845083 -0.35882768 0.06589509
000250 5b 3d e9 3b ee 8a 0f bd a0 94 35 3d c6 8b b5 bd
       0.00711791 -0.035044603 0.044331193 -0.0886455
000260 d5 e1 6c 3d c3 06 38 3d 46 0d 1a 3e 64 6e dc bd
       0.057832558 0.044928323 0.15044126 -0.10763243
000270 60 38 64 bc 02 c9 19 3e c5 2b a5 bc d1 71 54 3d
       -0.0139294565 0.15018085 -0.020162473 0.051866356
000280 ed 31 2d be cc ae ec bc d1 15 12 3d 5c 03 2c be
       -0.16913576 -0.028891943 0.035665337 -0.16798156
000290 97 1f 8e 3d 12 db c2 bd bb 55 e6 bd 3d e6 bf 3b
       0.06939619 -0.095144406 -0.112468205 0.005856304
0002a0 81 cd 44 be a9 79 99 39 c6 23 11 be 9a 8a b1 bb
       -0.19219019 0.00029273078 -0.14173803 -0.005418134
0002b0 37 f2 f3 3d ab b8 d1 3d 49 5e 15 3e 35 96 d4 3b
       0.11911433 0.10240301 0.14586748 0.0064876326
0002c0 5f 0a a5 3d 8d ec c8 3d b2 fb 46 3e 89 f6 57 bb
       0.08058619 0.098107435 0.19431952 -0.0032953343
0002d0 41 09 e0 bd fb 61 8e be e7 72 80 be 56 79 02 be
       -0.10939265 -0.27809128 -0.25087664 -0.12741598
0002e0 14 72 3d bd 45 2b ca bc 6f d4 8e bd a2 da 62 be
       -0.04625137 -0.024678836 -0.06974112 -0.22153714
0002f0 4a d2 92 3c 83 aa 11 bd 96 08 1c 3e 8e 7c 2f 3e
       0.01792254 -0.035563003 0.1523765 0.17137358
000300 48 7f 0a 3e a1 74 9f bd 6e 49 80 be ca c3 b1 bc
       0.13525116 -0.07785917 -0.25056022 -0.021699805
000310 0d 68 2e be 3a 21 1f be 44 f0 04 bd 2f 58 4c 3e
       -0.1703188 -0.15540019 -0.032455698 0.19955514
000320 fb 5c 51 bd c8 7a ae bd 78 b4 1c bd b5 19 f3 3c
       -0.051114064 -0.085195124 -0.038258046 0.029675344
000330 62 a2 e9 bc a5 b1 52 3d 49 34 f4 3d ce 66 a2 3c
       -0.028519813 0.051438946 0.11924035 0.019824412
000340 8d 0f e8 bd 15 57 6b be b7 b8 4f 3d c9 94 07 be
       -0.11331091 -0.22982438 0.050713267 -0.13240351
000350 74 fc 00 3c f9 06 4a be c5 da cb bd 80 64 bd bd
       0.0078726895 -0.19729222 -0.09953836 -0.092476845
000360 34 0c 94 bd 37 30 32 bd 44 af 43 3c 48 fc 19 bd
       -0.0722889 -0.043503013 0.011943642 -0.03759411
000370 3a ad 40 3e 0c 31 05 3e 3f 92 b9 3d 41 5a 5c bd
       0.1881608 0.13006991 0.09061097 -0.05379701
000380 bf dd 43 bb b2 7d 01 3d 5e c9 e7 3c ad ac ea 3c
       -0.002988681 0.031614013 0.028294262 0.028646791
000390 ca 72 2e bd 15 d8 04 3e e5 9f 21 3e ee 95 29 bd
       -0.04258994 0.12973054 0.15783651 -0.04140275
0003a0 53 ef 11 bb 59 aa 31 3e bb 44 3d be 3a 6c 57 b9
       -0.0022267892 0.17350139 -0.1848325 -0.00020544315
0003b0 b7 aa c1 3d 49 1c 66 be f7 55 c0 3d 5b 57 aa bd
       0.094563894 -0.22471727 0.093913965 -0.08317443
0003c0 6b 39 ed 3d 38 08 bd 3c 69 f2 55 be 14 f7 9b bc
       0.11583217 0.023075208 -0.20893253 -0.019038714
0003d0 3c 4d 20 3e 4f ea 52 be 5d d9 32 bd c8 e1 39 be
       0.15654463 -0.20597194 -0.043664325 -0.18152535
0003e0 fb 8f 31 bd b3 ec 27 3e 90 17 39 3c 5a 2d 03 3e
       -0.0433502 0.16398887 0.011297122 0.12810269
0003f0 f5 72 4b bd a9 f6 12 3d dd c4 a3 3d c7 9c cf bd
       -0.04967018 0.035879765 0.07996533 -0.10137325

bias f4 [16]
000000 78 a3 ac bc 1b db f7 3b 0f d2 ca 3c 3a 7f e1 bb
       -0.021074042 0.007563961 0.024758367 -0.0068816217
000010 fb 0e 3b bc a5 41 05 be ef 4d fd bb 63 df be 3d
       -0.011417146 -0.13013323 -0.0077302377 0.093199514
000020 b4 61 b5 bd 12 47 78 3c 26 38 18 3d aa b0 da bc
       -0.08856526 0.015153663 0.037162922 -0.026695568
000030 9f 08 e1 bd 22 9f 02 3d 5f bb 1f 3d 3f 50 1b 3e
       -0.109879725 0.031890042 0.03899705 0.1516733

weight f4 [32, 16, 3, 3]
000000 b6 59 d3 bd 87 5b 7c be b0 97 14 be e8 2e 0b bd
       -0.103198454 -0.2464429 -0.14510989 -0.03398028
000010 c4 5d 78 3d 59 8b 07 be 4b db 46 be 7a ca 67 bc
       0.060636297 -0.1323675 -0.19419591 -0.014147395
000020 6f 50 02 be 60 ed 9c be 2b e1 20 be 7f 9b 0f 3e
       -0.12725995 -0.30649853 -0.15710895 0.14024161
000030 2c 6f f6 bd f2 b0 07 3d b4 d9 86 3e f4 a1 d2 3c
       -0.12032923 0.033127733 0.2633797 0.02571199
000040 d8 6f 5c 3e cd f4 7d 3e 01 02 14 be fa af e9 bd
       0.2152704 0.24800415 -0.1445389 -0.11410518
000050 fc c9 08 be 5c dd a3 bd aa 00 1d 3d 96 58 00 3e
       -0.13358301 -0.08001205 0.03833071 0.12533793
000060 b0 ac 05 bc e5 87 f3 3d 79 38 d4 3d 84 78 21 be
       -0.008158848 0.11891154 0.10362334 -0.1576863
000070 f3 44 c6 bd 3e aa aa bd b4 f6 4b bd 62 19 30 3e
       -0.0968112 -0.08333252 -0.04979582 0.17197183
000080 99 f2 9c bc 43 0f 10 3d 04 8a 48 3e 7c e8 45 3d
       -0.019158648 0.035170805 0.19583899 0.048317418
000090 c8 65 f6 bd ff 59 95 bc bb 12 42 3d 55 c1 8f be
       -0.12031132 -0.01823139 0.047381144 -0.28077188
0000a0 f0 c8 25 be 12 32 f6 3c f8 79 ea bd c8 a5 11 3d
       -0.16189933 0.030053172 -0.11449045 0.035558492
0000b0 6a 11 4e bd 0b b8 77 bd 6f 92 26 3d ab 4e 5a 3d
       -0.050309576 -0.06047825 0.040666994 0.05329768
0000c0 ed f7 96 bc e9 4d 7f bd d3 9c 0d 3e 16 cd be bd
       -0.018428767 -0.06233016 0.13829355 -0.09316461
0000d0 75 7a b8 be 13 16 12 bd 8c dd 70 3d 65 22 14 be
       -0.36030927 -0.035665583 0.058805034 -0.14466245
0000e0 fd 69 a1 be ff 7e 2a be a1 f0 9e be 0e 90 d6 be
       -0.31526175 -0.16650008 -0.3104296 -0.4190678
0000f0 7b 90 b3 bd d8 c0 a4 bd 1f 79 b0 be 20 d3 c0 bd
       -0.08767792 -0.080445945 -0.34467408 -0.09415269
000100 e0 3f 4c be 88 75 9d bd 54 b8 14 bd bb ee 27 bd
       -0.19946241 -0.07688433 -0.0363086 -0.040999155
000110 bd 9a 01 bc 65 1f e5 bc 5c f3 59 3d dc 64 38 bc
       -0.007910428 -0.027969072 0.0532106 -0.0112545155
000120 b9 04 e9 be 35 9a d7 bd 72 59 47 be 71 68 78 bc
       -0.45511416 -0.105274595 -0.19467714 -0.0151616195
000130 b1 d7 8c 3d b5 50 15 be 38 ab 41 be 95 47 44 be
       0.06877077 -0.14581569 -0.18912971 -0.19167931
000140 64 db 83 be cf 6a 45 be 51 f1 27 bd 4d aa 98 3d
       -0.2575332 -0.19279025 -0.04100162 0.07454357
000150 0b 36 cc bd 2d 28 23 3e a2 86 9a 3d be 12 0d bd
       -0.099712454 0.15933295 0.075452104 -0.034441702
000160 c5 db 9f bd 87 f3 b4 bd 3b 7f e3 bd de 3d 6f 3d
       -0.078055896 -0.08835512 -0.11108252 0.05840861
000170 2c e4 c0 bb 03 5c 53 bd 59 3b 7f 3d 98 ee 5d 3e
       -0.005886575 -0.05160142 0.062312458 0.21673048
000180 d0 d9 f1 bd 4b 5e 39 bc 5d 23 da 3c 6d da b5 be
       -0.118091226 -0.011313985 0.02662819 -0.35518208
000190 5d 96 f0 bb 34 00 46 3e 68 97 2f 3e 89 6f c1 bc
       -0.0073421434 0.19336015 0.171476 -0.023612754
0001a0 3f 4c 3b 3d ec 2d 2d 3d e8 f9 23 3d 4b de b3 3d
       0.04572701 0.042280123 0.04003325 0.087826334
0001b0 b0 79 6b 3d 14 c8 0d 3d 90 95 b8 3d 15 46 92 bd
       0.057489097 0.034614637 0.09012902 -0.07142273
0001c0 bc a8 e0 bd 99 18 8a 3e c7 33 f0 3d bc 28 b9 3d
       -0.109696835 0.26971892 0.11728626 0.090409726
0001d0 a2 ba c9 3d 35 59 1d be 83 d9 78 3b 33 5e b4 bd
       0.098500505 -0.15366061 0.0037971444 -0.088070296
0001e0 9f 80 2b 3c d8 6c e5 3d a7 25 a8 3c b0 10 2a bc
       0.010467677 0.11202401 0.020525767 -0.010379955
0001f0 b1 0c ff bc 58 6e ad bc 34 86 13 be 40 fb bc bd
       -0.031133981 -0.02117078 -0.14406663 -0.0922761
000200 f6 1a aa bc 10 32 34 bd 15 10 ad 3d 64 e2 8e 3d
       -0.02076481 -0.043993056 0.08450333 0.06976774
000210 bf cc be bd 63 da a9 bc 36 1e 05 be 42 e5 db bd
       -0.09316396 -0.020734018 -0.12999806 -0.10737087
000220 11 cd 2a bd 99 51 c4 bd 0f f2 98 bc fe 52 2d bd
       -0.041699473 -0.09585876 -0.01867011 -0.042315476
000230 84 80 05 3e de e1 25 3c 69 90 f3 3c 5c b5 20 3c
       0.13037306 0.010124652 0.029731946 0.009808864
000240 7d 4c 10 3d 20 00 6f 3d f5 b9 77 be e8 c4 01 3e
       0.035229195 0.05834973 -0.2419203 0.1267277
000250 d7 91 ac bb 18 e3 bd bd 77 02 fd bc 61 91 08 bd
       -0.005266409 -0.0927183 -0.030884964 -0.03334177
000260 e5 f6 0d 3d 9c 36 2d 3d a6 fb 4f 3d c0 4e ce b9
       0.034659285 0.042288408 0.0507771 -0.00039350055
000270 ad 08 a1 3d db 1d 1e 3d 57 cc 58 bd 68 fb 62 3d
       0.07862983 0.03860269 -0.05292925 0.05541554
000280 ca 7a 16 3d c1 df 41 3c 6b 93 7e bc 38 f2 b6 3d
       0.036738195 0.011833132 -0.015538077 0.08932918
000290 a8 88 df bc 55 43 8e 3d 2a da 87 3d 62 2c 23 bc
       -0.027286842 0.06946436 0.06633408 -0.009959312
0002a0 d5 b5 30 3d 40 86 ae bc db 85 96 3c e1 98 66 be
       0.04314216 -0.02130425 0.018374374 -0.22519256
0002b0 cb af 09 be 7d 6d 54 be 87 a0 5c be c4 7c 44 be
       -0.13445966 -0.20744891 -0.21545611 -0.1918822
0002c0 b5 38 b1 bd be 55 5e be c5 65 99 bd a5 86 ac bd
       -0.08653394 -0.21712396 -0.07490114 -0.08424119
0002d0 71 43 0a 3e c3 94 dc 3c d2 8e fa 3d f5 8b 00 be
       0.1350229 0.026926404 0.12234272 -0.1255339
0002e0 9e c6 99 bd f2 5f 96 3d f9 e2 10 be 40 e0 41 bd
       -0.07508586 0.07342519 -0.14149083 -0.047333002
0002f0 8c 6c 42 bc b1 00 1a 39 9b 02 25 3d fb 4d b0 3d
       -0.0118667 0.00014686842 0.040285688 0.086086236
000300 95 76 34 3e d2 26 0e 3e 64 4f 30 3e 77 f1 a2 3d
       0.1762336 0.13881996 0.17217785 0.07956212
000310 a1 89 a3 3d 48 c0 e3 3d e9 71 5b 3d 63 64 d5 bb
       0.07985235 0.11120659 0.05357543 -0.006512211
000320 68 e0 05 be 72 43 35 bd f7 82 cc 3d c6 cc b6 bd
       -0.13073885 -0.044253774 0.09985917 -0.08925776
000330 bf a2 60 3d 3b d3 cb 3d 8f 1f 86 3a 11 33 53 3d
       0.054842707 0.099523984 0.0010232794 0.051562373
000340 99 7e 61 3c 0c 44 8a 3d b3 ef a6 3d 0e 36 c4 3d
       0.013763093 0.0675126 0.08151188 0.095806226
000350 db 33 9c 3d 6e cb 56 bb 03 be c0 bb 48 51 cd 3d
       0.07627078 -0.0032775062 -0.005882026 0.10025269
000360 a1 99 72 3d d2 0b 7d 3d 41 cd a8 3d f1 92 35 bc
       0.059228543 0.06177885 0.08242274 -0.011082397
000370 46 22 8c 3d 30 b6 82 3d 3a 11 9e bd 3a 6c b5 3d
       0.06842475 0.06382406 -0.077181295 0.08858533
000380 0a db 21 3e 10 4f 9e bd b5 dd ec bd fa d5 3a bd
       0.15806213 -0.07729924 -0.11565725 -0.04561422
000390 99 e1 90 bc 5b 8d a4 be 25 a2 e8 bd 2f 72 cf bd
       -0.017685698 -0.32139096 -0.113590516 -0.10129201
0003a0 0a 1a 38 be 52 50 1a be 07 45 e2 bd cf 70 64 be
       -0.17978683 -0.15069702 -0.11048322 -0.22308658
0003b0 d8 cf 54 3d 53 ec 07 be b5 39 8c bd 0c 57 91 3c
       0.051956028 -0.13273744 -0.06846944 0.017741702
0003c0 8f 67 7e 3d 67 de 87 bc 39 a0 d6 3b fc 3d e7 3c
       0.06211048 -0.016585542 0.0065498617 0.028227799
0003d0 c0 88 c0 bd b3 c4 79 be e8 f5 74 bd f1 ec 3f be
       -0.09401083 -0.24391441 -0.059804827 -0.1874273
0003e0 90 fb c4 3d 73 33 af 3a 6c 4c c5 bc 32 c1 33 3a
       0.09618294 0.0013366773 -0.024084292 0.00068570965
0003f0 0a 18 fb 3d 4b 92 80 3d bf b3 c5 bc 85 66 1d 3e
       0.122604445 0.06277903 -0.024133561 0.1537114

bias f4 [32]
000000 35 16 aa 3d 36 f1 52 bd e1 96 e4 bc 38 e8 b8 bd
       0.08305017 -0.051499568 -0.027903976 -0.09028667
000010 c7 6b d6 3c ea 3e 11 bd 2e c2 ff bc 1a d8 0d bd
       0.02617444 -0.03546039 -0.031220522 -0.03462992
000020 bd 4b 3e bd d6 a2 04 be 42 90 49 bd 36 f0 ad bd
       -0.04645895 -0.12952742 -0.04920984 -0.08493082
000030 da 47 88 bd a3 66 fd bd 77 d9 94 bd 9c c7 8e bd
       -0.066543296 -0.12373092 -0.072680406 -0.06971666
000040 76 9a 24 3d 72 b6 2b bd cf 61 05 bc 20 0f 57 3c
       0.040186368 -0.04192204 -0.008140995 0.013126165
000050 4f 17 cc bc a2 56 56 bd 76 5d 34 bd 21 4d 93 3c
       -0.024913458 -0.052328713 -0.044034444 0.017981114
000060 3e f2 72 bc ce 96 29 bd 7a 55 a8 bd fb 12 fe bb
       -0.014828263 -0.041403584 -0.08219428 -0.0077537275
000070 bd ab 58 3c 99 27 62 bc b7 ff 11 bd 39 e7 b2 3b
       0.013224539 -0.013803386 -0.03564426 0.005459693

weight f4 [5, 11552]
000000 ad e7 03 be 98 89 0c be e1 5a 0d be e9 7e f5 bd
       -0.12881346 -0.13724363 -0.13804199 -0.11987097
000010 26 0a 00 be b2 cd 05 be 98 f5 01 be 08 c6 f6 bd
       -0.12503871 -0.13066748 -0.12691343 -0.1204949
000020 7f 29 fe bd a5 44 fe bd de 09 f8 bd c4 28 f8 bd
       -0.124102585 -0.12415437 -0.12111257 -0.121171504
000030 26 6f e9 bd d6 f9 08 be a0 22 01 be 58 5c 0c be
       -0.11398153 -0.13376555 -0.12610865 -0.13707101
000040 d6 c4 f7 bd 4d e2 0b be ad 0f 14 be f2 09 0d be
       -0.1209809 -0.13660546 -0.14459105 -0.13773325
000050 f4 11 97 bd c3 0c 88 3d a5 93 c8 3d 2b 12 8a 3e
       -0.07376471 0.06643059 0.09793786 0.26966986
000060 75 6a b3 3e b1 5f 26 3e 2f 74 95 3e 48 b7 cd 3e
       0.35042158 0.16247441 0.29190204 0.40178895
000070 f4 f3 f2 3e 5b 42 bc 3e 32 97 e8 3e 3b cb ac 3e
       0.47451746 0.36769375 0.45427853 0.33748803
000080 04 3f e9 3e 8e 8b d7 3e 3a 17 da 3e e4 15 0e 3f
       0.4555589 0.4209866 0.42595845 0.5550215
000090 ed 87 23 3e 2f 7e 4a 3d dc 59 07 be a0 10 8e bd
       0.1596982 0.049436744 -0.13217872 -0.06936765
0000a0 bd 33 a4 3d 9a 08 9b 3e 0a 5c 0e 3e aa ef ad 3e
       0.08017681 0.3028 0.13902298 0.33971912
0000b0 34 cb b8 3e 60 2f cc 3e 07 22 cb 3e 6f b3 cb 3e
       0.36092532 0.39879894 0.39674398 0.39785334
0000c0 3c 4e 9e 3e e1 4b e7 3e 06 9e ee 3e b7 dd 07 3f
       0.30919063 0.4517508 0.46604937 0.53072685
0000d0 2a 01 16 3f 47 1d 11 3f ef 79 22 3f 7a 46 b8 3e
       0.58595526 0.566853 0.63467306 0.3599127
0000e0 66 1b 6e 3e 6c c8 08 be da b8 6a bd 41 d8 7e 3e
       0.23252639 -0.13357705 -0.057305194 0.24887182
0000f0 d6 ba ed 3d 1a 93 a6 3e dd 52 b9 3e 2b a9 05 3f
       0.11607902 0.32534105 0.36196032 0.52211255
000100 77 f8 bc 3e 73 d7 94 3e cb 90 80 3e 87 10 96 3e
       0.36908314 0.29070625 0.25110468 0.29309484
000110 53 bf c7 3e 10 40 d6 3e b0 96 b5 3e d7 ee ef 3e
       0.39013156 0.4184575 0.35466528 0.46861908
000120 70 53 2f 3f 96 68 40 3f ea 2e 03 3f 9f 48 8e 3e
       0.6848669 0.75159585 0.5124346 0.2778978
000130 44 88 f3 bd b6 bb 29 bb 11 7c 43 3e a6 84 53 3e
       -0.11891225 -0.0025899238 0.19090296 0.2065607
000140 b7 d6 d1 3e ce 9c bd 3e e7 f7 f4 3e 40 b8 c4 3e
       0.40984127 0.37033695 0.47845384 0.38421822
000150 2f 6c bf 3e 71 fd b1 3e 64 18 e3 3e de ac 89 3e
       0.37387225 0.34763673 0.44354546 0.268897
000160 d6 ee d5 3e d7 f1 8c 3e 12 01 f3 3e c6 22 11 3f
       0.4178378 0.2752826 0.47461754 0.56693685
000170 87 80 28 3f 15 3a 03 3f e8 06 82 3e 5b c0 ea bd
       0.6582112 0.512605 0.25395894 -0.1146247
000180 d3 df c4 bd 57 8f e2 3c 47 4a 5d 3e 52 b6 87 3e
       -0.096130036 0.02765624 0.21610366 0.26506287
000190 bd f6 ad 3e 95 e4 c3 3e 70 76 93 3e 54 09 be 3e
       0.3397731 0.38260332 0.28801298 0.37116492
0001a0 21 8d ec 3e 59 4e 95 3e f9 14 ae 3e 06 c0 c4 3e
       0.46201423 0.29161337 0.34000376 0.38427752
0001b0 da 56 a3 3e e7 4d 8d 3e 27 87 b3 3e 43 d1 23 3f
       0.319022 0.27598497 0.3506405 0.63991183
0001c0 d1 03 36 3f 9b d8 d1 3e af 69 c6 bd 14 77 86 bd
       0.71099573 0.4098557 -0.09688126 -0.06565681
0001d0 49 31 33 3e d6 62 22 3e ac 5b d1 3e 2b 65 82 3e
       0.1749927 0.15858015 0.40890253 0.2546781
0001e0 b6 92 6e 3e bc bd d8 3e b3 48 84 3e 4f cd b7 3e
       0.23298153 0.42332256 0.25836715 0.35898826
0001f0 40 6d 49 3e 02 ca 92 3e 03 2b 68 3e 38 69 82 3e
       0.19670582 0.28669745 0.22672658 0.254709
000200 79 51 60 3e 1a aa 80 3e 15 62 0f 3f 78 4e 3b 3f
       0.2190608 0.25129777 0.56009036 0.7316661
000210 4e 80 6c 3e e4 3d d0 bd db 7a 25 bb c6 91 75 3e
       0.2309582 -0.10168055 -0.002525023 0.2398139
000220 74 66 dc 3e 65 58 80 3e 5c c6 73 3e f5 36 71 3e
       0.43046916 0.2506744 0.23806137 0.2355612
000230 38 01 2f 3e 55 7d 8a 3e a4 4a 67 3e 18 83 91 3e
       0.17090309 0.27048746 0.22587067 0.2842033
000240 76 0b 02 3e ea b1 19 3e 0a 77 4a 3e c4 00 3e 3e
       0.12699685 0.15009275 0.19771972 0.1855498
000250 e8 25 6f 3e 10 ee f7 3e 5f 6e 36 3f e2 35 0b 3e
       0.23354304 0.48423815 0.7126216 0.13594773
000260 76 48 03 be b9 b1 10 3e 90 c8 3a 3e c9 da be 3e
       -0.1282061 0.14130296 0.18240571 0.37276295
000270 fe b3 9e 3e 33 ce b8 3e 09 5e 15 3e ad 7b 63 3e
       0.30996698 0.36094818 0.14586653 0.22215147
000280 59 94 6f 3d 75 c5 ae bc 00 25 4e bd 90 65 e4 3d
       0.058491085 -0.02133439 -0.050328255 0.11152184
000290 82 e3 9f 3d 2e 0c 93 3c 2d ca 6e 3e 68 57 14 3e
       0.078070655 0.017950144 0.23319311 0.14486468
0002a0 8f ee e3 3e 59 3d 48 3f aa 30 a0 3e 0d 19 00 be
       0.44517943 0.7821861 0.31287128 -0.12509556
0002b0 73 d2 68 3d a8 01 10 3e 98 74 a6 3e a5 c2 a8 3e
       0.056841325 0.14063132 0.3251083 0.32961002
0002c0 86 a4 9d 3e d9 19 4f 3e 94 cd 34 3e 45 69 8d 3d
       0.30789584 0.20224704 0.17656547 0.06904844
0002d0 6a 3e a2 be 42 65 87 be ca 58 70 bd 6b 9f 0d bd
       -0.31688243 -0.2644444 -0.058678426 -0.03457586
0002e0 db ec 6a 3d e4 9a 7a 3e f7 3c 8e 3e d0 a5 87 3e
       0.05735479 0.24473149 0.27780887 0.26493692
0002f0 a9 1d 51 3f a8 81 bd 3e 9c 89 c9 bd d9 fa b2 bc
       0.8168588 0.37012982 -0.098407 -0.02184813
000300 66 12 93 3e 0a 90 7b 3e dd 2d df 3e eb 03 a2 3e
       0.28724974 0.24566665 0.43589678 0.31643614
000310 61 ed 8f 3e 56 91 85 3e 30 a2 f7 3d 57 d9 ba bd
       0.28110793 0.26087445 0.12091482 -0.091234855
000320 db 71 0a be 01 07 f9 3c 4f 9e 41 3c bf dc 1a 3e
       -0.13519995 0.030398848 0.011817529 0.1512327
000330 d5 ae 88 3e 53 68 19 3e 5d 71 6d 3e a8 50 39 3f
       0.26695886 0.14981203 0.23187776 0.72388697
000340 b5 36 c3 3e bf ff ee bd 5f b3 2b bd 67 aa 9c 3e
       0.38127676 -0.116698734 -0.04191911 0.30598757
000350 51 45 b5 3e 66 8b d2 3e a5 8a b0 3e 7d 48 7f 3e
       0.35404447 0.41121978 0.34480777 0.24929996
000360 1f 45 8e 3e e3 d4 b7 3e d1 7a 63 3e 29 99 f7 3d
       0.2778711 0.35904607 0.2221482 0.1208976
000370 d8 c7 64 3e 38 aa 55 3e 65 c0 a2 3e f0 01 a8 3e
       0.2234186 0.20865715 0.3178741 0.32813978
000380 ce 8a b0 3e 3a 88 d5 3e 2c 2f 42 3f 99 1a ae 3e
       0.344809 0.41705495 0.7585323 0.34004667
000390 35 34 ea bd 13 8f 73 3d 40 f5 87 3e ca 8c b7 3e
       -0.11435739 0.059462618 0.26554298 0.358496
0003a0 b2 83 e9 3e d6 2a c4 3e 55 7d 98 3e 9a 96 eb 3e
       0.45608288 0.3831393 0.2978312 0.46013337
0003b0 76 b2 c3 3e 43 3f 5f 3e 88 61 8c 3e dd bf 96 3e
       0.38222092 0.21801476 0.2741816 0.29443255
0003c0 e8 d7 70 3e 0c d6 91 3e a4 27 ca 3e 7b e4 ca 3e
       0.23519862 0.28483617 0.39483368 0.39627442
0003d0 a8 a2 23 3f 4a f1 45 3f d9 48 be 3e 4b a4 03 be
       0.6392007 0.773213 0.37164953 -0.12855642
0003e0 59 41 85 3d 63 c9 cf 3e cc f1 39 3e b7 d9 91 3e
       0.06506605 0.40583333 0.18158644 0.28486416
0003f0 9b f5 d2 3e 18 24 f6 3e 3e ac ec 3e 4c 9d b1 3e
       0.41203007 0.48074412 0.4622516 0.3469032

bias f4 [5]
000000 29 62 f2 bd bd 68 e9 bd e1 23 d1 bd ed 79 cb bd
       -0.11835129 -0.1139693 -0.102119215 -0.09935365
000010 2e cf cf bd
       -0.10146938
