archived_data/b1_r0_m8_s100--2019-03-03--165203.596044/episode_9500.model (torch_old, 268278 bytes, 8 tensors)

weight f4 [6, 6, 3, 3]
-0.0989026 0.08754997 0.0066260546 0.13156396 -0.01608827 -0.024815366 -0.011826925 0.09217939
-0.048001535 0.10874763 0.051413994 0.020380845 -0.07712708 0.042992353 -0.032402568 -0.093584985
-0.03494701 -0.041030854 0.11499967 0.07849625 0.07025211 0.011695319 0.13140215 0.0303822
0.079969466 0.08805583 0.036140975 -0.06899242 -0.05695782 -0.103625044 0.039438233 0.09549007
-0.062022947 0.08206484 -0.12114667 0.04216516 0.1338711 0.015953002 -0.07125352 -0.24421482
0.024122067 -0.16519849 -0.42859977 -0.2990213 -0.098304816 0.102813505 0.045603607 0.01897623
0.050545182 0.033883534 -0.09401656 0.113769084 -0.04462315 -0.008809353 -0.09898791 0.106147885
0.07836604 -0.10956599 0.11757594 -0.06769043 0.09143104 0.023604289 -0.0793014 -0.076113686
-0.052602816 0.07690573 0.04361949 -0.016557066 0.0840379 0.05541537 0.079361685 0.01656282
-0.0003400443 -0.031713024 0.037785187 0.009593985 0.016951133 0.101044476 0.050028652 0.06362126
0.01960363 0.087184876 -0.0047206283 0.06489658 0.011610091 0.061124444 0.09023325 -0.05302257
-0.014743537 0.09419365 0.22512905 -0.3769408 -0.32041076 0.17675503 -0.18627197 0.10048689
0.09704703 0.20554699 0.2734409 0.12403706 -0.08063202 0.073002316 0.028845064 0.06724721
-0.07957514 -0.055715673 -0.011557219 0.06980024 0.061362177 0.03201264 -0.0652231 0.100899264
0.042195097 -0.0856168 -0.1022894 0.13308746 -0.022568233 0.05291497 0.052250933 0.036133733
0.0021505195 0.0049367007 -0.17608197 -0.02068227 0.079216674 0.014093013 0.06308288 0.07050885
0.057929534 0.039939858 0.024651075 -0.111463755 0.045582384 0.07769092 0.0123593565 -0.038927376
-0.08389048 -0.049961805 -0.014928535 -0.021312818 0.11138584 -0.04168068 0.024843767 0.037637815
-0.031937055 0.012834601 0.19954672 0.22314163 0.15711309 -0.3378933 0.09383982 0.19172128
-0.12697951 0.044547908 -0.005681736 0.036232706 -0.06396864 -0.09316064 -0.16036993 -0.07750367
0.026460245 -0.091862984 0.09874566 0.12700939 0.12426171 0.11717251 -0.06729436 -0.0028953254
-0.12759839 -0.023696266 -0.095670134 -0.021451535 0.006327096 0.039942782 0.03533163 0.017171994
-0.024728509 -0.012026194 -0.0047628917 0.05398326 0.026071535 0.05231935 0.07578049 0.08908776
0.059582163 0.04759204 0.020218356 0.036616854 0.0889596 0.059393436 -0.047799125 0.077635184
-0.035260238 -0.1284027 -0.08459376 -0.12803987 -0.07306849 -0.12930039 0.043304317 0.13561434
-0.28620794 -0.08106622 -0.4200229 -0.26496238 0.12447365 0.18882102 -0.32438713 0.0146507975
-0.04937285 0.06857891 -0.15026845 0.044895604 0.039278883 0.1217368 -0.045826614 0.010091849
0.08847006 0.12129402 0.021177188 0.020337582 0.10143301 0.12190831 -0.039347313 0.05337149
0.049739152 0.061748 -0.07066682 0.09579735 -0.027432177 -0.036012124 0.09288409 -0.015483322
-0.045061905 -0.020346416 0.034977883 -0.047152057 -0.00034571587 -0.04567969 -0.055819426 0.04321719
-0.06982214 0.012544421 -0.05954777 0.118190646 0.05884725 0.062719986 -0.05224768 -0.023546048
-0.11159935 -0.123616554 -0.10416311 -0.10653592 0.2092275 0.04116878 0.21804118 0.12451588
00000000: 728d cabd 664d b33d 601f d93b b4b8 063e
00000010: 8ccb 83bc 9849 cbbc b8c5 41bc 8cc8 bc3d
00000020: 429d 44bd 14b7 de3d 7b97 523d bbf5 a63c
00000030: cdf4 9dbd c018 303d 8eb8 04bd 7ca9 bfbd
00000040: 9924 0fbd f80f 28bd f284 eb3d a4c2 a03d
00000050: 57e0 8f3d b99d 3f3c 498e 063e 17e4 f83c
00000060: 08c7 a33d 9d56 b43d 8f08 143d e64b 8dbd
00000070: 9a4c 69bd 5e39 d4bd fc89 213d 4c90 c33d
00000080: c60b 7ebd 9c11 a83d bf1b f8bd 60b5 2c3d
00000090: 8115 093e dfaf 823c 5eed 91bd 7313 7abe
000000a0: a49b c53c cb29 29be 6e71 dbbe 5219 99be
000000b0: 0954 c9bd e38f d23d d9ca 3a3d 0a74 9b3c
000000c0: 7708 4f3d 76c9 0a3d c18b c0bd c4ff e83d
000000d0: c4c6 36bd 1b55 10bc 2cba cabd 1064 d93d
000000e0: 607e a03d 2264 e0bd a8cb f03d 48a1 8abd
000000f0: 3240 bb3d c85d c13c c668 a2bd 7ee1 9bbd
00000100: 0d76 57bd c080 9d3d 5aaa 323d afa2 87bc
00000110: 101c ac3d 3afb 623d 6188 a23d c0ae 873c
00000120: f947 b2b9 84e5 01bd a4c4 1a3d 1730 1d3c
00000130: 1add 8a3c 68f0 ce3d d8ea 4c3d dd4b 823d
00000140: cb97 a03c fc8d b23d 80af 9abb 80e8 843d
00000150: 4038 3e3c a05d 7a3d 36cc b83d 322e 59bd
00000160: e08e 71bc 9ae8 c03d 3b88 663e 62fe c0be
00000170: e10c a4be 45ff 343e 14be 3ebe 12cc cd3d
00000180: 98c0 c63d e97a 523e 7200 8c3e 2407 fe3d
00000190: 6722 a5bd 3d82 953d 7c4c ec3c e8b8 893d
000001a0: 4af8 a2bd 1e36 64bd 7d5a 3dbc 6ef3 8e3d
000001b0: e856 7b3d b01f 033d b093 85bd 46a4 ce3d
000001c0: c4d4 2c3d dc57 afbd 1b7d d1bd 1448 083e
000001d0: 04e1 b8bc 5ebd 583d 1305 563d f700 143d
000001e0: bbef 0c3b 0cc4 a13b d54e 34be dd6d a9bc
000001f0: 5a3c a23d 61e6 663c 9931 813d f266 903d
00000200: 8547 6d3d fa97 233d 0df1 c93c 1c47 e4bd
00000210: 98b4 3a3d 6b1c 9f3d e67e 4a3c 5072 1fbd
00000220: c6ce abbd c0a4 4cbd d096 74bc 3898 aebc
00000230: 421e e43d 5cb9 2abd 2885 cb3c 1c2a 1a3d
00000240: 6ed0 02bd 3848 523c fa55 4c3e 3d7f 643e
00000250: 41e2 203e 5a00 adbe 172f c03d 9552 443e
00000260: eb06 02be de77 363d db2d babb bf68 143d
00000270: fe01 83bd 01cb bebd 0438 24be 3eba 9ebd
00000280: 28c3 d83c a922 bcbd 2a3b ca3d c00e 023e
00000290: ec7c fe3d 24f8 ef3d a0d1 89bd 80bf 3dbb
000002a0: 27a9 02be ac1e c2bc b4ee c3bd 21bb afbc
000002b0: 8753 cf3b 0b9b 233d e6b7 103d 48ac 8c3c
000002c0: 7193 cabc 8309 45bc 0812 9cbb 8d1d 5d3d
000002d0: f993 d53c d14c 563d cd32 9b3d a573 b63d
000002e0: 6d0c 743d dfef 423d f7a0 a53c 8efb 153d
000002f0: 7330 b63d 8846 733d 04c9 43bd 32ff 9e3d
00000300: 0a6d 10bd ff7b 03be 7e3f adbd e21c 03be
00000310: efa4 95bd 5267 04be de5f 313d 7cde 0a3e
00000320: d989 92be 0c06 a6bd 3e0d d7be 26a9 87be
00000330: 0aec fe3d 4c5a 413e 1216 a6be e609 703c
00000340: 303b 4abd 1973 8c3d f9df 19be 74e4 373d
00000350: e5e2 203d 2551 f93d b0b4 3bbd 4858 253c
00000360: ca2f b53d 0069 f83d c87b ad3c 009b a63c
00000370: 1cbc cf3d 10ab f93d a62a 21bd 109c 5a3d
00000380: 48bb 4b3d 79eb 7c3d c4b9 90bd 6731 c43d
00000390: 72b9 e0bc 7381 13bd 043a be3d c2ad 7dbc
000003a0: d592 38bd 87ad a6bc f844 0f3d 8422 41bd
000003b0: 3341 b5b9 a01a 3bbd e9a2 64bd 8204 313d
000003c0: e9fe 8ebd 1d87 4d3c 5de8 73bd f00d f23d
000003d0: d009 713d 5673 803d aa01 56bd a4e3 c0bc
000003e0: 338e e4bd ad2a fdbd 7853 d5bd 812f dabd
000003f0: bc3f 563e 98a0 283d 3046 5f3e 2f02 ff3d

bias f4 [6]
-0.11316969 -0.10430894 0.088269636 -0.16515009 0.029129365 -0.056950826
00000000: 83c5 e7bd ed9f d5bd b6c6 b43d 1b1d 29be
00000010: b5a0 ee3c 4545 69bd

weight f4 [16, 6, 3, 3]
-0.112304576 0.09723605 0.06944139 0.08041802 -0.07602451 -0.09848262 -0.1590862 -0.0699894
0.105777815 -0.017530346 0.10467188 0.12359841 -0.08804859 0.009654902 -0.03468965 -0.103274815
-0.03985432 -0.107152894 0.07847605 0.09299282 -0.029704383 0.0630323 0.053062316 0.10425168
-0.05983882 0.07023993 0.2177606 0.034781646 -0.091415375 -0.068591624 0.19330253 0.14793529
0.039296526 -0.10564926 -0.19216329 0.23842987 -0.033417318 -0.045121018 -0.10052304 -0.045902926
-0.051080443 0.057637367 -0.043409575 -0.0056821257 0.16622324 0.029688405 -0.07767227 0.13627777
-0.10929602 -0.03137691 0.0026958329 0.07184382 -0.07800748 0.0045974543 -0.17389706 -0.07893427
0.10484437 0.008713115 0.05771882 -0.01139748 -0.10563389 0.09323074 0.0812901 0.107791655
0.030799694 -0.19377181 -0.06849492 0.047339313 -0.06754059 -0.119134426 0.057766497 0.09664449
0.074075714 -0.2022693 0.013977643 -0.18886925 -0.13429457 0.23592176 -0.20551363 -0.059337277
0.043017782 0.18484202 0.17776757 0.1813471 0.11711908 -0.0025266341 0.13609529 0.042621113
-0.18940975 0.06515602 -0.0013472245 0.06303091 0.07221843 0.028037244 -0.07133874 -0.1433145
0.09730017 -0.13830893 -0.15358579 0.16725923 -0.20515642 -0.10296869 0.11392181 -0.12582773
0.005084491 -0.069721825 0.082792595 0.16830435 0.02354172 0.065428 -0.17478584 -0.18687297
0.08398314 0.009145871 0.020183621 0.009611964 0.07709565 -0.09309821 -0.14091617 0.09601468
-0.0040109227 0.055371076 0.11642381 -0.12767556 -0.028446013 -0.17483202 -0.14387701 0.047200736
-0.15640248 -0.12673222 -0.04700911 -0.11790539 0.13217062 0.0335255 -0.027451068 0.123979725
-0.10415224 0.007165588 -0.024547279 -0.20656706 -0.20558274 -0.18869579 -0.09861081 -0.0065056947
-0.09554059 -0.01953922 -0.20048647 0.10622944 0.017611703 0.0018759631 0.12008718 -0.09693991
0.019152114 0.030660452 0.22052668 0.013439291 -0.0723446 0.1634079 -0.05502854 0.08727171
-0.12887616 -0.038206596 -0.018817201 -0.21155208 0.06261296 -0.07246725 -0.19115987 0.009235728
-0.27687368 -0.08393328 -0.1500893 0.0052893893 0.11191467 0.016309272 0.11945266 -0.048577268
0.07246795 -0.006651762 0.16292326 -0.028929336 -0.20650147 -0.06005684 -0.06262956 -0.05869137
0.061911456 0.10098007 0.014196637 -0.12770383 -0.036225826 -0.026122957 0.019457519 0.11643526
0.12501127 -0.14107305 -0.21888876 0.10217775 -0.23359062 -0.17092368 -0.021405075 0.13752548
-0.01827069 -0.06282719 -0.101682276 -0.023938367 -0.10575071 0.077237494 0.12959318 -0.0683877
-0.078528374 -0.15454577 -0.03412801 -0.2769677 -0.0011602873 -0.24109285 -0.20216154 -0.16882597
-0.0289619 -0.044526074 -0.025756838 0.04369597 0.20082015 0.09997877 0.111591935 -0.0364132
-0.0147787975 -0.042476095 -0.11342292 -0.054096155 -0.1763001 -0.001164934 0.06458771 -0.002318923
0.08273091 0.16231635 -0.22931418 -0.06802549 -0.042833082 -0.27957386 0.054233167 -0.028688574
0.09222844 0.053209066 0.008376847 -0.0001578824 0.22125955 -0.08934824 0.01843293 -0.052852493
-0.021441765 0.19122256 0.017466726 0.19060735 -0.17233925 -0.07463364 0.065215215 -0.15204357
00000000: f1ff e5bd b223 c73d 4a37 8e3d 34b2 a43d
00000010: bdb2 9bbd 42b1 c9bd 7ee7 22be 9a56 8fbd
00000020: 0aa2 d83d cd9b 8fbc 365e d63d 2a21 fd3d
00000030: d252 b4bd 982f 1e3c bc16 0ebd bf81 d3bd
00000040: 493e 23bd fa72 dbbd 0db8 a03d 0573 be3d
00000050: 9b56 f3bc 1417 813d df57 593d e881 d53d
00000060: 8d19 75bd f4d9 8f3d a2fc 5e3e 3377 0e3d
00000070: fc37 bbbd c479 8cbd 19f1 453e 597c 173e
00000080: 65f5 203d a45e d8bd 74c6 44be f626 743e
00000090: 99e0 08bd d1d0 38bd 06df cdbd b504 3cbd
000000a0: ba39 51bd 2915 6c3d 3dce 31bd 2031 babb
000000b0: 6d36 2a3e 1935 f33c a412 9fbd 668c 0b3e
000000c0: 97d6 dfbd 1385 00bd 92ac 303b da22 933d
000000d0: 63c2 9fbd 3ea6 963b 1212 32be 4aa8 a1bd
000000e0: a5b8 d63d 74c1 0e3c 926a 6c3d 7fbc 3abc
000000f0: 9556 d8bd c2ef be3d 6d7b a63d dfc1 dc3d
00000100: a44f fc3c 1e6c 46be 1147 8cbd dee6 413d
00000110: b952 8abd c0fc f3bd 909c 6c3d 8ced c53d
00000120: 02b5 973d af1f 4fbe 7c02 653c f166 41be
00000130: 8484 09be 7995 713e 2a72 52be a50b 73bd
00000140: 6a33 303d 3a47 3d3e b408 363e 0eb3 393e
00000150: 21dc ef3d e395 25bb 905c 0b3e 7a93 2e3d
00000160: a1f4 41be 8570 853d 5a95 b0ba 5a16 813d
00000170: 42e7 933d 5dae e53c 0c1a 92bd 09c1 12be
00000180: 5045 c73d dba0 0dbe 9845 1dbe 0146 2b3e
00000190: 8614 52be 40e1 d2bd d74f e93d fcd8 00be
000001a0: cd9b a63b 51ca 8ebd 2a8f a93d fa57 2c3e
000001b0: 91da c03c 1eff 853d 0ffb 32be a15b 3fbe
000001c0: 5aff ab3d 90d8 153c 1f58 a53c 807b 1d3c
000001d0: 53e4 9d3d 46aa bebd 544c 10be 58a3 c43d
000001e0: 0f6e 83bb c8cc 623d 9b6f ee3d 62bd 02be
000001f0: 9d07 e9bc 2a07 33be 7f54 13be 8f55 413d
00000200: f927 20be 17c6 01be a08c 40bd 6278 f1bd
00000210: bc57 073e 0952 093d 10e1 e0bc 15e9 fd3d
00000220: c54d d5bd 4fcd ea3b 6017 c9bc 5186 53be
00000230: 4884 52be 7839 41be 77f4 c9bd b92d d5bb
00000240: c9aa c3bd b710 a0bc 534c 4dbe d28e d93d
00000250: 6b46 903c e0e2 f53a 44f0 f53d 6e88 c6bd
00000260: e5e4 9c3c a12b fb3c bfd1 613e 7930 5c3c
00000270: 6829 94bd 6754 273e 9b65 61bd 83bb b23d
00000280: 1df8 03be 857e 1cbd 8826 9abc 1ca1 58be
00000290: 393b 803d b669 94bd 6abf 43be 7351 173c
000002a0: 63c2 8dbe 36e5 abbd 02b1 19be 9d52 ad3b
000002b0: 8533 e53d 069b 853c 99a3 f43d f5f8 46bd
000002c0: 146a 943d 06f7 d9bb 5bd5 263e 37fd ecbc
000002d0: 1f75 53be 29fe 75bd ed43 80bd 5d66 70bd
000002e0: de96 7d3d a4ce ce3d 0399 683c cbc4 02be
000002f0: 8861 14bd d0ff d5bc 6065 9f3c 9c75 ee3d
00000300: f402 003e 7475 10be 6024 60be 9142 d13d
00000310: 6132 6fbe 9e06 2fbe b259 afbc 7bd3 0c3e
00000320: 6aac 95bc 8bab 80bd cc3e d0bd 651a c4bc
00000330: d493 d8bd b12e 9e3d 13b4 043e da0e 8cbd
00000340: 7cd3 a0bd 3f41 1ebe d0c9 0bbd b6ce 8dbe
00000350: c814 98ba 0be1 76be 6f03 4fbe b7e0 2cbe
00000360: 8241 edbc f960 36bd 0100 d3bc 8cfa 323d
00000370: cca3 4d3e abc1 cc3d 508a e43d 0226 15bd
00000380: c522 72bc 6afb 2dbd 474a e8bd ee93 5dbd
00000390: 0388 34be b3b0 98ba 9046 843d 12f9 17bb
000003a0: d36e a93d 4236 263e 56d1 6abe f350 8bbd
000003b0: be71 2fbd 4e24 8fbe 9923 5e3d 4d04 ebbc
000003c0: 44e2 bc3d c0f1 593d 0b3f 093c 3c8d 25b9
000003d0: dd91 623e 36fc b6bd a800 973c db7b 58bd
000003e0: a4a6 afbc d9cf 433e 6116 8f3c 932e 433e
000003f0: b379 30be 86d9 98bd 8e8f 853d 4fb1 1bbe

bias f4 [16]
-0.029956115 0.010031835 0.049156696 0.008678271 0.0059182663 -0.09607751 -0.0017811571 0.014130106
-0.05206709 0.032691035 0.03929769 0.028685253 -0.06830438 0.10476819 0.027930927 0.10055925
00000000: 8766 f5bc 915c 243c 8858 493d 4f2f 0e3c
00000010: 04ee c13b 49c4 c4bd b775 e9ba f681 673c
00000020: 4d44 55bd 09e7 053d 9df6 203d 56fd ea3c
00000030: 2be3 8bbd b490 d63d 66cf e43c 02f2 cd3d

weight f4 [32, 16, 3, 3]
0.0024979755 -0.093696944 -0.08914927 0.013677958 0.04410821 0.054294027 -0.0634683 0.025566751
-0.07720232 -0.12419837 -0.058592174 0.081803165 0.078718096 0.008409212 0.14851981 0.055125732
0.05387856 0.09837159 -0.05111976 -0.018334348 -0.0883673 -0.05329406 0.003374879 0.072895974
0.016217727 0.113012634 0.02119511 -0.017754657 -0.11358924 -0.044359885 0.0051160357 0.06371395
0.005123766 -0.018142551 0.044229057 -0.023926286 -0.060138255 -0.05288268 0.0051176157 -0.12258803
-0.06956837 0.026906433 -0.027395159 0.057222255 0.00039574943 -0.04472095 -0.12770306 -0.058022022
-0.09218823 -0.110523954 0.007530674 -0.08806911 -0.0533555 -0.12717162 0.095078915 -0.0537792
-0.12787545 -0.0299476 -0.11160755 -0.24679954 0.01417973 0.026627177 -0.21600695 -0.013795632
-0.14678952 -0.06677542 -0.0016797622 -0.06993544 -0.04460979 0.009367721 0.06042162 -0.030363541
-0.1891304 -0.13445164 -0.13737746 0.05334498 -0.10729408 -0.19224085 -0.0013573702 -0.12863226
-0.27696633 -0.11187494 -0.07683353 0.030255582 -0.09381183 0.061717063 -0.01164326 0.043423314
-0.022125468 -0.017655306 -0.0330608 -0.0315883 -0.006537778 -0.035957545 -0.024952956 0.14016744
-0.063517876 -0.07907703 0.03305276 -0.04877236 0.023588901 0.10343888 0.06014898 -0.009671035
0.011689661 0.054366816 -0.011780541 0.116906606 0.012855429 -0.09651961 -0.12268801 0.064151324
-0.06667922 0.041442215 0.04142935 0.031178722 -0.057456717 -0.054639507 -0.0028394843 -0.0318751
-0.016784258 0.06532592 0.033436086 -0.009291293 -0.036655325 -0.0039791255 -0.11390592 -0.12531686
-0.052298676 -0.10784691 0.050763685 0.011988969 -0.0912308 0.023795743 -0.09057913 -0.030859776
0.00792015 -0.05958519 -0.009052691 -0.086242355 0.07643803 0.06367306 0.043220736 -0.008505042
0.04906194 0.08655573 -0.21020757 0.13586667 0.00402086 -0.0008181494 0.026145438 -0.01816535
0.10580316 0.06593936 0.048220195 0.01869443 0.096101224 0.025407689 -0.042109072 0.0421714
0.008092299 0.012391084 0.02466293 0.112026334 -0.052128427 0.110987425 0.09029267 -0.0075406646
0.06024465 0.008975894 0.041567508 -0.04193135 -0.04423035 -0.09415423 -0.09468809 -0.07315203
-0.090109825 -0.079960674 -0.029522274 -0.07680012 0.16084373 0.03808579 0.12043846 -0.060508337
-0.04638808 0.07650774 -0.139768 -0.023420312 -0.017970197 0.003173122 0.02722701 0.09948439
0.20390356 0.13643432 0.14729768 0.08364829 0.08884923 0.10967238 0.07393901 0.030390698
-0.088035025 -0.0029827335 0.11386874 0.0040728147 0.09005312 0.13776563 0.081628546 0.052575827
0.005558625 0.056423806 0.07603069 0.08832114 0.06811967 -0.0035512492 -0.017426841 0.09272255
0.03695422 0.028501503 0.069190465 -0.011182662 0.05415169 0.056422237 -0.06367974 0.08409921
0.1464081 0.041658282 0.010524058 0.059386406 -0.045783233 -0.07827381 -0.017067267 -0.021631172
-0.05188573 -0.051089186 0.034665395 0.046824735 0.037998237 -0.0112255085 0.0043513807 -0.0134437
0.088645235 0.021949556 -0.021452708 0.05565507 -0.04616632 -0.1592063 0.014956191 -0.12270012
0.088931225 0.08324071 0.042337522 -0.032107104 0.16088028 0.10376021 0.02449223 0.19948985
00000000: 13b5 233b 2fe4 bfbd e493 b6bd 8419 603c
00000010: cfaa 343d 6a63 5e3d abfb 81bd 5d71 d13c
00000020: 401c 9ebd b75b febd 59fe 6fbd 6b88 a73d
00000030: f436 a13d cbc6 093c 9415 183e 85cb 613d
00000040: c4af 5c3d 0b77 c93d f462 51bd ea31 96bc
00000050: eaf9 b4bd df4a 5abd 132d 5d3b 7c4a 953d
00000060: 0adb 843c 2b73 e73d 5ea1 ad3c 3772 91bc
00000070: 7aa1 e8bd b6b2 35bd 6ba4 a73b 767c 823d
00000080: 44e5 a73b b09f 94bc 8729 353d 0f01 c4bc
00000090: 8853 76bd 829b 58bd acb1 a73b 6f0f fbbd
000000a0: dd79 8ebd e16a dc3c d06b e0bc e261 6a3d
000000b0: 977c cf39 512d 37bd 97c4 02be 80a8 6dbd
000000c0: 2fcd bcbd 625a e2bd dfc3 f63b 945d b4bd
000000d0: 4c8b 5abd 4739 02be bcb8 c23d 9447 5cbd
000000e0: c8f1 02be ab54 f5bc 8092 e4bd 05b9 7cbe
000000f0: 1952 683c 3d21 da3c ed30 5dbe 1307 62bc
00000100: fe4f 16be 8dc1 88bd 772b dcba 503a 8fbd
00000110: c1b8 36bd 127b 193c a97c 773d f6bc f8bc
00000120: 66ab 41be b1ad 09be adac 0cbe 4480 5a3d
00000130: 00bd dbbd c9da 44be c9e9 b1ba 2db8 03be
00000140: 88ce 8dbe b01e e5bd e65a 9dbd 8eda f73c
00000150: 6b20 c0bd 08cb 7c3d 5fc3 3ebc a5dc 313d
00000160: 7840 b5bc dca1 90bc c36a 07bd bc62 01bd
00000170: db3a d6bb 3848 13bd 246a ccbc 0e88 0f3e
00000180: a915 82bd 23f3 a1bd 5562 073d 87c5 47bd
00000190: 833d c13c c3d7 d33d c75e 763d 4373 1ebc
000001a0: fe85 3f3c bdaf 5e3d 2c03 41bc bb6c ef3d
000001b0: 949f 523c 13ac c5bd da43 fbbd c561 833d
000001c0: 1d8f 88bd 50bf 293d d2b1 293d 856a ff3c
000001d0: bc57 6bbd adcd 5fbd a416 3abb 778f 02bd
000001e0: 247f 89bc 99c9 853d 47f4 083d 823a 18bc
000001f0: e523 16bd 5363 82bb 8247 e9bd 1053 00be
00000200: 2337 56bd d7de dcbd 95ed 4f3d 616d 443c
00000210: 37d7 babd 4aef c23c 8d81 b9bd a4cd fcbc
00000220: 84c3 013c 9a0f 74bd bd51 14bc d59f b0bd
00000230: 8b8b 9c3d 0567 823d 3a08 313d bb58 0bbc
00000240: 2cf5 483d 2144 b13d a740 57be a220 0b3e
00000250: 6bc1 833b 1479 56ba f52e d63c 80cf 94bc
00000260: 54af d83d 370b 873d 8a82 453d 1025 993c
00000270: b8d0 c43d c923 d03c 907a 2cbd ebbb 2c3d
00000280: 9095 043c f903 4b3c ea09 ca3c 106e e53d
00000290: 9e84 55bd 604d e33d 5deb b83d ae17 f7bb
000002a0: 18c3 763d a10f 133c b142 2a3d 35c0 2bbd
000002b0: e22a 35bd efd3 c0bd d4eb c1bd bbd0 95bd
000002c0: 808b b8bd 6cc2 a3bd b2d8 f1bc 6249 9dbd
000002d0: 38b4 243e d8ff 1b3d 70a8 f63d 97d7 77bd
000002e0: 6d01 3ebd 17b0 9c3d 581f 0fbe f4db bfbc
000002f0: 3c36 93bc 27f4 4f3b 2e0b df3c 79be cb3d
00000300: 18cc 503e 70b5 0b3e 34d5 163e cb4f ab3d
00000310: 96f6 b53d ea9b e03d 566d 973d eaf5 f83c
00000320: b54b b4bd f779 43bb 0434 e93d 3f75 853b
00000330: c56d b83d 6f12 0d3e de2c a73d c059 573d
00000340: 2025 b63b a61c 673d fab5 9b3d b7e1 b43d
00000350: 5382 8b3d 13bc 68bb bcc2 8ebc 52e5 bd3d
00000360: 4f5d 173d fc7b e93c bbb3 8d3d 7c37 37bc
00000370: 2ace 5d3d 011b 673d 866a 82bd 353c ac3d
00000380: 01ec 153e e0a1 2a3d 196d 2c3c 293f 733d
00000390: 3387 3bbd 054e a0bd a7d0 8bbc db33 b1bc
000003a0: 2286 54bd e542 51bd 4dfd 0d3d 4bcb 3f3d
000003b0: 0aa4 1b3d 32eb 37bc 0796 8e3b f742 5cbc
000003c0: a28b b53d 8ecf b33c 97bd afbc 92f6 633d
000003d0: e518 3dbd fa06 23be d00a 753c 334a fbbd
000003e0: 9321 b63d 1b7a aa3d 1c6a 2d3d bd82 03bd
000003f0: cdbd 243e 3c80 d43d eea3 c83c 1147 4c3e

bias f4 [32]
0.059343133 -0.028522622 -0.01299007 -0.07088239 0.03398847 -0.015417349 0.0053367913 -0.021636564
-0.02567946 -0.063294165 -0.030333772 -0.016981764 -0.035011128 -0.071384385 -0.049413636 -0.045756437
0.030166654 -0.026306761 -0.0049858307 0.020596089 -0.0005748435 0.0060817115 -0.040169835 0.026583275
-0.019136665 -0.010396177 -0.08219428 0.016223814 0.029197998 0.009617292 -0.008881218 0.013110101
00000000: c911 733d 46a8 e9bc 4dd4 54bc c92a 91bd
00000010: 7e37 0b3d 0c99 7cbc 40e0 ae3b 2a3f b1bc
00000020: bb5d d2bc 5fa0 81bd 887e f8bc 571d 8bbc
00000030: d467 0fbd fa31 92bd f465 4abd 1a6b 3bbd
00000040: 0f20 f73c 4781 d7bc 2e60 a3bb 21b9 a83c
00000050: 18b1 16ba 1849 c73b 2089 24bd 2bc5 d93c
00000060: 7fc4 9cbc ba54 2abc 7a55 a8bd cee7 843c
00000070: a430 ef3c d991 1d3c 8782 11bc c0cb 563c

weight f4 [5, 11552]
-0.06006207 -0.06005362 -0.05937731 -0.04419324 -0.0534156 -0.05659325 -0.053232607 -0.053557087
-0.05099289 -0.048896845 -0.04168599 -0.039485585 -0.032633297 -0.05315799 -0.042289875 -0.050897174
-0.039154604 -0.05564473 -0.060216624 -0.053408973 0.030121097 0.039206788 0.041108537 0.081996396
0.08616485 0.04531147 0.0675979 -0.028121674 0.057987843 0.014144925 0.053034067 0.122471265
0.11974569 0.035776544 0.076280124 0.111493185 0.059580225 -0.014685972 -0.044513203 0.030985566
0.100035325 0.07967288 0.09132318 0.05621025 -0.012049145 -0.015018366 0.0023084187 0.069621846
0.05103232 0.09113113 0.1002996 0.13288257 0.15569274 0.12725401 0.10564821 0.012345525
0.028914396 -0.05916147 -0.010915677 -0.012578257 0.008375613 0.019882152 0.014115166 0.010348756
0.060397126 0.02145359 0.06793254 0.050095044 0.061830543 0.0790171 0.055465527 0.11530021
0.12575962 0.10298423 0.051908758 0.04280621 -0.038782686 0.03133707 0.08473039 0.046199776
0.05825903 0.040764347 0.052120347 0.10526129 0.058999833 0.05385308 0.014892945 0.059056625
0.048725504 0.01383311 0.11809229 0.07227752 0.05480099 0.08070954 0.025628744 -0.04180895
-0.031164275 -0.008536665 0.07939883 0.00532154 0.060649868 0.00065774994 -0.016871104 0.023323596
0.05618972 0.025306804 0.09136386 0.039485384 0.030666042 0.033418175 0.040354684 0.14804561
0.12977152 0.016372528 -0.033648763 0.033054307 0.08805915 0.03236718 0.08442089 0.08711634
-0.008362255 -0.012010979 -0.002962305 -0.015038558 -0.0505806 0.014093469 0.033480402 0.059773065
0.017172245 0.038280137 0.11202549 0.10013532 0.026624955 -0.036936365 -0.0018563678 0.050135884
0.05800734 0.09142912 0.07588322 -0.017249756 0.046856012 -0.010431116 -0.009689211 0.05766961
0.030388137 0.03883223 0.09507002 0.13925098 0.03426176 0.073974006 0.039778978 0.0062998347
-0.053921662 -0.009519658 0.014217507 -0.02191527 -0.036935307 0.0372854 0.028404599 -0.02170156
-0.10873244 -0.076063834 0.018122181 -0.031468224 0.031413466 0.0039683017 0.027715815 0.049134586
0.096960545 -0.01784396 -0.0018156273 -0.054825783 -0.031725805 0.044973247 -0.002440781 -0.04847461
0.050553303 -0.022663644 -0.057276215 -0.04819482 -0.03898975 -0.06745482 -0.04033984 0.021782152
-0.019187735 0.030710466 0.06597351 0.063339435 0.038236894 -0.0028136296 -0.031137958 -0.031066306
0.057067413 0.028633388 0.019514747 0.07027816 -0.01293058 -0.050272986 -0.033924226 -0.098780304
-0.014636508 -0.031742178 0.0063736266 -0.0004796086 0.008807378 0.10341724 -0.00876444 -0.005473797
0.0031362122 -0.037444826 -0.018682903 0.05766075 -0.0042056087 0.009173579 0.026081668 0.0006297011
0.024700597 0.023979073 -0.0038645337 0.012754084 -0.00594502 0.06034444 0.048360523 0.032916136
0.020702299 0.035761822 0.024482658 -0.03078818 -0.034905 0.029464098 0.033871535 -0.050870363
-0.013653998 0.03597317 0.059230864 0.052915752 0.046299864 -0.018576482 0.024163347 -0.005516774
0.050427392 0.042159848 0.0809996 0.08187021 0.0697748 0.015451138 -0.03498594 -0.04294878
-0.047600847 0.005462299 -0.04846862 -0.030281268 0.03821127 0.07587052 0.044151302 0.05945171
00000000: a503 76bd c9fa 75bd 9f35 73bd f903 35bd
00000010: 51ca 5abd 53ce 67bd 6f0a 5abd ad5e 5bbd
00000020: ecdd 50bd 0f48 48bd eebe 2abd a3bb 21bd
00000030: 7eaa 05bd 31bc 59bd 2638 2dbd 8e79 50bd
00000040: 9460 20bd baeb 63bd b5a5 76bd 5ec3 5abd
00000050: 85c0 f63c 4c97 203d 6d61 283d baed a73d
00000060: 3277 b03d 8598 393d c570 8a3d 6d5f e6bc
00000070: a984 6d3d 1ec0 673c 403a 593d 37d2 fa3d
00000080: 3a3d f53d 6d8a 123d c138 9c3d 8a56 e43d
00000090: 650a 743d 6e9d 70bc 7a53 36bd 71d5 fd3c
000000a0: 52df cc3d 892b a33d a607 bb3d b83c 663d
000000b0: c769 45bc 980f 76bc d748 173b e695 8e3d
000000c0: 4407 513d f5a2 ba3d e069 cd3d 5e12 083e
000000d0: eb6d 1f3e e04e 023e 175e d83d e344 4a3c
000000e0: e2dd ec3c 4c53 72bd abd7 32bc 0915 4ebc
000000f0: de39 093c e5df a23c 4c43 673c d48d 293c
00000100: fa62 773d 70bf af3c 3720 8b3d 7630 4d3d
00000110: 0642 7d3d b8d3 a13d d22f 633d 8422 ec3d
00000120: 21c7 003e 65e9 d23d 479e 543d 9155 2f3d
00000130: 98da 1ebd 4d5b 003d 2087 ad3d fa3b 3d3d
00000140: 05a1 6e3d 84f8 263d 257c 553d 3b93 d73d
00000150: cfa9 713d 0c95 5c3d 8a01 743c 5ce5 713d
00000160: 6594 473d 45a4 623c 5fda f13d 3d06 943d
00000170: 0177 603d 0b4b a53d 5ff3 d13c dd3f 2bbd
00000180: 394c ffbc 5edd 0bbc db9b a23d 5060 ae3b
00000190: ff6b 783d da6c 2c3a 4535 8abc 2011 bf3c
000001a0: 3127 663d 3750 cf3c fa1c bb3d 6dbb 213d
000001b0: 5a37 fb3c 7fe1 083d f44a 253d 4599 173e
000001c0: d3e2 043e ae1f 863c 49d3 09bd f463 073d
000001d0: 5b58 b43d 7393 043d dce4 ac3d 0d6a b23d
000001e0: d701 09bc b2c9 44bc 3b23 42bb 4964 76bc
000001f0: 9a2d 4fbd 4be8 663c bf22 093d 9ad4 743d
00000200: cfac 8c3c a2cb 1c3d 9f6d e53d bf13 cd3d
00000210: 941c da3c 964a 17bd 5e51 f3ba 495b 4d3d
00000220: 1b99 6d3d 313f bb3d a968 9b3d 5c4f 8dbc
00000230: 17ec 3f3d 46e7 2abc 7fbf 1ebc f836 6c3d
00000240: 8bf0 f83c 8b0e 1f3d 12b4 c23d cf97 0e3e
00000250: 0f56 0c3d af7f 973d 48ef 223d d86e ce3b
00000260: f6dc 5cbd 57f8 1bbc 8cf0 683c a787 b3bc
00000270: 7a49 17bd 93b8 183d c3b0 e83c 78c7 b1bc
00000280: 1daf debd 5bc7 9bbd f874 943c d3e4 00bd
00000290: 68ab 003d 8708 823b 470c e33c 5941 493d
000002a0: 4093 c63d 7f2d 92bc 58fa edba 0091 60bd
000002b0: ebf2 01bd de35 383d 83f5 1fbb 508d 46bd
000002c0: fb10 4f3d 1ba9 b9bc 779a 6abd ee67 45bd
000002d0: b7b3 1fbd c125 8abd 633b 25bd 7c70 b23c
000002e0: 992f 9dbc 8494 fb3c 1f1d 873d 1bb8 813d
000002f0: 4a9e 1c3d df64 38bb 0815 ffbc c47e febc
00000300: 85bf 693d 9190 ea3c 64dd 9f3c ffed 8f3d
00000310: c9da 53bc 0ceb 4dbd 21f4 0abd 544d cabd
00000320: f7cd 6fbc 1604 02bd dbd9 d03b fa73 fbb9
00000330: d24c 103c 6bcc d33d ba98 0fbc 8a5d b3bb
00000340: e988 4d3b bf5f 19bd e30c 99bc ae2d 6c3d
00000350: 34cf 89bb c74c 163c 39a9 d53c 8712 253a
00000360: e858 ca3c c36f c43c 1e44 7dbb 81f6 503c
00000370: 71ce c2bb bb2b 773d af15 463d 12d3 063d
00000380: de97 a93c fd7a 123d db8f c83c 7e37 fcbc
00000390: 8cf8 0ebd b15e f13c e1bc 0a3d 715d 50bd
000003a0: 05b5 5fbc 9a58 133d 109c 723d 30be 583d
000003b0: eda4 3d3d b52d 98bc 36f2 c53c 0ec6 b4bb
000003c0: f48c 4e3d ceaf 2c3d 1ee3 a53d 92ab a73d
000003d0: 17e6 8e3d c526 7d3c 6b4d 0fbd 0feb 2fbd
000003e0: 1bf9 42bd 16fd b23b 0887 46bd 6c10 f8bc
000003f0: 6c83 1c3d 0162 9b3d ffd7 343d a383 733d

bias f4 [5]
-0.06088183 -0.055424996 -0.038089544 -0.02323874 -0.040592615
00000000: 3a5f 79bd 5205 63bd c803 1cbd 2c5f bebc
00000010: 7144 26bd
