archived_data/b1_r0_m8_s100--2019-03-03--165203.596044/episode_25000.model (torch_old, 268278 bytes, 8 tensors)

weight f4 [6, 6, 3, 3]
000000 72 8d ca bd 66 4d b3 3d 60 1f d9 3b b4 b8 06 3e
       -0.0989026 0.08754997 0.0066260546 0.13156396
000010 8c cb 83 bc 98 49 cb bc b8 c5 41 bc 8c c8 bc 3d
       -0.01608827 -0.024815366 -0.011826925 0.09217939
000020 42 9d 44 bd e8 d1 a5 3d ee dc 1b 3d 65 14 52 3d
       -0.048001535 0.08096677 0.03805249 0.05128898
000030 08 a8 87 bd a8 b1 c7 3b 10 54 f7 bc f9 a2 ad bd
       -0.06623846 0.0060941763 -0.030191451 -0.0847835
000040 2c 6b 5d bd 5c 42 00 bd c3 6a e7 3d e1 b4 c6 3d
       -0.054057285 -0.031313285 0.1129966 0.09702469
000050 36 29 ab 3d 23 2f 80 3d 7e 9c b2 3d 7e d9 14 3d
       0.0835747 0.062589906 0.08721255 0.03634023
000060 60 6c 5f 3d 85 9b 85 3d 37 90 85 3c e6 4b 8d bd
       0.054546714 0.065238036 0.016304119 -0.06899242
000070 9a 4c 69 bd 5e 39 d4 bd fc 89 21 3d 4c 90 c3 3d
       -0.05695782 -0.103625044 0.039438233 0.09549007
000080 c6 0b 7e bd 9c 11 a8 3d bf 1b f8 bd 60 b5 2c 3d
       -0.062022947 0.08206484 -0.12114667 0.04216516
000090 66 6c 9c b9 58 98 b0 bd 98 30 14 3e 5b c0 62 be
       -0.00029835402 -0.08622807 0.14471662 -0.2214369
0000a0 b5 03 af bd 77 ea 5e be 92 7c d3 be 1c 14 95 be
       -0.08545629 -0.21769129 -0.41305977 -0.29116905
0000b0 16 26 01 be c1 f6 95 3d 8d 86 3c 3d 41 d1 91 3c
       -0.12612185 0.07322455 0.046026755 0.017799975
0000c0 33 24 81 3d 56 70 51 3d 6b 66 a5 bd 5e 28 e1 3d
       0.063057326 0.051132523 -0.08076175 0.109940276
0000d0 40 64 2e bd b8 cb 6a 3a 2c ba ca bd 10 64 d9 3d
       -0.042576075 0.0008956748 -0.09898791 0.106147885
0000e0 60 7e a0 3d 22 64 e0 bd a8 cb f0 3d 48 a1 8a bd
       0.07836604 -0.10956599 0.11757594 -0.06769043
0000f0 32 40 bb 3d c8 5d c1 3c c6 68 a2 bd 13 f2 69 bd
       0.09143104 0.023604289 -0.0793014 -0.057115626
000100 b9 ca 14 bd 23 57 87 3d 69 ed 8f 3c 89 ca fc bc
       -0.036326144 0.06608417 0.01756926 -0.030858295
000110 2c a1 4d 3d 35 1b 3b 3d 3d 6f 39 3d fe 8e 2f bb
       0.050202534 0.045680244 0.0452721 -0.002678811
000120 24 48 21 3c 98 64 13 bd 11 00 95 3d 38 dd 61 3d
       0.00984386 -0.035984606 0.07275403 0.05514261
000130 cb 64 23 3b 9a d4 87 3d 35 a2 94 3d a6 cf 91 3d
       0.0024931903 0.066323474 0.07257501 0.07119684
000140 79 63 00 3d fc 8d b2 3d 80 af 9a bb 80 e8 84 3d
       0.031344865 0.087184876 -0.0047206283 0.06489658
000150 40 38 3e 3c a0 5d 7a 3d 36 cc b8 3d 32 2e 59 bd
       0.011610091 0.061124444 0.09023325 -0.05302257
000160 e0 8e 71 bc 9a e8 c0 3d e7 82 11 3e 03 86 cb be
       -0.014743537 0.09419365 0.14210092 -0.3975068
000170 02 b8 9a be 03 18 75 3d d7 d9 29 be 13 7e 0d 3e
       -0.30218512 0.059837352 -0.16587006 0.13817625
000180 b3 46 95 3d c5 5a 46 3e 83 37 a7 3e 73 50 10 3e
       0.072888754 0.19370563 0.3265954 0.14093189
000190 7a f8 dc bd d7 5a 48 3d d7 72 1c 3d b3 73 57 3d
       -0.10789581 0.048914757 0.038195457 0.052600574
0001a0 e0 47 af bd 01 c6 d0 bd f2 e3 0b bd 70 4c aa 3d
       -0.08558631 -0.10194016 -0.034152932 0.083153605
0001b0 e8 56 7b 3d b0 1f 03 3d b0 93 85 bd 46 a4 ce 3d
       0.061362177 0.03201264 -0.0652231 0.100899264
0001c0 c4 d4 2c 3d dc 57 af bd 1b 7d d1 bd 14 48 08 3e
       0.042195097 -0.0856168 -0.1022894 0.13308746
0001d0 04 e1 b8 bc 93 a2 29 3d 04 0a b9 3c c6 e0 a8 3c
       -0.022568233 0.04141481 0.022587784 0.020614993
0001e0 70 ca be bb 6a 04 c7 bc 19 f7 24 be e4 60 e4 bc
       -0.0058224723 -0.024294097 -0.16109885 -0.027878232
0001f0 f4 74 4f 3d 95 26 69 bc 5e 2a f6 3c 2b 8d 81 3d
       0.050648645 -0.01423039 0.0300495 0.06325754
000200 f1 b6 da 3d 48 5a 24 3d 2e 0a 90 3d 88 f5 cf bd
       0.106794246 0.04012516 0.070331916 -0.10154253
000210 bf 86 d9 3c 44 9f da 3d c8 35 21 3d 50 72 1f bd
       0.02655351 0.10674909 0.03935793 -0.038927376
000220 c6 ce ab bd c0 a4 4c bd d0 96 74 bc 38 98 ae bc
       -0.08389048 -0.049961805 -0.014928535 -0.021312818
000230 42 1e e4 3d 5c b9 2a bd 28 85 cb 3c 1c 2a 1a 3d
       0.11138584 -0.04168068 0.024843767 0.037637815
000240 29 85 a4 3d 7f 21 68 3d 80 3d 6c 3e c7 c9 15 3e
       0.08033211 0.05667257 0.23070335 0.14627753
000250 1f fb 63 3e 16 37 a2 be 09 6b ff 3d dd 42 24 3e
       0.22263764 -0.31682652 0.12471587 0.16041131
000260 44 a1 2b be 97 99 af 3b 60 cb 0f bd 38 70 91 3c
       -0.16760737 0.0053588855 -0.035106063 0.017753705
000270 c0 ad 0e bd 85 c8 63 bd a2 95 0c be e1 80 bb bc
       -0.03483367 -0.055611152 -0.13728955 -0.022888603
000280 57 24 c2 ba e0 b7 be bd 2a 3b ca 3d c0 0e 02 3e
       -0.0014811856 -0.09312415 0.09874566 0.12700939
000290 ec 7c fe 3d 24 f8 ef 3d a0 d1 89 bd 80 bf 3d bb
       0.12426171 0.11717251 -0.06729436 -0.0028953254
0002a0 27 a9 02 be ac 1e c2 bc b4 ee c3 bd 1d 43 bc bc
       -0.12759839 -0.023696266 -0.095670134 -0.02298122
0002b0 5a 17 64 bc c7 3a dd 3c c4 1e 03 3d 91 fd 91 3c
       -0.013921583 0.027005566 0.032011762 0.017821105
0002c0 da 38 c8 bc 1d 6a 4c bb 1b 32 91 bc 67 16 f7 3c
       -0.024441171 -0.0031191178 -0.017724087 0.03016205
0002d0 c0 c8 81 3d 50 cc af 3d 7c f9 e1 3d b4 82 f4 3d
       0.06337118 0.085838914 0.110339135 0.11938992
0002e0 3e f9 23 3e 9b b6 00 3e ba 11 65 3d 0d 34 c5 3d
       0.16013047 0.12569658 0.05592511 0.096290685
0002f0 3d 2d 1c 3e 88 46 73 3d 04 c9 43 bd 32 ff 9e 3d
       0.15251632 0.059393436 -0.047799125 0.077635184
000300 0a 6d 10 bd ff 7b 03 be 7e 3f ad bd e2 1c 03 be
       -0.035260238 -0.1284027 -0.08459376 -0.12803987
000310 ef a4 95 bd 52 67 04 be 42 f6 7b 3d 4f f3 3e 3e
       -0.07306849 -0.12930039 0.061514147 0.18647502
000320 ef 82 9f be 37 c2 1e bd b7 d6 cd be 8d e5 81 be
       -0.31154582 -0.038759436 -0.40202877 -0.25370446
000330 c0 ea 43 3e c3 ea 61 3e 6a 25 a0 be 47 1d d0 3c
       0.19132519 0.2206221 -0.31278545 0.025404586
000340 76 32 4a bd 5b aa 57 3d d8 98 fc bd 10 71 dd 3c
       -0.04936453 0.052652698 -0.1233384 0.027031451
000350 0f 92 de 3c 46 ef fb 3d eb 85 0a bd cb c4 39 3d
       0.027169256 0.12301497 -0.03381912 0.045353692
000360 ca 2f b5 3d 00 69 f8 3d c8 7b ad 3c 00 9b a6 3c
       0.08847006 0.12129402 0.021177188 0.020337582
000370 1c bc cf 3d 10 ab f9 3d a6 2a 21 bd 10 9c 5a 3d
       0.10143301 0.12190831 -0.039347313 0.05337149
000380 48 bb 4b 3d d8 06 28 3d 41 f6 20 bd 46 f0 91 3c
       0.049739152 0.04102215 -0.039297346 0.017814767
000390 1a 79 16 bc 92 ed f6 bb ca 0c b1 3c 55 b6 de bd
       -0.009184146 -0.007535645 0.021612544 -0.10874621
0003a0 f4 a6 ce bd ee 3e c5 bd e0 89 8b 3c 1b 7f 83 3c
       -0.100904375 -0.096311435 0.017033517 0.01605182
0003b0 d0 0e 7f 3d 0d 73 c3 ba 7a 01 8f 3c 68 87 9f 3d
       0.062269986 -0.0014911607 0.017456759 0.077894986
0003c0 d9 de c5 bc eb 9d ac bd 1d 23 7c bd f0 0d f2 3d
       -0.024154114 -0.08428558 -0.061556924 0.118190646
0003d0 d0 09 71 3d 56 73 80 3d aa 01 56 bd a4 e3 c0 bc
       0.05884725 0.062719986 -0.05224768 -0.023546048
0003e0 33 8e e4 bd ad 2a fd bd 78 53 d5 bd 81 2f da bd
       -0.11159935 -0.123616554 -0.10416311 -0.10653592
0003f0 33 e1 9a 3d e9 6c 44 3e fc 4b 90 3e 2a cc 57 3d
       0.075624846 0.19182171 0.2818297 0.05268494

bias f4 [6]
000000 63 fe f6 bd 6a c7 06 be 7f 00 ac 3d db d0 3f be
       -0.12060239 -0.13162008 0.08398532 -0.18732016
000010 56 1b 77 bc d1 4f 74 bd
       -0.015082201 -0.05964643

weight f4 [16, 6, 3, 3]
000000 06 63 2e be 83 5a 31 bc 8f 48 94 bd ad 9c 96 bc
       -0.17029962 -0.010824802 -0.07240402 -0.018385256
000010 81 ad c9 bb 99 38 12 be d0 c4 20 be d6 38 8f bc
       -0.0061547165 -0.14279403 -0.15700078 -0.017483156
000020 e5 b3 ba 3d 2f 27 bf bd 1e 89 70 3d 30 0b 1f 3e
       0.091163434 -0.093336456 0.058724515 0.15531611
000030 d6 b3 f3 bd b8 c7 01 be 57 64 01 be df 27 17 3c
       -0.11899535 -0.12673843 -0.12635933 0.009225815
000040 61 68 bf bd 27 87 b3 bd bf fe b0 3d 70 8e 18 3e
       -0.093460806 -0.08766013 0.08642339 0.14898086
000050 16 a9 4c bc a3 8e 37 3d 08 e4 68 3d fe 73 c2 3d
       -0.012491485 0.044813763 0.056858093 0.0949478
000060 ba e3 e5 3c 84 a1 b7 3d 21 ff 53 3e d5 b7 7c 3c
       0.02806269 0.089663535 0.20702793 0.015424688
000070 58 57 19 be c1 64 b1 bc be 6f 32 3e 44 ee 1f 3d
       -0.14974725 -0.021654489 0.17425439 0.039045587
000080 de 5d 86 3d 11 f7 9a bd 0e 51 72 be 4d 66 75 3e
       0.065608725 -0.075666554 -0.23663732 0.23964806
000090 07 88 44 bd fe 16 3a 3c 13 9e 1d bd 5b b9 2c 3c
       -0.04798129 0.011358021 -0.03848083 0.010542239
0000a0 44 8e 27 bd 0a 26 c5 3d be 47 77 bd a4 d3 2b bd
       -0.04090716 0.09626396 -0.060371153 -0.041949883
0000b0 34 fa 04 3e 90 06 5c 3d a5 42 14 be b8 75 09 3e
       0.1298607 0.053717196 -0.14478548 0.13423812
0000c0 ea 36 59 bd 7a 8f a4 3c e8 1d 92 3d 00 09 bd 3d
       -0.053030886 0.020087946 0.071346104 0.09230232
0000d0 69 75 dc bc fa 63 97 3d 85 6f 18 be 0d 91 09 bd
       -0.026911454 0.07392116 -0.14886291 -0.033585597
0000e0 d8 e2 c9 3d b4 1f 12 bc c2 72 4e 3d 38 50 b7 bc
       0.0985772 -0.008918691 0.05040241 -0.022377118
0000f0 e8 c7 c6 bd 23 d3 fb 3d 65 6b ac 3d 67 6a 8b 3d
       -0.09706098 0.122961305 0.084189214 0.06807404
000100 ca 23 c7 3a e1 4a 29 be 76 34 95 bd 2a 9a 68 3d
       0.0015193161 -0.1653247 -0.07285397 0.056787647
000110 bc 53 61 bd 25 bc 6d 3b 4c ec d3 3d 02 60 d4 3d
       -0.055011496 0.0036275473 0.103478044 0.103698745
000120 43 03 be 3d 32 33 8e be fe 0c 80 3b c5 95 ec bd
       0.09277966 -0.27773434 0.003907799 -0.11552004
000130 81 43 1c be b4 f6 77 3e 07 d2 06 be 90 a0 0a 3d
       -0.15260126 0.24215204 -0.13166057 0.03384453
000140 57 c4 7c 3d 84 10 3c 3e 21 a8 46 3e 5a 60 22 3e
       0.06171068 0.18365675 0.19400074 0.15857068
000150 1c 9b 2f 3e c4 61 60 3d f7 99 1a 3e 24 1d 22 bc
       0.17149013 0.054780737 0.15097795 -0.009894643
000160 28 04 2d be c8 6a c4 3d 54 04 91 3d c1 a5 b4 3d
       -0.16896117 0.095906794 0.07080904 0.088206775
000170 65 09 2b 3d fa dd c0 3c e8 11 17 bd 39 3a 1f be
       0.041757006 0.023543347 -0.03688231 -0.15549554
000180 23 58 2f 3d d5 32 a6 bd e3 c0 6d be 1b de 1f 3e
       0.042808663 -0.08115164 -0.23218112 0.1561207
000190 7a df 4a be a3 0d ae bd 8d 41 a2 3d b6 a8 09 be
       -0.19811812 -0.08498695 0.07922659 -0.13443264
0001a0 94 14 3f 3d 6c d2 12 be 35 5f 9c 3c 84 09 29 3e
       0.046650484 -0.14338082 0.019088367 0.16507536
0001b0 22 76 67 3c 92 e5 88 3d 38 09 53 be 56 90 3d be
       0.014127286 0.06684412 -0.20608985 -0.18512091
0001c0 ec 02 06 3e 6d c3 72 3c eb f1 09 bc 1b e0 2d 3d
       0.13087052 0.014817101 -0.008419494 0.04245005
0001d0 59 54 a6 3d 2f 2e 15 bd 4c bf 0a be 25 71 ea 3d
       0.08121557 -0.036420997 -0.13549536 0.11447362
0001e0 9d 07 9c 3c 29 82 67 bc b7 92 c5 3d da e4 f3 bd
       0.019046599 -0.014130154 0.09647124 -0.11908884
0001f0 35 7d bb bd cd 27 41 be 01 92 d4 bd 3a 85 2d 3d
       -0.09154741 -0.18862839 -0.103794105 0.042363383
000200 a7 a6 65 be 42 5f 07 be 5e cd 91 bd d1 e7 16 be
       -0.22426854 -0.13219932 -0.07119249 -0.14736868
000210 d6 e7 0e 3e 00 52 17 3c fb e6 e3 3c f5 70 10 3e
       0.13955626 0.009235859 0.027820101 0.1410559
000220 85 8d f9 bd c9 3b 8a bd aa dd a7 3c 76 6c 71 be
       -0.12185196 -0.06749684 0.02049144 -0.23576531
000230 f1 9d 34 be 3f a5 3d be 11 7e 46 bd 9f b4 62 3d
       -0.17638375 -0.18520068 -0.04846007 0.055348035
000240 96 28 a1 bd e9 e9 84 bd d2 46 57 be ef cc a8 3d
       -0.07869069 -0.06489927 -0.2102311 0.08242213
000250 14 e6 fe bc 1e 1c 5a 3d bd 6c 79 3d 67 c8 8f bd
       -0.03111557 0.05324947 0.060894717 -0.070206456
000260 32 d1 8f 3d a7 35 22 3d 7d da 4d 3e 6a aa 5a bc
       0.07022323 0.039601948 0.20102878 -0.013346294
000270 dd 4b e8 bc 7d 9a 34 3e b5 4d 6b 3c 66 e3 94 3d
       -0.028356487 0.17637058 0.0143617885 0.07269935
000280 87 55 32 be 38 68 3f bc 05 7c a4 bc 47 1a 77 be
       -0.17415439 -0.0116825625 -0.020078668 -0.24131118
000290 a0 f1 76 3d b4 48 05 be e3 e4 f0 bd 93 f7 25 3d
       0.060289025 -0.13016015 -0.11762407 0.04051931
0002a0 c4 e5 77 be c2 bd 6e bd 77 5f 0e be 7e e2 18 bd
       -0.24208742 -0.058286436 -0.13903604 -0.037325375
0002b0 e8 65 07 3e 3c 57 e5 3d ec 0c 0d 3e 1a eb 7e bc
       0.13222468 0.11198279 0.1377446 -0.015558982
0002c0 5a b2 cd 3d 63 1e f2 3b 1c 4e 2f 3e 88 c7 02 bc
       0.100437835 0.0073888763 0.1711964 -0.007982142
0002d0 96 56 82 be 38 eb 45 be e4 74 2d be 41 db 49 bd
       -0.25456685 -0.1932801 -0.16939121 -0.049281362
0002e0 26 a0 d5 bc 6f 79 e1 bc ff 6f da 3c 0f 2b 3d be
       -0.026077341 -0.027523724 0.026664732 -0.18473457
0002f0 c9 fe 19 bd 04 f1 ff bd 55 32 80 3d 02 2e 80 3d
       -0.037596498 -0.12497142 0.062596 0.06258775
000300 a1 8c 82 3e 33 30 34 be 6d dc 99 be eb 48 eb 3d
       0.25497916 -0.17596512 -0.30050984 0.114885174
000310 39 2a fe bd cc 43 04 be cb 92 ac bb f3 64 27 3e
       -0.12410397 -0.12916487 -0.0052665225 0.16347103
000320 c8 9a 82 bd ec 63 23 be c0 61 f1 bc 3f f4 a5 b9
       -0.063771784 -0.15956086 -0.029465556 -0.0003165323
000330 67 1a 01 be e6 c8 53 3d 86 15 03 3e 95 07 44 bd
       -0.12607728 0.051705264 0.1280118 -0.047858793
000340 c5 61 25 be 40 5c 79 be 0e 1e 2e 3d 9e 90 1d be
       -0.16150577 -0.24351597 0.04250913 -0.15387198
000350 26 36 1f 3d 47 00 23 be 74 b9 03 be 76 b6 08 be
       0.03887 -0.15918075 -0.12863714 -0.13350853
000360 d0 79 51 bd a6 f5 2c bd 4a 67 98 bc 0d ca a1 3c
       -0.05114156 -0.042226456 -0.01860394 0.019749666
000370 63 f2 4e 3e a1 42 f5 3d e2 a1 a1 3d f7 f1 4d bd
       0.2020965 0.11975599 0.07892205 -0.050279584
000380 85 9d e6 bc 02 e1 79 3d d8 9e f7 bc 6f e9 de 3c
       -0.028151283 0.0610056 -0.03022711 0.02721092
000390 e1 a3 87 bd 74 f1 4f 3d ab f1 89 3d a4 0b a1 3c
       -0.06623054 0.050767377 0.06735548 0.019658871
0003a0 70 33 8a 3d 09 97 36 3e a5 42 69 be 20 56 9e bc
       0.06748092 0.17831053 -0.22779329 -0.019328177
0003b0 30 be 38 bd 72 8a 8d be 0c 3f aa 3d 38 d1 06 be
       -0.045103252 -0.27644688 0.083128065 -0.13165748
0003c0 f5 d4 ff 3d df de 76 3d 20 57 2f bd 1f aa a5 bd
       0.1249179 0.06027114 -0.0428077 -0.08089089
0003d0 8c 34 61 3e 85 ac 3a be ce 7e 41 bd 45 9e d7 bd
       0.21992701 -0.18229873 -0.04724007 -0.105282344
0003e0 13 50 49 bd 30 ed 2f 3e 85 7f 66 3c 9f a1 1d 3e
       -0.04914863 0.17180324 0.014068489 0.15393685
0003f0 ec 3b 7a bc 12 bb 18 3c 11 44 ba 3d 9e d4 db bd
       -0.015273076 0.009321945 0.09095014 -0.10733913

bias f4 [16]
000000 2b 38 cd bc 55 e0 c8 3b d1 d0 35 3d ce cc cd 3c
       -0.025051197 0.006130258 0.044388596 0.025122073
000010 4d c1 88 ba b0 f8 e8 bd c9 3b 97 bc 49 ce 64 3d
       -0.0010433585 -0.113755584 -0.018461125 0.05586079
000020 76 e4 a8 bd c9 6e b5 3c 86 0c 4e 3d 97 ad 77 3c
       -0.082467005 0.022147553 0.050304912 0.015117071
000030 b0 b5 ce bd 71 c7 8a 3d b6 58 a3 3c ed e1 fe 3d
       -0.10093248 0.06776322 0.019939762 0.12445436

weight f4 [32, 16, 3, 3]
000000 6b 70 f3 bd 53 d2 4d be 77 b5 35 be e0 07 22 bd
       -0.118866764 -0.20099764 -0.17745005 -0.03955829
000010 a5 c5 0c bc 2e 84 b0 bd 2c a0 11 be f7 5a 09 bd
       -0.008592044 -0.08618961 -0.14221257 -0.033534016
000020 94 a0 06 be cb 59 80 be f4 47 11 be 73 43 b6 3d
       -0.13147193 -0.25068507 -0.14187604 0.08899584
000030 e9 76 a2 bd 0b 52 72 3a 0e 23 58 3e 5a 0b 2c 3b
       -0.079328366 0.0009243793 0.21107122 0.0026251883
000040 a2 90 fd 3d 5b 02 39 3e 04 3a 00 be a4 38 98 bd
       0.12381102 0.18067305 -0.12522131 -0.07432678
000050 f7 26 09 be fe 04 ae bd a1 85 ed 3c b0 1d dc 3d
       -0.1339377 -0.08497046 0.028994383 0.1074785
000060 6e 4f b4 3c e6 ba 05 3e 75 6d 9e 3d 43 04 07 bd
       0.022010531 0.13059577 0.07735721 -0.03296305
000070 90 42 8e bd d7 2b f3 3b bd 9e 3c 3d c8 bc 1d 3e
       -0.069462895 0.0074209976 0.046049822 0.15404046
000080 81 f5 39 3d 86 43 a6 3d ac f8 22 3e 04 45 e9 3c
       0.045400146 0.08118348 0.15915173 0.028475292
000090 2d a7 d2 bd 0f 0c 22 bd c9 2a 48 3d e1 ac 63 be
       -0.102857925 -0.03956228 0.048868928 -0.22233917
0000a0 8b 5b 06 be d2 63 32 3d fd 95 a5 bd 62 d6 02 3d
       -0.13120858 0.043552227 -0.080852486 0.031942733
0000b0 9f 89 c6 3c 91 20 7d 3b 55 ac bb bd df 12 a4 bd
       0.024235545 0.0038624147 -0.09163729 -0.08011412
0000c0 e0 22 43 be b6 7c b3 bd b9 03 1f 3c 02 66 b8 bd
       -0.19056273 -0.08764021 0.009705477 -0.090038314
0000d0 c0 f7 8e be 54 a7 3b be fb 7a 9a 3c 48 e7 f2 bd
       -0.27923393 -0.1832555 0.01885747 -0.1186052
0000e0 c5 66 95 be ad 8e 00 be 85 cb 4f be 19 05 c9 be
       -0.2917997 -0.12554426 -0.2029248 -0.39261702
0000f0 db 38 83 bc 18 7a f8 bc 05 59 a4 be 3d e9 88 bd
       -0.016018322 -0.030331656 -0.32099167 -0.06685112
000100 a0 d0 3c be 21 bf 8d bd c1 a4 cd bc 38 cb 8b bd
       -0.18438959 -0.069212206 -0.025102975 -0.0682587
000110 88 af 7d bc 7e 7c 5a bc 02 ab 31 3d ee 2e 80 bc
       -0.015483744 -0.013335345 0.043375976 -0.015647378
000120 7b a6 92 be 5e 81 e8 bc 5f d2 45 be 64 1f db bc
       -0.2864264 -0.028382 -0.19318531 -0.026748367
000130 a2 e9 8c bd 1c 52 2d be 11 b5 07 be bc 2d 79 be
       -0.068804994 -0.16925853 -0.13252665 -0.24333853
000140 09 f8 a2 be ad 96 25 be 95 4f 72 bd c2 b3 82 3d
       -0.3182986 -0.1617076 -0.059157927 0.06381942
000150 a8 50 b1 bd 2e 0c c8 3d a4 01 40 3d ed 39 09 3d
       -0.08657962 0.09767948 0.046876565 0.033502508
000160 36 a5 32 bd 4d 1f c3 bc 17 0f d8 bd 54 59 20 3c
       -0.04361459 -0.023818636 -0.10549753 0.0097869225
000170 9c dc 94 ba 58 53 9e bd ee 56 34 3d b0 49 46 3e
       -0.0011357251 -0.0773074 0.044028215 0.19364047
000180 e3 00 6f bd d4 c2 bc b9 c3 d1 80 3d 0d 30 09 be
       -0.058350455 -0.00036003313 0.06290009 -0.13397236
000190 fe 4c 50 3c 8d f1 9d 3d 40 cd e4 3d 42 6f 20 3d
       0.012713669 0.07712088 0.11171961 0.039168604
0001a0 24 7d 70 3d 33 10 1f 3d 38 06 01 3d c6 34 26 3e
       0.058713093 0.03883381 0.03150007 0.16231069
0001b0 3e 26 31 ba 64 7f 46 bd e6 78 b6 bd 03 36 a5 3d
       -0.00067577127 -0.048461333 -0.08909778 0.080669425
0001c0 78 3c 92 bd d5 af 83 3d 28 a9 0d 3e 0f 2a 73 3e
       -0.0714044 0.06430022 0.13834059 0.23746513
0001d0 66 e7 4c 3d f7 88 eb bd b0 d2 7f bc 10 dd 79 bd
       0.050025366 -0.11500733 -0.015614197 -0.061001837
0001e0 74 5d a7 bb 35 4a b2 3d d9 3d 18 3d 8f f8 80 bc
       -0.005107576 0.0870556 0.037168358 -0.015743522
0001f0 e8 ea c4 bc 5e f3 60 3c bf cb e5 bd 67 22 00 be
       -0.024037793 0.013729898 -0.11220502 -0.12513123
000200 f4 df 11 bd 7c 8e 20 bd 55 01 a0 3d 40 d6 4b 3d
       -0.03561397 -0.039198384 0.07812754 0.04976487
000210 43 7b 67 bd 2b 19 dd 3c 98 fc a0 bd c4 c7 af bd
       -0.056514036 0.02698954 -0.078606784 -0.08583024
000220 83 67 db bc 78 c5 a7 bd 00 36 a2 bc 05 60 72 bd
       -0.026782757 -0.08191961 -0.01980114 -0.059173603
000230 4d 96 df 3d da 9e e1 3c 26 92 fc 3c 22 db 20 3b
       0.109173395 0.027541567 0.030831408 0.0024544676
000240 ef 22 41 3d 21 08 af 3d 43 b4 72 be 81 67 09 3e
       0.047152456 0.08546472 -0.23701577 0.1341839
000250 26 f4 8a 3c 53 fd ab bc 1a d6 3a 3c 04 90 fc 3b
       0.016962122 -0.020994818 0.011403585 0.0077075977
000260 9b 3d a7 3d a7 e9 87 3d 89 ee 59 3d ed 0e 60 3c
       0.08166047 0.066363625 0.053206 0.013675434
000270 54 f5 ba 3d c4 57 3f 3d fc 36 38 bd a8 58 5e 3d
       0.09128824 0.04671456 -0.044974312 0.054283768
000280 0c 9d ed 3c cf ed b0 3c 0c 70 cc ba 18 d0 c1 3d
       0.02900555 0.021597771 -0.0015597357 0.09463519
000290 e1 b9 e9 bc 44 f9 b5 3d 61 cd 9f 3d e3 71 18 bc
       -0.028531017 0.08885434 0.07802845 -0.009304496
0002a0 e3 b5 3e 3d 9d 53 f2 3a 58 bd dd 3c ef 64 e7 bd
       0.04656018 0.0018488053 0.027067825 -0.112985484
0002b0 4b 4f c1 bd 63 c3 08 be 56 78 06 be c0 de 57 be
       -0.09438952 -0.13355784 -0.13131842 -0.21081066
0002c0 b3 7f 0b be c4 64 4d bd 73 69 ba 3a d2 40 06 bd
       -0.13622932 -0.050144926 0.00142221 -0.03277666
0002d0 80 54 17 3e 28 39 37 3d a7 8a 10 3e e3 7d b0 bd
       0.14778328 0.044732243 0.14115392 -0.08617761
0002e0 d4 af 47 bd e1 45 b8 3d 6d 1b 26 be 81 f6 b1 bc
       -0.048751667 0.08997703 -0.162214 -0.021723988
0002f0 52 fa 95 3c 29 3c 63 3c 61 d7 fa 3c df 63 d7 3d
       0.018307839 0.013869324 0.030620279 0.10517096
000300 c7 46 4a 3e 27 e8 1d 3e b4 2c 32 3e f8 73 c0 3d
       0.19753562 0.1542059 0.17399865 0.09397119
000310 12 97 b9 3d 26 24 fd 3d 5d d2 86 3d bc 39 c3 3c
       0.090620175 0.123604104 0.06583092 0.02383124
000320 89 c5 be bd 68 91 55 bc c7 95 eb 3d ba 65 b0 bc
       -0.093150206 -0.013035156 0.11503177 -0.021532882
000330 85 94 9c 3d 8e e1 0d 3e 56 81 82 3d 98 51 49 3d
       0.07645515 0.13855574 0.06372325 0.04915008
000340 b9 d3 19 3c 0c a8 85 3d c5 bd a6 3d cd 77 c9 3d
       0.0093888575 0.06526193 0.081416644 0.09837303
000350 0d a7 9e 3d 9e f2 c7 3b 8c 65 80 bb c8 aa d7 3d
       0.07746706 0.0061019203 -0.0039183553 0.10530621
000360 d2 52 5f 3d db 4b 41 3d 72 6e a4 3d b2 a1 2a bc
       0.054522343 0.047191482 0.08028878 -0.010414528
000370 a2 63 8b 3d d9 dc 83 3d b0 cc 98 bd 74 5c ad 3d
       0.06806113 0.06438608 -0.07460916 0.084649
000380 92 08 24 3e 79 54 18 bd 73 b4 70 bd 86 f3 8e 3c
       0.16018894 -0.037189934 -0.05876584 0.017450105
000390 4b 09 d5 bd 0a 2b 5e be 68 b7 12 bd 04 92 0e bd
       -0.10402163 -0.21696106 -0.03581944 -0.03480722
0003a0 b5 e5 b7 bd 82 c4 59 bd ee 25 89 3c 65 8c 54 bd
       -0.0897936 -0.05316592 0.01674172 -0.051891703
0003b0 a8 ed 6a 3d 8d e6 1e bd 9b 4a a7 bd d9 4e bc 3c
       0.057355553 -0.03879409 -0.08168527 0.022986816
0003c0 71 1f 96 3d 1c c7 ce bb 9e 4c 12 ba cc 41 48 3d
       0.07330216 -0.006310357 -0.0005580875 0.048890874
0003d0 10 d9 37 bd f1 e7 36 be 1b dc e9 bb ea ea 0c be
       -0.04488474 -0.17861916 -0.0071368343 -0.13761488
0003e0 f8 c8 f6 3d 93 32 c3 3d 68 73 50 3d ce d6 84 bb
       0.120500505 0.09531131 0.05089131 -0.004053927
0003f0 87 d8 0f 3e 65 72 a4 3d 05 c1 71 ba c0 58 32 3e
       0.14047442 0.080296315 -0.00092221826 0.17416668

bias f4 [32]
000000 4e a3 85 3d af a5 27 bd 57 b7 e5 bc 54 9c b8 bd
       0.065252885 -0.040929493 -0.028041525 -0.09014192
000010 43 3e fa 3c 38 de e0 bc 9b 55 cb bc 91 9a 2b bd
       0.030547267 -0.027449712 -0.024821093 -0.041895453
000020 06 01 0a bd 50 44 ba bd 1e 42 5d bd c1 cc 4e bd
       -0.033692382 -0.09095061 -0.054018132 -0.050488237
000030 a3 4b 5f bd 9c 78 d9 bd 0c 95 85 bd 9e 4c 7e bd
       -0.054515492 -0.106187075 -0.06522569 -0.062084787
000040 8d de 30 3d a3 ac 13 bd 29 d3 95 bc 78 43 9f 3c
       0.04318099 -0.03605331 -0.018289166 0.019441351
000050 d7 1a ab bc 63 84 da bc 0d 70 2e bd 00 43 80 3c
       -0.020886822 -0.026674455 -0.04258733 0.015656948
000060 25 5e a5 bc 40 dc f1 bc 7a 55 a8 bd b2 f2 53 3b
       -0.020186493 -0.029523969 -0.08219428 0.0032340703
000070 b3 23 8c 3c b3 85 4e bb f1 26 17 bd ce 36 bd ba
       0.017106866 -0.0031512796 -0.03690237 -0.0014435889

weight f4 [5, 11552]
000000 2e da c5 bd 6a ad cf bd 61 13 d1 bd 5c 29 af bd
       -0.09660755 -0.10140498 -0.10208774 -0.085528105
000010 2e d5 bf bd e5 e9 c5 bd 8c a4 b6 bd 19 08 b3 bd
       -0.09366833 -0.096637525 -0.089181036 -0.08741779
000020 88 fd c1 bd ba b0 bd bd 4b d7 b3 bd fc e2 af bd
       -0.094721854 -0.092622235 -0.08781298 -0.08588216
000030 a9 72 9e bd 28 8e c7 bd 03 be b4 bd 08 0f c5 bd
       -0.077367134 -0.09743911 -0.08825304 -0.096220076
000040 98 3e a9 bd 01 51 d2 bd 84 18 db bd 5a 02 c1 bd
       -0.08263892 -0.102693565 -0.10698035 -0.09424277
000050 0e 04 a7 bd e3 3c 8c 3c 8b 84 52 3d 6f e6 57 3e
       -0.0815507 0.017118877 0.051395934 0.21083997
000060 da d4 3e 3e 70 9f 1d 3e 49 59 27 3e e5 eb 2e 3e
       0.18635884 0.15392852 0.16342653 0.17082174
000070 e0 6d af 3e 8b a2 5b 3e 68 03 83 3e fe 1f 81 3e
       0.34263515 0.21448724 0.25588536 0.2521972
000080 21 95 56 3e 13 1d 3e 3e dc 15 a0 3e c3 1a b2 3e
       0.20955326 0.18565778 0.31266677 0.34786043
000090 8a 26 1a 3e 2f 7e 4a 3d 6f f4 b1 bd a0 e2 35 bd
       0.15053764 0.049436744 -0.086892 -0.04440558
0000a0 5a 61 88 3d aa 13 5e 3e 4a 00 ea 3d cf c9 6f 3e
       0.06659193 0.21687189 0.114258364 0.23416828
0000b0 d0 96 e4 3d 60 93 21 3e 07 a5 5b 3e e7 af 8b 3e
       0.11161578 0.15778875 0.21449672 0.2728264
0000c0 42 0f 4d 3e b3 18 32 3e 79 35 63 3e 19 e2 90 3e
       0.20025352 0.17392235 0.22188367 0.282975
0000d0 44 af d6 3e a4 8d c9 3e 01 f0 a7 3e a7 15 11 3e
       0.41930592 0.39365876 0.32800296 0.14168416
0000e0 a0 a6 58 3e 73 7b c4 bd 60 59 ae bd 5e 9c ce 3d
       0.21157312 -0.095938586 -0.08513141 0.100884184
0000f0 91 32 f3 3d 15 5f 69 3e 40 c1 83 3e 4d 75 37 3e
       0.11874879 0.22790177 0.25733376 0.1791584
000100 bf 30 50 3e 7d cf 22 3e e8 0e 4a 3e 43 f5 01 3e
       0.20331095 0.15899463 0.19732249 0.12691216
000110 45 ee eb 3d 1c e7 72 3e db 4b 38 3e 1e f3 70 3e
       0.11520056 0.23720974 0.17997687 0.23530242
000120 f6 b0 bf 3e b4 a3 e6 3e d8 83 87 3e df 3a 61 3e
       0.37439698 0.4504677 0.26467776 0.21995114
000130 d2 b5 a8 bd 5e d0 d0 bd 68 00 ef 3d a0 64 72 3e
       -0.082378045 -0.10195993 0.11669999 0.23671198
000140 23 54 a9 3e f0 12 29 3e f0 8c 51 3e 43 63 50 3e
       0.33072004 0.1651113 0.2046392 0.20350365
000150 b5 6c 4d 3e 97 7d 71 3e b3 24 79 3e 3c 5a 36 3e
       0.20061 0.23583065 0.24330406 0.17807859
000160 96 05 7d 3e 2d 62 26 3e e4 83 7a 3e 37 6f b0 3e
       0.24709162 0.16248389 0.24464375 0.3445985
000170 ff 61 80 3e f5 b3 aa 3e cb e1 3d 3e d5 e8 a2 bd
       0.25074765 0.3334042 0.18543164 -0.079545654
000180 d6 24 c8 bd 2a 7c 10 3d 45 65 87 3e 00 72 4e 3e
       -0.09772651 0.035274662 0.2644445 0.20160675
000190 bf 06 3e 3e 75 00 52 3e 44 8f 35 3e da b7 8f 3e
       0.18557261 0.20507987 0.17730433 0.28069955
0001a0 29 aa 89 3e b2 d3 7a 3e 48 4c 45 3e 8a dc 2f 3e
       0.26887634 0.24494818 0.1926738 0.17173973
0001b0 d2 29 13 3e 4c 1d 07 3e 7d 11 47 3e e7 a3 a6 3e
       0.14371422 0.1319477 0.19440265 0.32546923
0001c0 7a e9 d0 3e 44 d2 74 3e 04 fb 82 bd ea 88 06 bd
       0.40803128 0.23908335 -0.06395534 -0.032845415
0001d0 14 f0 20 3e 3c ce fb 3d 84 28 46 3e 76 16 09 3e
       0.15716583 0.122951955 0.19351393 0.13387474
0001e0 5e 95 5f 3d 8a 72 2c 3e 1c 05 2e 3e ad 9c 20 3e
       0.054585807 0.16840568 0.16994137 0.15684767
0001f0 62 c0 42 3d bc 99 18 3e 77 1c c4 3d 2d fe 07 3e
       0.04754675 0.14902395 0.09575742 0.13280554
000200 19 a0 2d 3e b1 69 56 3e 1e b3 a8 3e d3 84 c7 3e
       0.16955604 0.20938756 0.32949156 0.38968524
000210 92 cf 4e 3e 73 73 8b bd 83 eb b3 3c 03 2b fa 3d
       0.2019637 -0.068091296 0.021962887 0.12215235
000220 13 78 5f 3e d0 c6 74 3e 5e 48 2a 3e 39 e6 ee 3d
       0.21823148 0.23903966 0.16629168 0.11665005
000230 0c 49 00 3e 29 fd fe 3d a6 15 84 3d c1 bc 89 3d
       0.12527865 0.1245063 0.064494416 0.06725455
000240 54 58 60 3c b4 6c c9 3d 3c 7f 27 3e f2 88 20 3e
       0.013692934 0.098351866 0.1635713 0.1567724
000250 3b f8 e9 3d 38 ec 34 3e b3 63 91 3e 67 d9 d9 3d
       0.11424299 0.17668235 0.28396377 0.10637169
000260 6a e9 ca bd 28 ef 85 bc 92 25 24 3e 84 30 48 3e
       -0.099078014 -0.01634939 0.16029957 0.19549757
000270 3d a9 71 3e 57 97 57 3e f6 12 a8 3d d8 98 2b 3d
       0.23599716 0.21053825 0.082067415 0.04189381
000280 f4 81 70 3b 8e 88 31 bc 26 ee de 3c 80 38 2e 3c
       0.0036698552 -0.01083578 0.027213167 0.010633588
000290 5a 47 55 3d e1 01 cd ba 65 7f dd 3d 26 8c a4 3d
       0.05207 -0.0015640819 0.10815314 0.08034544
0002a0 21 20 05 3e f5 ad ae 3e 0d f1 2e 3e ff 91 ba bd
       0.13000537 0.34117094 0.17084141 -0.09109878
0002b0 f4 8e d6 bd d1 df 36 3e b9 e3 7a 3e 72 bd 8a 3d
       -0.10476485 0.17858817 0.24500932 0.06774415
0002c0 b3 8d 06 3e 52 25 48 3e 40 fd f8 3d 8c 6c 14 bb
       0.13139991 0.19545487 0.121576786 -0.0022647707
0002d0 fa e5 4f be 59 e6 d7 bd 3d 31 39 bd d6 66 c9 bd
       -0.20302573 -0.10541982 -0.045212973 -0.098340675
0002e0 68 65 4f 3c f6 6a b9 3d 5a 5e 05 3e 37 10 bd 3d
       0.0126584545 0.09053604 0.13024274 0.09231608
0002f0 97 f5 96 3e c3 9c 7b 3e 23 53 75 bd cf 16 a4 bd
       0.29484245 0.24571519 -0.05989374 -0.08012163
000300 b0 83 3c 3e ef 2f 1e 3e c5 80 12 3e 06 24 1a 3e
       0.1840961 0.15447973 0.14306934 0.15052804
000310 88 0a 3b 3e 0c a1 08 3e e1 57 93 bc e9 97 e6 bd
       0.18265736 0.13342685 -0.01798624 -0.11259443
000320 d6 a3 cd bd 32 ca 90 bd fa 87 f8 3b e1 b4 21 3d
       -0.10041015 -0.07069816 0.007584569 0.03947914
000330 ac aa 31 3d d7 36 0a 3e d1 f3 01 3e 04 29 12 3e
       0.043375656 0.13497482 0.12690665 0.14273459
000340 6d 9f 7d 3e 45 5f 9a bd 6c 89 6b bd 7d dc 19 3e
       0.24767847 -0.075377025 -0.057504103 0.15025516
000350 4a f8 8b 3e 8a 06 4b 3e da 4e 73 3e ac da 0d 3e
       0.27337867 0.19826713 0.23760548 0.13852948
000360 39 ec b1 3d 25 8c da 3d 14 10 97 3d ba 1c 2f 3d
       0.08687634 0.10671262 0.073761135 0.042752005
000370 b3 8e c6 3c 18 36 ac 3d 3a db ec 3d 56 76 3b 3e
       0.024237966 0.08408755 0.11565252 0.1830686
000380 e9 32 6c 3e d8 17 3a 3e a9 40 ab 3e 2d 77 82 3e
       0.23066296 0.18173158 0.3344777 0.2548155
000390 42 84 9a bd a7 ef d4 3c 38 ec c6 3d c2 e6 0d 3e
       -0.075447574 0.025993181 0.09713024 0.13857558
0003a0 62 17 82 3e b4 fc 90 3e 6d 6f 0f 3e cd 47 43 3e
       0.25408465 0.28317797 0.1400735 0.19070359
0003b0 4c b4 b2 3d 99 e7 89 3d 3e 43 c3 3d 72 6d 48 3d
       0.08725795 0.06733627 0.0953431 0.0489325
0003c0 57 5a 1d 3e 12 57 c2 3d 15 da 2c 3e ae c3 4e 3e
       0.15366493 0.094892636 0.16880067 0.20191833
0003d0 b8 84 8f 3e d1 09 8a 3e 52 6b 8a 3e f1 67 af bd
       0.28030944 0.26960614 0.27035004 -0.08564747
0003e0 d6 d2 a6 bd f7 86 3f 3e 9e a2 b0 3d 1d 6e fd 3d
       -0.081456825 0.18703829 0.08624767 0.12374518
0003f0 b2 53 58 3e eb 28 81 3e 69 7a 2c 3e d3 c7 26 3e
       0.21125677 0.2522653 0.16843571 0.16287164

bias f4 [5]
000000 59 e6 c3 bd e6 15 bd bd d7 11 9a bd 2a 28 84 bd
       -0.0956542 -0.092326924 -0.07522934 -0.06452973
000010 79 01 a4 bd
       -0.080080934
