archived_data/b1_r0_m8_s100--2019-03-03--165203.596044/episode_12750.model (torch_old, 268278 bytes, 8 tensors)

weight f4 [6, 6, 3, 3]
-0.0989026 0.08754997 0.0066260546 0.13156396 -0.01608827 -0.024815366 -0.011826925 0.09217939
-0.048001535 0.11239747 0.04770091 0.022422483 -0.06229538 0.049200427 -0.028457904 -0.087615654
-0.041070875 -0.036720637 0.14117888 0.11166409 0.06886861 0.047333505 0.1323227 0.0331655
0.10315428 0.09567944 0.007189605 -0.06899242 -0.05695782 -0.103625044 0.039438233 0.09549007
-0.062022947 0.08206484 -0.12114667 0.04216516 0.08879924 -0.0041056676 -0.052137494 -0.24284013
-0.024493603 -0.18352057 -0.4190129 -0.30381885 -0.13690811 0.088477604 0.041833222 0.015098035
0.041642774 0.022864249 -0.10466126 0.120690934 -0.032536447 -0.0077550714 -0.09898791 0.106147885
0.07836604 -0.10956599 0.11757594 -0.06769043 0.09143104 0.023604289 -0.0793014 -0.06791024
-0.05417982 0.057076875 0.042084266 -0.026033152 0.07053974 0.04743143 0.05664414 -0.008996597
-0.013472337 -0.044363037 0.036685176 0.054565586 0.020173645 0.08771418 0.071084626 0.071255594
0.032374598 0.087184876 -0.0047206283 0.06489658 0.011610091 0.061124444 0.09023325 -0.05302257
-0.014743537 0.09419365 0.16720337 -0.38746515 -0.3259169 0.12754098 -0.16553256 0.19574638
0.041778553 0.19321711 0.3060108 0.13797395 -0.08055481 0.0763742 0.021623788 0.062478647
-0.07381749 -0.06981683 -0.005253368 0.08707999 0.061362177 0.03201264 -0.0652231 0.100899264
0.042195097 -0.0856168 -0.1022894 0.13308746 -0.022568233 0.04330579 0.043500267 0.03398907
0.00022929687 -0.0032925685 -0.17472301 -0.0211254 0.06827484 0.0060664006 0.05701367 0.07048817
0.09742594 0.05186048 0.048136152 -0.10631221 0.029802501 0.1178722 0.026596198 -0.038927376
-0.08389048 -0.049961805 -0.014928535 -0.021312818 0.11138584 -0.04168068 0.024843767 0.037637815
-0.017863907 0.002141578 0.19893873 0.16677293 0.17861398 -0.32858533 0.07872682 0.17666322
-0.14139377 0.03001393 -0.010494235 0.031153105 -0.051408228 -0.0738562 -0.15008542 -0.042337712
0.02634345 -0.08770812 0.09874566 0.12700939 0.12426171 0.11717251 -0.06729436 -0.0028953254
-0.12759839 -0.023696266 -0.095670134 -0.027068518 0.0025622577 0.04431716 0.04134115 0.010816501
-0.01661895 -0.0046778247 -0.012027122 0.04422058 0.03409737 0.085955806 0.115184925 0.08927431
0.08913892 0.069296464 0.022958959 0.06308078 0.113772966 0.059393436 -0.047799125 0.077635184
-0.035260238 -0.1284027 -0.08459376 -0.12803987 -0.07306849 -0.12930039 0.06435609 0.17461383
-0.2927182 -0.08465586 -0.41563985 -0.25827733 0.12459226 0.16010179 -0.325021 0.018939566
-0.061245777 0.057347797 -0.13478822 0.043733317 0.04069824 0.12200514 -0.04623059 0.03139653
0.08847006 0.12129402 0.021177188 0.020337582 0.10143301 0.12190831 -0.039347313 0.05337149
0.049739152 0.0515637 -0.059658293 0.10106814 -0.056395512 -0.038653873 0.09061301 -0.008621295
-0.035737026 -0.022354094 0.062173616 -0.04169104 0.033374276 -0.043709792 -0.011940947 0.056860354
-0.06669441 -0.049340658 -0.047864977 0.118190646 0.05884725 0.062719986 -0.05224768 -0.023546048
-0.11159935 -0.123616554 -0.10416311 -0.10653592 0.22420965 0.024764216 0.2849477 0.092578955
00000000: 728d cabd 664d b33d 601f d93b b4b8 063e
00000010: 8ccb 83bc 9849 cbbc b8c5 41bc 8cc8 bc3d
00000020: 429d 44bd a530 e63d 0862 433d 5baf b73c
00000030: 7129 7fbd 6386 493d 8d20 e9bc d66f b3bd
00000040: ef39 28bd 6168 16bd 3291 103e 24b0 e43d
00000050: fc0a 8d3d c7e0 413d 9a7f 073e 8cd8 073d
00000060: 8d42 d33d 95f3 c33d c796 eb3b e64b 8dbd
00000070: 9a4c 69bd 5e39 d4bd fc89 213d 4c90 c33d
00000080: c60b 7ebd 9c11 a83d bf1b f8bd 60b5 2c3d
00000090: 60dc b53d d688 86bb 208e 55bd 15ab 78be
000000a0: cfa6 c8bc d1ec 3bbe dc88 d6be 258e 9bbe
000000b0: a431 0cbe bf33 b53d 5059 2b3d c05d 773c
000000c0: 9d91 2a3d ce4d bb3c a558 d6bd cf2c f73d
000000d0: f044 05bd 411e febb 2cba cabd 1064 d93d
000000e0: 607e a03d 2264 e0bd a8cb f03d 48a1 8abd
000000f0: 3240 bb3d c85d c13c c668 a2bd 8614 8bbd
00000100: a9eb 5dbd 71c9 693d 8d60 2c3d 7a43 d5bc
00000110: 2477 903d 7647 423d b003 683d 7666 13bc
00000120: 14bb 5cbc 04b6 35bd 3243 163d 2a80 5f3d
00000130: 3343 a53c 7ea3 b33d d194 913d 74ee 913d
00000140: 3a9b 043d fc8d b23d 80af 9abb 80e8 843d
00000150: 4038 3e3c a05d 7a3d 36cc b83d 322e 59bd
00000160: e08e 71bc 9ae8 c03d 5c37 2b3e d561 c6be
00000170: 94de a6be 1a9a 023e 5e81 29be bd71 483e
00000180: fd1f 2b3d b5da 453e 73ad 9c3e 0b49 0d3e
00000190: ecf9 a4bd 146a 9c3d 5f24 b13c 9ce9 7f3d
000001a0: a02d 97bd 20fc 8ebd 7224 acbb fe56 b23d
000001b0: e856 7b3d b01f 033d b093 85bd 46a4 ce3d
000001c0: c4d4 2c3d dc57 afbd 1b7d d1bd 1448 083e
000001d0: 04e1 b8bc 6961 313d 562d 323d 2038 0b3d
000001e0: 696f 7039 22c8 57bb 97ea 32be 2d0f adbc
000001f0: aed3 8b3d a8c8 c63b 2b87 693d 1a5c 903d
00000200: 4087 c73d a86b 543d 6a2a 453d 37ba d9bd
00000210: 6024 f43c fb66 f13d 45e0 d93c 5072 1fbd
00000220: c6ce abbd c0a4 4cbd d096 74bc 3898 aebc
00000230: 421e e43d 5cb9 2abd 2885 cb3c 1c2a 1a3d
00000240: 5457 92bc b759 0c3b 98b6 4b3e 86c6 2a3e
00000250: 95e6 363e 563c a8be 873b a13d 34e7 343e
00000260: 87c9 10be c6df f53c 03f0 2bbc cc34 ff3c
00000270: 6f91 52bd eb41 97bd feaf 19be 4f6a 2dbd
00000280: 38ce d73c 51a0 b3bd 2a3b ca3d c00e 023e
00000290: ec7c fe3d 24f8 ef3d a0d1 89bd 80bf 3dbb
000002a0: 27a9 02be ac1e c2bc b4ee c3bd ccbe ddbc
000002b0: 8deb 273b e985 353d 5655 293d b237 313c
000002c0: 7724 88bc 7048 99bb 680d 45bc a420 353d
000002d0: afa9 0b3d 9909 b03d 13e6 eb3d 73d5 b63d
000002e0: 778e b63d 4eeb 8d3d 6d14 bc3c 7f30 813d
000002f0: cd01 e93d 8846 733d 04c9 43bd 32ff 9e3d
00000300: 0a6d 10bd ff7b 03be 7e3f adbd e21c 03be
00000310: efa4 95bd 5267 04be 20cd 833d f8cd 323e
00000320: 29df 95be 0d60 adbd bfce d4be ed3c 84be
00000330: 3a2a ff3d b9f1 233e 2769 a6be 2627 9b3c
00000340: dadc 7abd 86e5 6a3d ec05 0abe b521 333d
00000350: 33b3 263d d5dd f93d 4a5c 3dbd a699 003d
00000360: ca2f b53d 0069 f83d c87b ad3c 009b a63c
00000370: 1cbc cf3d 10ab f93d a62a 21bd 109c 5a3d
00000380: 48bb 4b3d 7534 533d 415c 74bd d0fc ce3d
00000390: fbfe 66bd 8653 1ebd 5093 b93d 5540 0dbc
000003a0: fd60 12bd ef1f b7bc c3a9 7e3d 39c4 2abd
000003b0: 77b3 083d 0a09 33bd f6a3 43bc 67e6 683d
000003c0: 1497 88bd 6e19 4abd 110e 44bd f00d f23d
000003d0: d009 713d 5673 803d aa01 56bd a4e3 c0bc
000003e0: 338e e4bd ad2a fdbd 7853 d5bd 812f dabd
000003f0: 3797 653e 53de ca3c aae4 913e 099a bd3d

bias f4 [6]
-0.10771415 -0.106440194 0.08560436 -0.16570333 0.02347492 -0.058181703
00000000: 3c99 dcbd 51fd d9bd 5751 af3d 22ae 29be
00000010: 7a4e c03c f04f 6ebd

weight f4 [16, 6, 3, 3]
-0.12052829 0.068099365 0.029839767 0.038221307 -0.06490755 -0.095437065 -0.18389681 -0.07051452
0.109228075 -0.0042417473 0.14301592 0.16244437 -0.10762852 -0.00058552175 -0.045529783 -0.087042145
-0.02712623 -0.07616749 0.11604517 0.13824427 -0.015111892 0.07146849 0.06299197 0.1065548
-0.017004302 0.08576879 0.21988931 0.0513233 -0.07954002 -0.0349665 0.20168696 0.101498984
0.047136232 -0.15486316 -0.19391334 0.24156159 0.015502992 -0.039807256 -0.09790849 0.0043887855
-0.02657157 0.07614017 -0.050073035 -0.025126353 0.14604196 0.022492973 -0.0914128 0.15752286
-0.13654971 -0.009517195 0.026775885 0.058485903 -0.053944774 0.023627954 -0.16032158 -0.06767888
0.12580392 0.018622968 0.060360704 0.0003427156 -0.09100954 0.10433162 0.09809335 0.09417903
0.02135602 -0.19499621 -0.06284711 0.042954396 -0.048643637 -0.09040423 0.067902565 0.1102905
0.07722879 -0.23369664 0.014548994 -0.15293138 -0.166718 0.22975197 -0.19186305 -0.026873494
0.055615265 0.19224817 0.17633073 0.19482955 0.14364727 0.029431887 0.14501756 0.0362004
-0.21121491 0.09058389 -0.012773561 0.050746545 0.08100701 -0.023619082 -0.07988867 -0.14386691
0.065149374 -0.13829778 -0.1378833 0.17206997 -0.20221934 -0.09941883 0.11972284 -0.13468565
0.022364346 -0.07253573 0.06363977 0.17313777 -0.0014090006 0.0482026 -0.18257576 -0.18734379
0.08690757 -0.0063148467 0.011948742 -0.007501099 0.061734755 -0.09034755 -0.16405673 0.09397829
-0.012972402 0.047517348 0.12984842 -0.1390171 -0.018247461 -0.14053279 -0.12723388 0.06242243
-0.1411086 -0.10463392 -0.013196667 -0.114917345 0.14465897 0.045341153 0.0039846795 0.091719374
-0.14110743 -0.030534923 -0.025043275 -0.2255626 -0.2006561 -0.20073676 -0.09131025 0.01762264
-0.10485656 -0.050722755 -0.20379208 0.116809204 0.00354776 0.039702065 0.1288936 -0.08854781
0.048692577 0.012559995 0.20617574 0.010031316 -0.09065284 0.16140373 -0.029581217 0.07042386
-0.16038969 -0.047144976 -0.029376747 -0.2160195 0.06923938 -0.08979498 -0.15941933 0.014430161
-0.25797203 -0.07321722 -0.16285248 -0.015050216 0.11810761 0.039188713 0.14623329 -0.013770423
0.1067085 0.031870954 0.18186097 -0.0059549143 -0.23336518 -0.08373029 -0.073601805 -0.062319316
0.027836734 0.0632253 0.035477735 -0.083947554 0.016198453 -0.056301653 0.044948127 0.114668526
0.15701637 -0.17480198 -0.25216746 0.09211455 -0.21195945 -0.18610811 -0.07646998 0.134189
-0.020016804 -0.08459179 -0.10253672 -0.021900143 -0.09859101 0.07933657 0.13287324 -0.13859782
-0.119063586 -0.1802633 -0.032677207 -0.23130026 0.030623903 -0.19362806 -0.1682934 -0.14731726
-0.046688285 -0.04442888 -0.023517944 0.0201748 0.19283932 0.10673168 0.10046768 -0.046965223
-0.019111877 -0.0016718155 -0.09220723 -0.025148857 -0.16423067 0.00049260166 0.05591469 -0.04240421
0.06316323 0.14172143 -0.26028255 -0.06374733 -0.10531802 -0.31312937 0.024622124 -0.07931818
0.10711452 0.07692344 0.040231295 -0.021742683 0.19203897 -0.11383967 -0.042201973 -0.099791
-0.06097411 0.16561304 -0.0021249151 0.1911419 -0.12876731 -0.06849623 0.050520796 -0.1476255
00000000: 89d7 f6bd ae77 8b3d 8772 f43c f28d 1c3d
00000010: 40ee 84bd 8274 c3bd 724f 3cbe eb69 90bd
00000020: f8b2 df3d 5bfe 8abb c472 123e d157 263e
00000030: 576c dcbd b37d 19ba 707d 3abd 2743 b2bd
00000040: d437 debc b3fd 9bbd 17a9 ed3d e88f 0d3e
00000050: de97 77bc 125e 923d ef01 813d 6739 da3d
00000060: 9b4c 8bbc 8ca7 af3d aa2a 613e 6138 523d
00000070: e1e5 a2bd 0839 0fbd 0787 4e3e b3de cf3d
00000080: ec11 413d 7394 1ebe 3891 46be ec5b 773e
00000090: 4300 7e3c ef0c 23bd 3f84 c8bd cdcf 8f3b
000000a0: 9fac d9bc 61ef 9b3d 6219 4dbd c8d5 cdbc
000000b0: 068c 153e 2f43 b83c a236 bbbd ac4d 213e
000000c0: b0d3 0bbe 02ee 1bbc 1a59 db3c ea8e 6f3d
000000d0: 32f5 5cbd 698f c13c 572b 24be 3a9b 8abd
000000e0: bed2 003e 328f 983c c93c 773d 82ae b339
000000f0: 3663 babd d1ab d53d 2be5 c83d efe0 c03d
00000100: d2f2 ae3c 16ad 47be fcb5 80bd f3f0 2f3d
00000110: 8d3e 47bd da25 b9bd 8010 8b3d fcdf e13d
00000120: 212a 9e3d 2c4e 6fbe e75e 6e3c 0b9a 1cbe
00000130: 20b8 2abe 1a44 6b3e bf77 44be cd25 dcbc
00000140: d5cc 633d b4dc 443e 0b90 343e 6681 473e
00000150: 4518 133e 241b f13c 7c7f 143e df46 143d
00000160: b948 58be 0c84 b93d 3348 51bc 9cdb 4f3d
00000170: 01e7 a53d ce7c c1bc ac9c a3bd d951 13be
00000180: 096d 853d ef9d 0dbe 4831 0dbe 1c33 303e
00000190: 9612 4fbe 199c cbbd 4031 f53d 09eb 09be
000001a0: 6f35 b73c 9d8d 94bd 9155 823d 074b 313e
000001b0: 37ae b8ba 1770 453d 24f5 3abe 0dd7 3fbe
000001c0: 99fc b13d c6ec cebb a8c4 433c c7cb f5bb
000001d0: 95dd 7c3d 2308 b9bd 7dfe 27be b177 c03d
000001e0: 338a 54bc 8da1 423d fcf6 043e 805a 0ebe
000001f0: b37b 95bc d4e7 0fbe 9949 02be a9ae 7f3d
00000200: c67e 10be 4f4a d6bd d536 58bc c959 ebbd
00000210: 7b21 143e a5b7 393d ea91 823b 5ed7 bb3d
00000220: 777e 10be 6024 fabc 8e27 cdbc e2f9 66be
00000230: cb78 4dbe f08d 4dbe de00 bbbd 5b5d 903c
00000240: 09bf d6bd aac2 4fbd dfae 50be aa39 ef3d
00000250: 8981 683b a29e 223d affc 033e 8e58 b5bd
00000260: de71 473d 70c8 4d3c bc1f 533e 645a 243c
00000270: 32a8 b9bd 0547 253e 4f54 f2bc 623a 903d
00000280: 323d 24be 171b 41bd 81a7 f0bc 3734 5dbe
00000290: 60cd 8d3d 6ee6 b7bd d23e 23be 7b6c 6c3c
000002a0: e914 84be e9f2 95bd cdc2 26be 2e95 76bc
000002b0: 67e2 f13d 5884 203d 2ebe 153e 579d 61bc
000002c0: fc89 da3d 1e8b 023d c339 3a3e 7121 c3bb
000002d0: 48f7 6ebe c97a abbd 8bbc 96bd 8a42 7fbd
000002e0: dd09 e43c 447c 813d 1a51 113d b2ec abbd
000002f0: 9eb2 843c 909c 66bd 871b 383d 55d7 ea3d
00000300: e6c8 203e 4aff 32be 181c 81be 8ea6 bc3d
00000310: e60b 59be 2093 3ebe 4b9c 9cbd d768 093e
00000320: 48fa a3bc 763e adbd c6fe d1bd ee67 b3bc
00000330: 15ea c9bd 367b a23d ec0f 083e 96ec 0dbe
00000340: 9cd7 f3bd f196 38be 89d8 05bd fad9 6cbe
00000350: fbde fa3c 6f46 46be 1b55 2cbe 56da 16be
00000360: 373c 3fbd 0ffb 35bd b4a8 c0bc 9f45 a53c
00000370: ac77 453e 2496 da3d 00c2 cd3d 9b5e 40bd
00000380: 8390 9cbc d220 dbba 25d7 bcbd fa04 cebc
00000390: 162c 28be f021 013a cd06 653d 09b0 2dbd
000003a0: b95b 813d 6c1f 113e c143 85be f68d 82bd
000003b0: f9b0 d7bd 7e52 a0be 56b4 c93c 9271 a2bd
000003c0: dc5e db3d 098a 9d3d 92c9 243d b61d b2bc
000003d0: dda5 443e c624 e9bd fadb 2cbd 395f ccbd
000003e0: fdbf 79bd 7796 293e 2942 0bbb b4ba 433e
000003f0: 94db 03be c047 8cbd e5ee 4e3d 242b 17be

bias f4 [16]
-0.017319785 0.008291905 0.054383162 0.013193315 -0.0005651059 -0.10147694 -0.014063593 0.02376345
-0.06229357 0.026174875 0.028454084 0.03478654 -0.07910322 0.10491633 0.02523637 0.10724017
00000000: 39e2 8dbc c5da 073c e1c0 5e3d c628 583c
00000010: 9d23 14ba 24d3 cfbd fc6a 66bc 91ab c23c
00000020: 8b27 7fbd b16c d63c 8a18 e93c 557c 0e3d
00000030: de00 a2bd 5fde d63d 81bc ce3c bca0 db3d

weight f4 [32, 16, 3, 3]
-0.046834607 -0.15218712 -0.14790392 0.012986792 0.019496178 0.013413615 -0.08209752 0.03457285
-0.05292172 -0.13918087 -0.046857495 0.101669125 0.08079987 0.035179477 0.18055145 0.06336468
0.06809624 0.122835845 -0.09150571 -0.059899956 -0.1259504 -0.079099014 0.012593825 0.07866279
0.028368361 0.1293109 0.03591142 -0.020947056 -0.10872892 -0.024235364 0.02291605 0.08306708
0.020135986 0.0019936655 0.057899274 -0.020347118 -0.058885816 -0.049446728 0.022980157 -0.12957522
-0.06432752 0.045919552 -0.022653727 0.06672429 0.012395915 -0.07538178 -0.122251235 -0.06630153
-0.15877503 -0.11669129 0.0496125 -0.121326745 -0.09006698 -0.1325951 0.056068975 -0.046786632
-0.20882475 -0.06623183 -0.1361828 -0.28257018 0.014498163 0.023040656 -0.22855107 -0.03289182
-0.16125157 -0.06596139 -0.0066527925 -0.06677564 -0.043141417 0.017150018 0.05136065 -0.026259955
-0.21505263 -0.13113156 -0.17259833 0.031713244 -0.101378724 -0.22389829 -0.044207036 -0.15998669
-0.26280904 -0.119784266 -0.07809409 0.03260271 -0.07591114 0.06350283 -0.0024787965 0.03249576
-0.04433304 -0.029491084 -0.046303883 -0.016501205 -0.010115932 -0.025147408 0.009425844 0.13163516
-0.061561674 -0.048861604 0.02995998 -0.075025275 0.03115991 0.09093959 0.08800221 0.016804706
0.04579694 0.02144293 -0.0005688289 0.1699627 0.020546898 -0.11637342 -0.1229273 0.09957688
-0.017654808 0.0600377 0.03986833 0.12873589 -0.045864847 -0.08073497 -0.010878135 -0.045873515
-0.018775154 0.068816446 0.03466448 -0.010791773 -0.029945588 -0.0044877497 -0.11097356 -0.13786413
-0.06590882 -0.08607303 0.04558404 0.013193744 -0.06806571 0.0068472046 -0.094564 -0.05031516
-0.0044641797 -0.07688238 -0.012991817 -0.082809895 0.076587215 0.04547701 0.03270635 -0.009470058
0.0428873 0.08230582 -0.21244192 0.13121848 0.0017494913 0.010368214 0.011798792 -0.02710362
0.1186409 0.061089966 0.04865868 0.031372793 0.08275738 0.02416635 -0.030553892 0.033081066
0.0049049105 0.018927786 0.0357586 0.118118696 -0.037324425 0.106373906 0.095165215 -0.008002709
0.056681495 0.009351782 0.037174314 -0.042241648 -0.035468467 -0.08842072 -0.097770005 -0.09446165
-0.09087388 -0.07279868 -0.0033050058 -0.0589677 0.15403396 0.03336933 0.13574041 -0.077455886
-0.059897542 0.09169713 -0.14905004 -0.029612055 -0.00096999144 0.007271342 0.030116532 0.10534835
0.1952986 0.13476646 0.14935665 0.06912347 0.080156706 0.10468035 0.0691383 0.0313502
-0.082412355 -0.012353443 0.11487114 0.0037624442 0.08310751 0.1350541 0.08262418 0.049191453
0.0051601343 0.05999413 0.08064397 0.08968962 0.07234685 0.0020085939 -0.015757356 0.09838965
0.029008046 0.02675675 0.07222276 -0.016821764 0.057192538 0.0617109 -0.0648074 0.08718409
0.15539701 0.029211374 0.008779383 0.066034116 -0.057049092 -0.0895028 -0.014277119 -0.015005363
-0.06250529 -0.05005953 0.020154871 0.04667078 0.048444074 -0.016209457 0.007666572 0.0002176635
0.10603393 0.042249724 0.000857244 0.050673846 -0.034978528 -0.13605164 0.0035429026 -0.11871625
0.111336425 0.0694216 0.04216566 0.009787542 0.15592736 0.09879558 0.022766724 0.194171
00000000: a5d5 3fbd f1d6 1bbe 2074 17be 8ec6 543c
00000010: 73b6 9f3c c7c4 5b3c bf22 a8bd 439c 0d3d
00000020: 72c4 58bd 6e85 0ebe a5ed 3fbd e737 d03d
00000030: 677a a53d 5b18 103d 7be2 383e 57c5 813d
00000040: 0b76 8b3d 5c91 fb3d 5867 bbbd a859 75bd
00000050: 24f9 00be aafe a1bd 5556 4e3c f519 a13d
00000060: c464 e83c 146a 043e da17 133d 2999 abbc
00000070: 45ad debd 3e89 c6bc 71ba bb3c 131f aa3d
00000080: 39f4 a43c 28a8 023b ca27 6d3d 00af a6bc
00000090: 4132 71bd a788 4abd e240 bc3c 5eaf 04be
000000a0: 26be 83bd 2416 3c3d 4f94 b9bc bfa6 883d
000000b0: 3c18 4b3c c361 9abd db5e fabd 19c9 87bd
000000c0: ec95 22be d8fb eebd 7a36 4b3d 287a f8bd
000000d0: 0975 b8bd 03c7 07be 95a8 653d 57a3 3fbd
000000e0: 28d6 55be 8ea4 87bd 8173 0bbe 0aad 90be
000000f0: b489 6d3c c2bf bc3c 4b09 6abe 93b9 06bd
00000100: 221f 25be c416 87bd abff d9bb abc1 88bd
00000110: 0eb5 30bd 327e 8c3c 8c5f 523d 1e1f d7bc
00000120: c236 5cbe 5a47 06be 9ebd 30be bfe5 013d
00000130: a69f cfbd 9845 65be 7012 35bd 8dd3 23be
00000140: e88e 86be 7451 f5bd cbef 9fbd 6b8a 053d
00000150: 4d77 9bbd c60d 823d 4e73 22bb 461a 053d
00000160: 9096 35bd 4997 f1bc 24a9 3dbd 892d 87bc
00000170: 4bbd 25bc f001 cebc db6e 1a3c 5ecb 063e
00000180: 1828 7cbd 1b23 48bd a26e f53c daa6 99bd
00000190: 1143 ff3c 893e ba3d 813a b43d 06aa 893c
000001a0: 9295 3b3d 15a9 af3c 761d 15ba b40a 2e3e
000001b0: f851 a83c 3055 eebd 4fc1 fbbd f7ee cb3d
000001c0: d1a0 90bc 17ea 753d f94c 233d 57d3 033e
000001d0: c7dc 3bbd 6058 a5bd 353a 32bc dee5 3bbd
000001e0: 5ace 99bc a3ef 8c3d 57fc 0d3d facf 30bc
000001f0: 7350 f5bc f90d 93bb 1b46 e3bd 412c 0dbe
00000200: 34fb 86bd 0f47 b0bd 55b6 3a3d 932a 583c
00000210: 0966 8bbd 845e e03b c5aa c1bd 4517 4ebd
00000220: 4148 92bb 8274 9dbd a1db 54bc 3c98 a9bd
00000230: c2d9 9c3d 1a46 3a3d 18f7 053d 4d28 1bbc
00000240: 98aa 2f3d f48f a83d 608a 59be 235e 063e
00000250: 304f e53a 71df 293c b84f 413c 6908 debc
00000260: 00fa f23d 7939 7a3d 534e 473d c280 003d
00000270: b47c a93d 82f8 c53c 284c fabc 0380 073d
00000280: 5fb9 a03b 720e 9b3c 9c77 123d 37e8 f13d
00000290: 7fe1 18bd 90da d93d fbe5 c23d cb1d 03bc
000002a0: db2a 683d 3738 193c 1844 183d 9405 2dbd
000002b0: 6247 11bd ec15 b5bd a43b c8bd 1c75 c1bd
000002c0: 161c babd 7917 95bd cc98 58bb 1d88 71bd
000002d0: 14bb 1d3e 47ae 083d 89ff 0a3e 31a1 9ebd
000002e0: 2057 75bd b4cb bb3d 93a0 18be fb94 f2bc
000002f0: 0647 7eba 7044 ee3b f2b6 f63c e0c0 d73d
00000300: 5bfc 473e 3800 0a3e f3f0 183e 9b90 8d3d
00000310: 3329 a43d a762 d63d 6298 8d3d 1169 003d
00000320: cfc7 a8bd 1866 4abc 8f41 eb3d 5793 763b
00000330: 4534 aa3d 9f4b 0a3e de36 a93d fa7c 493d
00000340: 5816 a93b 68bc 753d aa28 a53d 31af b73d
00000350: 962a 943d 9da2 033b 9215 81bc 8380 c93d
00000360: 48a2 ed3c f930 db3c 87e9 933d cccd 89bc
00000370: b942 6a3d 92c4 7c3d beb9 84bd 928d b23d
00000380: 6520 1f3e b14c ef3c 67d7 0f3c e53c 873d
00000390: 4fac 69bd 3e4d b7bd 94ea 69bc 0ed9 75bc
000003a0: c602 80bd 390b 4dbd d41b a53c dc29 3f3d
000003b0: 4b6d 463d b2c9 84bc de37 fb3b 9a3c 6439
000003c0: 5128 d93d 0c0e 2d3d acb8 603a 618f 4f3d
000003d0: a545 0fbd 1f51 0bbe 0b30 683b 8121 f3bd
000003e0: 5a04 e43d e92c 8e3d e6b5 2c3d ed5b 203c
000003f0: 6cab 1f3e 5655 ca3d 4881 ba3c c3d4 463e

bias f4 [32]
0.056535203 -0.03143487 -0.017314699 -0.07968381 0.026560135 -0.013863296 0.0017490506 -0.029111287
-0.026517803 -0.07436531 -0.037992608 -0.030176414 -0.047504295 -0.0854309 -0.06461757 -0.04800335
0.032550592 -0.029128047 -0.015472069 0.026361942 -0.0014748927 -0.0045431084 -0.034299944 0.018696327
-0.025946038 -0.01665706 -0.08219428 0.009322882 0.024106547 -0.0019566 -0.019309813 0.0127237495
00000000: 7591 673d dac1 00bd 8ed7 8dbc 4431 a3bd
00000010: a494 d93c e122 63bc 6640 e53a cb7a eebc
00000020: dd3b d9bc d74c 98bd 239e 1bbd 8734 f7bc
00000030: dd93 42bd 65f6 aebd 3756 84bd 299f 44bd
00000040: c553 053d f19d eebc 907e 7dbc 00f5 d73c
00000050: 3051 c1ba 5bde 94bb 197e 0cbd 0a29 993c
00000060: c98c d4bc 6374 88bc 7a55 a8bd 00bf 183c
00000070: 187b c53c 4d3a 00bb 9d2f 9ebc 4677 503c

weight f4 [5, 11552]
-0.07377141 -0.07467305 -0.074358374 -0.061273266 -0.069706045 -0.07211608 -0.0684877 -0.06841532
-0.06679318 -0.06388356 -0.059196632 -0.05423555 -0.0456548 -0.06641067 -0.05604025 -0.064925455
-0.0523561 -0.06954522 -0.073909536 -0.06764172 0.005589116 0.006063937 0.011173854 0.08592037
0.08916296 0.010744195 0.07748551 -0.013784641 0.08117687 -0.018932736 0.047991287 0.13038757
0.11844812 0.05805523 0.070130296 0.0890214 0.051671874 -0.004408056 -0.062299058 0.006902471
0.10915853 0.10172279 0.0821516 0.04662092 -0.00012031581 0.07174691 0.13171722 0.13347785
0.05947841 0.10615714 0.11839376 0.18484706 0.22165547 0.18185237 0.15498821 0.026711937
0.1113443 -0.07144449 -0.045795515 0.015984312 0.034753848 0.094410755 0.08022185 0.082628034
0.08294819 0.07830405 0.10843703 0.064617634 0.104303956 0.16262464 0.08887044 0.14559865
0.17770368 0.16697603 0.106855094 0.1277207 -0.05222002 0.0039662654 0.1090126 0.109354645
0.10970434 0.08984746 0.11022115 0.097719245 0.11307865 0.1144935 0.1061593 0.13986467
0.119169205 0.10249013 0.17287277 0.14465259 0.1419662 0.19377358 0.09722183 -0.05589309
-0.05079052 0.031213852 0.10457954 0.08367832 0.1030955 -0.0049703363 0.008028728 0.05020956
0.0846715 0.05158354 0.09369165 0.050455444 0.095697425 0.084890865 0.08261996 0.20258002
0.199862 0.14582402 -0.043801606 0.0121587785 0.14637777 0.043449398 0.09959953 0.111407846
0.016424686 0.022813512 0.02770925 0.01789119 -0.053508047 0.034017313 0.03147222 0.08792379
0.040282883 0.088545874 0.166805 0.2167191 0.12492897 -0.048650812 -0.00821914 0.06537564
0.11248548 0.0939249 0.05137554 -0.0022401938 0.054746665 0.02827384 -0.027450148 0.054040816
0.026480418 0.030802412 0.1046258 0.14504899 0.07439324 0.12987867 0.11008016 0.06971899
-0.06588155 -0.016765632 0.07423502 0.13545412 0.018560315 0.045520097 0.025393764 0.003362868
-0.1187618 -0.07669256 0.010645851 -0.066746384 0.0228196 0.011447325 0.043763626 0.07841301
0.11402208 0.13505736 0.10416905 -0.06258261 -0.039240904 0.10866979 0.056270156 -0.025609735
0.057477266 0.020316478 -0.036601778 -0.07497497 -0.077704445 -0.062991224 -0.047600914 0.02285021
-0.01631324 0.0100950105 0.05311202 0.10386091 0.1508989 0.06126747 -0.038136534 -0.053603377
0.10286125 0.049096294 0.055599347 0.0584658 0.05516015 -0.030337868 -0.059590306 -0.17133433
-0.032630473 -0.028646993 0.0047377497 -0.0030435931 0.0027571418 0.08858949 0.015675288 0.028913587
0.087326586 -0.049904652 -0.037403908 0.06827603 0.10445343 0.032056633 0.024056083 0.013062997
0.039737504 0.046103153 -0.028493343 -0.00715995 0.01649603 0.06659179 0.057975944 0.069938384
0.04951671 0.070168294 0.11221925 0.037854236 -0.049207907 0.010921623 0.0230718 -0.022344649
0.023541724 0.030547481 0.061967727 0.09146706 0.0790018 -0.019478882 0.0022670003 0.0070159207
0.09574385 0.06889414 0.09305547 0.09810533 0.119895965 0.058834944 0.01362525 -0.055648882
-0.075334415 0.015622633 -0.034774367 0.0051430794 0.022258043 0.06289473 0.07197758 0.04284092
00000000: 7715 97bd 2fee 98bd 3449 98bd adf9 7abd
00000010: 0bc2 8ebd 98b1 93bd 4743 8cbd 551d 8cbd
00000020: ddca 88bd 62d5 82bd 2b78 72bd 1926 5ebd
00000030: 8700 3bbd 5102 88bd 768a 65bd a3f7 84bd
00000040: 5a73 56bd b96d 8ebd e25d 97bd be87 8abd
00000050: e724 b73b feb3 c63b 8a12 373c 05f7 af3d
00000060: 129b b63d 6c08 303c b9b0 9e3d fad8 61bc
00000070: 0f40 a63d d318 9bbc 8392 443d 5284 053e
00000080: ee94 f23d 52cb 6d3d 79a0 8f3d da50 b63d
00000090: e3a5 533d 7471 90bb 4c2d 7fbd 202e e23b
000000a0: 828e df3d 0a54 d03d 193f a83d 94f5 3e3d
000000b0: 0f52 fcb8 0bf0 923d e1e0 063e 6bae 083e
000000c0: a29f 733d ea68 d93d 6d78 f23d 8c48 3d3e
000000d0: a7f9 623e 8237 3a3e 3bb5 1e3e fed2 da3c
000000e0: 7b08 e43d 7d51 92bd 1494 3bbd 88f1 823c
000000f0: 0d5a 0e3d 6d5a c13d 5a4b a43d e338 a93d
00000100: bee0 a93d e05d a03d 3c14 de3d 4056 843d
00000110: 509d d53d 1387 263e b501 b63d d017 153e
00000120: f4f7 353e c4fb 2a3e d8d6 da3d 37c9 023e
00000130: a9e4 55bd 72f7 813b ff41 df3d 54f5 df3d
00000140: abac e03d f201 b83d a0bb e13d 0721 c83d
00000150: c795 e73d 917b ea3d 0c6a d93d af38 0f3e
00000160: fc0e f43d 58e6 d13d 8f05 313e cf1f 143e
00000170: 965f 113e 956c 463e 3d1c c73d 27f0 64bd
00000180: b809 50bd 31b4 ff3c cc2d d63d 8a5f ab3d
00000190: bc23 d33d 34de a2bb ed8a 033c 8aa8 4d3d
000001a0: 4068 ad3d 4349 533d 68e1 bf3d 5eaa 4e3d
000001b0: 03fd c33d 43db ad3d a734 a93d 2371 4f3e
000001c0: a0a8 4c3e e452 153e 5069 33bd 9d35 473c
000001d0: 0ee4 153e fff7 313d d7fa cb3d cc29 e43d
000001e0: 108d 863c 67e3 ba3c 82fe e23c 8b90 923c
000001f0: 412b 5bbd bd55 0b3d 04e9 003d 6311 b43d
00000200: aaff 243d 8a57 b53d eece 2a3e 9deb 5d3e
00000210: c3da ff3d 1346 47bd 92a9 06bc aae3 853d
00000220: ca5e e63d b35b c03d 296f 523d 37d0 12bb
00000230: 0a3e 603d 8a9e e73c 22df e0bc e759 5d3d
00000240: 76ed d83c 5755 fc3c 0d46 d63d b987 143e
00000250: 7c5b 983d eafe 043e b571 e13d d4c8 8e3d
00000260: e8ec 86bd 1458 89bc 8808 983d 7cb4 0a3e
00000270: cd0b 983c 4873 3a3d 9506 d03c 9063 5c3b
00000280: 6339 f3bd fd10 9dbd ef6b 2e3c 54b2 88bd
00000290: 2bf0 ba3c 908d 3b3c 7d41 333d 0097 a03d
000002a0: 6984 e93d 7a4c 0a3e 9556 d53d 502b 80bd
000002b0: 12bb 20bd 448e de3d 897b 663d 82cb d1bc
000002c0: 486d 6b3d be6e a63c bfeb 15bd 7a8c 99bd
000002d0: 8223 9fbd 8b01 81bd 2df9 42bd 5d30 bb3c
000002e0: 58a3 85bc 8b65 253c fd8b 593d 07b5 d43d
000002f0: 3e85 1a3e 99f3 7a3d 0e35 1cbd 378f 5bbd
00000300: eba8 d23d 3219 493d 24bc 633d d679 6f3d
00000310: 9cef 613d 1f87 f8bc f714 74bd 4472 2fbe
00000320: 88a7 05bd 19ad eabc 203f 9b3b 0577 47bb
00000330: 2ab1 343b 686e b53d 7669 803c 30dc ec3c
00000340: 48d8 b23d d268 4cbd d734 19bd 4ed4 8b3d
00000350: aeeb d53d d14d 033d 4311 c53c 2e06 563c
00000360: cbc3 223d a9d6 3c3d df6a e9bc 049e eabb
00000370: af22 873c 4761 883d 2f78 6d3d db3b 8f3d
00000380: 09d2 4a3d 65b4 8f3d 35d3 e53d 0b0d 1b3d
00000390: 3b8e 49bd 9bf0 323c 1201 bd3c 200c b7bc
000003a0: 93da c03c b63e fa3c dfd1 7d3d 1553 bb3d
000003b0: b2cb a13d 2d92 9fbc f491 143b cfe5 e53b
000003c0: 5a15 c43d 5f18 8d3d de93 be3d 72eb c83d
000003d0: 048c f53d e9fc 703d 713c 5f3c 15f0 63bd
000003e0: ee48 9abd 12f6 7f3c 916f 0ebd 4787 a83b
000003f0: 8056 b63c f4ce 803d fb68 933d f679 2f3d

bias f4 [5]
-0.07483484 -0.06339061 -0.053071838 -0.038416587 -0.048477273
00000000: 0243 99bd f0d2 81bd db61 59bd b65a 1dbd
00000010: 1b90 46bd
