archived_data/b1_r0_m8_s100--2019-03-03--165203.596044/episode_16500.model (torch_old, 268278 bytes, 8 tensors)

weight f4 [6, 6, 3, 3]
00000000: 728d cabd 664d b33d 601f d93b b4b8 063e
00000010: 8ccb 83bc 9849 cbbc b8c5 41bc 8cc8 bc3d
00000020: 429d 44bd 0acb ef3d ca59 453d 9b3a 033d
00000030: dabc 69bd c99a 273d a351 09bd 09f0 acbd
00000040: 26f2 cabc 8254 f2bc 7d31 073e 9c34 cd3d
00000050: 3070 b83d b1e7 3d3d c3fe ef3d 90fd f73c
00000060: 02d9 e83d c9b5 c03d dbf0 043d e64b 8dbd
00000070: 9a4c 69bd 5e39 d4bd fc89 213d 4c90 c33d
00000080: c60b 7ebd 9c11 a83d bf1b f8bd 60b5 2c3d
00000090: 5a9c 073e 6711 1dbd e4d6 343c 4b44 7abe
000000a0: 4168 49bd 3434 50be 51ce d4be 085c 97be
000000b0: 2857 05be 1a76 9d3d 2796 1f3d ff44 ca3c
000000c0: 60f4 2c3d 76dc e03c b6c6 bcbd 35fb ee3d
000000d0: 67ad 30bd 9946 a33b 2cba cabd 1064 d93d
000000e0: 607e a03d 2264 e0bd a8cb f03d 48a1 8abd
000000f0: 3240 bb3d c85d c13c c668 a2bd 1ddb 86bd
00000100: 4503 92bd a5e7 803d 09e5 333d bee1 a8bc
00000110: 9741 813d 1570 3d3d d404 813d 0e85 2a3b
00000120: 9ffc 0ebd eba3 26bd 812c 893d 8cac 6e3d
00000130: 2ace 7c3c 7807 8d3d 2285 923d d65a 983d
00000140: 7c52 1e3d fc8d b23d 80af 9abb 80e8 843d
00000150: 4038 3e3c a05d 7a3d 36cc b83d 322e 59bd
00000160: e08e 71bc 9ae8 c03d 6ae0 2f3e 831a cdbe
00000170: caa4 9dbe 4ba2 e93d c20b 38be 4e73 363e
00000180: d8a5 223d cfb6 3d3e 47d4 983e bec6 083e
00000190: 5ee9 afbd c462 903d 7ce6 273b ad43 383d
000001a0: 4746 a3bd b4ee cabd 2845 2dbd 63e0 853d
000001b0: e856 7b3d b01f 033d b093 85bd 46a4 ce3d
000001c0: c4d4 2c3d dc57 afbd 1b7d d1bd 1448 083e
000001d0: 04e1 b8bc 0f1f 413d 2f1e 3c3d a4c4 f93c
000001e0: cad3 8b3b 82ba f4ba 6324 2abe 2239 babc
000001f0: 0a1b 7d3d b271 83bb c99f 6a3d 0590 793d
00000200: 34dd cb3d 83a0 473d 44da 283d 9f04 febd
00000210: 7243 4abb 48c2 b23d 331d d43b 5072 1fbd
00000220: c6ce abbd c0a4 4cbd d096 74bc 3898 aebc
00000230: 421e e43d 5cb9 2abd 2885 cb3c 1c2a 1a3d
00000240: 81cd fbba d788 2abc ee80 253e 7821 2c3e
00000250: 7e80 203e 7088 a4be 84e9 d53d 08e6 283e
00000260: 606e 1dbe 64c0 f53c c1d4 d7bc 35e6 da3c
00000270: 5587 2bbd 99cb a3bd d61a 18be 47bb 2fbd
00000280: 5b39 013d 5a5b 9bbd 2a3b ca3d c00e 023e
00000290: ec7c fe3d 24f8 ef3d a0d1 89bd 80bf 3dbb
000002a0: 27a9 02be ac1e c2bc b4ee c3bd eadd d1bc
000002b0: 0d33 b039 5a6e 393d b32b 2c3d 3582 1a3c
000002c0: b434 82bc 994d 08bc 8812 aabc fa02 3b3d
000002d0: b7fb 243d e05d 943d 52da e43d 413d f03d
000002e0: 8ce6 d93d fe23 9c3d db1c 1c3d f8bf 883d
000002f0: 836e ef3d 8846 733d 04c9 43bd 32ff 9e3d
00000300: 0a6d 10bd ff7b 03be 7e3f adbd e21c 03be
00000310: efa4 95bd 5267 04be e04f 393d 15ea 433e
00000320: c8b6 96be 43cf 51bd 5b24 d5be 733f 85be
00000330: 1b98 043e 30e0 6c3e 60e0 a6be 99ca 433c
00000340: bb97 87bd 4a18 6b3d 5e1e 14be 81a6 253d
00000350: 5f8a 1c3d 943e d83d c42b 14bd 611c ef3c
00000360: ca2f b53d 0069 f83d c87b ad3c 009b a63c
00000370: 1cbc cf3d 10ab f93d a62a 21bd 109c 5a3d
00000380: 48bb 4b3d 0a8b 873d c7ce 41bd f6d0 793d
00000390: d33c eebc 9a10 dbbc 42e4 473d 5ed9 97bd
000003a0: bdc1 b4bd 426a 31bd f2cf 3b3d 0cf4 21bd
000003b0: f89c 9dba 394a e7bc 1b3d cabc 6d01 5f3d
000003c0: 981b 68bc d61c 3cbc 8ac3 6dbd f00d f23d
000003d0: d009 713d 5673 803d aa01 56bd a4e3 c0bc
000003e0: 338e e4bd ad2a fdbd 7853 d5bd 812f dabd
000003f0: 12f6 343e 9f50 e93d c9d8 973e 4689 e03d
-0.0989026 0.08754997 0.0066260546 0.13156396 -0.01608827 -0.024815366 -0.011826925 0.09217939
-0.048001535 0.117086485 0.048181333 0.032038312 -0.05706487 0.0409191 -0.03352512 -0.084442206
-0.024773668 -0.029581312 0.13202472 0.100198 0.09005773 0.046363536 0.11718514 0.030272275
0.11369516 0.09409673 0.03245626 -0.06899242 -0.05695782 -0.103625044 0.039438233 0.09549007
-0.062022947 0.08206484 -0.12114667 0.04216516 0.13243237 -0.038346674 0.011037562 -0.24440114
-0.04917169 -0.20332414 -0.41563657 -0.29562402 -0.13021529 0.07688542 0.038961556 0.024691103
0.04222524 0.027448874 -0.092175886 0.11669008 -0.04313412 0.004982781 -0.09898791 0.106147885
0.07836604 -0.10956599 0.11757594 -0.06769043 0.09143104 0.023604289 -0.0793014 -0.06584761
-0.0712953 0.06294183 0.043919597 -0.020615455 0.063113384 0.046249468 0.06299749 0.0026019248
-0.034908887 -0.040683668 0.066979416 0.058270022 0.015430013 0.0688619 0.07154299 0.074392006
0.038652882 0.087184876 -0.0047206283 0.06489658 0.011610091 0.061124444 0.09023325 -0.05302257
-0.014743537 0.09419365 0.17175451 -0.4005929 -0.30789787 0.11407908 -0.17973235 0.17817423
0.039708942 0.18526767 0.29849455 0.13357064 -0.08589433 0.07050088 0.0025619557 0.044986416
-0.07972389 -0.0990881 -0.04230228 0.06536939 0.061362177 0.03201264 -0.0652231 0.100899264
0.042195097 -0.0856168 -0.1022894 0.13308746 -0.022568233 0.04714876 0.045927223 0.030489273
0.0042671906 -0.0018671306 -0.16615443 -0.022732321 0.061793365 -0.0040113563 0.05728129 0.060928363
0.099543005 0.04873706 0.04122378 -0.12403225 -0.0030862954 0.087284625 0.0064732074 -0.038927376
-0.08389048 -0.049961805 -0.014928535 -0.021312818 0.11138584 -0.04168068 0.024843767 0.037637815
-0.0019211025 -0.010408602 0.16162464 0.16809642 0.15674016 -0.32135344 0.1044493 0.16494
-0.15374136 0.029998966 -0.026346566 0.0267211 -0.04187711 -0.079978175 -0.14853987 -0.04290321
0.03154884 -0.07585783 0.09874566 0.12700939 0.12426171 0.11717251 -0.06729436 -0.0028953254
-0.12759839 -0.023696266 -0.095670134 -0.025618512 0.00033607372 0.045271255 0.042033862 0.009430458
-0.015894271 -0.008319282 -0.02076079 0.045657136 0.040279116 0.07244468 0.11174454 0.11730433
0.106396765 0.076240525 0.038113456 0.0667724 0.11691 0.059393436 -0.047799125 0.077635184
-0.035260238 -0.1284027 -0.08459376 -0.12803987 -0.07306849 -0.12930039 0.04524219 0.19132264
-0.29436326 -0.05122305 -0.416293 -0.2602497 0.12948649 0.23132396 -0.3259306 0.0119501585
-0.06620737 0.05739621 -0.14464709 0.040441994 0.0382179 0.10558811 -0.03617455 0.029188337
0.08847006 0.12129402 0.021177188 0.020337582 0.10143301 0.12190831 -0.039347313 0.05337149
0.049739152 0.066183165 -0.04731634 0.060990296 -0.029081738 -0.026741315 0.048801668 -0.074145064
-0.08826015 -0.043314226 0.04585261 -0.03953938 -0.001202493 -0.028233634 -0.02468734 0.05444472
-0.014166735 -0.011481484 -0.05804781 0.118190646 0.05884725 0.062719986 -0.05224768 -0.023546048
-0.11159935 -0.123616554 -0.10416311 -0.10653592 0.17671993 0.113923304 0.2965758 0.10963683

bias f4 [6]
00000000: fc8d d8bd b7dd e6bd 2386 a83d 751d 2ebe
00000010: 0c43 a93b 2b5c 78bd
-0.10573956 -0.112727575 0.082287095 -0.17003424 0.0051654633 -0.060634773

weight f4 [16, 6, 3, 3]
00000000: 6fb7 25be 7a4f fe3c fd1a ddbc b1a1 7e3a
00000010: 7c79 7ebd faab 1cbe 7256 4fbe 17a3 a8bd
00000020: a887 c33d bd1b 19bd cc3f 093e 2006 1c3e
00000030: 9d1d e2bd 9346 edbc a236 40bd f7d0 96bd
00000040: 0a6a 83bd 5945 a3bd e9ad de3d e38a c03d
00000050: 67bf 1cbb 36af 063d 1797 793d 5d54 de3d
00000060: c412 96bb 9146 a83d dbb4 673e 1a31 2f3d
00000070: 95b0 c3bd d19b 21bd cd90 443e c52b 893d
00000080: 18ea a63d 3087 3cbe dffe 50be 3330 6b3e
00000090: 100a 32bd 3ec2 94bd dadb 13be c965 003b
000000a0: 9446 44bd 5582 b53d 3a7c 3bbd 7427 99bc
000000b0: e7d3 093e 88cf 453c ccd3 febd ae85 253e
000000c0: cb76 16be 8899 3bbd e6d5 153d 6c39 b63c
000000d0: 9539 81bd 7af3 3c3d 608b 12be 6df8 95bd
000000e0: ac37 de3d cfae 0d3c a619 673d 95a4 94bc
000000f0: e976 d5bd 8a72 d33d 6a6a a63d 1e8c a33d
00000100: 6521 a23c 3014 50be f9d8 9fbd 1d76 2f3d
00000110: 7a06 9ebd 4d6d 83bd 684a 9a3d 7253 c83d
00000120: 1348 bf3d 4fd8 3fbe 9b26 0f3c 9482 febd
00000130: adee 22be 5ea9 763e 73dd 3ebe 9372 e9bc
00000140: 501d 903d 5225 4d3e 098f 3f3e 5e4d 3e3e
00000150: 37dc 1c3e 65a4 303d 81c3 0c3e 9c33 8f3d
00000160: 6564 45be 4d2c ed3d afa3 3d3d fef7 7b3d
00000170: 3a8f 4f3d e7cd 253d 6519 39bd 8013 1fbe
00000180: cbcc c53d bca6 f9bd 5d57 3ebe 7719 3b3e
00000190: 244a 4cbe 2e84 c8bd c3a7 e93d b2f3 fabd
000001a0: 09bb 1c3d 93bb e8bd 61bd 9b3d ed09 3a3e
000001b0: 2081 8a3b 09ed 733d f2c0 58be 151c 4fbe
000001c0: 2b89 c53d 9b54 87bc 5de7 873c 3dcb 123c
000001d0: 1c4c 9f3d d58d c8bd 08e2 19be df01 e03d
000001e0: f50c 1dbc b238 803c 1dd1 f33d 4f66 0cbe
000001f0: 1477 f5bc 7494 1fbe 2139 0abe 51ef 333d
00000200: f4b2 4bbe ef8f 13be fe8b 95bd 450f 14be
00000210: e342 0f3e d97b a93c f614 d03b c458 e83d
00000220: 324e 14be f0ef 40bd 9f23 1d3c 8788 5bbe
00000230: 73ef 2cbe 99cd 2bbe ba32 80bd c802 c63c
00000240: 6ffc b4bd a812 5dbd 1199 38be 0c25 c43d
00000250: 1445 8ebb 5c87 603d 1912 df3d 169b 73bd
00000260: 805c 223d f386 f53c 9a34 5d3e b580 1d3c
00000270: c0f2 82bd 9e6a 3a3e 1742 13bb abb9 993d
00000280: a43c 1bbe 89e0 93bc 7a6c 9cbc ee24 5abe
00000290: d1c5 913d 0dd2 d5bd 3a4d 18be 1b8e 223b
000002a0: 971f 78be 559a 06bd 81d7 16be 4cf6 afbc
000002b0: 5ae5 f43d 6a48 7a3d 423a 153e 40c0 62bc
000002c0: 6471 003e 94d2 f63c 46a5 3e3e 7cf0 4a3c
000002d0: 6abf 68be 55d7 2abe c300 acbd 342a e7bc
000002e0: d75e a9bc f0aa e13c 1b01 f23c 6dd8 b8bd
000002f0: 05d0 b9bb dbf2 f7bd 9550 fc3b 9a49 b13d
00000300: 84ac 703e 80a7 48be 7d03 90be 6f4c 753d
00000310: 4354 72be 85ea 42be 2776 e0bd 97a9 ef3d
00000320: 2220 a5bb d395 02be b87c 8bbd bf73 643c
00000330: 6a70 c3bd 025e ee3d 2103 183e 3947 d8bd
00000340: a474 28be 8987 61be 79c0 8f3b 6d4b 65be
00000350: 582e 883c 47bd 39be 2502 33be 0f17 1abe
00000360: 50b5 35bd ff13 46bd b719 f1bc beac a43c
00000370: 5e59 533e 4d8a f73d ba96 ac3d 8224 38bd
00000380: 63b2 91bc 7c74 1d3d 554d a7bd 72b8 6ab9
00000390: 3c2d d5bd f046 063d 4099 a53d 51f1 e239
000003a0: 908d 8c3d 16a0 213e 3f2c 93be 1026 9ebd
000003b0: 32f5 dabd fe61 8dbe cf54 553d dd96 c4bd
000003c0: 955c e73d 96b7 963d 0a6c ac3c e030 cbbc
000003d0: d662 3d3e 6c6f fcbd 8668 01bd 5963 dfbd
000003e0: 5e88 a6bd 2c2e 433e 1faa 473c 32c2 363e
000003f0: 7c2a d2bd 5346 c9bd f21d 0b3d 8d84 12be
-0.16183256 0.031043757 -0.026990408 0.0009713425 -0.062127575 -0.15299979 -0.2024782 -0.08234232
0.09547359 -0.03737997 0.13403243 0.15236712 -0.110408045 -0.028964316 -0.046927102 -0.07364076
-0.0641671 -0.079722114 0.108730145 0.094014905 -0.0023917796 0.032881938 0.060935106 0.10855935
-0.0045798738 0.082165845 0.22627585 0.042771436 -0.09555165 -0.03945524 0.19195862 0.066978015
0.081501186 -0.18410945 -0.20409726 0.22967605 -0.043466628 -0.07263611 -0.14439335 0.0019591919
-0.04791887 0.088627495 -0.04577277 -0.01869557 0.1345974 0.012073405 -0.12442741 0.16164276
-0.14693753 -0.045800716 0.036580943 0.022244178 -0.06309811 0.046130635 -0.1431098 -0.07322774
0.10850462 0.008647635 0.056420945 -0.018144885 -0.10423071 0.10324581 0.081257656 0.079857096
0.019791314 -0.20320201 -0.07805056 0.04283725 -0.07716079 -0.06417332 0.07533723 0.09781541
0.09339919 -0.18734859 0.008737232 -0.124272496 -0.1591136 0.24088046 -0.18639164 -0.028497016
0.07036841 0.20033768 0.18706907 0.185842 0.1531838 0.04312553 0.13746454 0.069922656
-0.19276579 0.11580715 0.04629868 0.0615158 0.0506737 0.040479567 -0.045190234 -0.15534782
0.09658202 -0.12190005 -0.18588014 0.18271433 -0.19950157 -0.09790836 0.11408951 -0.122535124
0.038264308 -0.11363902 0.076044805 0.18167849 0.0042268187 0.059552226 -0.21167353 -0.20225556
0.09645303 -0.016519835 0.016589815 0.008959589 0.077781886 -0.09792677 -0.1502763 0.10937857
-0.009585609 0.015652034 0.119051196 -0.13710903 -0.029964007 -0.15583974 -0.13498355 0.0439294
-0.19892484 -0.14410375 -0.07302092 -0.1445895 0.13990359 0.020688938 0.006350155 0.11345056
-0.14482954 -0.047103822 0.009591012 -0.214388 -0.16888218 -0.16777648 -0.06259675 0.024171248
-0.088372104 -0.05397287 -0.1802714 0.09577379 -0.004341731 0.05481659 0.10892124 -0.059474073
0.039638996 0.029971575 0.21602097 0.009613206 -0.06393957 0.18204734 -0.0022469813 0.075061165
-0.15159851 -0.018051403 -0.019094694 -0.2130315 0.071178086 -0.10440455 -0.1487321 0.002480394
-0.242308 -0.032862026 -0.14730646 -0.021479748 0.11957808 0.061104216 0.14573005 -0.013839781
0.12543255 0.030129708 0.18617734 0.0123864375 -0.22729269 -0.16683705 -0.08398583 -0.028218366
-0.020675106 0.02754733 0.029541543 -0.09025655 -0.00567055 -0.12106868 0.007700036 0.086566165
0.2350331 -0.19595146 -0.2812766 0.059887346 -0.23664956 -0.19034775 -0.10960036 0.117022686
-0.005039231 -0.12752466 -0.068108976 0.013943612 -0.09542926 0.11639024 0.14844944 -0.1056046
-0.16450745 -0.22024359 0.004386958 -0.22392054 0.01662366 -0.1813861 -0.17481287 -0.15047859
-0.044362366 -0.048358914 -0.029431207 0.020101901 0.2063956 0.12086926 0.08427186 -0.04495669
-0.017785257 0.038441166 -0.08169047 -0.0002238469 -0.104090184 0.032782495 0.08085871 0.00043285874
0.068629384 0.15783724 -0.28744695 -0.077221036 -0.106912985 -0.27613825 0.052082833 -0.095990874
0.112969555 0.07359235 0.02104761 -0.024803579 0.18494734 -0.123259395 -0.031593822 -0.10907621
-0.08131479 0.19060582 0.012186556 0.17847517 -0.102620095 -0.098278664 0.033964105 -0.14308377

bias f4 [16]
00000000: 729c c2bc fc8a 2dbb 6105 373d 1226 023d
00000010: c9e9 513b 0e49 dabd 7cf6 82bc 0325 ef3c
00000020: ac4d 8abd 27f2 ff3c 4d4c 2d3d 9f30 123d
00000030: 6daf afbd 39d8 c43d d932 c53c 2477 d93d
-0.02375624 -0.0026480546 0.044682864 0.031774588 0.0032030216 -0.10658465 -0.015986674 0.029192453
-0.06753096 0.031243397 0.042309094 0.0356909 -0.08578382 0.09611554 0.024072098 0.106184274

weight f4 [32, 16, 3, 3]
00000000: 944f 2abd dc1b 0dbe 7351 febd d31a ee3c
00000010: 61d9 a83d 7936 223c 8e77 b7bd 3f37 3a3d
00000020: eb75 81bd 1223 56be 6844 ecbd 80c0 8d3d
00000030: b068 373c 2228 9d3c 4b7f 4f3e 242d 353d
00000040: fcbb d23d 4f55 203e 2635 e5bd 9e55 83bd
00000050: a6cb 06be 9bb2 d4bd 76a3 113b 47fc 8e3d
00000060: df4e 3e3d 3187 083e 1c7c 563d 7144 04bd
00000070: 5929 b5bd fccf 35bc 0a48 3f3d 25c2 163e
00000080: 36d5 573d 8634 843d 56c3 193e d3bd 233d
00000090: ee3c 81bd 61a0 0fbd e9a8 1d3d 2cb9 03be
000000a0: 02ee 9cbd fb5a 3c3d 0bf7 dabc a717 743d
000000b0: dbea 3d3c e1f6 a7bd 5380 e1bd 3b9a 71bd
000000c0: 0044 2dbe efbe 89bd f47a e1ba 7af8 0cbe
000000d0: b30a 25be abc9 e2bd 2c52 b13d 9c4e 08bd
000000e0: d3eb 82be 505e b5bd 290b 2bbe 8e96 adbe
000000f0: 8888 8c3c 8451 12bb 117b 69be 1472 41bd
00000100: 136c 2ebe a05c 88bd 28dd 1fbc cf11 83bd
00000110: f38a d8bc fbbb cb3b 2b42 5d3d c9af 98bc
00000120: 868b 9cbe 225b 0fbe efbb 3cbe 69f5 f13c
00000130: b180 12be 4463 1fbe f188 49bd abfb 17be
00000140: 7fab 90be 275a 05be bea8 83bd b1f1 293d
00000150: 4059 6dbd 6c92 a43d df73 a83c ddae 363d
00000160: a442 0fbd 9121 dbbc 0e5f a5bd 269e 303a
00000170: 4c3a 27bc 5878 6abd 482d ec3c c278 323e
00000180: f149 53bd 4243 b6bc c48f 903d e041 c1bd
00000190: 82c2 1d3d ddb4 e43d 02f6 c63d cb14 0f3d
000001a0: f1a4 423d af89 f83c eded 353d 2086 2a3e
000001b0: 1961 24bd 980f 9bbd dfa5 0ebe 6960 aa3d
000001c0: e159 0dbc bea1 813d e8db a43d 83de 4f3e
000001d0: 71d1 803c 5b2b bdbd c1dd 73bc 8df8 47bd
000001e0: 5795 f2bc fbe6 8d3d b395 033d 7f72 98bc
000001f0: 13a7 0cbd a2fa 63bc 8a5f cfbd 6cde 05be
00000200: eb67 57bd f799 53bd a01f 963d 7102 f83c
00000210: bdf7 91bd 08c0 e43b e3a9 cebd 0869 85bd
00000220: 2011 5dbc 0765 abbd 298a a9bc faa3 aabd
00000230: 5bde a73d 3ab2 1d3d 63f9 d93c 5f60 20bc
00000240: c040 3d3d 55ac a93d facf 58be 4435 043e
00000250: 3689 623b 0c40 613b 0e21 803c bd4a 9ebc
00000260: 0d51 d93d 0717 913d 8476 6f3d 9b8b 8e3c
00000270: 7b9b ad3d 62a3 1e3d 3d1d 0ebd 4926 2a3d
00000280: 2e96 0f3c 63d8 953c 4f4c d93c eed1 db3d
00000290: 2926 b7bc 4fe5 d93d cad2 b23d b7a4 debb
000002a0: 2b3c 583d 9cc6 3c3c e3a4 153d 6678 0ebd
000002b0: f0e7 68bd 37f7 00be db3e 34bd bd1c 9bbd
000002c0: 1156 f3bd 799b 41bd 079c 7c3c f39c 61bd
000002d0: 42ab 213e fd45 1e3d 91f8 0a3e 970f 98bd
000002e0: d95e 3bbd 2a7e ca3d 1750 11be 139d b7bc
000002f0: 5b4a 943b 42ea d53c 5aef 303d 8195 dd3d
00000300: e580 533e 76c2 153e e9fc 223e 5e0b a83d
00000310: eabc a93d e97c e53d c9e9 993d 8bf7 0a3d
00000320: 6af2 c1bd f533 31bc c18f ec3d a5ed d3bb
00000330: 3472 a13d c439 0f3e ce47 a03d 7709 533d
00000340: c8ee 1f3c 9915 823d 2612 a53d fef0 c13d
00000350: fd4f 963d 2acc 123b 574d 42bc f8ec c73d
00000360: 05eb 1f3d 5ccd 0a3d 3b76 973d 9267 94bc
00000370: 611a 813d 6ecc 843d 6a2a 86bd 852e b63d
00000380: cc29 1e3e 8052 283d 3469 acbb 6e9e 233d
00000390: 07a5 23bd d717 c7bd 4850 10bd d263 acba
000003a0: 3887 87bd d8e3 5ebd 8325 f43c abf2 883c
000003b0: c85d b23c 0884 a9bc 0b1e 1dbc 01d6 b2ba
000003c0: 6c79 d53d 7057 f23c 7745 32bc e2d0 483d
000003d0: 97f5 28bd 83d3 27be 76e6 4bbb df66 0bbe
000003e0: 50b0 dd3d 3dba 5f3d da5b ad3c 25b3 82bc
000003f0: 8d9d 223e d8ab d63d fc6c b63c ae6d 433e
-0.041579798 -0.13780159 -0.12417879 0.029065525 0.08244587 0.009900683 -0.0895835 0.045462843
-0.06321319 -0.20911816 -0.11536485 0.06921482 0.011194393 0.019184176 0.20263402 0.044232503
0.102897614 0.15657543 -0.11191778 -0.064128146 -0.13163623 -0.10385629 0.0022222674 0.06981712
0.046461936 0.13332821 0.052364454 -0.032291833 -0.08845777 -0.011096951 0.04669956 0.14722498
0.05269357 0.064553306 0.15015921 0.039975952 -0.063104495 -0.03506506 0.038491163 -0.12863606
-0.07662584 0.045985203 -0.026729127 0.05959287 0.011591638 -0.08201385 -0.11010804 -0.058984976
-0.16920471 -0.06725871 -0.001720278 -0.13766661 -0.16117363 -0.11073621 0.08658251 -0.033278093
-0.25570545 -0.08855879 -0.16703476 -0.33903927 0.017154947 -0.002232642 -0.22800852 -0.047227934
-0.17033415 -0.06658292 -0.009757318 -0.06399881 -0.026433444 0.0062174774 0.05401818 -0.018638508
-0.30575198 -0.13999608 -0.18431066 0.029535966 -0.14306904 -0.1556521 -0.049202863 -0.14842097
-0.2825584 -0.13022672 -0.064286694 0.04149026 -0.057946444 0.0803574 0.020563064 0.044600356
-0.034975663 -0.026749404 -0.08074771 0.0006737433 -0.01020677 -0.057243675 0.028830186 0.17428878
-0.051584188 -0.022248868 0.07058671 -0.09436393 0.038515575 0.111673094 0.09714891 0.03493194
0.04752058 0.03033909 0.044416357 0.16652727 -0.040131662 -0.07571334 -0.13930462 0.0831917
-0.008627386 0.06329678 0.08049756 0.20299725 0.01572487 -0.09236785 -0.014884413 -0.04882102
-0.029612226 0.06928822 0.032125186 -0.018609283 -0.034339022 -0.013914736 -0.101256445 -0.13073128
-0.05258934 -0.051660504 0.07330251 0.030274602 -0.071273305 0.0069808997 -0.10090997 -0.06514174
-0.013492852 -0.08368879 -0.020695763 -0.08332057 0.08196708 0.03850005 0.026608175 -0.009788602
0.04620433 0.08284823 -0.21173087 0.12910944 0.0034566647 0.003437045 0.015640762 -0.019322747
0.10611162 0.0708447 0.058462635 0.017400553 0.08476921 0.038730033 -0.034695853 0.041540418
0.008763833 0.018291658 0.026525645 0.107334 -0.022357063 0.1063944 0.08731611 -0.006794538
0.052791756 0.011521962 0.0365342 -0.03478279 -0.056861818 -0.12594305 -0.044005256 -0.07573841
-0.1188165 -0.04726741 0.015418059 -0.05508132 0.15787986 0.038640965 0.13571383 -0.074248485
-0.04574475 0.09887345 -0.14190708 -0.022413766 0.0045254654 0.02611268 0.043197013 0.10819531
0.20654638 0.14624962 0.1591679 0.08205293 0.082879856 0.11205465 0.07515294 0.03392748
-0.09470065 -0.01081561 0.115508564 -0.0064675384 0.07883111 0.1398688 0.07826196 0.0515227
0.00976152 0.06351776 0.08060102 0.09469794 0.07339475 0.0022399523 -0.01185926 0.09761995
0.03904249 0.033887252 0.073955975 -0.018115792 0.063038595 0.06484304 -0.065510586 0.08895592
0.15445632 0.041094303 -0.0052615646 0.039946012 -0.039952304 -0.09721344 -0.035232812 -0.0013152307
-0.06617588 -0.054416507 0.029803043 0.016717276 0.021773234 -0.02069284 -0.009589682 -0.00136441
0.1042355 0.02958271 -0.0108808195 0.04902733 -0.041249838 -0.16389279 -0.0031112707 -0.13613461
0.108246446 0.05462097 0.021161962 -0.015954563 0.15880413 0.10481995 0.022268765 0.19084808

bias f4 [32]
00000000: 1960 7f3d 9b06 10bd 5dd3 c8bc 5d99 acbd
00000010: d8ba 013d c5e3 96bc eacf 1fbc 767c f8bc
00000020: 62c1 09bd a082 a1bd 2e26 34bd 0a0d 25bd
00000030: baca 52bd 2706 bfbd 42d6 66bd b099 5cbd
00000040: a594 fb3c 84e0 06bd 9527 10bc bf84 d73c
00000050: 8cc5 20bc a9de 2fbc c2f5 29bd 5079 673c
00000060: 3d1f cabc 1f4c d1bc 7a55 a8bd b1af 633c
00000070: 5cd5 d03c a700 3e3b 66a7 dbbc 3217 70bb
0.062347505 -0.03516255 -0.024514848 -0.08427689 0.03167233 -0.018419156 -0.00975416 -0.030332785
-0.03363169 -0.07886243 -0.043981723 -0.04029564 -0.051462866 -0.09327345 -0.056356676 -0.053857505
0.030710528 -0.03292896 -0.0087985 0.026308415 -0.009812724 -0.010734239 -0.04149414 0.014128044
-0.024673099 -0.025548993 -0.08219428 0.013896869 0.025492363 0.0028992088 -0.02681322 -0.003663492

weight f4 [5, 11552]
00000000: 2dfa a7bd 81cf abbd 6aae abbd d6f7 8dbd
00000010: f83b 9ebd 7171 a4bd c6c3 98bd 0772 99bd
00000020: 05e3 9cbd 0897 9bbd b34f 94bd 943d 8abd
00000030: ee20 70bd 9914 a1bd 1b05 8bbd 311b 9abd
00000040: a101 7fbd 44bc a3bd 1dd6 aabd 9d32 9dbd
00000050: 19bd afbc 7ab8 3ebc 65d2 9c3c 9944 873d
00000060: 3b11 da3d 6b35 743d c285 f53d 4bb2 c4bb
00000070: 9019 a93d b560 f13b 4d7b a93d 76fc 213e
00000080: bc83 e13d 8042 b53d 214b 073e 7957 2e3e
00000090: 9e08 c53d 6685 843c ed6b 92bd 65d5 94bb
000000a0: 6e28 d43d a6c1 2d3e 04b5 5a3d 5a45 943d
000000b0: dc5a 90b8 9072 9a3d 95b2 f33d 164e 2d3e
000000c0: ad69 e93d d558 0f3e 1244 303e 82a1 4d3e
000000d0: 2546 6c3e a181 503e af6f 163e ec4c 8d3d
000000e0: 7630 503e d722 9ebd cb7b 08bd 16d7 9c3d
000000f0: f569 f83c a436 873d 1d71 d03c f473 883d
00000100: 9e41 a13d 90ea 0f3e ab02 233e 1c26 b23d
00000110: 4449 033e e857 523e 96ac 013e a4bc 573e
00000120: 27ab 723e 85bc 633e d993 2d3e 8668 433e
00000130: b930 81bd 502a 54bc 7c4b 303e e169 323e
00000140: b8e2 033e 7470 d23d 1d1b f83d d943 f43d
00000150: c849 3c3e 2298 2d3e 9dd3 f83d a23a 193e
00000160: c597 273e a6ba 103e 1716 573e 1ab1 803e
00000170: 7a1c 253e cd8b 853e 392c fb3d 8015 8bbd
00000180: 0036 33bd 14d2 c43c 1823 4e3e 247d 203e
00000190: 1d60 2a3e 82f5 cc3d b0d3 473d 7e69 103e
000001a0: e1e6 083e cbea 113e bb13 dd3d c22b 4d3d
000001b0: 7c86 f83d cacc d93d e9e9 0b3e 030b 8f3e
000001c0: 6b79 813e c142 3b3e 4edf 4cbd 6a6f 523c
000001d0: baf1 103e 08d5 ac3d 5ced 003e a307 c13d
000001e0: 3381 4c3d d636 193e 484e 143e 0831 ca3c
000001f0: 6914 f33c 30d2 ce3d 9d57 143d f4cd 0e3e
00000200: 58f8 003e 854d 223e a23b 9b3e ac61 953e
00000210: 15b8 473e cd5a 67bd 38d3 d03c 57ca 4c3d
00000220: a4ff db3d f6e7 363e b895 873d c250 243d
00000230: 8c88 a13d 0fd8 613d 9e4d 4a3d 5d2b 8f3d
00000240: ff3a ec3c 26df 543c f968 043e 5128 273e
00000250: 8f8b db3d 75ba 503e b7ce 513e dce3 e83d
00000260: 1aa8 a4bd 8e1e 0bbb bfa2 573d 2588 4a3e
00000270: 7dff 053e 450e a93d 0838 afbb 3d56 d33a
00000280: 4c45 09be 6124 93bd 332e d33c e08d 373d
00000290: c317 983d 7147 3d3d b759 913d 5c6f 8d3d
000002a0: 1f5d 0b3e b2f5 243e 8bc3 243e a62e 98bd
000002b0: c4b4 6abc e003 0a3e 256e 003e 6f0b 553d
000002c0: 645b 493d 326e 033d 9b9f 863a 9879 c1bd
000002d0: e18a d5bd a0b4 bdbd 6c90 00bd 17c9 7dbb
000002e0: a0ed e83c c30b 213d 8846 753d 1202 aa3d
000002f0: 0719 4c3e 0b8c 093e c8a2 26bd a16e 16bd
00000300: 9e74 1d3e 56a4 bf3d 78f3 c23d 131b e83d
00000310: 57e2 ba3d 5dd2 903d 9cad 5cbd 1997 26be
00000320: a960 85bd 3dfd 05bd 6d9a 083d 186f 813c
00000330: 734b 803c d982 d93d fc46 bc3c ac8a cb3d
00000340: 75e6 473e 26a8 6cbd 07ab 9bbc baed ba3d
00000350: 9008 c63d c84c b03d 36a3 073e 1c27 203d
00000360: f341 c33d 103c 8d3d 7572 30bb 37c6 8d3c
00000370: c8be 9bbb 8d0d bc3d 9ed7 e23d 434c 043e
00000380: 826e fc3d 9b30 f03d de5a 2c3e 230c 293e
00000390: 3aee 6fbd 08dc 313d b79a 1e3d 8daa 9e3d
000003a0: 9a31 493d bdf3 ac3d 2145 233d f9f4 053e
000003b0: db44 bc3d af5d c63c b80e 393d 2cfc cf3c
000003c0: 760f cf3d 9552 fd3c 9bba f93d ca88 233e
000003d0: a6ce 523e 41c1 ee3d 3ca7 f93d 1097 87bd
000003e0: cbf3 57bd 35f6 d93d b841 5e3d 9e61 893d
000003f0: 17ae 9c3d 4337 ba3d 2d80 ea3d 7ebd 543d
-0.08202014 -0.083891876 -0.08382876 -0.069320366 -0.07726282 -0.0802945 -0.07459216 -0.07492452
-0.07660488 -0.07597166 -0.07241764 -0.06750026 -0.058625154 -0.07865257 -0.06788083 -0.075247176
-0.062257413 -0.07994893 -0.0834162 -0.07675669 -0.021452473 -0.011640662 0.019143293 0.06604881
0.10647818 0.059621256 0.11988403 -0.0060026995 0.08256829 0.0073662647 0.08275471 0.15818962
0.110114545 0.088505745 0.13212253 0.17025556 0.09620784 0.01617689 -0.071494915 -0.00454204
0.10359274 0.16968402 0.053395286 0.0723979 -6.883379e-05 0.07541382 0.11899296 0.16924319
0.11397109 0.1399873 0.17213467 0.20081142 0.23073633 0.2036195 0.14691041 0.06899437
0.20330986 -0.07721489 -0.033321183 0.07658212 0.030323962 0.06602219 0.025444562 0.06662741
0.078738436 0.14054322 0.15918986 0.08698675 0.12820917 0.20541346 0.12663493 0.21068054
0.23698102 0.22239883 0.1695093 0.19082841 -0.06308121 -0.012949541 0.17216295 0.17423202
0.12879455 0.10275355 0.121145464 0.119270034 0.1838752 0.16952565 0.12149737 0.14963773
0.16366489 0.141337 0.2100452 0.25135118 0.16124144 0.26083222 0.12264294 -0.0679121
-0.04375267 0.024025954 0.20130575 0.15672737 0.16638227 0.100077644 0.048785865 0.14102742
0.13369323 0.14249723 0.10794779 0.05009056 0.12135026 0.106347635 0.13663448 0.2793809
0.25287947 0.18287183 -0.050017647 0.012843946 0.14154711 0.0843907 0.12590545 0.09425285
0.0499279 0.14962325 0.14482987 0.024681583 0.029672818 0.10098684 0.036216367 0.13945752
0.12594736 0.15849884 0.30318934 0.2917608 0.19503815 -0.05648308 0.025491342 0.049997654
0.10742119 0.17861924 0.066203535 0.04011608 0.078873724 0.05513769 0.049390428 0.06990693
0.028836725 0.012992656 0.12930669 0.16323973 0.10719978 0.20383628 0.20489012 0.11371586
-0.08039875 -0.0021227929 0.05264544 0.19778498 0.13085742 0.08254675 -0.0053472556 0.0016123723
-0.13405341 -0.07184673 0.025778865 0.044813037 0.07426407 0.04621071 0.0709719 0.06906006
0.13609742 0.1610935 0.16090219 -0.074307725 -0.014325324 0.1347804 0.12542017 0.052012857
0.049159423 0.032087512 0.0010270955 -0.0944702 -0.1042688 -0.09262967 -0.03138773 -0.0038724595
0.02843362 0.039317857 0.059881717 0.08301176 0.19931422 0.13432328 -0.040682584 -0.036726598
0.15376517 0.093575165 0.09519094 0.11333289 0.09125202 0.070713736 -0.053876504 -0.16268577
-0.06512577 -0.03271221 0.033350397 0.015800044 0.015660977 0.1062066 0.022983067 0.09938559
0.19521506 -0.057777546 -0.01900245 0.09127374 0.09669602 0.08608395 0.13245854 0.039099798
0.09534063 0.06896222 -0.002692369 0.01730643 -0.0047529675 0.09182272 0.11076282 0.12919717
0.12325765 0.11728021 0.16831538 0.16508536 -0.0585768 0.04342273 0.038721766 0.07747374
0.04911957 0.08444927 0.03986085 0.13081731 0.09192821 0.024214594 0.045180053 0.0253888
0.10110371 0.030923167 0.12193795 0.1597015 0.20586643 0.11657954 0.121901006 -0.0662061
-0.052722733 0.106426634 0.054261893 0.06708072 0.076503925 0.090925716 0.11450229 0.051938526

bias f4 [5]
00000000: e79d a9bd 8bb7 99bd cb86 82bd c940 35bd
00000010: ea39 78bd
-0.082820706 -0.07505711 -0.06373366 -0.044251237 -0.060602106
