archived_data/b1_r0_m8_s100--2019-03-03--165203.596044/episode_9250.model (torch_old, 268278 bytes, 8 tensors)

weight f4 [6, 6, 3, 3]
-0.0989026 0.08754997 0.0066260546 0.13156396 -0.01608827 -0.024815366 -0.011826925 0.09217939
-0.048001535 0.11191574 0.05170761 0.007355738 -0.07212914 0.045065396 -0.0360194 -0.094677344
-0.031166725 -0.035059728 0.114427574 0.083875954 0.08086739 0.016366526 0.14658594 0.020726282
0.08072535 0.091332056 0.034795623 -0.06899242 -0.05695782 -0.103625044 0.039438233 0.09549007
-0.062022947 0.08206484 -0.12114667 0.04216516 0.15258239 0.012981094 -0.09321828 -0.24484766
0.020984525 -0.17130399 -0.4299254 -0.3007415 -0.10479302 0.10430557 0.046007633 0.026702637
0.050851166 0.03111021 -0.08914105 0.11554304 -0.047164768 -0.008478755 -0.09898791 0.106147885
0.07836604 -0.10956599 0.11757594 -0.06769043 0.09143104 0.023604289 -0.0793014 -0.07253337
-0.052063517 0.073148094 0.053137023 -0.017998924 0.08721435 0.06385833 0.081716195 0.0202842
0.009509085 -0.046744715 0.036071938 0.015637184 0.021876952 0.10141002 0.05543009 0.06702422
0.0351237 0.087184876 -0.0047206283 0.06489658 0.011610091 0.061124444 0.09023325 -0.05302257
-0.014743537 0.09419365 0.22833426 -0.36582783 -0.322444 0.18823072 -0.19271809 0.10568417
0.10599886 0.20296723 0.2790772 0.12858278 -0.072493635 0.08306296 0.029783862 0.07220779
-0.07726922 -0.052970618 -0.009332303 0.06996272 0.061362177 0.03201264 -0.0652231 0.100899264
0.042195097 -0.0856168 -0.1022894 0.13308746 -0.022568233 0.060532436 0.058239523 0.03719399
0.004273017 0.0068724 -0.17674333 -0.018566955 0.07969219 0.0129792085 0.05820012 0.06433894
0.06831099 0.04136133 0.01815244 -0.11123433 0.040340304 0.07422581 0.0055876253 -0.038927376
-0.08389048 -0.049961805 -0.014928535 -0.021312818 0.11138584 -0.04168068 0.024843767 0.037637815
-0.04423371 0.0043141306 0.20841074 0.21130417 0.15653048 -0.33436304 0.08371106 0.20401919
-0.117539085 0.040044744 -0.020515062 0.03008039 -0.052639868 -0.090150066 -0.1550452 -0.07270091
0.030849397 -0.08378917 0.09874566 0.12700939 0.12426171 0.11717251 -0.06729436 -0.0028953254
-0.12759839 -0.023696266 -0.095670134 -0.018507108 0.008054256 0.038422257 0.033185568 0.015651435
-0.027522763 -0.016616194 -0.009981379 0.050747406 0.028599342 0.054599304 0.082386106 0.08563052
0.058394462 0.041743778 0.016213441 0.03205692 0.08789208 0.059393436 -0.047799125 0.077635184
-0.035260238 -0.1284027 -0.08459376 -0.12803987 -0.07306849 -0.12930039 0.014155296 0.11211027
-0.2774788 -0.0886171 -0.4169951 -0.25942886 0.12278416 0.19053164 -0.32154286 0.012930737
-0.05304652 0.065234154 -0.14029612 0.05083008 0.039512135 0.13272373 -0.034765672 0.008837163
0.08847006 0.12129402 0.021177188 0.020337582 0.10143301 0.12190831 -0.039347313 0.05337149
0.049739152 0.06487937 -0.06594533 0.097769015 -0.0276482 -0.03393394 0.09346567 -0.018786864
-0.042907104 -0.025909869 0.043556184 -0.052931152 0.0058141877 -0.03548718 -0.059920367 0.045521095
-0.0574603 0.02902988 -0.06235838 0.118190646 0.05884725 0.062719986 -0.05224768 -0.023546048
-0.11159935 -0.123616554 -0.10416311 -0.10653592 0.22134387 0.048848715 0.22590116 0.12398625
00000000: 728d cabd 664d b33d 601f d93b b4b8 063e
00000010: 8ccb 83bc 9849 cbbc b8c5 41bc 8cc8 bc3d
00000020: 429d 44bd 1434 e53d 5ccb 533d 6708 f13b
00000030: 71b8 93bd 7e96 383d 1489 13bd 32e6 c1bd
00000040: 5c51 ffbc ca9a 0fbd 0159 ea3d 28c7 ab3d
00000050: cd9d a53d 1813 863c a01a 163e 2aca a93c
00000060: 5553 a53d 4d0c bb3d db85 0e3d e64b 8dbd
00000070: 9a4c 69bd 5e39 d4bd fc89 213d 4c90 c33d
00000080: c60b 7ebd 9c11 a83d bf1b f8bd 60b5 2c3d
00000090: 8f3e 1c3e a8ae 543c 3ae9 bebd 58b9 7abe
000000a0: bde7 ab3c 506a 2fbe 2f1f dcbe cafa 99be
000000b0: b99d d6bd 299e d53d 8072 3c3d 7dbf da3c
000000c0: 5049 503d d7da fe3c 958f b6bd d4a1 ec3d
000000d0: d82f 41bd 7aea 0abc 2cba cabd 1064 d93d
000000e0: 607e a03d 2264 e0bd a8cb f03d 48a1 8abd
000000f0: 3240 bb3d c85d c13c c668 a2bd 608c 94bd
00000100: 8e40 55bd abce 953d 35a6 593d 7b72 93bc
00000110: 709d b23d 28c8 823d d25a a73d 0d2b a63c
00000120: fecb 1b3c 6377 3fbd 2bc0 133d 8d19 803c
00000130: 4b37 b33c 0eb0 cf3d a90a 633d ff43 893d
00000140: dedd 0f3d fc8d b23d 80af 9abb 80e8 843d
00000150: 4038 3e3c a05d 7a3d 36cc b83d 322e 59bd
00000160: e08e 71bc 9ae8 c03d 75d0 693e c94d bbbe
00000170: 6117 a5be 8ebf 403e e457 45be f170 d83d
00000180: ee15 d93d a4d6 4f3e 35e3 8e3e 34ab 033e
00000190: 8b77 94bd ea1c aa3d 49fd f33c aee1 933d
000001a0: 533f 9ebd b8f7 58bd 84e6 18bc 9d48 8f3d
000001b0: e856 7b3d b01f 033d b093 85bd 46a4 ce3d
000001c0: c4d4 2c3d dc57 afbd 1b7d d1bd 1448 083e
000001d0: 04e1 b8bc dcf0 773d 918c 6e3d ba58 183d
000001e0: aa04 8c3b df31 e13b 34fc 34be ba19 98bc
000001f0: a935 a33d bfa6 543c 4063 6e3d 22c4 833d
00000200: a2e6 8b3d 7f6a 293d 6db4 943c d3ce e3bd
00000210: e03b 253d b403 983d 6618 b73b 5072 1fbd
00000220: c6ce abbd c0a4 4cbd d096 74bc 3898 aebc
00000230: 421e e43d 5cb9 2abd 2885 cb3c 1c2a 1a3d
00000240: 682e 35bd 8d5d 8d3b a069 553e 1f60 583e
00000250: 8749 203e a231 abbe b470 ab3d 68ea 503e
00000260: 55b8 f0bd f505 243d 340f a8bc 266b f63c
00000270: e79c 57bd 99a0 b8bd 2bc4 1ebe 37e4 94bd
00000280: e0b7 fc3c a899 abbd 2a3b ca3d c00e 023e
00000290: ec7c fe3d 24f8 ef3d a0d1 89bd 80bf 3dbb
000002a0: 27a9 02be ac1e c2bc b4ee c3bd 389c 97bc
000002b0: 00f6 033c a860 1d3d 97ed 073d 7037 803c
000002c0: 6b77 e1bc af1e 88bc f088 23bc 83dc 4f3d
000002d0: 2b49 ea3c 85a3 5f3d 0cba a83d 0e5f af3d
000002e0: 082f 6f3d 86fb 2a3d 0dd2 843c 1e4e 033d
000002f0: c300 b43d 8846 733d 04c9 43bd 32ff 9e3d
00000300: 0a6d 10bd ff7b 03be 7e3f adbd e21c 03be
00000310: efa4 95bd 5267 04be 9deb 673c 129a e53d
00000320: b411 8ebe e27c b5bd 6280 d5be dcd3 84be
00000330: 4376 fb3d ba1a 433e 44a1 a4be 71db 533c
00000340: 4f47 59bd 7c99 853d c9a9 0fbe 3433 503d
00000350: 7ad7 213d bbe8 073e 7366 0ebd c0c9 103c
00000360: ca2f b53d 0069 f83d c87b ad3c 009b a63c
00000370: 1cbc cf3d 10ab f93d a62a 21bd 109c 5a3d
00000380: 48bb 4b3d 7adf 843d 580e 87bd 1f3b c83d
00000390: 7a7e e2bc 51fe 0abd ee6a bf3d e9e6 99bc
000003a0: 5cbf 2fbd ef40 d4bc f867 323d 56ce 58bd
000003b0: f184 be3b 015b 11bd 0f6f 75bd 5474 3a3d
000003c0: 7e5b 6bbd 12d0 ed3c 806b 7fbd f00d f23d
000003d0: d009 713d 5673 803d aa01 56bd a4e3 c0bc
000003e0: 338e e4bd ad2a fdbd 7853 d5bd 812f dabd
000003f0: f8a7 623e 9715 483d a252 673e 81ec fd3d

bias f4 [6]
-0.10990088 -0.09728295 0.086110756 -0.16831158 0.036250103 -0.05737892
00000000: b613 e1bd 493c c7bd d65a b03d df59 2cbe
00000010: fd7a 143d 2906 6bbd

weight f4 [16, 6, 3, 3]
-0.107767396 0.10287094 0.076157846 0.08267561 -0.05663653 -0.08681491 -0.1618346 -0.055877287
0.118510604 -0.024467165 0.09814836 0.11684351 -0.09915577 -0.0024666525 -0.036671862 -0.106916584
-0.037600167 -0.1192594 0.069073975 0.08473199 -0.01720408 0.052733798 0.05021195 0.097918764
-0.065156914 0.056718364 0.21160483 0.0353321 -0.083454594 -0.07996813 0.19914755 0.14431351
0.03474178 -0.11115673 -0.1880695 0.23077762 -0.044449825 -0.046148565 -0.111076035 -0.051222958
-0.048784424 0.055279106 -0.056802448 -0.0041448493 0.16548382 0.029944384 -0.0749036 0.12144699
-0.11979027 -0.032633442 -0.007110607 0.055377018 -0.09005741 -0.007953141 -0.17775513 -0.07472793
0.102126084 -0.00050714536 0.05236574 -0.012207596 -0.11678078 0.0807696 0.07813242 0.10935092
0.030083435 -0.19342862 -0.0673168 0.051588807 -0.07004775 -0.11019779 0.0651407 0.096811324
0.06661698 -0.20318706 0.008949923 -0.19025324 -0.1420743 0.2359189 -0.20158811 -0.06028508
0.049261816 0.18154536 0.17073141 0.17562881 0.10938397 -0.009173803 0.1316192 0.035593662
-0.1936984 0.07108812 0.0017729539 0.067146786 0.07396934 0.0296321 -0.07454614 -0.1359943
0.093131036 -0.14028704 -0.15299036 0.16285984 -0.19997524 -0.111646555 0.09961289 -0.13492689
0.0016882356 -0.074690506 0.08266244 0.16633326 0.022164546 0.06505222 -0.16858755 -0.19326757
0.080018766 0.012706398 0.018644737 0.007896793 0.07928389 -0.08735355 -0.14230435 0.097197585
0.0037338985 0.05986044 0.12439611 -0.12530896 -0.023415484 -0.16931967 -0.15374932 0.045721292
-0.16736053 -0.12159407 -0.053413693 -0.11481529 0.1420959 0.039831366 -0.024484165 0.11878437
-0.10602469 0.009641948 -0.018356197 -0.19992442 -0.21647933 -0.1793421 -0.08735531 0.0072191153
-0.100759625 -0.028007649 -0.2014389 0.10669741 0.015740458 0.0036745595 0.12585992 -0.09141139
0.028739285 0.02124884 0.22007899 0.009241723 -0.074659206 0.16803995 -0.053585105 0.09236202
-0.118310414 -0.02823092 -0.017115122 -0.20654024 0.06944771 -0.067041986 -0.18854514 0.01897844
-0.2735055 -0.08002795 -0.14191747 0.009020371 0.11083447 0.016783105 0.123328455 -0.044962507
0.07360068 -0.0049072243 0.16611819 -0.024649652 -0.19742118 -0.05723835 -0.054047283 -0.05467858
0.06619411 0.1120056 0.01854454 -0.12597519 -0.033762503 -0.020210212 0.022835957 0.1097111
0.13084598 -0.13330142 -0.20755823 0.11280446 -0.22837397 -0.1597138 -0.013163194 0.14563799
-0.007097146 -0.065262176 -0.097630516 -0.019212928 -0.105002254 0.07841514 0.1322931 -0.06277472
-0.07537978 -0.157761 -0.038759667 -0.28411788 0.0025554628 -0.24682258 -0.21143028 -0.170075
-0.035865817 -0.05698572 -0.035918348 0.041188266 0.19445895 0.094286755 0.11357071 -0.03897807
-0.022009475 -0.043065954 -0.11492019 -0.059865646 -0.18134801 -0.011049505 0.055990208 -0.016417587
0.07639026 0.15893283 -0.22724387 -0.06833319 -0.027287027 -0.28179777 0.054255836 -0.030107636
0.0777811 0.040496614 -0.011080503 0.0017344544 0.22228125 -0.088608615 0.011844661 -0.05255951
-0.022509962 0.19418329 0.015754377 0.17668521 -0.18087143 -0.0806873 0.058524605 -0.15469173
00000000: 27b5 dcbd 00ae d23d a5f8 9b3d d551 a93d
00000010: b5fb 67bd 04cc b1bd f8b7 25be 95df 64bd
00000020: b0b5 f23d 5d6f c8bc 0202 c93d a64b ef3d
00000030: 2e12 cbbd 90a7 21bb 3c35 16bd 15f7 dabd
00000040: a202 1abd 463e f4bd a876 8d3d f787 ad3d
00000050: 92ef 8cbc 65ff 573d 0cab 4d3d a289 c83d
00000060: fd70 85bd 8451 683d f0ae 583e 64b8 103d
00000070: 3eea aabd 55c6 a3bd 56ed 4b3e ecc6 133e
00000080: 664d 0e3d 24a6 e3bd 4a95 40be f850 6c3e
00000090: 0511 36bd 4706 3dbd d57b e3bd 2acf 51bd
000000a0: 2dd2 47bd 586c 623d afa9 68bd 84d1 87bb
000000b0: 9774 293e ed4d f53c 0f67 99bd 33b9 f83d
000000c0: 9a54 f5bd a5aa 05bd 1800 e9bb 03d3 623d
000000d0: 0570 b8bd e44d 02bc 7105 36be f50a 99bd
000000e0: 7b27 d13d f3f1 04ba 757d 563d 5e02 48bc
000000f0: c32a efbd 886a a53d e403 a03d 60f3 df3d
00000100: 8971 f63c 2712 46be 64dd 89bd c94e 533d
00000110: 3275 8fbd 61af e1bd 7d68 853d 0445 c63d
00000120: 7c6e 883d 4510 50be b3a2 123c bfd1 42be
00000130: ed7b 11be b994 713e 1d6d 4ebe 7ded 76bd
00000140: c2c6 493d 07e7 393e 37d4 2e3e 0ad8 333e
00000150: b404 e03d b84d 16bc 2fc7 063e a9ca 113d
00000160: e058 46be a696 913d 7662 e83a 4184 893d
00000170: 3d7d 973d 05bf f23c a6ab 98bd 1742 0bbe
00000180: 7cbb be3d 68a7 0fbe 81a9 1cbe bbc4 263e
00000190: 4fc6 4cbe f3a6 e4bd d801 cc3d 462a 0abe
000001a0: c947 dd3a 56f7 98bd ed4a a93d 4453 2a3e
000001b0: 6c92 b53c 193a 853d 37a2 2cbe efe7 45be
000001c0: e1e0 a33d 7f2e 503c d9bc 983c 8d61 013c
000001d0: 985f a23d 6be6 b2bd 3bb8 11be 870f c73d
000001e0: 6cb4 743b 3930 753d 63c3 fe3d fe50 00be
000001f0: d4d1 bfbc 2362 2dbe 7670 1dbe 4046 3b3d
00000200: 8f60 2bbe 5006 f9bd 51c8 5abd 4724 ebbd
00000210: 9681 113e 3726 233d 0493 c8bc 3845 f33d
00000220: 7923 d9bd 43f9 1d3c bc5f 96bc fdb8 4cbe
00000230: c2ac 5dbe 75a5 37be 57e7 b2bd 548e ec3b
00000240: 105b cebd 4c70 e5bc 0046 4ebe 2c84 da3d
00000250: 22f2 803c e1d0 703b 6ce1 003e e535 bbbd
00000260: a66e eb3c 0c12 ae3c 635c 613e 996a 173c
00000270: ede6 98bd aa12 2c3e 0e7c 5bbd 4c28 bd3d
00000280: bb4c f2bd 8844 e7bc 0335 8cbc 497f 53be
00000290: 9a3a 8e3d 4f4d 89bd fa11 41be ac78 9b3c
000002a0: ea08 8cbe b2e5 a3bd d052 11be 2eca 133c
000002b0: 2ffd e23d b97c 893c a193 fc3d 9b2a 38bd
000002c0: f4bb 963d c8cc a0bb e31a 2a3e 11ee c9bc
000002d0: c728 4abe c372 6abd af60 5dbd a6f6 5fbd
000002e0: c790 873d 3163 e53d b8ea 973c a4ff 00be
000002f0: 8d4a 0abd e38f a5bc 7912 bb3c 37b0 e03d
00000300: 7dfc 053e 2b80 08be 258a 54be 0606 e73d
00000310: deda 69be 048c 23be 70aa 57bc 2022 153e
00000320: 2d8f e8bb 2da8 85bd 82f2 c7bd 6e64 9dbc
00000330: 6c0b d7bd 1e98 a03d d877 073e 0890 80bd
00000340: b760 9abd 198c 21be 75c2 1ebd e677 91be
00000350: 8d79 273b 0fbf 7cbe 2e81 58be 2428 2ebe
00000360: 09e8 12bd dc69 69bd 1e1f 13bd 07b5 283d
00000370: 3f20 473e 6a19 c13d c397 e83d 78a7 1fbd
00000380: 374d b4bc ed65 30bd 475b ebbd ae35 75bd
00000390: 4bb3 39be fc08 35bc fd55 653d 2d7e 86bc
000003a0: 7f72 9c3d 4abf 223e 9eb2 68be 46f2 8bbd
000003b0: 0b89 dfbc cc47 90be 5e3b 5e3d 4aa4 f6bc
000003c0: b34b 9f3d c7df 253d 008b 35bc a256 e33a
000003d0: b29d 633e 6f78 b5bd 1c10 423c a448 57bd
000003e0: d066 b8bc fcd7 463e 530f 813c f8ec 343e
000003f0: 5c36 39be 623f a5bd 7fb7 6f3d 8267 1ebe

bias f4 [16]
-0.035170045 0.009455936 0.04739225 0.014901944 0.0021196008 -0.09783437 -0.0053392625 0.014010991
-0.049663328 0.037277803 0.038141023 0.032818057 -0.068533234 0.10611765 0.022979327 0.09591774
00000000: 770e 10bd 12ed 1a3c 601e 423d 4927 743c
00000010: 00e9 0a3b 635d c8bd fbf4 aebb 5b8e 653c
00000020: c66b 4bbd 9cb0 183d c339 1c3d 3a6c 063d
00000030: 275b 8cbd 3654 d93d 243f bc3c 8570 c43d

weight f4 [32, 16, 3, 3]
-0.00419267 -0.083760746 -0.0777782 0.004652921 0.05208044 0.06728874 -0.06290245 0.02133754
-0.07522841 -0.1234159 -0.070242845 0.069099724 0.074343115 0.0023782414 0.14216925 0.044565506
0.042406805 0.102243006 -0.05472104 -0.029228382 -0.098764576 -0.063390404 -0.0075177406 0.06311546
0.015446042 0.10441701 0.015066739 -0.023298992 -0.11779152 -0.05216258 -0.0040884046 0.052843306
-0.0038097987 -0.029452283 0.03731055 -0.027508618 -0.06118305 -0.055762835 -0.0055257534 -0.12627514
-0.070747055 0.021118736 -0.030654145 0.056674596 -0.0026754818 -0.03587858 -0.14042124 -0.06517098
-0.092154376 -0.12210844 0.00080265244 -0.09818449 -0.04549835 -0.13228211 0.113687485 -0.032000955
-0.12489972 -0.00894798 -0.09349383 -0.2411297 0.012311187 0.03463158 -0.21432982 -0.007095252
-0.1441313 -0.06359146 0.0011350474 -0.0716685 -0.040991265 0.011295497 0.056494962 -0.03013144
-0.18504487 -0.12253094 -0.12337957 0.054723017 -0.102262 -0.19325104 0.0006278534 -0.13574907
-0.27208656 -0.114386596 -0.08224083 0.020168537 -0.095771655 0.054965176 -0.02047786 0.05005296
-0.015562938 -0.022418974 -0.03672792 -0.042323273 -0.015170943 -0.040990073 -0.03494403 0.12961307
-0.06142118 -0.08062739 0.035959054 -0.040184453 0.028001258 0.10780916 0.06420591 -0.01100536
0.0076667815 0.07555144 -0.0035076232 0.124299884 0.02642474 -0.08785037 -0.12947597 0.058378104
-0.08024204 0.030112782 0.042844877 0.039161153 -0.061049227 -0.057680983 -0.011547238 -0.03902068
-0.020676393 0.062010743 0.031008713 -0.0030212486 -0.03830265 -0.010230746 -0.107370034 -0.12379012
-0.053026427 -0.10020295 0.054047026 0.014011706 -0.08341708 0.028430944 -0.08235659 -0.03008556
0.0044389004 -0.06444954 -0.0120489355 -0.09123728 0.07014621 0.06943317 0.04097007 -0.012648646
0.046044953 0.08024175 -0.21622743 0.13295735 -0.00082202436 -0.0071576578 0.024140669 -0.019114895
0.109363854 0.062389687 0.042764492 0.011933038 0.08925956 0.016535686 -0.05228687 0.038006462
1.51517315e-05 0.0053004078 0.01718112 0.10822231 -0.056779925 0.10877295 0.086493045 -0.0067501147
0.05618591 0.0045822575 0.038693916 -0.03184477 -0.037608873 -0.075340725 -0.078386635 -0.061822824
-0.077476196 -0.0674247 -0.01493945 -0.07487054 0.15516685 0.028928261 0.11079479 -0.067414075
-0.055402905 0.06969373 -0.14513063 -0.03167252 -0.027632808 -0.007024044 0.01926921 0.09235307
0.19748983 0.13052979 0.14495963 0.07470479 0.08183005 0.10583468 0.07019115 0.024686009
-0.09208262 -0.0055781724 0.11195406 -0.0024346276 0.08968729 0.13543625 0.07862802 0.046808477
0.0008971637 0.05209355 0.070285894 0.08431921 0.063071795 -0.008778623 -0.021700962 0.08693051
0.029207474 0.021955164 0.06394873 -0.019594818 0.0499021 0.053815536 -0.07462461 0.07622632
0.14219525 0.048431803 0.010564403 0.061876804 -0.03972382 -0.07856815 -0.018466013 -0.013758903
-0.044434175 -0.051843125 0.023808422 0.04085362 0.03168934 -0.019600186 -0.001876244 -0.018477842
0.082302354 0.012505754 -0.029135771 0.045139123 -0.058182314 -0.16918284 0.0084800385 -0.12448168
0.08210283 0.07930765 0.038451582 -0.040961448 0.15043445 0.09910022 0.021750104 0.1939941
00000000: aa62 89bb c18a abbd 2d4a 9fbd 8877 983b
00000010: 4d52 553d aece 893d 00d3 80bd 11cc ae3c
00000020: 5a11 9abd 7ac1 fcbd 7bdb 8fbd 2884 8d3d
00000030: 3441 983d 45dc 1b3b d194 113e 528a 363d
00000040: c2b2 2d3d c864 d13d 2b23 60bd 5c70 efbc
00000050: 1545 cabd d4d2 81bd 6157 f6bb ae42 813d
00000060: 6511 7d3c 96d8 d53d 7cda 763c 87dd bebc
00000070: ae3c f1bd 6ea8 55bd 06f8 85bb 3972 583d
00000080: d1ad 79bb ea45 f1bc f3d2 183d c159 e1bc
00000090: 149b 7abd 9267 64bd 6111 b5bb 454e 01be
000000a0: d5e3 90bd 3301 ad3c 671e fbbc 9f23 683d
000000b0: 2357 2fbb 6bf5 12bd 96ca 0fbe 5d78 85bd
000000c0: 6fbb bcbd fd13 fabd 1869 523a f314 c9bd
000000d0: 7a5c 3abd f674 07be fcd4 e83d 6f13 03bd
000000e0: 6dcb ffbd 8c9a 12bc b179 bfbd b4ea 76be
000000f0: dcb4 493c d8d9 0d3d 4779 5bbe 4a7f e8bb
00000100: 2897 13be 3d3c 82bd dfc5 943a efc6 92bd
00000110: 75e6 27bd c010 393c 4367 673d 36d6 f6bc
00000120: 677c 3dbe 80f1 fabd 6eae fcbd 3e25 603d
00000130: bd6e d1bd 9ae3 45be 8796 243a ce01 0bbe
00000140: ee4e 8bbe 8543 eabd e16d a8bd 7d38 a53c
00000150: ee23 c4bd 2a23 613d 2fc1 a7bc 5504 4d3d
00000160: b1fb 7ebc ffa7 b7bc 0470 16bd 2b5b 2dbd
00000170: 8c8f 78bc 35e5 27bd 7921 0fbd 4ab9 043e
00000180: c694 7bbd f91f a5bd cd49 133d 7498 24bd
00000190: e562 e53c 0dcb dc3d 637e 833d d34f 34bc
000001a0: a039 fb3b b7ba 9a3d 27e0 65bb f090 fe3d
000001b0: b278 d83c e5ea b3bd 5995 04be e11d 6f3d
000001c0: f055 a4bd 15af f63c 1c7e 2f3d 7267 203d
000001d0: c10e 7abd e542 6cbd a030 3dbc 26d4 1fbd
000001e0: 8a61 a9bc fafe 7d3d fc05 fe3c 2400 46bb
000001f0: 3de3 1cbd dc9e 27bc d2e4 dbbd ad85 fdbd
00000200: 3d32 59bd 3437 cdbd 6a60 5d3d 5b91 653c
00000210: 93d6 aabd 03e8 e83c 92aa a8bd fe75 f6bc
00000220: 3274 913b 1ffe 83bd e668 45bc 9cda babd
00000230: d1a8 8f3d fa32 8e3d 3bd0 273d 443c 4fbc
00000240: a299 3c3d c955 a43d b96a 5dbe f925 083e
00000250: 1f7d 57ba c98a eabb a7c2 c53c d796 9cbc
00000260: 28fa df3d 548c 7f3d d229 2f3d ca82 433c
00000270: b7cd b63d d975 873c c22a 56bd aaac 1b3d
00000280: 3134 7e37 0baf ad3b 6cbf 8c3c a9a3 dd3d
00000290: 1192 68bd 5ac4 de3d 4423 b13d 1130 ddbb
000002a0: 3223 663d c326 963b 837d 1e3d a96f 02bd
000002b0: c30b 1abd 3d4c 9abd 2c89 a0bd ee39 7dbd
000002c0: d7ab 9ebd f615 8abd 98c4 74bc ba55 99bd
000002d0: 0fe4 1e3e f6fa ec3c 61e8 e23d 6410 8abd
000002e0: 28ee 62bd 96bb 8e3d 209d 14be 0bbb 01bd
000002f0: 335e e2bc f429 e6bb 76da 9d3c 9b23 bd3d
00000300: c63a 4a3e 9aa9 053e 4c70 143e d3fe 983d
00000310: 8396 a73d dabf d83d 61c0 8f3d 503a ca3c
00000320: d095 bcbd 1ac9 b6bb 2c48 e53d 468e 1fbb
00000330: f8ad b73d cdaf 0a3e ba07 a13d 3fba 3f3d
00000340: a32f 6b3a 0c60 553d 0df2 8f3d 8daf ac3d
00000350: c92b 813d 37d4 0fbc 37c6 b1bc a008 b23d
00000360: 8344 ef3c 51db b33c 8df7 823d 5085 a0bc
00000370: 2566 4c3d ae6d 5c3d cad4 98bd 8b1c 9c3d
00000380: a29b 113e 6d60 463d 5116 2d3c 8872 7d3d
00000390: 72b5 22bd 57e8 a0bd 0946 97bc 066d 61bc
000003a0: 9c00 36bd 7559 54bd e109 c33c 2056 273d
000003b0: aecc 013d 9290 a0bc 4dec f5ba d85e 97bc
000003c0: 238e a83d efe4 4c3c 24ae eebc cde3 383d
000003d0: 9450 6ebd 443e 2dbe dcef 0a3c 40f0 febd
000003e0: 8725 a83d 0d6c a23d 687f 1d3d 31c7 27bd
000003f0: 7d0b 1a3e 0ef5 ca3d 462d b23c 64a6 463e

bias f4 [32]
0.057097215 -0.03074281 -0.009736258 -0.067873485 0.02503127 -0.013627149 0.008403068 -0.02091143
-0.027635768 -0.062623724 -0.032011542 -0.01662185 -0.033966877 -0.06847661 -0.04629548 -0.04228913
0.03408526 -0.028743098 -0.0049613765 0.028861783 0.004368326 0.011851375 -0.039261844 0.02300384
-0.01564573 -0.0085197175 -0.08219428 0.018078389 0.023511436 0.014700333 -0.0066080284 0.015424933
00000000: c5de 693d 58d8 fbbc d384 1fbc 4101 8bbd
00000010: 610e cd3c 6844 5fbc 06ad 093c 724e abbc
00000020: 6864 e2bc de40 80bd 891e 03bd 8c2a 88bc
00000030: da20 0bbd 773d 8cbd 54a0 3dbd 5e37 2dbd
00000040: fc9c 0b3d a576 ebbc 0b93 a2bb 8c6f ec3c
00000050: 2d24 8f3b 452c 423c 07d1 20bd 8d72 bc3c
00000060: 792b 80bc 4996 0bbc 7a55 a8bd 2119 943c
00000070: 0e9b c03c aad9 703c 2988 d8bb dcb8 7c3c

weight f4 [5, 11552]
-0.06258644 -0.06254752 -0.06187063 -0.046977304 -0.056245632 -0.058990777 -0.05581001 -0.056327302
-0.05358817 -0.05138302 -0.044448286 -0.04213604 -0.034792937 -0.055865366 -0.045382336 -0.05414461
-0.04209914 -0.05817831 -0.06262534 -0.055874504 0.027677203 0.038868666 0.032241456 0.07540415
0.08672568 0.046293817 0.06537745 -0.031490847 0.060978938 0.019209389 0.046861228 0.11589326
0.12198896 0.01991839 0.063490555 0.112729944 0.05151178 -0.015398191 -0.046999168 0.028643163
0.08591528 0.07643845 0.0743603 0.050962284 -0.011975482 -0.020644255 -0.005206912 0.06755586
0.07450332 0.09911896 0.09282232 0.13209619 0.16240391 0.11796846 0.1114549 -0.008735973
0.027103253 -0.061690774 -0.010134556 -0.012500455 -0.004033421 0.0035368735 0.012602887 0.0082589025
0.054547176 0.0143074235 0.062072475 0.057377957 0.06987826 0.08814265 0.055876736 0.11810815
0.12960002 0.10554969 0.046201214 0.041474193 -0.04131137 0.032030385 0.084600426 0.04378677
0.05350832 0.03716994 0.036641233 0.10702817 0.06128507 0.052056722 0.008744205 0.046486758
0.04141992 0.010888879 0.11590731 0.07135796 0.05830422 0.084576994 0.022221595 -0.04427745
-0.03222852 -0.0035613906 0.094611295 0.0030860077 0.048288725 0.00520037 -0.025197452 0.024882913
0.06209887 0.023100955 0.086583495 0.032444887 0.02212649 0.026782254 0.04084495 0.15767588
0.12528923 0.011533054 -0.036216773 0.027831946 0.06945205 0.021901133 0.07525902 0.081866
-0.011939047 -0.02867795 -0.0047131227 -0.011387376 -0.049699154 0.0065038353 0.025144806 0.05503005
0.020959133 0.033355847 0.10028853 0.08804914 0.02255711 -0.039322436 -0.0040626135 0.038124576
0.05738724 0.0887928 0.07642315 -0.01230329 0.053527895 -0.010783345 -0.0050442866 0.0607205
0.029662186 0.043653544 0.08557227 0.11733735 0.027034475 0.07157167 0.037701115 0.0033028824
-0.056145627 -0.010351619 0.014461688 -0.02868916 -0.04181877 0.034741584 0.02101913 -0.026305601
-0.113945715 -0.07472125 0.02335965 -0.026669655 0.037541028 0.00035344812 0.025631163 0.047973644
0.096336015 -0.021144632 -0.0060628043 -0.057706896 -0.032605503 0.04514345 -0.01639427 -0.052828215
0.04668122 -0.030152928 -0.05268706 -0.042159345 -0.046511106 -0.06534828 -0.040850297 0.02413364
-0.022248114 0.02216895 0.06444031 0.05934603 0.032835606 -0.00576925 -0.034577075 -0.0333971
0.047784068 0.024279727 0.0129857 0.08196933 -0.006968576 -0.047205478 -0.03613533 -0.0961962
-0.019942472 -0.05005385 0.005180637 -0.0089388 0.0082969135 0.10450569 -0.0081404075 -0.007841192
0.00064269855 -0.03983566 -0.022197315 0.057992384 0.00831281 0.0048584435 0.024348622 0.0020001435
0.021366986 0.010074008 -0.004501347 0.0018856721 -0.01812953 0.057379972 0.042166803 0.037968136
0.01723925 0.029839225 0.020184575 -0.035186406 -0.03724738 0.023909023 0.023427302 -0.05653867
-0.012113416 0.031032963 0.062194835 0.06178201 0.048238195 -0.022343146 0.02319983 -0.0059285485
0.04306322 0.031974703 0.07308708 0.07340688 0.057017896 0.0006548162 -0.042048436 -0.044925727
-0.05011718 -0.00060627505 -0.05123306 -0.028283963 0.03652557 0.08420896 0.048582807 0.0702985
00000000: 522d 80bd ea18 80bd 0f6c 7dbd 466b 40bd
00000010: d261 66bd 50a0 71bd 0999 64bd 75b7 66bd
00000020: 457f 5bbd 0077 52bd 680f 36bd d796 2cbd
00000030: 0a83 0ebd 15d3 64bd d4e2 39bd bdc6 5dbd
00000040: 2670 2cbd 614c 6ebd b741 80bd aadc 64bd
00000050: 4dbb e23c c034 1f3d 9e0f 043d 7e6d 9a3d
00000060: 3c9d b13d 969e 3d3d 9de4 853d 8cfc 00bd
00000070: 0dc5 793d 025d 9d3c 8ff1 3f3d 7259 ed3d
00000080: 59d5 f93d e42b a33c 5607 823d f5de e63d
00000090: 04fe 523d b248 7cbc 3382 40bd 11a5 ea3c
000000a0: 5af4 af3d c38b 9c3d 374a 983d d4bd 503d
000000b0: d034 44bc 241e a9bc be9e aabb ba5a 8a3d
000000c0: 3295 983d e2fe ca3d a119 be3d 3944 073e
000000d0: 364d 263e 7399 f13d 7742 e43d 5421 0fbc
000000e0: a407 de3c 77af 7cbd 690b 26bc b5ce 4cbc
000000f0: ca2a 84bb e4ca 673b 577c 4e3c 5950 073c
00000100: dc6c 5f3d af69 6a3c b53f 7e3d 2605 6b3d
00000110: 551c 8f3d 2284 b43d 01df 643d b0e2 f13d
00000120: deb5 043e 702a d83d 7c3d 3d3d d8e0 293d
00000130: 1c36 29bd 4b32 033d fd42 ad3d c259 333d
00000140: 8a2b 5b3d 823f 183d 1e15 163d 9631 db3d
00000150: 0e06 7b3d 6e39 553d db43 0f3c e668 3e3d
00000160: efa7 293d 4567 323c d060 ed3d 1f24 923d
00000170: 68d0 6e3d b436 ad3d 100a b63c 455c 35bd
00000180: 0d02 04bd 3866 69bb 91c3 c13d 9e3e 4a3b
00000190: 66ca 453d de67 aa3b e36a cebc 40d7 cb3c
000001a0: 625b 7e3d 373e bd3c b052 b13d eee4 043d
000001b0: 9d42 b53c 7566 db3c 094d 273d c975 213e
000001c0: d24b 003e 22f5 3c3c 0a58 14bd d2ff e33c
000001d0: e03c 8e3d 016a b33c 6721 9a3d 5da9 a73d
000001e0: fe9b 43bc 05ee eabc 8a70 9abb 1e92 3abc
000001f0: 5791 4bbd 201e d53b 7bfc cd3c 3167 613d
00000200: 7db2 ab3c 24a0 083d 1364 cd3d 1c53 b43d
00000210: b0c9 b83c 9010 21bd ac1f 85bb 8428 1c3d
00000220: e20e 6b3d 00d9 b53d be83 9c3d bd93 49bc
00000230: 1140 5b3d a1ac 30bc 8b4a a5bb 0fb6 783d
00000240: 1dfe f23c 0fce 323d 8440 af3d 914e f03d
00000250: 6777 dd3c 2b94 923d 7c6c 1a3d 2c75 583b
00000260: f5f8 65bd d699 29bc b7f0 6c3c 8705 ebbc
00000270: 294a 2bbd 314d 0e3d 4f30 ac3c d87e d7bc
00000280: 5f5c e9bd 7407 99bd bd5c bf3c 527a dabc
00000290: 9fc4 193d 014f b939 72f8 d13c 0380 443d
000002a0: d14b c53d 8237 adbc 7daa c6bb 115e 6cbd
000002b0: 598d 05bd 57e8 383d 474d 86bc 6662 58bd
000002c0: cf34 3f3d 4603 f7bc 63ce 57bd 47af 2cbd
000002d0: 6e82 3ebd 52d5 85bd a452 27bd e9b3 c53c
000002e0: ad41 b6bc a89b b53c 48f9 833d d314 733d
000002f0: a17e 063d fa0b bdbb b1a0 0dbd 66cb 08bd
00000300: 3ab9 433d 47e6 c63c f9c1 543c 89df a73d
00000310: a758 e4bb 885a 41bd a402 14bd 8302 c5bd
00000320: 655e a3bc 4405 4dbd 55c2 a93b 0b74 12bc
00000330: c7ef 073c 1407 d63d 585f 05bc 5878 00bc
00000340: c57a 283a b82a 23bd 25d7 b5bc 6c89 6d3d
00000350: 7432 083c 9433 9f3b c376 c73c d714 033b
00000360: d109 af3c 740d 253c 0980 93bb a828 f73a
00000370: 6184 94bc 4307 6b3d 19b7 2c3d 7a84 1b3d
00000380: 5439 8d3c 6471 f43c 1f5a a53c 9f1f 10bd
00000390: b590 18bd dbdc c33c 9dea bf3c 1895 67bd
000003a0: 5977 46bc d738 fe3c 03c0 7e3d 220f 7d3d
000003b0: 6a95 453d f908 b7bc 920d be3c 4544 c2bb
000003c0: 0f63 303d e8f7 023d aeae 953d 5956 963d
000003d0: 998b 693d f9a7 2b3a fb3a 2cbd 0a04 38bd
000003e0: ac47 4dbd 6eee 1eba c2d9 51bd c5b3 e7bc
000003f0: d69b 153d bf75 ac3d c4fe 463d a9f8 8f3d

bias f4 [5]
-0.06336742 -0.053236347 -0.036426816 -0.021115255 -0.035476718
00000000: c7c6 81bd 5b0e 5abd 4934 15bd e6f9 acbc
00000010: 0950 11bd
