archived_data/b1_r0_m8_s100--2019-03-03--165203.596044/episode_46250.model (torch_old, 268278 bytes, 8 tensors)

weight f4 [6, 6, 3, 3]
0	0xbdca8d72	-0.0989026
1	0x3db34d66	0.08754997
2	0x3bd91f60	0.0066260546
3	0x3e06b8b4	0.13156396
4	0xbc83cb8c	-0.01608827
5	0xbccb4998	-0.024815366
6	0xbc41c5b8	-0.011826925
7	0x3dbcc88c	0.09217939
8	0xbd449d42	-0.048001535
9	0x3d78fcd0	0.060787976
10	0x3d396679	0.04526374
11	0x3da2000b	0.079101644
12	0xbd67ea23	-0.056619775
13	0x39a4159b	0.00031296615
14	0xbc98b071	-0.018638821
15	0xbdaca08d	-0.0842906
16	0xbd7ec1a0	-0.062196374
17	0xbc8fcfe7	-0.01755519
18	0x3db6bfe1	0.08923317
19	0x3dcca2ac	0.09991965
20	0x3e0b6f5a	0.13616696
21	0x3cb91c5c	0.02259653
22	0x3db8228d	0.08990965
23	0x3d84b1b2	0.06479205
24	0xbcb5dfbc	-0.022201411
25	0x3cce0bca	0.025152106
26	0x3d7f635f	0.062350627
27	0xbd8d4be6	-0.06899242
28	0xbd694c9a	-0.05695782
29	0xbdd4395e	-0.103625044
30	0x3d2189fc	0.039438233
31	0x3dc3904c	0.09549007
32	0xbd7e0bc6	-0.062022947
33	0x3da8119c	0.08206484
34	0xbdf81bbf	-0.12114667
35	0x3d2cb560	0.04216516
36	0x3c5c100f	0.013431563
37	0xbe20a2cc	-0.15687102
38	0x3e2a64de	0.1664004
39	0xbe665800	-0.22494507
40	0xbde70e6a	-0.11282046
41	0xbe648aa1	-0.22318508
42	0xbed0baa5	-0.40767398
43	0xbe8bb5d6	-0.27287167
44	0xbdb488f5	-0.08815185
45	0x3d5be704	0.05368711
46	0x3cc5e75b	0.02415817
47	0x3c89e970	0.016834944
48	0x3da33d12	0.079706326
49	0x3d409130	0.04701346
50	0xbd6dbe42	-0.058042772
51	0x3dd88cf8	0.10573763
52	0xbd566faa	-0.052352585
53	0x3b94cc4e	0.0045409566
54	0xbdcaba2c	-0.09898791
55	0x3dd96410	0.106147885
56	0x3da07e60	0.07836604
57	0xbde06422	-0.10956599
58	0x3df0cba8	0.11757594
59	0xbd8aa148	-0.06769043
60	0x3dbb4032	0.09143104
61	0x3cc15dc8	0.023604289
62	0xbda268c6	-0.0793014
63	0xbd598219	-0.053102586
64	0xbb885826	-0.0041608987
65	0x3d57ef0f	0.05271822
66	0x3cea4ce6	0.028601121
67	0xbca83cd9	-0.020536827
68	0x3d42a1de	0.04751765
69	0x3d3b536f	0.045733865
70	0x3d2756e6	0.040854357
71	0x3cf317c3	0.029674416
72	0x3d08ecea	0.033429064
73	0x3c795a02	0.015219213
74	0x3d78458f	0.06061321
75	0x3d552f98	0.052047342
76	0x3d881d97	0.06646269
77	0x3dc7893f	0.097429745
78	0x3da7ff7e	0.08203028
79	0x3dd11910	0.102098584
80	0x3dbf1b12	0.09331335
81	0x3db28dfc	0.087184876
82	0xbb9aaf80	-0.0047206283
83	0x3d84e880	0.06489658
84	0x3c3e3840	0.011610091
85	0x3d7a5da0	0.061124444
86	0x3db8cc36	0.09023325
87	0xbd592e32	-0.05302257
88	0xbc718ee0	-0.014743537
89	0x3dc0e89a	0.09419365
90	0x3d751b1d	0.05984031
91	0xbec68bc4	-0.38778508
92	0xbe8c0c37	-0.2735307
93	0x3d5edc25	0.054409165
94	0xbe3572ce	-0.17719576
95	0x3e75e384	0.24012572
96	0x3e1f027c	0.15528291
97	0x3e0e8daa	0.13921228
98	0x3ea39a2d	0.31953564
99	0x3e11d859	0.14242686
100	0xbdd246a8	-0.10267383
101	0x3d559e00	0.052152634
102	0x3cb0c939	0.021580325
103	0x3da818d2	0.08207859
104	0xbda84a9c	-0.082173556
105	0xbd1783fe	-0.036991112
106	0xbb101628	-0.0021985862
107	0x3d0c3e67	0.0342392
108	0x3d7b56e8	0.061362177
109	0x3d031fb0	0.03201264
110	0xbd8593b0	-0.0652231
111	0x3dcea446	0.100899264
112	0x3d2cd4c4	0.042195097
113	0xbdaf57dc	-0.0856168
114	0xbdd17d1b	-0.1022894
115	0x3e084814	0.13308746
116	0xbcb8e104	-0.022568233
117	0x3bbc272d	0.005741975
118	0x3c605843	0.013692918
119	0x3ab448af	0.0013754572
120	0x3c327bec	0.010893803
121	0xbcdcbd5b	-0.02694576
122	0xbe0297d0	-0.12753224
123	0xbc5c2d88	-0.01343859
124	0x3cf1aa85	0.029500255
125	0xbc4e2268	-0.012581445
126	0x3cac8bef	0.02106282
127	0x3d8018b1	0.062547095
128	0x3dc3dc85	0.09563545
129	0x3d3e2ae2	0.046427615
130	0x3d87b135	0.066255964
131	0xbc5805ba	-0.013184959
132	0x3cf63a7b	0.030057183
133	0x3db42a41	0.08797122
134	0x3cf892ae	0.03034338
135	0xbd1f7250	-0.038927376
136	0xbdabcec6	-0.08389048
137	0xbd4ca4c0	-0.049961805
138	0xbc7496d0	-0.014928535
139	0xbcae9838	-0.021312818
140	0x3de41e42	0.11138584
141	0xbd2ab95c	-0.04168068
142	0x3ccb8528	0.024843767
143	0x3d1a2a1c	0.037637815
144	0x3d11ac99	0.035564993
145	0x3e435722	0.19076207
146	0x3e478480	0.19484138
147	0x3e101fac	0.14074582
148	0x3e87531f	0.26430604
149	0xbe9896d8	-0.29802585
150	0x3e2e810f	0.1704142
151	0x3e36f510	0.17866921
152	0xbe237080	-0.15960884
153	0x3b9fde32	0.0048787827
154	0xbd94c14d	-0.07263432
155	0xbbda723a	-0.006666449
156	0xbccc7ee0	-0.024962842
157	0xbceac539	-0.028658496
158	0xbe2af7bc	-0.16696066
159	0x3b17faf8	0.002319036
160	0x3c789023	0.015171084
161	0xbd6dd9b9	-0.058068965
162	0x3dca3b2a	0.09874566
163	0x3e020ec0	0.12700939
164	0x3dfe7cec	0.12426171
165	0x3deff824	0.11717251
166	0xbd89d1a0	-0.06729436
167	0xbb3dbf80	-0.0028953254
168	0xbe02a927	-0.12759839
169	0xbcc21eac	-0.023696266
170	0xbdc3eeb4	-0.095670134
171	0xbcc25cee	-0.023725953
172	0xbc21b35d	-0.009869424
173	0x3cab043e	0.020876046
174	0x3caf3c0f	0.021390943
175	0x3c9269fa	0.0178728
176	0xbc6df26f	-0.014523133
177	0x3c1a8ca7	0.009432948
178	0xbbed2e6b	-0.0072381995
179	0x3caac753	0.020846998
180	0x3dc95307	0.09830289
181	0x3e1456be	0.14486215
182	0x3e24c8de	0.1609225
183	0x3e26af5d	0.16277833
184	0x3e5af9ba	0.21384326
185	0x3e43250e	0.19057104
186	0x3db391fa	0.08768077
187	0x3e0da813	0.13833646
188	0x3e334a79	0.17508878
189	0x3d734688	0.059393436
190	0xbd43c904	-0.047799125
191	0x3d9eff32	0.077635184
192	0xbd106d0a	-0.035260238
193	0xbe037bff	-0.1284027
194	0xbdad3f7e	-0.08459376
195	0xbe031ce2	-0.12803987
196	0xbd95a4ef	-0.07306849
197	0xbe046752	-0.12930039
198	0x3dbd3321	0.09238268
199	0x3e1bac40	0.15202427
200	0xbea426fa	-0.32060987
201	0x3d161286	0.03663876
202	0xbecb1118	-0.3966148
203	0xbe7ea3f5	-0.24867232
204	0x3e57b18e	0.21063825
205	0x3e8a1058	0.26965594
206	0xbea6613e	-0.32496065
207	0x3d0980a8	0.03356996
208	0xbcef6e1c	-0.029227309
209	0x3d5d14c3	0.053974878
210	0xbe0d7671	-0.13814713
211	0x3d330c35	0.043712813
212	0x3b7e8c22	0.003884085
213	0x3de2b3b0	0.11069429
214	0xbc24c5d6	-0.010056933
215	0x3d77c33a	0.060488917
216	0x3db52fca	0.08847006
217	0x3df86900	0.12129402
218	0x3cad7bc8	0.021177188
219	0x3ca69b00	0.020337582
220	0x3dcfbc1c	0.10143301
221	0x3df9ab10	0.12190831
222	0xbd212aa6	-0.039347313
223	0x3d5a9c10	0.05337149
224	0x3d4bbb48	0.049739152
225	0x3cd0bede	0.025481638
226	0xbc014b72	-0.007891523
227	0x3c4348c1	0.011919201
228	0xbd99a106	-0.07501416
229	0xbcdd1f90	-0.02699259
230	0x3d0be456	0.034153305
231	0xbe9a527d	-0.3014106
232	0xbdd2839d	-0.102790095
233	0xbd328a46	-0.0435889
234	0xbb956305	-0.004558923
235	0x3d0f5535	0.03499337
236	0x3d916459	0.07099218
237	0xbb13fce3	-0.0022581152
238	0x3d819368	0.06326944
239	0x3d7a0c18	0.06104669
240	0xbc3159d4	-0.010824639
241	0xbd1b5b91	-0.03792912
242	0xbd624b38	-0.055247515
243	0x3df20df0	0.118190646
244	0x3d7109d0	0.05884725
245	0x3d807356	0.062719986
246	0xbd5601aa	-0.05224768
247	0xbcc0e3a4	-0.023546048
248	0xbde48e33	-0.11159935
249	0xbdfd2aad	-0.123616554
250	0xbdd55378	-0.10416311
251	0xbdda2f81	-0.10653592
252	0x3da7eb5a	0.081991866
253	0x3e374aac	0.17899579
254	0x3e8e73b3	0.27822646
255	0x3dd9c321	0.10632921

bias f4 [6]
0	0xbe06904b	-0.13140981
1	0xbe341897	-0.17587505
2	0x3d843d02	0.06456949
3	0xbe5bd548	-0.21468079
4	0xbcf9f95e	-0.030514415
5	0xbd87149d	-0.065957285

weight f4 [16, 6, 3, 3]
0	0xbdbb86a9	-0.09156544
1	0x3a1420ca	0.0005650638
2	0xbdfd6a3e	-0.1237378
3	0x3d957944	0.0729852
4	0x3c1050d5	0.008808334
5	0xbdb87acc	-0.09007797
6	0xbdd32585	-0.10309891
7	0xbcb046b8	-0.021518096
8	0x3db6ac88	0.089196265
9	0xbcacb0ce	-0.0210804
10	0x3d2dd524	0.042439595
11	0x3e4a7645	0.19771679
12	0x3c8601af	0.016358225
13	0xbe142010	-0.14465356
14	0xbe1cf76c	-0.15328759
15	0x3da945da	0.08265276
16	0xbd83f733	-0.06443634
17	0xbdf3ffd9	-0.119140334
18	0x3d909468	0.07059556
19	0x3e20ff5a	0.15722409
20	0xbdd32452	-0.10309662
21	0xbd027e9c	-0.031859025
22	0x3d3461be	0.044038527
23	0x3d93f2ca	0.07224043
24	0x3d6d01d2	0.057863064
25	0x3dc1c5d0	0.09461558
26	0x3e1a36cb	0.15059964
27	0xbd83c21c	-0.06433508
28	0xbd88186a	-0.066452816
29	0xbd847a71	-0.06468666
30	0x3e54f82b	0.20797794
31	0x3d4010d1	0.046891037
32	0x3d5e97c0	0.05434394
33	0xbdb222a0	-0.086980104
34	0xbe5f203f	-0.21789645
35	0x3e619257	0.2202848
36	0xbd95f608	-0.07322317
37	0x3cddfe81	0.027098896
38	0xbd708dca	-0.05872897
39	0xbc432261	-0.011910052
40	0x3baf3d8b	0.0053479127
41	0x3d348eab	0.04408137
42	0x3c5926c1	0.013253869
43	0xbded2475	-0.11579219
44	0x3d1b289c	0.037880525
45	0x3dad5afc	0.084646195
46	0xbded6ccd	-0.11593018
47	0x3dbfcfc7	0.09365802
48	0xbd41c306	-0.04730513
49	0x3d145ee5	0.03622331
50	0x3db0fdaf	0.08642136
51	0x3db9e827	0.09077483
52	0xbcf0128f	-0.029305724
53	0x3da8a52e	0.082346305
54	0xbd625864	-0.055260077
55	0xbbd8a3e9	-0.0066113365
56	0x3de7a0cd	0.11309967
57	0xbcbf5612	-0.023356471
58	0x3aa2cdb3	0.0012420922
59	0xbccb7159	-0.024834322
60	0xbe01efcf	-0.12689136
61	0x3deb4bed	0.11489091
62	0x3d97cfd8	0.0741269
63	0x3d5deacb	0.054178994
64	0xb90f4710	-0.00013664016
65	0xbdb9027d	-0.09033678
66	0xbd6c9ff6	-0.05776974
67	0x3d796150	0.06088382
68	0xbc5da738	-0.013528638
69	0xbd679449	-0.0565379
70	0x3d800297	0.06250494
71	0x3dc01768	0.093794644
72	0x3d402d05	0.046917934
73	0xbe5f7eac	-0.21825665
74	0x3cb0b9f3	0.021573042
75	0xbe4555be	-0.1927099
76	0xbe3893ee	-0.1802518
77	0x3e55fa54	0.20896274
78	0xbdaf0319	-0.08545513
79	0xbc0a497d	-0.0084403725
80	0x3dc14e12	0.09438719
81	0x3e4fbab6	0.20286068
82	0x3e491fbe	0.19641015
83	0x3e0fa054	0.14026004
84	0x3e219da6	0.15782794
85	0x3d8d7063	0.06906202
86	0x3e0bdb50	0.1365788
87	0xbd9f321d	-0.0777323
88	0xbe8c5ff4	-0.27416956
89	0x3d2cce20	0.042188764
90	0x3c358b79	0.011080616
91	0x3d69d8c1	0.05709148
92	0x3d0ca6a0	0.034338593
93	0x3cfd84cc	0.030947112
94	0xbd9115e3	-0.07084253
95	0xbdff6462	-0.124703184
96	0xbc214e2b	-0.009845297
97	0xbdff093e	-0.12452935
98	0xbe7a0626	-0.24416408
99	0x3e26160f	0.16219352
100	0xbe4e986f	-0.20175336
101	0xbdc29152	-0.09500374
102	0x3daaf610	0.08347714
103	0xbe3b5d42	-0.18297294
104	0x3cea1f3b	0.028579345
105	0xbe07e5c7	-0.13271247
106	0xbd2147ff	-0.0393753
107	0x3e417088	0.18890584
108	0x3d0965ca	0.03354434
109	0x3d3fa685	0.046789665
110	0xbe76a641	-0.24086858
111	0xbe42899d	-0.18997808
112	0x3e1791d6	0.14801726
113	0xbbacc3f0	-0.005272381
114	0xbc0ad2a7	-0.008473075
115	0x3d6bc98b	0.057565253
116	0x3d90c4e2	0.070688024
117	0xbd43fde4	-0.04784955
118	0xbdba781c	-0.0910494
119	0x3dd04c04	0.10170749
120	0x3c58023e	0.013184128
121	0xbbfc6d1a	-0.0077034356
122	0x3dd06f17	0.10177439
123	0xbdcbb871	-0.09947289
124	0xbc8ba163	-0.017044729
125	0xbd88238b	-0.06647404
126	0xbe56dcb7	-0.20982634
127	0xbc43526c	-0.011921506
128	0xbe4815f5	-0.19539626
129	0xbe3b5e83	-0.18297772
130	0xbda04b16	-0.078268215
131	0xbe83051f	-0.25589845
132	0x3dd43f09	0.103635855
133	0x3c82904b	0.015937945
134	0xbdbd9ac1	-0.092580326
135	0x3e0b82ae	0.13624069
136	0xbe0d3c14	-0.13792449
137	0xbdfbdf30	-0.12298429
138	0x3ade2321	0.0016947725
139	0xbe26cbc4	-0.16288668
140	0xbe88af8d	-0.26696435
141	0xbde85599	-0.113444515
142	0xbda125e9	-0.07868559
143	0x3d68901b	0.056778055
144	0xbd8d2979	-0.06892676
145	0xbd510989	-0.051034484
146	0xbeabacee	-0.33530372
147	0x3d9e0138	0.07715076
148	0x3c815ed7	0.015792293
149	0xbc84538f	-0.016153125
150	0x3d622c5e	0.055218093
151	0xbdb2396c	-0.087023586
152	0x3d71da11	0.059045855
153	0x3d3a965f	0.04555356
154	0x3e1b3b3b	0.15159313
155	0xbdd59d3a	-0.10430379
156	0xbc72e548	-0.014825173
157	0x3e1d35a1	0.15352489
158	0xbc90c710	-0.017673045
159	0x3d5b8844	0.05359675
160	0xbe27cb4c	-0.16386145
161	0xbce4d6fe	-0.027934548
162	0x3cfad915	0.03062109
163	0xbe2c76f1	-0.16842248
164	0x3d80c6ac	0.06287894
165	0xbdcb2b2c	-0.09920344
166	0xbde13f63	-0.10998418
167	0x3ba75e9e	0.005107715
168	0xbe4850f3	-0.1956213
169	0x3c686d16	0.014186164
170	0xbe11c9a1	-0.14237072
171	0xbc372287	-0.011177666
172	0x3df32683	0.1187258
173	0x3dccc632	0.0999874
174	0x3e0bb5b0	0.13643527
175	0x393126f3	0.00016894545
176	0x3daa9ca9	0.08330662
177	0x3db83c14	0.08995834
178	0x3e47e35b	0.19520323
179	0x3b6a0cde	0.0035713236
180	0xbdfce13f	-0.1234765
181	0xbe95dad8	-0.29268527
182	0xbe83d925	-0.25751606
183	0xbdfbaf1d	-0.122892596
184	0xbd5064f5	-0.05087753
185	0xbd2717b9	-0.040794108
186	0xbd9ad2f9	-0.07559771
187	0xbe5c7cb9	-0.21531953
188	0x3c680b2f	0.014162823
189	0xbd345cee	-0.044033937
190	0x3e1672c0	0.14692211
191	0x3e31429d	0.17310567
192	0x3e061cc0	0.13096905
193	0xbd702faf	-0.058639225
194	0xbe886cba	-0.26645452
195	0xbceeb900	-0.02914095
196	0xbe3558b6	-0.17709622
197	0xbe1e3f8d	-0.1545393
198	0xbd2e8160	-0.04260385
199	0x3e53e781	0.2069378
200	0xbd3602c8	-0.044436246
201	0xbdb8f589	-0.09031207
202	0xbcdf6d7d	-0.027273888
203	0x3d226b07	0.03965285
204	0xbcb5e559	-0.022204088
205	0x3d52c0bd	0.05145334
206	0x3e01fdad	0.12694426
207	0x3ca1c48b	0.01974704
208	0xbdf794d8	-0.120889366
209	0xbe71905b	-0.23590223
210	0x3d436604	0.04770471
211	0xbe0614c9	-0.13093866
212	0x3bbcfdda	0.005767566
213	0xbe4d7833	-0.20065384
214	0xbdd35a2c	-0.10319933
215	0xbdc2eab5	-0.09517423
216	0xbd84cc21	-0.06484247
217	0xbd1ee273	-0.038790178
218	0x3c8aa8c9	0.016926186
219	0xbce46c10	-0.02788356
220	0x3e469f15	0.19396622
221	0x3e04d913	0.12973432
222	0x3db62316	0.08893411
223	0xbd690ce2	-0.05689705
224	0xbc30bba6	-0.010786926
225	0x3cb5390c	0.022121929
226	0x3cbc6fb9	0.023002492
227	0x3cecb20d	0.028893495
228	0xbd58af32	-0.052901454
229	0x3e01c81c	0.12673992
230	0x3e273802	0.16329959
231	0xbc8eed1b	-0.017447045
232	0x3c1c2806	0.009531027
233	0x3e399655	0.18123753
234	0xbe39f041	-0.18158056
235	0xbc4d0bf5	-0.012515058
236	0x3dc75649	0.097332545
237	0xbe6b1b27	-0.22959577
238	0x3db7d192	0.08975519
239	0xbdc2e521	-0.09516359
240	0x3dd96148	0.10614258
241	0x3cc0f914	0.02355627
242	0xbe484c15	-0.19560273
243	0xbc724dbb	-0.01478904
244	0x3e27101f	0.16314743
245	0xbe4cc277	-0.19996057
246	0xbd6c9283	-0.057756912
247	0xbe458c4b	-0.19291799
248	0xbd348bdc	-0.044078693
249	0x3e26a2a6	0.16272983
250	0x3c1d21bb	0.0095905615
251	0x3e0a8c31	0.13530041
252	0xbd2b4029	-0.041809235
253	0x3d1e5314	0.03865345
254	0x3da97abf	0.08275365
255	0xbdcd7065	-0.10031203

bias f4 [16]
0	0xbc960d8a	-0.018317003
1	0x3c368c90	0.011141911
2	0x3d0514fc	0.032490715
3	0xbbd8fe2b	-0.006622096
4	0xbbf12755	-0.007359425
5	0xbe04f76d	-0.1298501
6	0xbc651d9e	-0.013984112
7	0x3dbe6aa0	0.09297681
8	0xbdb607c0	-0.08888197
9	0x3c265161	0.010151238
10	0x3d134c68	0.03596154
11	0xbce6299e	-0.028096016
12	0xbdde7e89	-0.108639784
13	0x3d0fd868	0.03511849
14	0x3d204ccc	0.03913574
15	0x3e19f8cf	0.15036319

weight f4 [32, 16, 3, 3]
0	0xbdc98561	-0.09839893
1	0xbe700c78	-0.23442256
2	0xbdf29d67	-0.11846428
3	0xbd0899b2	-0.0333497
4	0x3d793e4e	0.060850434
5	0xbe035013	-0.12823515
6	0xbe420d92	-0.18950489
7	0xbc58a3f4	-0.013222683
8	0xbe032bd8	-0.12809694
9	0xbea15f60	-0.31518078
10	0xbe288e98	-0.16460645
11	0x3e0e42b6	0.13892636
12	0xbe07d7dc	-0.13265938
13	0x3d03032b	0.031985443
14	0x3e88dac9	0.2672942
15	0x3cc37449	0.02385916
16	0x3e5c609e	0.21521232
17	0x3e7f04c6	0.24904165
18	0xbe14cc4c	-0.14531058
19	0xbdeb46a2	-0.114880815
20	0xbe095a85	-0.13413437
21	0xbd920bcc	-0.07131156
22	0x3d22f165	0.039780993
23	0x3e034aac	0.12821454
24	0xbbde155b	-0.006777448
25	0x3deb0221	0.114750154
26	0x3dde7636	0.10862391
27	0xbe240b91	-0.16020037
28	0xbdc0dbd5	-0.0941693
29	0xbdb497bf	-0.08818006
30	0xbd629662	-0.055319197
31	0x3e241d7f	0.16026877
32	0xbced330d	-0.028955007
33	0x3ccc0f25	0.024909565
34	0x3e384727	0.17995892
35	0x3d2437b5	0.04009219
36	0xbe068a2b	-0.13138644
37	0xbcd11dce	-0.025526907
38	0x3d1769d7	0.03696617
39	0xbe940116	-0.28907079
40	0xbe2a8136	-0.16650853
41	0x3cd3744c	0.02581229
42	0xbdeb5349	-0.11490495
43	0x3cf9de9f	0.030501662
44	0xbd47fc52	-0.048824616
45	0xbd847bdf	-0.06468939
46	0x3d322e3d	0.043501128
47	0x3d6c04b3	0.05762167
48	0xbc8d6935	-0.01726208
49	0xbd28cf91	-0.041213576
50	0x3e23eea1	0.16008998
51	0xbda68aef	-0.08131968
52	0xbeb6a798	-0.3567474
53	0xbc33104e	-0.01092918
54	0x3d750815	0.05982216
55	0xbe101a19	-0.14072455
56	0xbe9de715	-0.30840364
57	0xbe1d09c9	-0.15335764
58	0xbe991251	-0.29896787
59	0xbed3067a	-0.4121588
60	0xbda03f26	-0.078245446
61	0xbd8e38ff	-0.06944465
62	0xbeb13820	-0.34613132
63	0xbdc471ed	-0.09592042
64	0xbe4e3dfa	-0.2014083
65	0xbd9f9b84	-0.07793334
66	0xbd1cdef8	-0.038298577
67	0xbd34987e	-0.04409074
68	0xbc1287fb	-0.008943553
69	0xbcff3574	-0.031153418
70	0x3d529733	0.051413726
71	0xbc54e3c3	-0.012993756
72	0xbee53612	-0.44767815
73	0xbdaacde9	-0.083400555
74	0xbe46c35a	-0.19410458
75	0xbbeacd47	-0.0071655842
76	0x3daf13ab	0.08548673
77	0xbe0b891c	-0.13626522
78	0xbe40d06d	-0.18829508
79	0xbe480dba	-0.19536486
80	0xbe85d64e	-0.26140064
81	0xbe46fc52	-0.1943219
82	0xbd2e1c06	-0.042507194
83	0x3d900195	0.07031552
84	0xbdc85a05	-0.09782795
85	0x3e1c1bcc	0.15244979
86	0x3d89488e	0.06703292
87	0xbd0ae8f3	-0.033913564
88	0xbda09da7	-0.0784257
89	0xbdbd17fa	-0.09233089
90	0xbdf2535f	-0.11832308
91	0x3d41b3d3	0.047290634
92	0xbc3f74ba	-0.011685545
93	0xbd5f690b	-0.054543536
94	0x3d6ab0b8	0.05729744
95	0x3e5c9268	0.21540225
96	0xbdeacf9f	-0.11465382
97	0xbc8780a0	-0.016540825
98	0x3cc13b9c	0.023587994
99	0xbeb1c2d9	-0.3471897
100	0x3b7176cd	0.0036844492
101	0x3e54e955	0.20792134
102	0x3e3bbaa7	0.18332921
103	0xbcac0d64	-0.021002479
104	0x3d9cabf5	0.07649986
105	0x3d5b4ba3	0.05353893
106	0x3d1e3d85	0.03863289
107	0x3dd90ad3	0.10597768
108	0x3d9934d0	0.07480776
109	0x3d45693c	0.048196062
110	0x3de0c45e	0.10974954
111	0xbd8c75f7	-0.068584375
112	0xbdc5e5dd	-0.096629836
113	0x3e9c8d13	0.3057638
114	0x3de69b49	0.11260087
115	0x3dd54070	0.10412681
116	0x3e01b878	0.12668025
117	0xbe25facd	-0.16208954
118	0xbafcf8d2	-0.0019300228
119	0xbdba95db	-0.09110614
120	0x3c5175a4	0.012784395
121	0x3df62de6	0.12020473
122	0x3cf9f25a	0.03051107
123	0xbc2570b5	-0.010097672
124	0xbcd7ea19	-0.026356744
125	0xbc969656	-0.018382233
126	0xbe14247f	-0.14467047
127	0xbdbc63e4	-0.0919874
128	0xbc88b797	-0.016689105
129	0xbd326110	-0.043549597
130	0x3db3cd7c	0.087794274
131	0x3d998587	0.074961714
132	0xbdb2e3aa	-0.0873483
133	0xbc463d6c	-0.012099605
134	0xbe02b1e1	-0.12763168
135	0xbddfd4d1	-0.109292634
136	0xbd32a502	-0.043614395
137	0xbdc97980	-0.098376274
138	0xbcad4f27	-0.021155907
139	0xbd34e456	-0.04416307
140	0x3e04098a	0.12894264
141	0x3c058aad	0.008150739
142	0x3ce1a37c	0.027543776
143	0x3bfd33de	0.0077271303
144	0x3d194a0b	0.03742413
145	0x3d760a0b	0.06006817
146	0xbe795447	-0.24348556
147	0x3e007953	0.12546282
148	0xbb99556e	-0.0046793735
149	0xbdbfdb08	-0.09367949
150	0xbcee61cd	-0.02909937
151	0xbd1180a4	-0.035523072
152	0x3d042298	0.032259554
153	0x3d251260	0.040300727
154	0x3d44397a	0.047906376
155	0xbbb1772b	-0.0054158173
156	0x3d99fc91	0.07518876
157	0x3d17f8eb	0.03710262
158	0xbd68c0af	-0.056824382
159	0x3d596b34	0.053080752
160	0x3d1b643e	0.037937395
161	0x3c14ad1a	0.009074474
162	0xbc43affa	-0.011943812
163	0x3dbe83f7	0.09302514
164	0xbccd46a5	-0.0250581
165	0x3d9b3e95	0.07580296
166	0x3d8fa330	0.070135474
167	0xbbe0ddcb	-0.0068623773
168	0x3d42e275	0.047579248
169	0xbc9110c3	-0.017708188
170	0x3c97f11b	0.018547585
171	0xbe43b42c	-0.19111699
172	0xbdd43478	-0.1036157
173	0xbe3e6e3f	-0.18596743
174	0xbe484eb7	-0.19561277
175	0xbe4b56aa	-0.19857278
176	0xbd9c8cb6	-0.07644026
177	0xbe5bce46	-0.21465406
178	0xbd980211	-0.07422269
179	0xbdc2f727	-0.09519797
180	0x3e066e1c	0.13127941
181	0x3ca9cdd9	0.020728039
182	0x3defe599	0.11713714
183	0xbe09e6c7	-0.13466941
184	0xbdab7b07	-0.08373075
185	0x3d825001	0.06362916
186	0xbe133fae	-0.1437976
187	0xbd40b118	-0.04704389
188	0xbc57e065	-0.013176058
189	0x3bcc2711	0.006230243
190	0x3d2bfed8	0.041991085
191	0x3dab28f5	0.08357421
192	0x3e39f7ac	0.18160886
193	0x3e10b43a	0.14131251
194	0x3e30b3b6	0.17256054
195	0x3da95c78	0.0826959
196	0x3da86508	0.08222395
197	0x3de77399	0.113013454
198	0x3d3f0e19	0.046644304
199	0xbc5982bc	-0.013275798
200	0xbe0af857	-0.13571297
201	0xbd48fe68	-0.049070746
202	0x3dbd7a1e	0.09251808
203	0xbdc40f15	-0.09573189
204	0x3d47a723	0.04874338
205	0x3dbc17b2	0.09184207
206	0xbb529271	-0.0032130743
207	0x3d56902e	0.052383594
208	0x3c6428df	0.01392576
209	0x3d89348c	0.06699476
210	0x3da6ea1a	0.0815012
211	0x3dc4b339	0.096044965
212	0x3d9d3596	0.07676236
213	0xbb815808	-0.0039472617
214	0xbbc0a8e4	-0.0058795083
215	0x3dccefa1	0.10006643
216	0x3d6b69af	0.057473835
217	0x3d7697f8	0.060203522
218	0x3da5bc9e	0.080926165
219	0xbc384bfc	-0.011248585
220	0x3d882e49	0.06649453
221	0x3d7e0fd3	0.06202681
222	0xbd9b9a4e	-0.07597791
223	0x3db06d35	0.086145796
224	0x3e20782a	0.15670839
225	0xbd8e4d81	-0.069483764
226	0xbdf9a472	-0.121895686
227	0xbd51e004	-0.05123903
228	0x3becf872	0.0072317654
229	0xbea2d613	-0.3180395
230	0xbdfaea3f	-0.1225171
231	0xbdc922d2	-0.098210946
232	0xbe389bb3	-0.18028145
233	0xbe1e1f1f	-0.1544156
234	0xbdc386c1	-0.09547187
235	0xbe619b38	-0.22031868
236	0x3d61cd5d	0.05512749
237	0xbdeaa01f	-0.11456322
238	0xbd87aecf	-0.06625139
239	0x3c9f6711	0.019458326
240	0x3d93f6da	0.072248176
241	0xbca10c47	-0.019659175
242	0x3bab2e22	0.0052240053
243	0x3c943d1b	0.018095544
244	0xbdcf653f	-0.10126733
245	0xbe801c03	-0.2502137
246	0xbd847440	-0.064674854
247	0xbe430b20	-0.19047213
248	0x3dc0de77	0.09417432
249	0x3b1fe7f5	0.0024399732
250	0xbcb7a112	-0.022415671
251	0xb9abd1ed	-0.00032772069
252	0x3dfed754	0.12443414
253	0x3d730c68	0.059338003
254	0xbd006bf2	-0.031352945
255	0x3e1e1672	0.1543825

bias f4 [32]
0	0x3da622b1	0.081120856
1	0xbd55947c	-0.05214356
2	0xbcfea126	-0.031082701
3	0xbdbeac49	-0.093102045
4	0x3ccf53c3	0.025308495
5	0xbd0ced17	-0.034405794
6	0xbd17a7ec	-0.037025377
7	0xbd103543	-0.035207044
8	0xbd4278a1	-0.047478322
9	0xbe00c758	-0.12576044
10	0xbd35b719	-0.04436407
11	0xbd9d2463	-0.07672956
12	0xbd846f5b	-0.06466552
13	0xbe0342b3	-0.12818412
14	0xbd91c5ea	-0.07117827
15	0xbd86b502	-0.06577493
16	0x3d16da8c	0.036829516
17	0xbd2390e2	-0.039933093
18	0xbbc58b34	-0.006028557
19	0x3c0f1d37	0.008734993
20	0xbcd140ab	-0.025543531
21	0xbd66f2e4	-0.056383982
22	0xbd2bce20	-0.041944623
23	0x3c745f69	0.014915326
24	0xbc6a1c9d	-0.0142890485
25	0xbd277d23	-0.040890824
26	0xbda8557a	-0.08219428
27	0xbbb50111	-0.0055238088
28	0x3c2ca37c	0.010537025
29	0xbc5c34ae	-0.013440294
30	0xbd136bd3	-0.0359915
31	0x3bba2e27	0.0056817713

weight f4 [5, 11552]
0	0xbe04694d	-0.12930794
1	0xbe0cce72	-0.13750628
2	0xbe0d7d8d	-0.13817425
3	0xbdf72821	-0.12068201
4	0xbe00f35f	-0.12592839
5	0xbe05c6ea	-0.13064161
6	0xbe02209a	-0.12707749
7	0xbdf78126	-0.1208518
8	0xbdfde9de	-0.12398122
9	0xbdff4e8d	-0.12466154
10	0xbdfa75a8	-0.122294724
11	0xbdf91f57	-0.12164181
12	0xbdea6449	-0.11444909
13	0xbe09dcda	-0.13463154
14	0xbe01a001	-0.12658693
15	0xbe0d02bb	-0.13770573
16	0xbdf8f197	-0.121554546
17	0xbe0c4d14	-0.13701278
18	0xbe145ab9	-0.14487733
19	0xbe0db581	-0.1383877
20	0xbd9711f4	-0.07376471
21	0x3d880cc3	0.06643059
22	0x3dc893a5	0.09793786
23	0x3e8a122b	0.26966986
24	0x3eb421ce	0.3518204
25	0x3e26e4f1	0.16298272
26	0x3e93dd83	0.28879938
27	0x3ec809b2	0.39069897
28	0x3eee75e4	0.46574318
29	0x3ec08da8	0.37608075
30	0x3ee9f4a1	0.4569445
31	0x3ea8618b	0.3288692
32	0x3ee55a94	0.44795668
33	0x3ed4c1c8	0.41554093
34	0x3ed582e8	0.41701436
35	0x3f0e15e4	0.5550215
36	0x3e2387ed	0.1596982
37	0x3d4a7e2f	0.049436744
38	0xbe0832dc	-0.13300651
39	0xbda4d10d	-0.08047686
40	0x3da433bd	0.08017681
41	0x3e9b089a	0.3028
42	0x3df6a818	0.1204378
43	0x3eb0cb36	0.34530038
44	0x3eb32689	0.34990337
45	0x3ec63e7b	0.38719544
46	0x3ec395fe	0.38200372
47	0x3ed12477	0.40848133
48	0x3ea46583	0.32108697
49	0x3eeaaf6c	0.4583696
50	0x3ee8ff20	0.45507145
51	0x3f06d006	0.5266117
52	0x3f159a8f	0.5843896
53	0x3f0f8297	0.5605864
54	0x3f223fd3	0.6337864
55	0x3ebb38f0	0.36566877
56	0x3e6e1b66	0.23252639
57	0xbe09c27b	-0.13453095
58	0xbd6ab8da	-0.057305194
59	0x3e7ed841	0.24887182
60	0x3de971ce	0.1139866
61	0x3eaa4048	0.33252168
62	0x3ec6eadd	0.3885106
63	0x3f066285	0.5249408
64	0x3ebb1603	0.3654023
65	0x3e8a2bc9	0.2698653
66	0x3e7911ad	0.24323149
67	0x3ea2465d	0.31694308
68	0x3edd0d9e	0.43174452
69	0x3eceba87	0.40376684
70	0x3eb1ec01	0.3475037
71	0x3eefec0a	0.4685977
72	0x3f2db430	0.6785307
73	0x3f4b2d16	0.7936567
74	0x3f0963a5	0.5366767
75	0x3e8e489f	0.2778978
76	0xbdf5fdfa	-0.12011333
77	0xbb283a10	-0.0025669374
78	0x3e437c11	0.19090296
79	0x3e672a4b	0.22574727
80	0x3ed5224e	0.41627735
81	0x3ec7a828	0.3899548
82	0x3ef3e02d	0.4763197
83	0x3ec34aa2	0.38142878
84	0x3ebe3dcd	0.37156525
85	0x3eb577a5	0.35442844
86	0x3eeb75f8	0.4598844
87	0x3e8f34a1	0.2796984
88	0x3ec8844d	0.39163437
89	0x3e895a98	0.2682693
90	0x3ef8593b	0.48505577
91	0x3f14c22d	0.5810879
92	0x3f3307f5	0.69934016
93	0x3f066922	0.5250417
94	0x3e8206e8	0.25395894
95	0xbdedad25	-0.1160529
96	0xbdc4dfd3	-0.096130036
97	0x3ce28f57	0.02765624
98	0x3e6c1e10	0.23058343
99	0x3e89de0c	0.2692722
100	0x3eb3955f	0.350749
101	0x3ec06374	0.37575877
102	0x3e8b31fe	0.2718658
103	0x3ed28028	0.411134
104	0x3f060ff1	0.52368075
105	0x3eabbb31	0.33541253
106	0x3eac47bc	0.3364848
107	0x3eb70d0c	0.3575214
108	0x3e9bac70	0.30404997
109	0x3e92a580	0.2864189
110	0x3ebb625c	0.3659848
111	0x3f29df82	0.6635667
112	0x3f366a50	0.7125597
113	0x3ed1d89b	0.4098557
114	0xbdc97f3f	-0.098387234
115	0xbd867714	-0.06565681
116	0x3e333149	0.1749927
117	0x3e23b636	0.15987477
118	0x3edafc57	0.42770645
119	0x3e93464d	0.28764573
120	0x3e6178b5	0.22018702
121	0x3ee953d3	0.45571765
122	0x3e8bec60	0.27328777
123	0x3eb9df91	0.3630338
124	0x3e49651a	0.19667473
125	0x3e9100e7	0.28321
126	0x3e59db5f	0.2127509
127	0x3e7994ab	0.24373119
128	0x3e670697	0.22561108
129	0x3e7da31f	0.24769257
130	0x3f0d2539	0.5513492
131	0x3f3e032a	0.7422358
132	0x3e6c804e	0.2309582
133	0xbdd37771	-0.10325516
134	0xbb257adb	-0.002525023
135	0x3e7591c6	0.2398139
136	0x3eddd338	0.4332521
137	0x3e80b84d	0.2514061
138	0x3e7744c7	0.2414733
139	0x3e71d4fc	0.23616403
140	0x3e3c7dbe	0.18407342
141	0x3e887825	0.26654163
142	0x3e69e2c0	0.22840405
143	0x3e8fc4d2	0.2807985
144	0x3dd93453	0.10605683
145	0x3e0f6247	0.14002334
146	0x3e4c1c7c	0.19932741
147	0x3e4b9e84	0.19884688
148	0x3e853b80	0.26021957
149	0x3ef7c4b1	0.4839225
150	0x3f33476b	0.7003085
151	0x3e0a6517	0.13515125
152	0xbe04e6e8	-0.12978709
153	0x3e1d17df	0.15341137
154	0x3e3b8946	0.18314084
155	0x3ec8dfd2	0.3923326
156	0x3e9f1474	0.31070292
157	0x3ebdf648	0.3710196
158	0x3e0b1e3a	0.1358575
159	0x3e58cd19	0.21171989
160	0x3d39a3bc	0.045322165
161	0xbc8bd474	-0.017069079
162	0xbd190275	-0.03735586
163	0x3dc513db	0.09622928
164	0x3d73e6cb	0.059546273
165	0x3c954a2b	0.018223843
166	0x3e705883	0.23471265
167	0x3e22e7bc	0.15908712
168	0x3ee9c2f4	0.4565655
169	0x3f41d916	0.7572187
170	0x3ea492e8	0.3214333
171	0xbe01ca32	-0.12674788
172	0x3d68d273	0.056841325
173	0x3e1001a8	0.14063132
174	0x3eab4d81	0.33457568
175	0x3eb2344b	0.3480552
176	0x3e93e846	0.28888148
177	0x3e4d3cf4	0.20042783
178	0x3e35a01f	0.17736863
179	0x3d93ecf1	0.07222927
180	0xbe9f3538	-0.3109529
181	0xbe87e110	-0.26538897
182	0xbd7d5983	-0.061852943
183	0xbd46c9e1	-0.04853237
184	0x3d67697a	0.056497075
185	0x3e821720	0.25408268
186	0x3e95e70c	0.29277837
187	0x3e8dd99b	0.27705082
188	0x3f4e4992	0.8058101
189	0x3ebd81a8	0.37012982
190	0xbdcc69f4	-0.099811465
191	0xbcb2fad9	-0.02184813
192	0x3e931266	0.28724974
193	0x3e7b900a	0.24566665
194	0x3edc9068	0.43078923
195	0x3e9033ff	0.2816467
196	0x3e8b31cc	0.2718643
197	0x3e83e837	0.25763103
198	0x3de9c771	0.114149936
199	0xbdc20147	-0.094729
200	0xbe118782	-0.14211848
201	0x3d10f19f	0.035386678
202	0x3c20e950	0.009821251
203	0x3e1a288b	0.15054528
204	0x3e8cc80b	0.2749637
205	0x3e2370ac	0.1596095
206	0x3e6b8d78	0.23003185
207	0x3f38ebc0	0.72234726
208	0x3ec336b5	0.38127676
209	0xbdf1b319	-0.11801738
210	0xbd2bb35f	-0.04191911
211	0x3e9caa67	0.30598757
212	0x3eac4342	0.33645064
213	0x3ed3c845	0.4136373
214	0x3eb54408	0.35403466
215	0x3e65eaf2	0.22452906
216	0x3e8498a5	0.2589771
217	0x3ec73942	0.38910872
218	0x3e6057d9	0.21908511
219	0x3e01c384	0.1267224
220	0x3e6e4667	0.23269044
221	0x3e4c5336	0.19953617
222	0x3ea01c77	0.31271717
223	0x3eaa2e46	0.3323843
224	0x3eb27fac	0.3486303
225	0x3ed56db4	0.4168526
226	0x3f43722b	0.7634608
227	0x3eae1a99	0.34004667
228	0xbdec9c17	-0.11553209
229	0x3d738f13	0.059462618
230	0x3e87f540	0.26554298
231	0x3eb71495	0.3575789
232	0x3ee9a6d4	0.45635092
233	0x3ec823fc	0.39089954
234	0x3e8d1047	0.2755148
235	0x3ef57a71	0.47944978
236	0x3ecf605b	0.405032
237	0x3e5f9db4	0.21837503
238	0x3e904dab	0.28184256
239	0x3e9e60fd	0.3093337
240	0x3e6947b6	0.22781262
241	0x3e927bd0	0.28610086
242	0x3ecfdcba	0.40598089
243	0x3ecbb662	0.39787585
244	0x3f270422	0.6524068
245	0x3f44ed9f	0.7692508
246	0x3ebe48d9	0.37164953
247	0xbe049e68	-0.12951052
248	0x3d854159	0.06506605
249	0x3ed148de	0.40875906
250	0x3e3cd38e	0.18440077
251	0x3e943606	0.28947467
252	0x3edceaee	0.43147987
253	0x3ef2c8ec	0.47418916
254	0x3f016841	0.50549704
255	0x3ebc822f	0.36818072

bias f4 [5]
0	0xbdf3161a	-0.1186945
1	0xbde86b35	-0.11348573
2	0xbdd63e72	-0.10461129
3	0xbdcd4905	-0.10023693
4	0xbdd45a5f	-0.103687994
