archived_data/b1_r0_m8_s100--2019-03-03--165203.596044/episode_37250.model (torch_old, 268278 bytes, 8 tensors)

weight f4 [6, 6, 3, 3]
0	0xbdca8d72	-0.0989026
1	0x3db34d66	0.08754997
2	0x3bd91f60	0.0066260546
3	0x3e06b8b4	0.13156396
4	0xbc83cb8c	-0.01608827
5	0xbccb4998	-0.024815366
6	0xbc41c5b8	-0.011826925
7	0x3dbcc88c	0.09217939
8	0xbd449d42	-0.048001535
9	0x3d679f44	0.056548372
10	0x3cddc0ef	0.027069537
11	0x3d41f57e	0.04735326
12	0xbd5e463f	-0.05426621
13	0x3c89baf4	0.016812779
14	0xbcb79111	-0.02240804
15	0xbda8a788	-0.08235079
16	0xbd58d62a	-0.052938618
17	0xbced065d	-0.028933698
18	0x3d992dd8	0.07479447
19	0x3de9d9ec	0.114185184
20	0x3e06584f	0.13119625
21	0x3d246d3a	0.04014323
22	0x3dc2eb2e	0.09517513
23	0x3da88f44	0.08230451
24	0x3ba6ef2c	0.0050944295
25	0x3c4a453b	0.012345607
26	0x3d2798d7	0.040917244
27	0xbd8d4be6	-0.06899242
28	0xbd694c9a	-0.05695782
29	0xbdd4395e	-0.103625044
30	0x3d2189fc	0.039438233
31	0x3dc3904c	0.09549007
32	0xbd7e0bc6	-0.062022947
33	0x3da8119c	0.08206484
34	0xbdf81bbf	-0.12114667
35	0x3d2cb560	0.04216516
36	0x3c3ba482	0.011452796
37	0xbe047089	-0.12933554
38	0x3e031352	0.12800339
39	0xbe66d06a	-0.22540441
40	0xbdc13154	-0.09433237
41	0xbe614972	-0.22000673
42	0xbed0ef70	-0.40807676
43	0xbe8ebc6f	-0.27878138
44	0xbd9b9508	-0.07596785
45	0x3d9d86bb	0.076917134
46	0x3d2e7381	0.04259062
47	0x3ced990f	0.029003648
48	0x3d53c2b7	0.051699366
49	0x3d089c98	0.033352464
50	0xbd9912ac	-0.074742645
51	0x3dd49a29	0.10380966
52	0xbd41b3d6	-0.047290646
53	0x3c3b7597	0.01144161
54	0xbdcaba2c	-0.09898791
55	0x3dd96410	0.106147885
56	0x3da07e60	0.07836604
57	0xbde06422	-0.10956599
58	0x3df0cba8	0.11757594
59	0xbd8aa148	-0.06769043
60	0x3dbb4032	0.09143104
61	0x3cc15dc8	0.023604289
62	0xbda268c6	-0.0793014
63	0xbd29175c	-0.041282043
64	0xbad02a17	-0.0015881684
65	0x3d33dc4d	0.043911267
66	0x3cccefbc	0.025016658
67	0xbcfdc9aa	-0.03097995
68	0x3d12a7fd	0.035804737
69	0x3cf9d9ee	0.030499425
70	0x3d2a1241	0.041521315
71	0xba0818db	-0.0005191692
72	0x3b4a830b	0.0030900862
73	0x3c95b556	0.018274944
74	0x3dba1ed5	0.09087912
75	0x3d01ff66	0.031737708
76	0x3d43886f	0.047737535
77	0x3dc79e91	0.09747041
78	0x3d13dbe0	0.03609836
79	0x3daf0e32	0.085476294
80	0x3d309c14	0.043117598
81	0x3db28dfc	0.087184876
82	0xbb9aaf80	-0.0047206283
83	0x3d84e880	0.06489658
84	0x3c3e3840	0.011610091
85	0x3d7a5da0	0.061124444
86	0x3db8cc36	0.09023325
87	0xbd592e32	-0.05302257
88	0xbc718ee0	-0.014743537
89	0x3dc0e89a	0.09419365
90	0x3d82eddf	0.063930266
91	0xbec55f27	-0.38549158
92	0xbe8bee6f	-0.27330348
93	0x3c8dd69f	0.017314253
94	0xbe431248	-0.19049942
95	0x3e076cad	0.1322505
96	0x3d9161f1	0.07098759
97	0x3e328790	0.17434525
98	0x3e8f0fcb	0.27941737
99	0x3e122c3e	0.1427469
100	0xbdede27e	-0.116154656
101	0x3d5021f5	0.050813634
102	0x3d05b52b	0.03264348
103	0x3d7f48fd	0.062325466
104	0xbdbbcb6a	-0.091696575
105	0xbd8c7ced	-0.06859765
106	0xbc47127b	-0.012150402
107	0x3d9e886c	0.07740864
108	0x3d7b56e8	0.061362177
109	0x3d031fb0	0.03201264
110	0xbd8593b0	-0.0652231
111	0x3dcea446	0.100899264
112	0x3d2cd4c4	0.042195097
113	0xbdaf57dc	-0.0856168
114	0xbdd17d1b	-0.1022894
115	0x3e084814	0.13308746
116	0xbcb8e104	-0.022568233
117	0x3cd23214	0.025658645
118	0x3c387ccc	0.011260223
119	0x3a4473ef	0.0007494082
120	0x3ae4ca0c	0.0017455234
121	0xbccc5abb	-0.024945607
122	0xbe201fce	-0.15637133
123	0x39e28f6e	0.00043212943
124	0x3d0b74a9	0.034046803
125	0xbcb150e7	-0.021645023
126	0x3b150f96	0.0022744886
127	0x3d6c4edb	0.05769239
128	0x3dc68151	0.09692634
129	0x3d1fb353	0.038989376
130	0x3d5cd7a5	0.053916592
131	0xbd8c54bb	-0.068520986
132	0x3d067eb2	0.03283567
133	0x3dbfede1	0.09371544
134	0x3d45c13f	0.048279997
135	0xbd1f7250	-0.038927376
136	0xbdabcec6	-0.08389048
137	0xbd4ca4c0	-0.049961805
138	0xbc7496d0	-0.014928535
139	0xbcae9838	-0.021312818
140	0x3de41e42	0.11138584
141	0xbd2ab95c	-0.04168068
142	0x3ccb8528	0.024843767
143	0x3d1a2a1c	0.037637815
144	0x3d8c60ec	0.06854424
145	0x3e506fc7	0.2035514
146	0x3e85444a	0.26028663
147	0x3dace08a	0.08441265
148	0x3e7db85d	0.2477736
149	0xbe9c5667	-0.3053467
150	0x3e106996	0.14102778
151	0x3e23baf1	0.15989281
152	0xbe257429	-0.16157593
153	0x3b3dea3b	0.0028978724
154	0xbd27e7f9	-0.04099271
155	0x3c9b2064	0.018936343
156	0xbce6f346	-0.028192174
157	0xbc83d7c4	-0.016094096
158	0xbe2c256a	-0.16811147
159	0xbca5745e	-0.02019709
160	0x3c5e36ae	0.013562841
161	0xbd9121dc	-0.07086536
162	0x3dca3b2a	0.09874566
163	0x3e020ec0	0.12700939
164	0x3dfe7cec	0.12426171
165	0x3deff824	0.11717251
166	0xbd89d1a0	-0.06729436
167	0xbb3dbf80	-0.0028953254
168	0xbe02a927	-0.12759839
169	0xbcc21eac	-0.023696266
170	0xbdc3eeb4	-0.095670134
171	0xbca32542	-0.019915227
172	0xbc047338	-0.008084111
173	0x3cd01a86	0.025403272
174	0x3cbaf070	0.022819728
175	0x3c852c17	0.016256375
176	0xbc32533a	-0.010884101
177	0x3a5592f0	0.00081472006
178	0xbcaf257f	-0.021380184
179	0x3cfdd1e0	0.030983865
180	0x3d83bd40	0.06432581
181	0x3e012ea9	0.12615456
182	0x3e18b08f	0.14911102
183	0x3e217ebe	0.15771005
184	0x3e4a281b	0.19741862
185	0x3e2c9cbf	0.16856669
186	0x3dba0ea2	0.09084822
187	0x3de93f15	0.11388985
188	0x3e32274c	0.17397803
189	0x3d734688	0.059393436
190	0xbd43c904	-0.047799125
191	0x3d9eff32	0.077635184
192	0xbd106d0a	-0.035260238
193	0xbe037bff	-0.1284027
194	0xbdad3f7e	-0.08459376
195	0xbe031ce2	-0.12803987
196	0xbd95a4ef	-0.07306849
197	0xbe046752	-0.12930039
198	0x3db721da	0.089420035
199	0x3e1f0b21	0.15531589
200	0xbea783d6	-0.3271777
201	0x3bd41de9	0.006473292
202	0xbecb5ac5	-0.3971769
203	0xbe811a7e	-0.25215524
204	0x3e63e6b9	0.22255982
205	0x3e730a33	0.2373436
206	0xbea55b94	-0.3229643
207	0x3d248dc9	0.04017428
208	0xbd1f2f41	-0.038863424
209	0x3d3f767b	0.04674385
210	0xbdf5af75	-0.119963564
211	0x3d1a19e5	0.03762235
212	0x3bd298a4	0.0064268876
213	0x3dc52315	0.09625832
214	0xbd00f781	-0.031486038
215	0x3d48fc27	0.049068596
216	0x3db52fca	0.08847006
217	0x3df86900	0.12129402
218	0x3cad7bc8	0.021177188
219	0x3ca69b00	0.020337582
220	0x3dcfbc1c	0.10143301
221	0x3df9ab10	0.12190831
222	0xbd212aa6	-0.039347313
223	0x3d5a9c10	0.05337149
224	0x3d4bbb48	0.049739152
225	0x3d36c913	0.044625353
226	0x3bf194eb	0.0073724887
227	0x3d1e948f	0.038715895
228	0xbd83e29b	-0.06439706
229	0xbcee1801	-0.02906418
230	0x3d3f1650	0.04665214
231	0xbe948824	-0.29010117
232	0xbdd3d3a6	-0.10343103
233	0xbd8ebc53	-0.06969514
234	0xbc191c06	-0.00934506
235	0x3cca0db8	0.024664745
236	0x3d932bef	0.07186114
237	0xbbb3592b	-0.005473276
238	0x3d0cfef5	0.034422833
239	0x3db46b0d	0.08809481
240	0xbc64117b	-0.013920183
241	0xbd050ff1	-0.032485906
242	0xbc9a9ebc	-0.018874519
243	0x3df20df0	0.118190646
244	0x3d7109d0	0.05884725
245	0x3d807356	0.062719986
246	0xbd5601aa	-0.05224768
247	0xbcc0e3a4	-0.023546048
248	0xbde48e33	-0.11159935
249	0xbdfd2aad	-0.123616554
250	0xbdd55378	-0.10416311
251	0xbdda2f81	-0.10653592
252	0x3d8f845e	0.07007669
253	0x3de320f9	0.110902734
254	0x3e8dd7c6	0.27703685
255	0x3dba1c99	0.09087486

bias f4 [6]
0	0xbe0892ed	-0.13337298
1	0xbe289624	-0.16463524
2	0x3d8e6e15	0.0695459
3	0xbe4eed3f	-0.2020769
4	0xbc6c5e32	-0.014426755
5	0xbd804842	-0.06263782

weight f4 [16, 6, 3, 3]
0	0xbde66d34	-0.112512976
1	0xbc7b33b9	-0.015332156
2	0xbdac077c	-0.08399865
3	0x3d222db3	0.039594363
4	0xbc7458e9	-0.014913776
5	0xbe0aa0e7	-0.13537942
6	0xbdef181e	-0.11674522
7	0xbd19e719	-0.037573908
8	0x3d984574	0.07435122
9	0xbdb2106e	-0.0869454
10	0x3d5c1c5a	0.053737976
11	0x3e308218	0.17237127
12	0xbc9ebe1b	-0.019377759
13	0xbe022e58	-0.12712991
14	0xbe3a11f7	-0.18170916
15	0x3d81290a	0.06306656
16	0xbdc8b7d0	-0.098006845
17	0xbe0a277c	-0.13491625
18	0x3df67282	0.120335594
19	0x3e06c078	0.13159359
20	0xbd30f819	-0.043205354
21	0xbc3d1034	-0.011539508
22	0x3d3d0914	0.046151236
23	0x3d81ea50	0.0634352
24	0xbca14bfb	-0.01968955
25	0x3df1dfb2	0.118102446
26	0x3e2dc0b9	0.16968049
27	0xbb3d3c8b	-0.0028875198
28	0xbd8d4d49	-0.068995066
29	0xbd0ed142	-0.034867533
30	0x3e4df160	0.20111609
31	0x3d48be7c	0.049009785
32	0x3cf261b6	0.029587608
33	0xbdbc74f0	-0.092019916
34	0xbe737f49	-0.23779024
35	0x3e58a462	0.21156457
36	0xbd2f221a	-0.04275713
37	0xbca8ca52	-0.020604286
38	0xbd6de104	-0.05807592
39	0xbcb566d5	-0.02214376
40	0xbccbbe67	-0.024871064
41	0x3d707570	0.058705747
42	0xbd9493bf	-0.07254743
43	0xbd664d6a	-0.05622617
44	0x3dcbf3ba	0.099585965
45	0x3d968dea	0.07351287
46	0xbde06e24	-0.10958508
47	0x3e00d557	0.12581383
48	0xbd521ea7	-0.051298764
49	0x3cec0b7f	0.028814076
50	0x3d91d845	0.07121328
51	0x3dbcf6c3	0.092267536
52	0xbcf0f966	-0.029415797
53	0x3d844e3b	0.06460234
54	0xbda98a3e	-0.08278321
55	0xbca87f3e	-0.020568486
56	0x3dd1770d	0.10227785
57	0xbb6605b4	-0.0035098614
58	0x3c5d2f77	0.013500086
59	0xbd12297d	-0.035684098
60	0xbdc51e16	-0.09624879
61	0x3ddf0fc3	0.10891678
62	0x3d98d2fe	0.074621186
63	0x3d7fb201	0.062425617
64	0x3c9ec457	0.019380732
65	0xbdc8a548	-0.0979715
66	0xbd79b208	-0.0609608
67	0x3d6ea2ec	0.058260843
68	0xbd309579	-0.0431113
69	0xbd6a3147	-0.0571759
70	0x3da4e40d	0.0805131
71	0x3dd88dbe	0.1057391
72	0x3d5d7315	0.05406483
73	0xbe88d410	-0.2672429
74	0x3cc6f97d	0.024288887
75	0xbe32fdd4	-0.1747964
76	0xbe28c6cb	-0.16482083
77	0x3e683560	0.22676611
78	0xbe1c2c48	-0.15251267
79	0x3d033a97	0.032038298
80	0x3d9c2e1e	0.07625984
81	0x3e4cfaee	0.20017597
82	0x3e40a50c	0.1881296
83	0x3e18eb71	0.14933564
84	0x3e1f84a7	0.15577947
85	0x3d07dc1c	0.033168897
86	0x3dfd107b	0.12356659
87	0xbda079a8	-0.07835704
88	0xbe865ee2	-0.26244265
89	0x3d94990e	0.07255755
90	0x3d510467	0.05102959
91	0x3d75993b	0.059960585
92	0x3d111601	0.035421375
93	0x3c882084	0.016617067
94	0xbdab4943	-0.08363583
95	0xbe0d8253	-0.13819246
96	0x3c3426ed	0.010995609
97	0xbe27cfc7	-0.16387855
98	0xbe87ddd2	-0.26536423
99	0x3e3550a5	0.17706545
100	0xbe3943d8	-0.18092287
101	0xbda66ca5	-0.08126191
102	0x3dcdedc7	0.10055118
103	0xbe299bad	-0.16563292
104	0x3d2b3078	0.04179427
105	0xbdd7e68e	-0.10542022
106	0xbbde9bf3	-0.006793493
107	0x3e384fcd	0.17999192
108	0x3cb5e1ad	0.022202337
109	0x3d55bae6	0.052180193
110	0xbe5069e2	-0.20352891
111	0xbe23b046	-0.15985212
112	0x3e160b7a	0.14652815
113	0x3cb759af	0.022381632
114	0x3a1ab3d3	0.00059014297
115	0x3cfec54e	0.031099942
116	0x3d87c4a3	0.06629302
117	0xbbbfd2f7	-0.0058540064
118	0xbdd19f82	-0.10235502
119	0x3df2c3c2	0.11853744
120	0x3a8e5bd8	0.0010861112
121	0xbd5e5a02	-0.054285057
122	0x3ddb30cf	0.10702669
123	0xbdcd580e	-0.10026561
124	0xbc8231f7	-0.015892966
125	0xbe073c1e	-0.13206527
126	0xbe1bea83	-0.15226178
127	0x3d0c129a	0.034197427
128	0xbe49d368	-0.19709551
129	0xbe208bf8	-0.15678394
130	0xbd727d1e	-0.059201352
131	0xbe4849d6	-0.19559416
132	0x3de0b481	0.109719284
133	0xbd3bfac7	-0.045893457
134	0xbcef3766	-0.02920122
135	0x3e1b9fdd	0.15197702
136	0xbe0ecec8	-0.13946068
137	0xbdc36f9f	-0.095427744
138	0x3b33ed8e	0.0027454826
139	0xbe693246	-0.22773084
140	0xbe869a3d	-0.2628955
141	0xbe1b130e	-0.15143988
142	0xbda357c3	-0.079757236
143	0x3c897d5b	0.016783407
144	0xbd712a6e	-0.058878355
145	0xbd356df2	-0.044294305
146	0xbe96968d	-0.29411736
147	0x3dd31ecd	0.10308609
148	0xbcca369b	-0.024684241
149	0xbca2eb1d	-0.019887501
150	0x3d829f5e	0.06378053
151	0xbd8abeb3	-0.06774654
152	0x3d5eefc9	0.054427896
153	0x3d7d7eab	0.061888378
154	0x3e32c125	0.17456491
155	0xbd9198fb	-0.07109257
156	0xbba68fc6	-0.005083057
157	0x3e222a39	0.15836419
158	0xbbf9eebe	-0.0076273372
159	0x3d872f60	0.06600833
160	0xbe3c8f68	-0.1841408
161	0xbcf6f784	-0.030147322
162	0x3cc6ba3d	0.024258727
163	0xbe51fd23	-0.2050672
164	0x3d8ee34d	0.06976948
165	0xbde17586	-0.11008744
166	0xbdf2314a	-0.118258074
167	0x3cc7118c	0.02430036
168	0xbe44d927	-0.19223462
169	0xbd1f7b45	-0.03893592
170	0xbe17b40e	-0.14814779
171	0xbd46e1bd	-0.048555125
172	0x3def3057	0.11679142
173	0x3d940c59	0.07228918
174	0x3e016061	0.12634422
175	0x39a6281b	0.00031691868
176	0x3dc70979	0.09718604
177	0x3d4e1892	0.0503164
178	0x3e0caba7	0.13737355
179	0xbce27e8c	-0.027648233
180	0xbdef61ee	-0.116886005
181	0xbe937b35	-0.28804937
182	0xbe4b3ce4	-0.19847447
183	0xbdff5b74	-0.12468615
184	0xbdc8b780	-0.09800625
185	0xbd713e20	-0.058897138
186	0x3c800571	0.015627595
187	0xbe898652	-0.2686029
188	0xbd210aa3	-0.039316785
189	0xbd1acd30	-0.03779334
190	0x3e1df253	0.1542447
191	0x3dfab830	0.12242162
192	0x3e383020	0.17987108
193	0xbe1aa15e	-0.15100619
194	0xbe86ca05	-0.26326004
195	0xbc399127	-0.011326111
196	0xbe6e28c6	-0.23257741
197	0xbe0fd3d5	-0.14045651
198	0xbcc962e9	-0.024583297
199	0x3e48403b	0.19555752
200	0xbd866348	-0.06561905
201	0xbe124b59	-0.14286555
202	0xbdca9d64	-0.09893301
203	0xbb31223c	-0.0027028462
204	0xbdd3906d	-0.103302814
205	0x3cd31b4d	0.025769854
206	0x3dd44806	0.103653
207	0x3ccba527	0.024859024
208	0xbe12d78e	-0.1434004
209	0xbe6714fc	-0.22566599
210	0x3d7df7a4	0.062003747
211	0xbe10adf7	-0.14128862
212	0x3d4ddcc2	0.05025936
213	0xbe363a8f	-0.17795776
214	0xbdf859ec	-0.12126526
215	0xbda4ff67	-0.08056527
216	0xbd622461	-0.055210475
217	0xbd04f193	-0.032456946
218	0x3b9a0190	0.0046998933
219	0xbc5c4ed5	-0.013446529
220	0x3e3b5c92	0.18297032
221	0x3ded247d	0.11579225
222	0x3da3053f	0.07959985
223	0xbd8303ba	-0.06397195
224	0xbd469456	-0.048481308
225	0x3d348680	0.04407358
226	0xbd673dc1	-0.056455377
227	0x3c02b684	0.007978085
228	0xbcd7f7f7	-0.026363356
229	0x3db50efb	0.08840748
230	0x3e0fe2b5	0.14051326
231	0xbc83a0a9	-0.01606782
232	0x3cdcd042	0.026954774
233	0x3e390fc8	0.18072426
234	0xbe89c46a	-0.26907665
235	0xbc290142	-0.010315241
236	0x3d2c9832	0.042137332
237	0xbe85208c	-0.26001394
238	0x3dd72652	0.10505356
239	0xbe272a31	-0.16324688
240	0x3ddf282c	0.10896334
241	0x3c898018	0.016784713
242	0xbe1bdb1a	-0.152203
243	0xbd8810cd	-0.066438295
244	0x3e2137c2	0.15743926
245	0xbe75400f	-0.23950218
246	0xbd46cbc9	-0.04853419
247	0xbe36a89b	-0.17837755
248	0xbd6a6070	-0.057220876
249	0x3e204d1e	0.15654418
250	0x3c8064ce	0.015673067
251	0x3de21eab	0.11041006
252	0xbc4075ac	-0.011746805
253	0xbb4c654b	-0.0031188305
254	0x3d62bde6	0.055356883
255	0xbda08d54	-0.07839456

bias f4 [16]
0	0xbd069202	-0.032854088
1	0x3c8238c5	0.01589621
2	0x3d393bdb	0.0452231
3	0x3c60f706	0.01373077
4	0xbc02c14e	-0.007980658
5	0xbdfb7e22	-0.12279917
6	0xbc9aa00d	-0.018875146
7	0x3da35086	0.07974343
8	0xbdab19c6	-0.08354525
9	0x3ccbfc0e	0.024900462
10	0x3d31282c	0.0432512
11	0xbc252086	-0.010078555
12	0xbdd9d9f8	-0.10637277
13	0x3d05beb8	0.032652587
14	0x3d12e59b	0.0358635
15	0x3e0ddf8c	0.13854808

weight f4 [32, 16, 3, 3]
0	0xbdbc6999	-0.09199829
1	0xbe8aaa67	-0.27083132
2	0xbe46c9eb	-0.19412963
3	0xbd12db74	-0.035853818
4	0xbd4be02c	-0.049774334
5	0xbe0ced51	-0.13762404
6	0xbe00fb03	-0.12595753
7	0xbd8143b3	-0.06311741
8	0xbe1b965e	-0.1519408
9	0xbe93b096	-0.28845662
10	0xbe46dcf1	-0.1942022
11	0x3dd07e84	0.10180381
12	0xbdd8c6ab	-0.10584768
13	0xbc82a2b3	-0.015946722
14	0x3e5f8754	0.21828967
15	0x3cc12f3e	0.023582097
16	0x3e0e7e81	0.13915445
17	0x3e604538	0.21901405
18	0xbe10ec2c	-0.14152592
19	0xbdccb04f	-0.09994566
20	0xbe0896dd	-0.133388
21	0xbda1fe1b	-0.07909795
22	0x3d3c5220	0.045976758
23	0x3de3d8d2	0.111253396
24	0x3b1e0ee7	0.002411777
25	0x3e0afcef	0.13573049
26	0x3dd16053	0.102234505
27	0xbddb9a72	-0.107228175
28	0xbdd2ecd1	-0.102990754
29	0xbd271bc6	-0.04079797
30	0xbbb83eb4	-0.005622709
31	0x3e15e7d6	0.1463922
32	0x3c27fc8f	0.010253086
33	0x3d3e0436	0.046390735
34	0x3e098dd0	0.13433003
35	0x3c2942f1	0.0103309015
36	0xbdd97c2c	-0.10619387
37	0xbd30097d	-0.0429778
38	0x3d6ecbe6	0.05829992
39	0xbe7b50eb	-0.24542587
40	0xbe211593	-0.15730886
41	0x3d136e0d	0.035993624
42	0xbd8d8f58	-0.06912106
43	0x3c353e6f	0.011062249
44	0xbd212785	-0.03934433
45	0x3d3a7257	0.0455192
46	0xbbfbf89f	-0.00768955
47	0x3c62f6e4	0.013852809
48	0xbe0b3612	-0.13594845
49	0xbe067321	-0.13129856
50	0x3d389463	0.045063388
51	0xbe0ecc60	-0.1394515
52	0xbebf1de3	-0.3732749
53	0xbde780c1	-0.11303855
54	0x3ca79060	0.020454586
55	0xbe06a335	-0.13148196
56	0xbe9fe92e	-0.3123259
57	0xbe1fee17	-0.15618168
58	0xbe8316f5	-0.25603452
59	0xbee54a05	-0.44783035
60	0xbd5ce626	-0.053930424
61	0xbd0df05f	-0.034653064
62	0xbeba3429	-0.3636792
63	0xbdaf006b	-0.085450016
64	0xbe45e7f4	-0.19326764
65	0xbd95d708	-0.073164046
66	0xbd055b49	-0.03255776
67	0xbd4bec42	-0.04978586
68	0xbc6800e5	-0.0141603695
69	0xbcb079f6	-0.02154253
70	0x3d3de3fb	0.046359997
71	0xbc9646bb	-0.018344274
72	0xbec28fdc	-0.3800038
73	0xbd8ba4a2	-0.068185106
74	0xbe7f636e	-0.24940273
75	0x3d124ca2	0.035717614
76	0x3c6a1d3e	0.014289198
77	0xbe4b780e	-0.19870016
78	0xbe046e04	-0.12932593
79	0xbe5b4fd2	-0.21417168
80	0xbe921dbb	-0.28538308
81	0xbe33504f	-0.17511104
82	0xbd36cbaf	-0.04462784
83	0x3d9312b8	0.07181305
84	0xbd869bb2	-0.06572665
85	0x3e16cc83	0.14726453
86	0x3d675b6d	0.056483675
87	0x3c824095	0.015899936
88	0xbd82e3b4	-0.06391087
89	0xbda37ed0	-0.07983172
90	0xbdf621a3	-0.120181344
91	0x3d028d55	0.031873066
92	0xb9fa7c7b	-0.0004777646
93	0xbdbd4cc5	-0.09243158
94	0x3d155df9	0.036466572
95	0x3e56cecd	0.20977326
96	0xbdd2b488	-0.1028834
97	0xbc9959c4	-0.018719561
98	0x3d50e6bd	0.0510013
99	0xbea2a30b	-0.31765017
100	0xbd3e3a2c	-0.046442196
101	0x3e10be65	0.1413513
102	0x3e34d0b1	0.17657734
103	0x3cb3a90a	0.02193119
104	0x3daa0c0d	0.0830308
105	0x3cfe5c6d	0.031049931
106	0x3bbd9f55	0.005786816
107	0x3dfadfe4	0.12249735
108	0x3d278f06	0.040907882
109	0x3da03e66	0.078244016
110	0x3d8344ad	0.06409583
111	0x3caf7a8f	0.021420745
112	0xbddb317b	-0.10702797
113	0x3e549682	0.20760539
114	0x3e269490	0.1626761
115	0x3e47f229	0.1952597
116	0x3db02370	0.08600509
117	0xbe0255f0	-0.12728095
118	0x3b4fe307	0.0031721012
119	0xbd97079e	-0.073745
120	0x3bbd3803	0.0057744994
121	0x3db89912	0.09013571
122	0x3cfd0625	0.030886719
123	0xbcc2ff6c	-0.023803435
124	0xbcd2581f	-0.025676785
125	0x3c03559a	0.0080160145
126	0xbe05d982	-0.13071254
127	0xbdea9309	-0.11453826
128	0xbcc95dbc	-0.024580829
129	0xbcf2b15e	-0.02962559
130	0x3d926ec6	0.071500346
131	0x3d7597b4	0.05995913
132	0xbd67fa30	-0.05663508
133	0x3c2fbc5e	0.010726063
134	0xbde65c2d	-0.1124805
135	0xbdd15a20	-0.10222268
136	0xbd1d39ab	-0.038385075
137	0xbdbd0b94	-0.09230724
138	0xbcb81574	-0.022471167
139	0xbd536db2	-0.051618285
140	0x3df7eac1	0.12105323
141	0x3c38607e	0.011253474
142	0x3cdcc1e0	0.026947916
143	0x3b92981c	0.0044736993
144	0x3ceb7e7a	0.028746832
145	0x3d6cc59f	0.057805654
146	0xbe72c4e5	-0.23707922
147	0x3df686a5	0.120374
148	0xbc0c0148	-0.008545227
149	0xbd9939b0	-0.07481706
150	0xbcb18d2c	-0.021673761
151	0xbd1632cb	-0.036669534
152	0x3cdd6f62	0.02703065
153	0x3d7a3a23	0.0610906
154	0x3d56b265	0.052416224
155	0x3b99c1ea	0.004692306
156	0x3db78a85	0.089619674
157	0x3d488b39	0.048960898
158	0xbd348b98	-0.04407844
159	0x3d5f648b	0.054539245
160	0x3d0e965a	0.034811355
161	0x3c5a769b	0.013333942
162	0xbc2e0c06	-0.010622984
163	0x3db621ab	0.088931404
164	0xbcd4fcf5	-0.025999526
165	0x3d94a41f	0.07257866
166	0x3d76ab50	0.06022197
167	0xbc7c5f34	-0.015403558
168	0x3d455adf	0.048182365
169	0xbc4cd022	-0.012500795
170	0x3c8b3ee0	0.016997755
171	0xbe34d03c	-0.1765756
172	0xbe0910d8	-0.13385332
173	0xbe207052	-0.15667847
174	0xbe0dfd25	-0.13866098
175	0xbe1efac9	-0.15525354
176	0xbd8cd34f	-0.068762414
177	0xbe011051	-0.1260388
178	0xbd22eaa4	-0.039774552
179	0xbd527cbc	-0.051388487
180	0x3dfcc88f	0.12342941
181	0x3c9f8959	0.019474672
182	0x3dfcc2bf	0.12341832
183	0xbdd7e5d1	-0.10541881
184	0xbd90bd02	-0.070673004
185	0x3d912ac6	0.070882365
186	0xbe0e5961	-0.13901283
187	0xbcfe69b0	-0.031056255
188	0x3b1c67bc	0.0023865541
189	0x3c601c33	0.013678598
190	0x3d428d5a	0.047498085
191	0x3dbbefae	0.09176575
192	0x3e4327ae	0.19058105
193	0x3e173779	0.14767255
194	0x3e2dd616	0.16976199
195	0x3dbf07b4	0.09327641
196	0x3da5b463	0.08091047
197	0x3de7049a	0.112801746
198	0x3d762021	0.060089234
199	0xbb3e98f5	-0.0029082869
200	0xbe073366	-0.132032
201	0xbcfaadff	-0.030600546
202	0x3dd636f6	0.10459702
203	0xbd857d44	-0.06518033
204	0x3d805e57	0.06267994
205	0x3ddf2e1c	0.108974665
206	0x3caa1722	0.020762984
207	0x3d57d523	0.052693497
208	0x3c4d614e	0.012535406
209	0x3d87ebed	0.06636796
210	0x3dab0f89	0.083525725
211	0x3dccaaa2	0.09993483
212	0x3da07d2b	0.07836374
213	0x3b9faebd	0.0048731253
214	0xbae7173e	-0.0017630828
215	0x3dd411a5	0.10354928
216	0x3d6b8279	0.057497475
217	0x3d55403b	0.052063208
218	0x3da033b1	0.07822359
219	0xbc28d41e	-0.010304479
220	0x3d7f39b2	0.062310882
221	0x3d6951d9	0.05696282
222	0xbd88238b	-0.06647404
223	0x3db81077	0.089875154
224	0x3e1be814	0.1522525
225	0xbd35302a	-0.044235386
226	0xbde512c4	-0.1118522
227	0xbce14617	-0.027499242
228	0x3c9773a3	0.018487757
229	0xbe9042e1	-0.28176025
230	0xbda3c556	-0.07996623
231	0xbd365207	-0.04451182
232	0xbe0a5c35	-0.13511737
233	0xbdc015d1	-0.09379161
234	0xbd41c986	-0.04731133
235	0xbdbf93b0	-0.09354341
236	0x3d7080db	0.058716636
237	0xbdab92ff	-0.08377647
238	0xbdba4589	-0.09095294
239	0x3c8a4e97	0.016883178
240	0x3da55ca3	0.0807431
241	0xbbd6c445	-0.006554159
242	0x3c69f5ef	0.014279827
243	0x3d055403	0.032550823
244	0xbd82a3bd	-0.06378887
245	0xbe6b2f42	-0.22967246
246	0xbca521f2	-0.020157788
247	0xbe203758	-0.15646112
248	0x3de2b261	0.11069179
249	0x3d1e5e67	0.038664248
250	0x3c938355	0.01800696
251	0x3c6a3f38	0.014297299
252	0x3def9cb8	0.116998136
253	0x3d6a80f2	0.057251878
254	0xbd08c4ba	-0.033390738
255	0x3e20765c	0.1567015

bias f4 [32]
0	0x3d9980b7	0.074952535
1	0xbd40711f	-0.04698288
2	0xbcc4ba2f	-0.02401456
3	0xbdc53019	-0.096283145
4	0x3cbe2356	0.023210209
5	0xbcdecf3c	-0.027198426
6	0xbcd66851	-0.026172789
7	0xbd152085	-0.036407966
8	0xbd366fc7	-0.044540193
9	0xbdf5058e	-0.1196395
10	0xbd59e8c4	-0.0532005
11	0xbd839710	-0.06425297
12	0xbd66f408	-0.05638507
13	0xbe045cc8	-0.12926018
14	0xbd833514	-0.06406608
15	0xbd84dcc3	-0.064874195
16	0x3d123a6f	0.035700258
17	0xbd34f02e	-0.044174366
18	0xbca06989	-0.019581573
19	0x3cca0364	0.02465982
20	0xbcdae68e	-0.026721265
21	0xbd35ec85	-0.044415016
22	0xbd1fd00f	-0.03901678
23	0x3c37be1c	0.011214759
24	0xbcaaed37	-0.020865066
25	0xbd20ea1d	-0.039285768
26	0xbda8557a	-0.08219428
27	0xbc2211e4	-0.009891961
28	0x3bde2f41	0.0067805354
29	0xbc8a0f78	-0.01685308
30	0xbd1586aa	-0.03650538
31	0x3bb0ab7e	0.005391537

weight f4 [5, 11552]
0	0xbdf24b76	-0.11830799
1	0xbe00f184	-0.12592131
2	0xbe02cb1b	-0.12772791
3	0xbdde913f	-0.10867547
4	0xbdea6ada	-0.114461616
5	0xbdf80cf1	-0.121118434
6	0xbdeba789	-0.11506564
7	0xbddf8bef	-0.10915362
8	0xbde90a70	-0.11378944
9	0xbde5928d	-0.11209593
10	0xbde04833	-0.10951271
11	0xbddbfa82	-0.1074114
12	0xbdcf3771	-0.101179965
13	0xbdf79f00	-0.12090874
14	0xbde6d0d0	-0.112702966
15	0xbdfd074f	-0.1235491
16	0xbdde5164	-0.10855368
17	0xbe00c156	-0.12573752
18	0xbe07f269	-0.13276066
19	0xbdf953c4	-0.1217418
20	0xbdc3c1ad	-0.09558425
21	0x3c87ab28	0.016561106
22	0x3dc05861	0.09391857
23	0x3e7a6b9f	0.24455117
24	0x3e9d371c	0.30706108
25	0x3e869780	0.2628746
26	0x3e87d4cd	0.26529542
27	0x3ea689e6	0.32527083
28	0x3efd17b5	0.4943215
29	0x3eaf91b4	0.3429085
30	0x3ee4bb0f	0.44673964
31	0x3eb46acb	0.35237727
32	0x3eb97525	0.36222187
33	0x3eb307db	0.3496693
34	0x3ecd3001	0.40075687
35	0x3f060195	0.52346164
36	0x3e206e22	0.15667012
37	0x3d4a7e2f	0.049436744
38	0xbdeb7b38	-0.114981115
39	0xbd863239	-0.06552548
40	0x3d999406	0.07498936
41	0x3e2dc188	0.16968358
42	0x3da00f17	0.07815378
43	0x3ea745dc	0.32670486
44	0x3e7d323e	0.24726197
45	0x3e8b21e6	0.271743
46	0x3e98ec37	0.29867718
47	0x3e9dc4ab	0.30814108
48	0x3e8407a3	0.25787076
49	0x3eb226c7	0.3479521
50	0x3ec776be	0.3895778
51	0x3ef0939d	0.4698762
52	0x3f032f60	0.51244164
53	0x3efef922	0.49799448
54	0x3f055cb7	0.52094597
55	0x3e9fa960	0.3118391
56	0x3e6a767e	0.22896764
57	0xbdfa1d59	-0.12212629
58	0xbdaccdc6	-0.08437686
59	0x3e2a8c22	0.16655019
60	0x3d9d4bc3	0.07680466
61	0x3e8a5e35	0.27025
62	0x3e973b53	0.29537448
63	0x3e9840c4	0.29736912
64	0x3e847fa1	0.25878623
65	0x3e68cf90	0.22735429
66	0x3e8a596e	0.27021354
67	0x3e923bb3	0.28561172
68	0x3e964ca3	0.29355344
69	0x3eb951a1	0.3619509
70	0x3e967a68	0.29390264
71	0x3e9fb375	0.31191602
72	0x3f165a8a	0.587319
73	0x3f23b0d1	0.63941675
74	0x3ee6d780	0.45086288
75	0x3e89f0d5	0.26941553
76	0xbde0094a	-0.10939272
77	0xbda1f5c1	-0.07908202
78	0x3e52304d	0.20526238
79	0x3e4e962f	0.20174478
80	0x3ec9906b	0.39367995
81	0x3e730454	0.2373212
82	0x3ebb3f24	0.3657161
83	0x3e954e4f	0.29161307
84	0x3ea67b1b	0.32515797
85	0x3eb95502	0.36197668
86	0x3eb4ff5c	0.35351074
87	0x3e59ef6b	0.21282737
88	0x3eb5e6d8	0.35527682
89	0x3e76a223	0.24085288
90	0x3eaf6a4b	0.34260783
91	0x3f0606d4	0.5235417
92	0x3f025088	0.5090413
93	0x3ef7e979	0.48420313
94	0x3e74e504	0.23915488
95	0xbdd9ce48	-0.10635048
96	0xbe0e0183	-0.13867764
97	0x3d5913dc	0.052997455
98	0x3e49128f	0.19635986
99	0x3e895be0	0.26827908
100	0x3e894f82	0.26818472
101	0x3eb005e2	0.34379488
102	0x3e8bce38	0.2730577
103	0x3e947543	0.28995714
104	0x3edbc3de	0.42922872
105	0x3e9e06c1	0.30864528
106	0x3e9e25b8	0.30888152
107	0x3e9057ed	0.28192082
108	0x3e86c6d9	0.26323584
109	0x3e560081	0.2089863
110	0x3ea009cd	0.31257477
111	0x3f03de8a	0.5151144
112	0x3f3cee5d	0.73801214
113	0x3ec93c19	0.39303663
114	0xbdb0d38d	-0.086341
115	0xbdf33720	-0.11875749
116	0x3e431ca1	0.1905389
117	0x3e0c7bb8	0.1371907
118	0x3e8d3bd0	0.27584696
119	0x3e5d06c5	0.21584614
120	0x3e761fb2	0.24035528
121	0x3ebfc6ae	0.37456268
122	0x3e5980e2	0.21240571
123	0x3e832fa5	0.25622287
124	0x3e298d1c	0.16557735
125	0x3e90ed7a	0.2830618
126	0x3e3af9fe	0.18259427
127	0x3e8f6d07	0.2801287
128	0x3e68aadb	0.22721426
129	0x3e814044	0.25244343
130	0x3ef48f76	0.47765702
131	0x3f2ffa05	0.68740875
132	0x3e7febac	0.24992245
133	0xbdbe3e53	-0.09289231
134	0xbbdd84dd	-0.0067602233
135	0x3e02d356	0.12775931
136	0x3ea1a41a	0.31570512
137	0x3e429823	0.19003348
138	0x3e7aaaa9	0.24479164
139	0x3e8d3086	0.27576083
140	0x3e515ca8	0.20445502
141	0x3e197c8e	0.1498892
142	0x3e08b04e	0.13348505
143	0x3e9c353a	0.3050936
144	0x3e1abd0d	0.1511118
145	0x3dec0ecd	0.115262605
146	0x3e50e3e2	0.2039943
147	0x3e107a6d	0.14109202
148	0x3e4769be	0.19473931
149	0x3eaec49f	0.34134385
150	0x3f021097	0.50806564
151	0x3e39ca0c	0.18143481
152	0xbdf6e80f	-0.120559804
153	0x3d891c7d	0.06694887
154	0x3e32769e	0.17428061
155	0x3ea8b7be	0.32952684
156	0x3e8d2cfe	0.2757339
157	0x3e8e0fb8	0.27746367
158	0x3df9a539	0.12189717
159	0x3dbc8f35	0.09207002
160	0x3db1b5a0	0.0867722
161	0x3c85dd51	0.016340883
162	0x3cb1dc61	0.02171153
163	0xbccfe03b	-0.025375476
164	0x3d133b3f	0.035945173
165	0x3d1efdba	0.03881619
166	0x3e18328b	0.1486303
167	0x3dd55bce	0.10417901
168	0x3e6f1b65	0.23350294
169	0x3f0cbba1	0.549738
170	0x3e9a6cb7	0.30161068
171	0xbdee0e29	-0.116237946
172	0xbd8d4680	-0.068982124
173	0x3df23c23	0.118278764
174	0x3e9678dd	0.29389086
175	0x3e898810	0.2686162
176	0x3e5fad38	0.21843421
177	0x3e5b629b	0.21424334
178	0x3e4f593a	0.20248881
179	0x3e02661d	0.12734266
180	0xbe8d8385	-0.27639404
181	0xbe4e9e67	-0.20177613
182	0xbad87104	-0.0016513173
183	0xbd02055b	-0.03174339
184	0x3d7803d9	0.060550544
185	0x3e07f8d6	0.13278517
186	0x3e69620f	0.22791313
187	0x3e0fe2b4	0.14051324
188	0x3ee136d5	0.43987146
189	0x3eab1739	0.33416155
190	0xbdab69b1	-0.083697684
191	0xbe00b64f	-0.12569545
192	0x3e6f95c8	0.23396981
193	0x3e75f1fb	0.2401809
194	0x3ebf8e46	0.37413234
195	0x3e53b3b5	0.20674022
196	0x3e81025b	0.2519711
197	0x3e30871e	0.17239043
198	0x3d2a068f	0.04151016
199	0xbd94642b	-0.07245668
200	0xbe0ebb76	-0.13938698
201	0x3cc058b0	0.02347979
202	0x3d17c94b	0.037057202
203	0x3deb3cb3	0.11486187
204	0x3e182406	0.14857492
205	0x3e26fa22	0.16306356
206	0x3e54d5bd	0.2078466
207	0x3ef82391	0.48464635
208	0x3eb19b03	0.34688577
209	0xbdcff138	-0.10153431
210	0xbd369687	-0.044577148
211	0x3e52ebf8	0.20597827
212	0x3ea1c33f	0.31594273
213	0x3ea92452	0.33035523
214	0x3e95875a	0.29204828
215	0x3e69a753	0.22817735
216	0x3e0b968d	0.1363165
217	0x3e80d7ce	0.25164646
218	0x3e6b05f5	0.22951491
219	0x3d81e978	0.06343359
220	0x3dd57d81	0.104243286
221	0x3e4bb18f	0.19891952
222	0x3e7f41d3	0.24927454
223	0x3e7a222a	0.24427095
224	0x3e9af09c	0.30261695
225	0x3e85307f	0.26013562
226	0x3f0f134e	0.5588883
227	0x3ea9e28f	0.33180663
228	0xbdcc53b4	-0.099769026
229	0x3de343e3	0.11096933
230	0x3e64d333	0.22346191
231	0x3e7387bb	0.23782246
232	0x3ebc4a2a	0.36775333
233	0x3eba4424	0.36380112
234	0x3e8bf7ae	0.27337402
235	0x3ebf1a1f	0.37324616
236	0x3e9d3257	0.3070247
237	0x3e384988	0.179968
238	0x3e3c6d41	0.18401052
239	0x3daaf2fe	0.08347128
240	0x3e70716a	0.23480764
241	0x3e479958	0.1949209
242	0x3e8699d5	0.2628924
243	0x3ecae67f	0.3962898
244	0x3f043c6a	0.51654685
245	0x3f12c41b	0.57330483
246	0x3ec08c0e	0.37606853
247	0xbde5e6d0	-0.112256646
248	0xbcc10221	-0.023560585
249	0x3ea8a658	0.3293941
250	0x3e322f00	0.17400742
251	0x3e65ec2e	0.22453377
252	0x3ea14531	0.314981
253	0x3ec508fc	0.38483417
254	0x3ea2a4a6	0.31766242
255	0x3e8d32e9	0.27577904

bias f4 [5]
0	0xbde6c3f2	-0.11267842
1	0xbde1d1e6	-0.11026363
2	0xbdb4547c	-0.088051766
3	0xbda8d44a	-0.08243616
4	0xbdba8ef9	-0.09109301
