archived_data/b1_r0_m8_s100--2019-03-03--165203.596044/episode_14250.model (torch_old, 268278 bytes, 8 tensors)

weight f4 [6, 6, 3, 3]
-0.0989026 0.08754997 0.0066260546 0.13156396 -0.01608827 -0.024815366 -0.011826925 0.09217939
-0.048001535 0.11017157 0.046353247 0.019317081 -0.07498089 0.036427155 -0.05404237 -0.091596626
-0.03820857 -0.046615764 0.13509162 0.10755088 0.07522561 0.05824276 0.12483872 0.022218533
0.10665236 0.09394232 0.010756783 -0.06899242 -0.05695782 -0.103625044 0.039438233 0.09549007
-0.062022947 0.08206484 -0.12114667 0.04216516 0.06696145 -0.017965281 -0.014745404 -0.24167864
-0.06289172 -0.18424755 -0.4203569 -0.30498394 -0.14420968 0.08373728 0.038578093 0.023402613
0.05174752 0.029483583 -0.08553723 0.11686152 -0.04151719 -1.3759241e-05 -0.09898791 0.106147885
0.07836604 -0.10956599 0.11757594 -0.06769043 0.09143104 0.023604289 -0.0793014 -0.07152179
-0.0663961 0.06517892 0.041677944 -0.030478464 0.05900185 0.046225335 0.05291776 -0.012467531
-0.020614004 -0.031982068 0.06987552 0.022397798 0.000604002 0.07606546 0.073670305 0.0924397
0.048659224 0.087184876 -0.0047206283 0.06489658 0.011610091 0.061124444 0.09023325 -0.05302257
-0.014743537 0.09419365 0.15304738 -0.39981562 -0.33956397 0.15988575 -0.17567286 0.1770134
0.04598944 0.1757569 0.2791041 0.13734475 -0.08439947 0.07333891 0.018132204 0.06442638
-0.064256504 -0.07809885 -0.0055700876 0.09134063 0.061362177 0.03201264 -0.0652231 0.100899264
0.042195097 -0.0856168 -0.1022894 0.13308746 -0.022568233 0.0407719 0.043151367 0.03766702
0.0045231553 -0.00015968154 -0.16405061 -0.01301501 0.06882099 0.0026658236 0.088051006 0.08167769
0.09250107 0.06097555 0.049294516 -0.12630071 0.022905342 0.1030646 0.014075963 -0.038927376
-0.08389048 -0.049961805 -0.014928535 -0.021312818 0.11138584 -0.04168068 0.024843767 0.037637815
-0.011407855 -0.018976066 0.21286854 0.14767884 0.16930954 -0.3211989 0.049407963 0.19579609
-0.14666916 0.025371106 -0.017530179 0.02202618 -0.05955716 -0.072817706 -0.15853073 -0.05800007
0.018238498 -0.07688408 0.09874566 0.12700939 0.12426171 0.11717251 -0.06729436 -0.0028953254
-0.12759839 -0.023696266 -0.095670134 -0.026199745 -0.0015222081 0.043534447 0.04113047 0.007771734
-0.015209859 -0.0044042976 -0.021945378 0.038906325 0.035315465 0.07805023 0.10694791 0.10126156
0.09978699 0.05884213 0.03806761 0.06856267 0.10992493 0.059393436 -0.047799125 0.077635184
-0.035260238 -0.1284027 -0.08459376 -0.12803987 -0.07306849 -0.12930039 0.06684856 0.19577214
-0.28359973 -0.10055552 -0.41612133 -0.25818512 0.12997258 0.23308633 -0.31517258 0.019846354
-0.06431791 0.055693332 -0.12845732 0.037077606 0.03074354 0.10814787 -0.044834968 0.0350896
0.08847006 0.12129402 0.021177188 0.020337582 0.10143301 0.12190831 -0.039347313 0.05337149
0.049739152 0.046100866 -0.078888275 0.07449447 -0.06673303 -0.057450503 0.07603981 -0.032044735
-0.044480696 -0.027639428 0.058475886 -0.018731212 0.041127037 -0.039138522 0.012167655 0.04091055
-0.005252926 -0.029720651 -0.03837558 0.118190646 0.05884725 0.062719986 -0.05224768 -0.023546048
-0.11159935 -0.123616554 -0.10416311 -0.10653592 0.19439052 0.074341364 0.3135087 0.119953595
00000000: 728d cabd 664d b33d 601f d93b b4b8 063e
00000010: 8ccb 83bc 9849 cbbc b8c5 41bc 8cc8 bc3d
00000020: 429d 44bd a2a1 e13d e7dc 3d3d db3e 9e3c
00000030: 958f 99bd a434 153d 885b 5dbd 0397 bbbd
00000040: 9780 1cbd 2cf0 3ebd 7555 0a3e a343 dc3d
00000050: e20f 9a3d f68f 6e3d 71ab ff3d a403 b63c
00000060: 8d6c da3d d564 c03d 383d 303c e64b 8dbd
00000070: 9a4c 69bd 5e39 d4bd fc89 213d 4c90 c33d
00000080: c60b 7ebd 9c11 a83d bf1b f8bd 60b5 2c3d
00000090: 1623 893d ed2b 93bc b596 71bc 9b7a 77be
000000a0: 60cd 80bd 64ab 3cbe 0539 d7be db26 9cbe
000000b0: b4ab 13be 737e ab3d 1004 1e3d d6b6 bf3c
000000c0: 35f5 533d 8e87 f13c 252e afbd 1855 ef3d
000000d0: ee0d 2abd 7dd7 66b7 2cba cabd 1064 d93d
000000e0: 607e a03d 2264 e0bd a8cb f03d 48a1 8abd
000000f0: 3240 bb3d c85d c13c c668 a2bd 047a 92bd
00000100: aefa 87bd 877c 853d 7eb6 2a3d f9ad f9bc
00000110: edab 713d c756 3d3d 4bc0 583d 9d44 4cbc
00000120: b3de a8bc a1ff 02bd e61a 8f3d 967b b73c
00000130: e355 1e3a 35c8 9b3d 75e0 963d 0751 bd3d
00000140: e54e 473d fc8d b23d 80af 9abb 80e8 843d
00000150: 4038 3e3c a05d 7a3d 36cc b83d 322e 59bd
00000160: e08e 71bc 9ae8 c03d 74b8 1c3e a2b4 ccbe
00000170: 54db adbe 17b9 233e 96e3 33be 0043 353e
00000180: 6c5f 3c3d 9ef9 333e bce6 8e3e 1aa4 0c3e
00000190: a1d9 acbd b632 963d fd89 943c faf1 833d
000001a0: ea98 83bd 4af2 9fbd 4885 b6bb cc10 bb3d
000001b0: e856 7b3d b01f 033d b093 85bd 46a4 ce3d
000001c0: c4d4 2c3d dc57 afbd 1b7d d1bd 1448 083e
000001d0: 04e1 b8bc 7000 273d 7dbf 303d bc48 1a3d
000001e0: fa36 943b 3070 27b9 e2fc 27be e93c 55bc
000001f0: 05f2 8c3d 19b5 2e3b 1654 b43d a246 a73d
00000200: 3371 bd3d 80c1 793d 0ce9 493d f954 01be
00000210: fca3 bb3c 8813 d33d de9e 663c 5072 1fbd
00000220: c6ce abbd c0a4 4cbd d096 74bc 3898 aebc
00000230: 421e e43d 5cb9 2abd 2885 cb3c 1c2a 1a3d
00000240: 03e8 3abc b273 9bbc 36fa 593e 1f39 173e
00000250: 7b5f 2d3e 2f74 a4be 0160 4a3d c57e 483e
00000260: 7130 16be 11d7 cf3c 739b 8fbc 3f70 b43c
00000270: 35f2 73bd 7321 95bd e155 22be 7b91 6dbd
00000280: e768 953c 6775 9dbd 2a3b ca3d c00e 023e
00000290: ec7c fe3d 24f8 ef3d a0d1 89bd 80bf 3dbb
000002a0: 27a9 02be ac1e c2bc b4ee c3bd d9a0 d6bc
000002b0: d484 c7ba 2d51 323d 6c78 283d 08aa fe3b
000002c0: c632 79bc ed51 90bb cbc6 b3bc 3d5c 1f3d
000002d0: f3a6 103d cdd8 9f3d 8107 db3d 3962 cf3d
000002e0: 1f5d cc3d 7204 713d c8ec 1b3d 966a 8c3d
000002f0: 5220 e13d 8846 733d 04c9 43bd 32ff 9e3d
00000300: 0a6d 10bd ff7b 03be 7e3f adbd e21c 03be
00000310: efa4 95bd 5267 04be e6e7 883d 7e78 483e
00000320: fc33 91be 0df0 cdbd db0d d5be d730 84be
00000330: 8817 053e 2fae 6e3e 4d5e a1be d294 a23c
00000340: 1cb9 83bd b11e 643d 518a 03be b0de 173d
00000350: e0d9 fb3c a17c dd3d dfa4 37bd 1dba 0f3d
00000360: ca2f b53d 0069 f83d c87b ad3c 009b a63c
00000370: 1cbc cf3d 10ab f93d a62a 21bd 109c 5a3d
00000380: 48bb 4b3d 43d4 3c3d 2d90 a1bd 8f90 983d
00000390: 54ab 88bd 3851 6bbd c3ba 9b3d 5741 03bd
000003a0: 6431 36bd 156c e2bc 6984 6f3d 3372 99bc
000003b0: d374 283d b74f 20bd d85a 473c d291 273d
000003c0: bd20 acbb b978 f3bc b62f 1dbd f00d f23d
000003d0: d009 713d 5673 803d aa01 56bd a4e3 c0bc
000003e0: 338e e4bd ad2a fdbd 7853 d5bd 812f dabd
000003f0: 4f0e 473e 4940 983d 3684 a03e 3baa f53d

bias f4 [6]
-0.108613625 -0.1061014 0.08248502 -0.17038563 0.012527724 -0.057853263
00000000: d270 debd b14b d9bd e8ed a83d 9279 2ebe
00000010: 1541 4d3c 8bf7 6cbd

weight f4 [16, 6, 3, 3]
-0.13002756 0.0705816 0.011787308 0.029714892 -0.052822042 -0.118126824 -0.17425823 -0.06435082
0.106207244 0.010183972 0.13653903 0.17097102 -0.10957711 -0.022066023 -0.050389692 -0.07084033
-0.030639233 -0.09138197 0.115244396 0.12235682 -0.029930593 0.06441846 0.059062894 0.08344089
-0.022249358 0.070167035 0.22780253 0.057994597 -0.080506295 -0.049785852 0.2096291 0.09368246
0.046042755 -0.15950786 -0.21084295 0.23150225 -0.013834612 -0.08300283 -0.15093817 -0.014618367
-0.07622928 0.088247634 -0.06609951 -0.03422883 0.1507778 0.034036063 -0.081499845 0.16298087
-0.12423374 -0.009323481 0.020842463 0.061935406 -0.06296639 0.007806191 -0.15627448 -0.06807939
0.12303505 0.0030100602 0.059813704 -0.0032926716 -0.09106398 0.1083354 0.087457016 0.09955061
0.023963766 -0.19032249 -0.080124 0.044510335 -0.060207643 -0.11144126 0.06254933 0.108066574
0.08127413 -0.2062107 0.004284746 -0.16753711 -0.16182403 0.23776 -0.1886811 -0.0160644
0.068248816 0.18907243 0.17852633 0.19054729 0.13806091 0.026984522 0.13701531 0.028423212
-0.20572318 0.106723316 0.031074379 0.08397609 0.079007484 0.04393156 -0.03202854 -0.14354086
0.11046491 -0.11263139 -0.15324947 0.18147151 -0.20965965 -0.109095104 0.11350319 -0.12126246
0.026239661 -0.12136494 0.07248238 0.18076505 -0.025934651 0.046431012 -0.21008949 -0.19527903
0.08633719 -0.02266586 0.014301433 0.012960002 0.07827591 -0.0851572 -0.16805528 0.0963688
-0.010322087 0.018569175 0.11401983 -0.1375574 -0.03656579 -0.15790017 -0.12739727 0.03905428
-0.1654381 -0.115306154 -0.035035986 -0.11338963 0.1374346 0.046266023 0.020998431 0.1124889
-0.1392675 -0.039942857 -0.029772881 -0.23539424 -0.18676995 -0.17581978 -0.08312208 0.04052104
-0.108673595 -0.045693398 -0.18410282 0.09016566 0.017096862 0.03455286 0.11233986 -0.0742284
0.030686477 0.017611414 0.21127114 0.005046561 -0.070475906 0.16545735 -0.024750778 0.07542526
-0.13741933 -0.034592334 -0.026213773 -0.2070585 0.07968027 -0.098391734 -0.15414225 0.013236546
-0.24722403 -0.07435023 -0.16595873 -0.022125695 0.111634396 0.05027361 0.1470894 -0.012440395
0.1140813 0.03205115 0.19075233 0.00017700322 -0.23124596 -0.11179097 -0.08053468 -0.037121207
0.0068131 0.06413255 0.039272483 -0.083679706 0.0025104743 -0.1078139 0.04690759 0.12319163
0.1971333 -0.16551965 -0.2734637 0.06722207 -0.22970363 -0.20361434 -0.078686304 0.12771724
-0.020481566 -0.089358546 -0.08987894 -0.009092438 -0.08975005 0.103591405 0.13967748 -0.1400867
-0.14175922 -0.19357617 -0.03630532 -0.24556075 0.019263119 -0.2031533 -0.17183498 -0.14961131
-0.03901141 -0.04030051 -0.024284303 0.033213552 0.2091125 0.12107234 0.096206926 -0.04872346
-0.021682262 0.019657297 -0.08871632 -0.02033794 -0.147552 0.010535419 0.060668394 -0.007713528
0.06313388 0.14774522 -0.2573376 -0.060145587 -0.10849481 -0.2983838 0.026674561 -0.09913874
0.11651763 0.083120205 0.045738805 -0.027433233 0.18570904 -0.12652986 -0.03794422 -0.10597474
-0.072256364 0.18896458 0.009029 0.19286175 -0.089208014 -0.070260026 0.03200843 -0.11503919
00000000: f225 05be 168d 903d 8e1f 413c a56c f33c
00000010: ed5b 58bd 7aec f1bd c070 32be 5dca 83bd
00000020: 2f83 d93d adda 263c e3d0 0b3e 0713 2f3e
00000030: f769 e0bd cec3 b4bc 6c65 4ebd bc14 91bd
00000040: 21ff fabc 7826 bbbd 4105 ec3d 3696 fa3d
00000050: 0131 f5bc d3ed 833d efeb 713d 0fe3 aa3d
00000060: 4944 b6bc bcb3 8f3d 1145 693e be8b 6d3d
00000070: 7ce0 a4bd 40ec 4bbd 03a9 563e 97dc bf3d
00000080: 5497 3c3d 0756 23be 37e7 57be ed0e 6d3e
00000090: 92aa 62bc 63fd a9bd 898f 1abe e081 6fbc
000000a0: 191e 9cbd 2dbb b43d 2e5f 87bd 8833 0cbd
000000b0: 7f65 1a3e 6669 0b3d 64e9 a6bd 75e4 263e
000000c0: 426e febd 83c1 18bc d0bd aa3c fbaf 7d3d
000000d0: 86f4 80bd 14cb ff3b 6b06 20be 356d 8bbd
000000e0: cdf9 fb3d 6e44 453b 37ff 743d ddc9 57bb
000000f0: c07f babd f3de dd3d aa1c b33d 31e1 cb3d
00000100: a94f c43c e6e3 42be 0d18 a4bd 7850 363d
00000110: 4a9c 76bd 513b e4bd dd19 803d 0252 dd3d
00000120: 0d73 a63d e628 53be 0e67 8c3b d98e 2bbe
00000130: 33b5 25be 5c77 733e 9e35 41be 7d99 83bc
00000140: 09c6 8b3d 349c 413e 9bcf 363e d41e 433e
00000150: d75f 0d3e a50e dd3c be4d 0c3e ccd7 e83c
00000160: 19a9 52be c191 da3d b28f fe3c a8fb ab3d
00000170: adce a13d 94f1 333d 5c30 03bd 60fc 12be
00000180: 6d3b e23d 49ab e6bd 6eed 1cbe abd3 393e
00000190: 05b1 56be 416d dfbd 5c74 e83d 7458 f8bd
000001a0: 8ff4 d63c 2f8e f8bd a471 943d 791a 393e
000001b0: e874 d4bc 722e 3e3d b321 57be 3af7 47be
000001c0: 8dd1 b03d c1ad b9bc 8f50 6a3c 3056 543c
000001d0: 1f4f a03d e666 aebd af16 2cbe 015d c53d
000001e0: f91d 29bc 621e 983c 3b83 e93d d9db 0cbe
000001f0: 03c6 15bd 95b0 21be 6e74 02be 61f7 1f3d
00000200: 9b68 29be a225 ecbd e581 0fbd d338 e8bd
00000210: a8bb 0c3e 7181 3d3d e704 ac3c 9560 e63d
00000220: 249c 0ebe 1f9b 23bd 42e6 f3bc 300b 71be
00000230: 9f40 3fbe 1a0a 34be e93b aabd 64f9 253d
00000240: 4390 debd 0029 3bbd 7385 3cbe c6a8 b83d
00000250: b80e 8c3c 4d87 0d3d 7112 e63d 0f05 98bd
00000260: 3562 fb3c d045 903c 7657 583e 9f5d a53b
00000270: ac55 90bd a76d 293e 25c2 cabc 8f78 9a3d
00000280: a7b7 0cbe b1b0 0dbd 44be d6bc 2507 54be
00000290: 692f a33d 9b81 c9bd 77d7 1dbe 19de 583c
000002a0: 4c28 7dbe ef44 98bd 16f1 29be f240 b5bc
000002b0: 93a0 e43d b3eb 4d3d 9b9e 163e ccd2 4bbc
000002c0: 75a3 e93d 1148 033d 9454 433e f199 3939
000002d0: becb 6cbe aaf2 e4bd 5eef a4bd 680c 18bd
000002e0: 6d40 df3b ed57 833d 2fdc 203d 4460 abbd
000002f0: c586 243b 89cd dcbd 2c22 403d e54b fc3d
00000300: 50dd 493e fc7d 29be 6f03 8cbe baab 893d
00000310: 6e37 6bbe 4780 50be 4926 a1bd 4fc8 023e
00000320: f5c8 a7bc 9d01 b7bd 7312 b8bd 73f8 14bc
00000330: e0ce b7bd bb27 d43d 9d07 0f3e e372 0fbe
00000340: 5429 11be d538 46be e3b4 14bd 4774 7bbe
00000350: b0cd 9d3c 6b07 50be 82f5 2fbe b533 19be
00000360: 6eca 1fbd 2612 25bd e0ef c6bc ef0a 083d
00000370: 9621 563e c6f4 f73d 2308 c53d 4092 47bd
00000380: 009f b1bc 5708 a13c e7b0 b5bd c09b a6bc
00000390: df17 17be c09c 2c3c 6c7f 783d c3c1 fcbb
000003a0: 564c 813d 864a 173e c1c1 83be 385b 76bd
000003b0: 8732 debd c3c5 98be 9c84 da3c 4009 cbbd
000003c0: cca0 ee3d ed3a aa3d 9d58 3b3d a9bb e0bc
000003d0: 832a 3e3e 0b91 01be 666b 1bbd 4909 d9bd
000003e0: 25fb 93bd ee7f 413e 5fee 133c 8d7d 453e
000003f0: b1b2 b6bd 7de4 8fbd 461b 033d ab99 ebbd

bias f4 [16]
-0.022524424 0.009517639 0.05113357 0.018970586 0.007165477 -0.1030976 -0.014697993 0.028352298
-0.06388952 0.03442548 0.032322507 0.037388895 -0.08237692 0.10184607 0.028006151 0.10510986
00000000: 2485 b8bc dfef 1b3c 6f71 513d 3468 9b3c
00000010: 61cc ea3b d624 d3bd dacf 70bc 1443 e83c
00000020: 82d8 82bd bb01 0d3d 9b64 043d 1925 193d
00000030: 3bb5 a8bd ac94 d03d 286d e53c d743 d73d

weight f4 [32, 16, 3, 3]
-0.027406067 -0.1494501 -0.15063694 0.020918835 0.037717257 0.0187037 -0.09169987 0.034893647
-0.059205703 -0.17100133 -0.07069458 0.10546068 0.053614773 0.036026962 0.20239012 0.060961828
0.08182566 0.14417343 -0.100503266 -0.053564046 -0.12689613 -0.09013045 0.017160302 0.07426523
0.03128266 0.1377733 0.04248157 -0.0250999 -0.092116766 -0.007438816 0.04985046 0.121680684
0.04414486 0.03214417 0.095387794 0.020452278 -0.074148126 -0.051333625 0.025690924 -0.14512904
-0.070081405 0.04578559 -0.026938906 0.06591253 0.014967252 -0.07402899 -0.12096184 -0.07448087
-0.14346646 -0.041612577 0.019802112 -0.14228131 -0.10595561 -0.12707734 0.064689025 -0.039603237
-0.23226935 -0.06535406 -0.16537723 -0.3219355 0.015596937 -0.00096552813 -0.23913471 -0.04052623
-0.16403072 -0.066391826 -0.008487362 -0.066079505 -0.034539774 0.012715771 0.050995447 -0.021028508
-0.2653813 -0.08865648 -0.160101 0.009797953 -0.13411076 -0.22417405 -0.039959762 -0.15061639
-0.26874438 -0.1235213 -0.06729362 0.041115753 -0.073605515 0.07198749 0.008120698 0.031629052
-0.041634507 -0.027494239 -0.06326315 -0.0006425866 -0.0052083666 -0.0391945 0.02379634 0.1530654
-0.06423457 -0.04860467 0.037453733 -0.08668418 0.016513053 0.07815928 0.09749837 0.025723796
0.045939766 0.017517718 0.015218117 0.15895571 -0.008984442 -0.10906216 -0.1359799 0.06791095
-0.009156407 0.08646679 0.029283317 0.18050644 -0.0123745585 -0.08758592 -0.017268438 -0.05099846
-0.017679848 0.06811448 0.03560846 -0.0047770017 -0.025032299 -0.0012013817 -0.10777459 -0.14613058
-0.06299026 -0.081137165 0.045375414 0.018855723 -0.07700218 0.00760728 -0.09313104 -0.055972207
-0.0036307073 -0.075817764 -0.0120341005 -0.072707735 0.08848074 0.04578501 0.041510664 -0.0016626855
0.053179618 0.090990715 -0.2146063 0.13885093 0.0097316755 0.010643189 0.024667585 -0.020036787
0.11232797 0.064787105 0.051804733 0.02517798 0.08538121 0.031357512 -0.033747096 0.04347984
0.00926098 0.016500479 0.03822381 0.113533795 -0.026817711 0.10845124 0.09033716 -0.005687714
0.056306463 0.011927549 0.046276096 -0.065612264 -0.04855831 -0.11006937 -0.11228252 -0.11739168
-0.114117794 -0.09016045 -0.027672475 -0.07210931 0.15118234 0.031855322 0.13377392 -0.07649488
-0.050885312 0.10040286 -0.13519841 -0.014983112 0.006301688 0.0152951535 0.034981027 0.10901826
0.20213479 0.14020467 0.15326081 0.07464094 0.08326795 0.110544525 0.07520787 0.034829956
-0.084122986 -0.007551281 0.11810757 0.0019752365 0.08876203 0.14132863 0.08055238 0.05289836
0.008829349 0.06461493 0.083893254 0.0952904 0.07480326 0.0047997325 -0.009238197 0.099661514
0.032331903 0.029470498 0.069501445 -0.01661947 0.058273416 0.06169507 -0.06193114 0.08988532
0.15278731 0.021648746 -0.0045289756 0.054858573 -0.056853946 -0.08996385 -0.014503838 -0.017214019
-0.0692458 -0.047679253 0.021195821 0.024848016 0.033379972 -0.013134366 -0.009925264 -0.010927144
0.107788704 0.034886103 -0.013682576 0.053013038 -0.04044123 -0.15742736 0.0049731173 -0.12606294
0.10465587 0.06461211 0.031442154 -0.0028676747 0.15533042 0.09506532 0.018736856 0.19189481
00000000: b082 e0bc 7209 19be 9240 1abe fa5d ab3c
00000010: 697d 1a3d 8038 993c 24cd bbbd a4ec 0e3d
00000020: ae81 72bd f91a 2fbe 52c8 90bd c5fb d73d
00000030: 2a9b 5b3d 0291 133d 5b3f 4f3e 1cb3 793d
00000040: 3694 a73d 33a2 133e a8d4 cdbd f965 5bbd
00000050: 0ff1 01be 5096 b8bd c393 8c3c 5e18 983d
00000060: 3f22 003d 7214 0d3e 2801 2e3d 4e9e cdbc
00000070: b7a7 bcbd 50c1 f3bb ff2f 4c3d b933 f93d
00000080: 3ed1 343d 9ba9 033d ad5a c33d 898b a73c
00000090: f9da 97bd 3543 52bd c675 d23c b59c 14be
000000a0: d786 8fbd ac89 3b3d fbae dcbc 26fd 863d
000000b0: 3439 753c 839c 97bd d7ba f7bd 6d89 98bd
000000c0: dfe8 12be f371 2abd 0a38 a23c 31b2 11be
000000d0: 41ff d8bd 9020 02be ae7b 843d 0137 22bd
000000e0: 04d8 6dbe 59d8 85bd a658 29be bbd4 a4be
000000f0: 4c8a 7f3c 7f1b 7dba bbdf 74be d5fe 25bd
00000100: abf7 27be 70f8 87bd 940e 0bbc b154 87bd
00000110: 9479 0dbd cf55 503c 9ae0 503d fa43 acbc
00000120: 0fe0 87be 8791 b5bd 84f1 23be 9887 203c
00000130: 5554 09be e28d 65be d9ac 23bd 2f3b 1abe
00000140: dd98 89be bcf8 fcbd 3dd1 89bd fe68 283d
00000150: 7dbe 96bd 2d6e 933d ad0c 053c 778d 013d
00000160: f288 2abd 993b e1bc 1c90 81bd 4273 28ba
00000170: f2aa aabb 698a 20bd 8bf0 c23c 2dbd 1c3e
00000180: 6a8d 83bd b115 47bd 1669 193d 7a87 b1bd
00000190: 6246 873c f911 a03d 3aad c73d b6ba d23c
000001a0: 562b 3c3d 5181 8f3c 6955 793c 49c5 223e
000001b0: 7b33 13bc fb5b dfbd 513e 0bbe e514 8b3d
000001c0: c104 16bc 8015 b13d 91e3 ef3c aed6 383e
000001d0: a9be 4abc 3f60 b3bd 8a76 8dbc c3e3 50bd
000001e0: 54d5 90bc 9b7f 8b3d 2dda 113d 6588 9cbb
000001f0: 8910 cdbc ae77 9dba edb8 dcbd 41a3 15be
00000200: 0a01 81bd 3e2b a6bd 92db 393d 5177 9a3c
00000210: 52b3 9dbd 7d46 f93b 7dbb bebd 1d43 65bd
00000220: 29f1 6dbb 5846 9bbd ad2a 45bc cbe7 94bd
00000230: 6435 b53d 1089 3b3d 1607 2a3d 78ee d9ba
00000240: dfd2 593d 5759 ba3d c1c1 5bbe f02e 0e3e
00000250: 9b71 1f3c c560 2e3c ad13 ca3c 3024 a4bc
00000260: 350c e63d 1aaf 843d 3331 543d 0d42 ce3c
00000270: 58dc ae3d bc70 003d 653a 0abd eb17 323d
00000280: 5ebb 173c 032c 873c 9290 1c3d 6884 e83d
00000290: d1b0 dbbc af1b de3d b002 b93d 0160 babb
000002a0: 9ba1 663d c46b 433c 018c 3d3d b95f 86bd
000002b0: 14e5 46bd 0d6c e1bd 61f4 e5bd 0d6b f0bd
000002c0: 97b6 e9bd 0ba6 b8bd 63b1 e2bc 0cae 93bd
000002d0: 8bcf 1a3e ba7a 023d 08fc 083e 59a9 9cbd
000002e0: 1e6d 50bd 04a0 cd3d 7471 0abe ba7b 75bc
000002f0: 647e ce3b 8698 7a3c 4448 0f3d f744 df3d
00000300: 6cfc 4e3e d091 0f3e 67f0 1c3e 59dd 983d
00000310: 6388 aa3d 2b65 e23d 9506 9a3d dba9 0e3d
00000320: ac48 acbd bc70 f7bb 62e2 f13d f872 013b
00000330: dec8 b53d 74b8 103e a5f8 a43d f3ab 583d
00000340: f9a8 103c d554 843d 3ad0 ab3d 9d27 c33d
00000350: 7432 993d 1347 9d3b ce5b 17bc 561b cc3d
00000360: 756e 043d 1d6c f13c c656 8e3d 8e25 88bc
00000370: 1bb0 6e3d f8b3 7c3d 82ab 7dbd cb15 b83d
00000380: 4774 1c3e b658 b13c cd67 94bb 62b3 603d
00000390: afdf 68bd f83e b8bd 81a1 6dbc 6a04 8dbc
000003a0: bed0 8dbd 524b 43bd dca2 ad3c 118e cb3c
000003b0: 70b9 083d 8631 57bc 939d 22bc c407 33bc
000003c0: 53c0 dc3d bbe4 0e3d e22c 60bc 3324 593d
000003d0: b4a5 25bd a334 21be 88f5 a23b a516 01be
000003e0: d155 d63d 5b53 843d 7dc9 003d 99ef 3bbb
000003f0: f00e 1f3e 9bb1 c23d 097e 993c 1380 443e

bias f4 [32]
0.06552918 -0.02959023 -0.017908892 -0.08578406 0.02813089 -0.01810313 -0.0063957856 -0.03022991
-0.03044206 -0.07516004 -0.042115424 -0.029174509 -0.05135322 -0.08647054 -0.060598593 -0.054134615
0.037200995 -0.032010615 -0.014393993 0.026180124 0.004139519 0.00023609794 -0.048500653 0.018731663
-0.02191295 -0.016606204 -0.08219428 0.0181933 0.030823119 0.009002258 -0.022056838 0.012443079
00000000: 2a34 863d 3667 f2bc abb5 92bc 8eaf afbd
00000010: c172 e63c 044d 94bc bd93 d1bb b7a4 f7bc
00000020: a161 f9bc 82ed 99bd 3981 2cbd 61ff eebc
00000030: c157 52bd 7717 b1bd 3b36 78bd 42bc 5dbd
00000040: 1260 183d 901d 03bd c8d4 6bbc b377 d63c
00000050: cda4 873b 0f91 7739 9fa8 46bd 2573 993c
00000060: c982 b3bc bc09 88bc 7a55 a8bd 1e0a 953c
00000070: c480 fc3c 357e 133c 8bb0 b4bc 0ede 4b3c

weight f4 [5, 11552]
-0.077905715 -0.0789818 -0.07863765 -0.06550769 -0.074098766 -0.076457605 -0.07138001 -0.07115551
-0.07099647 -0.06963025 -0.06555679 -0.061350375 -0.052107193 -0.07189125 -0.0619138 -0.0706866
-0.05778407 -0.07479013 -0.078021534 -0.072660506 -0.0058037713 -0.004702157 -0.0036901748 0.05250942
0.080473825 0.03839744 0.107999794 0.0036138112 0.096600786 -0.0029939455 0.048623163 0.13812009
0.10894102 0.058815856 0.078951485 0.11024444 0.06036109 -0.0024360355 -0.06816319 -0.0068917903
0.11245942 0.12812884 0.06165866 0.065955855 0.029363379 0.09195168 0.14016517 0.15730877
0.06476392 0.09641035 0.12645502 0.20142457 0.23333964 0.17650409 0.113158025 0.03379001
0.15949337 -0.077457994 -0.051664416 0.021206057 0.053816278 0.093120374 0.06367651 0.06290772
0.070237115 0.09731551 0.15441275 0.08805135 0.12158934 0.16488643 0.0936217 0.19474706
0.1942745 0.19637465 0.13717556 0.15157259 -0.05934676 -0.0053776274 0.13067661 0.1512194
0.11849784 0.11949036 0.09892636 0.10286445 0.11761823 0.09263718 0.0923907 0.115180954
0.1054599 0.10072485 0.20778881 0.23893309 0.15603715 0.23614211 0.11184207 -0.0629705
-0.04943039 0.03085219 0.17641304 0.124179475 0.14564674 0.057087667 -0.00015391887 0.0956345
0.10544077 0.06544908 0.07065024 0.049592063 0.11914429 0.088767305 0.09846052 0.23220146
0.26123944 0.19252259 -0.049714528 0.00021193073 0.14533228 0.049689725 0.09283347 0.11751244
0.04479652 0.06776466 0.09311075 0.030948475 -0.03252509 0.056703042 0.021070579 0.11286744
0.059568506 0.0945895 0.21009807 0.26861456 0.17898743 -0.05644767 -0.013474388 0.062439334
0.11874086 0.14662026 0.06547166 0.025100427 0.060721043 0.07769171 -0.02307251 0.025050946
0.024862792 0.014744567 0.10471679 0.13176882 0.0953944 0.19524115 0.15152654 0.08575301
-0.07283304 0.014514677 0.08490844 0.204428 0.068738565 0.0723176 0.025315661 -0.032137502
-0.14826927 -0.07728477 0.014676612 -0.045366507 0.017133867 0.034948047 0.06195541 0.09856873
0.123190805 0.12716654 0.11817363 -0.063567586 -0.014529985 0.12157626 0.06980078 0.00030891536
0.064203665 0.052611273 -0.06387441 -0.09963877 -0.07831645 -0.058617294 -0.018729484 0.035735387
0.023310238 0.0026740704 0.030548833 0.096975766 0.13547951 0.056511737 -0.04178713 -0.0317449
0.14570695 0.0859779 0.06056715 0.062317945 0.09670504 -0.016730864 -0.07673924 -0.16479012
-0.03453733 -0.05476637 0.011640298 -0.010375367 -0.041691873 0.09081619 0.023124628 0.032180946
0.12568916 -0.055231426 -0.028117491 0.09692889 0.10000064 0.03444217 0.075581245 0.043055892
0.075674504 0.025438368 -0.034388937 0.035362586 0.019919863 0.11785816 0.088238366 0.08136206
0.05191393 0.052049987 0.104841456 0.089304015 -0.05197547 0.028141016 0.013644532 -0.0012680156
0.024250774 0.067611374 0.06216012 0.1307871 0.10894959 0.0073921653 -0.0013968018 -0.0009472664
0.078900054 0.043238148 0.09727121 0.13803902 0.15292767 0.07684594 0.029573878 -0.059540663
-0.04632375 0.10750432 0.01948246 0.038047433 0.083335966 0.04955304 0.07241359 0.04202294
00000000: 088d 9fbd 36c1 a1bd c70c a1bd e528 86bd
00000010: 18c1 97bd ce95 9cbd af2f 92bd fbb9 91bd
00000020: 9966 91bd 4e9a 8ebd a342 86bd 884a 7bbd
00000030: 5a6e 55bd b83b 93bd 5399 7dbd 23c4 90bd
00000040: fdae 6cbd 912b 99bd c1c9 9fbd 08cf 94bd
00000050: 902d bebb 8d14 9abb dcd6 71bb 1e14 573d
00000060: 76cf a43d a246 1d3d ff2e dd3d b1d5 6c3b
00000070: a2d6 c53d 1236 44bb 1529 473d 5a6f 0d3e
00000080: 781c df3d e5e8 703d 51b1 a13d d6c7 e13d
00000090: 313d 773d e5a5 1fbb 2499 8bbd 87d4 e1bb
000000a0: 2051 e63d 3534 033e cb8d 7c3d dd13 873d
000000b0: 788b f03c 2a51 bc3d 7587 0f3e 8d15 213e
000000c0: f2a2 843d ca72 c53d 6d7d 013e 3e42 4e3e
000000d0: 96f0 6e3e 7dbd 343e 65bf e73d 6567 0a3d
000000e0: 3b52 233e 4ca2 9ebd 119e 53bd 53b8 ad3c
000000f0: 756e 5c3d e5b5 be3d d468 823d c3d5 803d
00000100: 7ad8 8f3d 5b4d c73d 601e 1e3e 4454 b43d
00000110: d503 f93d fdd7 283e bcbc bf3d c66b 473e
00000120: e5ef 463e 7016 493e c077 0c3e d835 1b3e
00000130: 9715 73bd cf36 b0bb 17d0 053e 42d9 1a3e
00000140: ffae f23d 5db7 f43d e799 ca3d 99aa d23d
00000150: d4e1 f03d 90b8 bd3d 5637 bd3d fee3 eb3d
00000160: 5cfb d73d d548 ce3d 97c6 543e e0aa 743e
00000170: 34c8 1f3e 3dcf 713e 750d e53d adf6 80bd
00000180: 8577 4abd bbbd fc3c 9fa5 343e cf51 fe3d
00000190: 6b24 153e c2d4 693d 4865 21b9 05dc c33d
000001a0: 55f1 d73d 2b0a 863d 13b1 903d 0c21 4b3d
000001b0: ec01 f43d a2cb b53d aba5 c93d 38c6 6d3e
000001c0: 2dc1 853e a424 453e 76a1 4bbd b939 5e39
000001d0: fcd1 143e 7487 4b3d 791f be3d 5daa f03d
000001e0: 8e7c 373d 33c8 8a3d d9b0 be3d a887 fd3c
000001f0: 0739 05bd 7341 683d 359c ac3c 0b27 e73d
00000200: 1bfe 733d 24b8 c13d f323 573e d987 893e
00000210: 7b48 373e ac35 67bd aec3 5cbc 63c0 7f3d
00000220: 682e f33d 9f23 163e 0116 863d 699f cd3c
00000230: a1b6 783d d51c 9f3d 8f02 bdbc a437 cd3c
00000240: 0ead cb3c 3293 713c c275 d63d 68ee 063e
00000250: 245e c33d 4ced 473e c629 1b3e 469f af3d
00000260: 7d29 95bd f8ce 6d3c 7ae4 ad3d 9355 513e
00000270: cec6 8c3d 401b 943d ca62 cf3c 9da2 03bd
00000280: e6d3 17be 7a47 9ebd 2c76 703c 3bd2 39bd
00000290: 535c 8c3c af25 0f3d f5c4 7d3d 67de c93d
000002a0: 764b fc3d f237 023e 0405 f23d b92f 82bd
000002b0: 2d0f 6ebc f9fc f83d b6f3 8e3d ebf5 a139
000002c0: 367d 833d eb7e 573d 96d0 82bd 690f ccbd
000002d0: 6064 a0bd b018 70bd 936e 99bc 455f 123d
000002e0: 1df5 be3c 753f 2f3b 8c41 fa3c 3b9b c63d
000002f0: 24bb 0a3e da78 673d fb28 2bbd f106 02bd
00000300: 3434 153e 2e15 b03d 4315 783d 1a41 7f3d
00000310: 4b0d c63d 2a0f 89bc 7629 9dbd bebe 28be
00000320: 0477 0dbd b452 60bd f3b6 3e3c 71fd 29bc
00000330: 19c5 2abd d7fd b93d dc6f bd3c 2bd0 033d
00000340: a9b4 003e 593a 62bd a756 e6bc a782 c63d
00000350: 23cd cc3d 3c13 0d3d 57ca 9a3d 605b 303d
00000360: 3cfb 9a3d 2064 d03c 6adb 0cbd 5cd8 103d
00000370: fb2e a33c 9e5f f13d 51b6 b43d 27a1 a63d
00000380: b3a3 543d 5e32 553d 1eb7 d63d 06e5 b63d
00000390: 3be4 54bd fd87 e63c 518d 5f3c 8b33 a6ba
000003a0: 8fa9 c63c d577 8a3d 9c9b 7e3d 0eed 053e
000003b0: f620 df3d fa39 f23b e414 b7ba f951 78ba
000003c0: 5a96 a13d 7c1a 313d 2136 c73d 1a5a 0d3e
000003d0: 1299 1c3e 6761 9d3d eb44 f23c e9e0 73bd
000003e0: f9bd 3dbd 3a2b dc3d ae99 9f3c a0d7 1b3d
000003f0: 0cac aa3d 21f8 4a3d 944d 943d 3f20 2c3d

bias f4 [5]
-0.07863777 -0.07363082 -0.055098705 -0.040982995 -0.054152556
00000000: d70c a1bd c1cb 96bd 2eaf 61bd c9dd 27bd
00000010: 12cf 5dbd
