archived_data/b1_r0_m8_s100--2019-03-03--165203.596044/episode_27500.model (torch_old, 268278 bytes, 8 tensors)

weight f4 [6, 6, 3, 3]
0	0xbdca8d72	-0.0989026
1	0x3db34d66	0.08754997
2	0x3bd91f60	0.0066260546
3	0x3e06b8b4	0.13156396
4	0xbc83cb8c	-0.01608827
5	0xbccb4998	-0.024815366
6	0xbc41c5b8	-0.011826925
7	0x3dbcc88c	0.09217939
8	0xbd449d42	-0.048001535
9	0x3da1e2fb	0.07904621
10	0x3d2df734	0.04247208
11	0x3d8127ce	0.0630642
12	0xbd8466d9	-0.06464929
13	0x3c2bb5b1	0.01048033
14	0xbcef583f	-0.029216884
15	0xbda18547	-0.07886749
16	0xbd68b7c3	-0.056815874
17	0xbd0f04c9	-0.034916673
18	0x3de60639	0.11231656
19	0x3d9d3a08	0.07677084
20	0x3da9d9f0	0.082935214
21	0x3d3480a6	0.044068
22	0x3dd7c444	0.105354816
23	0x3da85839	0.08219952
24	0x3d2fb2c1	0.042895082
25	0x3d641d2f	0.055691894
26	0x3cf66e2d	0.030081833
27	0xbd8d4be6	-0.06899242
28	0xbd694c9a	-0.05695782
29	0xbdd4395e	-0.103625044
30	0x3d2189fc	0.039438233
31	0x3dc3904c	0.09549007
32	0xbd7e0bc6	-0.062022947
33	0x3da8119c	0.08206484
34	0xbdf81bbf	-0.12114667
35	0x3d2cb560	0.04216516
36	0xbc3e1df5	-0.011603822
37	0xbda8bbd5	-0.08238951
38	0x3dd07dc4	0.10180238
39	0xbe6d6dfd	-0.23186488
40	0xbdd043c0	-0.10169172
41	0xbe62a154	-0.22131854
42	0xbed0fa5e	-0.40816015
43	0xbe992cf1	-0.299171
44	0xbddebc4b	-0.10875758
45	0x3d88023b	0.066410504
46	0x3d433e6b	0.04766695
47	0x3c68c386	0.014206773
48	0x3d865cb3	0.0656065
49	0x3d4abdd1	0.04949743
50	0xbd9d79c1	-0.07689238
51	0x3dd8665c	0.105663985
52	0xbd23c239	-0.039980147
53	0x3c4439cb	0.01197667
54	0xbdcaba2c	-0.09898791
55	0x3dd96410	0.106147885
56	0x3da07e60	0.07836604
57	0xbde06422	-0.10956599
58	0x3df0cba8	0.11757594
59	0xbd8aa148	-0.06769043
60	0x3dbb4032	0.09143104
61	0x3cc15dc8	0.023604289
62	0xbda268c6	-0.0793014
63	0xbd785c3a	-0.06063483
64	0xbd123f3c	-0.035704836
65	0x3d533aa3	0.051569592
66	0x3c90481f	0.017612515
67	0xbce0ebc5	-0.027456174
68	0x3d2df115	0.042466242
69	0x3d3964a6	0.045262
70	0x3cf4f2cf	0.029900936
71	0xbbaa7ab8	-0.0052026175
72	0xbb78d84f	-0.0037970727
73	0x3caaf209	0.020867364
74	0x3da6dc77	0.08147519
75	0x3d3230b5	0.043503482
76	0x3c9180ce	0.017761614
77	0x3dae9c3f	0.08525895
78	0x3d46d267	0.0485405
79	0x3d4f335e	0.050586097
80	0x3d72a2f2	0.059237428
81	0x3db28dfc	0.087184876
82	0xbb9aaf80	-0.0047206283
83	0x3d84e880	0.06489658
84	0x3c3e3840	0.011610091
85	0x3d7a5da0	0.061124444
86	0x3db8cc36	0.09023325
87	0xbd592e32	-0.05302257
88	0xbc718ee0	-0.014743537
89	0x3dc0e89a	0.09419365
90	0x3e1dd167	0.15411912
91	0xbec93351	-0.39296964
92	0xbe9a7223	-0.30165204
93	0x3c4fba50	0.012678698
94	0xbe32f4a6	-0.17476138
95	0x3e1d1c68	0.15342867
96	0x3d955f6a	0.072935894
97	0x3e59fd59	0.2128805
98	0x3ea6bd6c	0.32566392
99	0x3e23cc6f	0.15995954
100	0xbdce6fb6	-0.10079901
101	0x3d6240e9	0.055237684
102	0x3d37415c	0.044740066
103	0x3d22ba4a	0.03972844
104	0xbdb96669	-0.09052736
105	0xbda3120a	-0.07962425
106	0xbc930f38	-0.017951593
107	0x3dab1472	0.08353509
108	0x3d7b56e8	0.061362177
109	0x3d031fb0	0.03201264
110	0xbd8593b0	-0.0652231
111	0x3dcea446	0.100899264
112	0x3d2cd4c4	0.042195097
113	0xbdaf57dc	-0.0856168
114	0xbdd17d1b	-0.1022894
115	0x3e084814	0.13308746
116	0xbcb8e104	-0.022568233
117	0x3d47e2f7	0.048800435
118	0x3ce41704	0.027843006
119	0x3c65d777	0.014028422
120	0xb9cdbf08	-0.00039242976
121	0xbcb21931	-0.021740528
122	0xbe2561f1	-0.16150643
123	0xbbf9a16e	-0.007618121
124	0x3d629fcd	0.05532818
125	0xbc74487f	-0.014909863
126	0x3d15d8d2	0.03658373
127	0x3d84e69e	0.06489299
128	0x3ddd196c	0.107958645
129	0x3cd1259c	0.025530629
130	0x3d677416	0.056507193
131	0xbd92b77f	-0.07163905
132	0x3d3eae51	0.04655296
133	0x3dc6ecd5	0.09713141
134	0x3d23784f	0.039909657
135	0xbd1f7250	-0.038927376
136	0xbdabcec6	-0.08389048
137	0xbd4ca4c0	-0.049961805
138	0xbc7496d0	-0.014928535
139	0xbcae9838	-0.021312818
140	0x3de41e42	0.11138584
141	0xbd2ab95c	-0.04168068
142	0x3ccb8528	0.024843767
143	0x3d1a2a1c	0.037637815
144	0x3d960f70	0.07327163
145	0x3d778cb9	0.060436938
146	0x3e728daa	0.23686853
147	0x3e0bd6e1	0.13656189
148	0x3e792d56	0.243337
149	0xbea08270	-0.31349516
150	0x3dad219e	0.084536776
151	0x3e20afa9	0.15692009
152	0xbe15a238	-0.14612663
153	0x37e49e33	2.7253385e-05
154	0xbd4ab03f	-0.049484488
155	0xbb900a41	-0.0043957536
156	0xbd0d47e2	-0.03449238
157	0xbd486e1b	-0.04893313
158	0xbe1437b8	-0.1447438
159	0xbcdf9104	-0.027290829
160	0xba4b44f9	-0.0007754113
161	0xbdad62d7	-0.08466118
162	0x3dca3b2a	0.09874566
163	0x3e020ec0	0.12700939
164	0x3dfe7cec	0.12426171
165	0x3deff824	0.11717251
166	0xbd89d1a0	-0.06729436
167	0xbb3dbf80	-0.0028953254
168	0xbe02a927	-0.12759839
169	0xbcc21eac	-0.023696266
170	0xbdc3eeb4	-0.095670134
171	0xbc87a4cd	-0.016558075
172	0xbc4fd3de	-0.01268479
173	0x3ca5ac69	0.020223813
174	0x3d020df3	0.031751584
175	0x3c9a0252	0.018799935
176	0xbcaf610d	-0.021408582
177	0x3b2e4d67	0.0026596428
178	0xbca527fa	-0.020160664
179	0x3cd447fc	0.025913231
180	0x3d93db52	0.072195664
181	0x3dca5544	0.098795444
182	0x3e0a3a5d	0.13498826
183	0x3e11aa6c	0.14225167
184	0x3e29cb43	0.16581444
185	0x3e0cae79	0.13738431
186	0x3d7bfde7	0.061521437
187	0x3db793dc	0.08963749
188	0x3deaab15	0.114584126
189	0x3d734688	0.059393436
190	0xbd43c904	-0.047799125
191	0x3d9eff32	0.077635184
192	0xbd106d0a	-0.035260238
193	0xbe037bff	-0.1284027
194	0xbdad3f7e	-0.08459376
195	0xbe031ce2	-0.12803987
196	0xbd95a4ef	-0.07306849
197	0xbe046752	-0.12930039
198	0x3da91823	0.08256557
199	0x3e387aeb	0.1801564
200	0xbe9f799d	-0.3114747
201	0xbcaff273	-0.021477913
202	0xbecb20fc	-0.39673603
203	0xbe7c76fb	-0.24654762
204	0x3e4499ca	0.19199291
205	0x3e5644ba	0.20924655
206	0xbe9f821b	-0.3115395
207	0x3c98b7b3	0.018642282
208	0xbd559ab9	-0.05214951
209	0x3d494565	0.049138445
210	0xbdfc096d	-0.12306485
211	0x3d163433	0.036670875
212	0x3c8dad34	0.017294504
213	0x3df4f858	0.1196143
214	0xbcdd1f05	-0.02699233
215	0x3d57b3b5	0.052661616
216	0x3db52fca	0.08847006
217	0x3df86900	0.12129402
218	0x3cad7bc8	0.021177188
219	0x3ca69b00	0.020337582
220	0x3dcfbc1c	0.10143301
221	0x3df9ab10	0.12190831
222	0xbd212aa6	-0.039347313
223	0x3d5a9c10	0.05337149
224	0x3d4bbb48	0.049739152
225	0x3d208e25	0.03919806
226	0xbcc743ab	-0.024324259
227	0x3d1d4509	0.038395915
228	0xbcd68403	-0.026185995
229	0xbb76a5cc	-0.0037635444
230	0x3d66e15b	0.05636726
231	0xbe1b7b13	-0.15183668
232	0xbdaa7ce4	-0.08324602
233	0xbd89ab91	-0.06722177
234	0x3c06fc26	0.008238828
235	0x3d74d381	0.05977202
236	0x3d9ce27f	0.07660388
237	0xbc19ff23	-0.009399208
238	0x3cd3d7c7	0.025859727
239	0x3d98d135	0.07461778
240	0xbc6082be	-0.013703046
241	0xbd2783fc	-0.040897354
242	0xbd218340	-0.03943181
243	0x3df20df0	0.118190646
244	0x3d7109d0	0.05884725
245	0x3d807356	0.062719986
246	0xbd5601aa	-0.05224768
247	0xbcc0e3a4	-0.023546048
248	0xbde48e33	-0.11159935
249	0xbdfd2aad	-0.123616554
250	0xbdd55378	-0.10416311
251	0xbdda2f81	-0.10653592
252	0x3d0bfaeb	0.03417484
253	0x3e36368d	0.17794247
254	0x3ea3481c	0.31890953
255	0x3da6a4c4	0.08136895

bias f4 [6]
0	0xbdfb592d	-0.12272868
1	0xbe0cded9	-0.13756885
2	0x3d99c761	0.07508732
3	0xbe471b03	-0.19443898
4	0xbafcf2f5	-0.0019298481
5	0xbd735378	-0.059405774

weight f4 [16, 6, 3, 3]
0	0xbe103a81	-0.14084817
1	0xbc919eb8	-0.017775878
2	0xbe05eb45	-0.1307803
3	0x3c9299c3	0.017895585
4	0xbcb1bb67	-0.021695806
5	0xbdede54e	-0.11616002
6	0xbe0b1b9e	-0.13584754
7	0xbc8fe009	-0.017562883
8	0x3db88b9d	0.09011004
9	0xbd8ef016	-0.069793865
10	0x3d642d1e	0.05570709
11	0x3e1e8e15	0.15483887
12	0xbd269c13	-0.040676188
13	0xbde03211	-0.109470494
14	0xbe2cbc41	-0.16868688
15	0xbb9308fc	-0.004487155
16	0xbdb9d7f9	-0.09074397
17	0xbdd52d85	-0.10409073
18	0x3da7e353	0.081976555
19	0x3e096092	0.13415745
20	0xbd62cd5b	-0.055371623
21	0x3c5b32ab	0.013378779
22	0x3d5024c7	0.050816324
23	0x3d8a2127	0.067446046
24	0x3c3ae99a	0.011408234
25	0x3dbd1785	0.092330016
26	0x3e46d0b9	0.19415559
27	0xbd5f9226	-0.054582737
28	0xbe15e030	-0.14636302
29	0xbd659bb4	-0.056056693
30	0x3e2633a9	0.16230644
31	0x3cec06ae	0.028811779
32	0x3d65be5e	0.05608975
33	0xbdeb7803	-0.114975
34	0xbe5cc40e	-0.21559164
35	0x3e641a2f	0.22275613
36	0xbd7cade0	-0.061689258
37	0xbc029960	-0.007971138
38	0xbd5921ba	-0.05301068
39	0xbccbd819	-0.024883317
40	0xbd6ee314	-0.058322027
41	0x3dae1761	0.08500553
42	0xbd85e30b	-0.06537446
43	0xbd28c6bd	-0.041205157
44	0x3ddbb0ef	0.10727107
45	0x3d322512	0.043492384
46	0xbe037c1e	-0.12840316
47	0x3e0f494e	0.13992807
48	0xbd87b121	-0.066255815
49	0x3b97526c	0.0046179798
50	0x3d742442	0.05960489
51	0x3de21a9c	0.110402316
52	0xbd4aa48d	-0.049473334
53	0x3d6396dd	0.055563796
54	0xbdf894b0	-0.12137735
55	0xbd0d27b7	-0.034461703
56	0x3dcd143f	0.10013627
57	0xbc85f7fe	-0.016353603
58	0x3d4dab7e	0.050212376
59	0xbcbb17b9	-0.02283846
60	0xbdcf44d8	-0.10120553
61	0x3dd10077	0.10205167
62	0x3da533cc	0.0806652
63	0x3db85da8	0.090022385
64	0x3cd8cff6	0.026466351
65	0xbe0383c0	-0.12843227
66	0xbd7005ea	-0.05859939
67	0x3d799cf8	0.060940713
68	0xbd2c802c	-0.04211442
69	0xbc2c60a7	-0.010521091
70	0x3de27ec8	0.11059338
71	0x3dfd8e4b	0.12380656
72	0x3de0d661	0.109783895
73	0xbe5bd2d2	-0.2146714
74	0xbc906c0d	-0.017629648
75	0xbde59d5e	-0.11211656
76	0xbde8127d	-0.11331651
77	0x3e739b55	0.23789723
78	0xbda96f9e	-0.082732424
79	0x3d49d0a8	0.049271256
80	0x3da4c17d	0.080447175
81	0x3e3d95df	0.18514203
82	0x3e5aa501	0.21352006
83	0x3e21ca7e	0.15799901
84	0x3e240990	0.16019273
85	0x3d46ae0a	0.04850582
86	0x3e0ba21f	0.13636063
87	0xbcaa10f4	-0.020760037
88	0xbe2121c7	-0.15735541
89	0x3dbb67bb	0.091506444
90	0x3d98d9b2	0.07463397
91	0x3ddd00a8	0.10791141
92	0x3d267375	0.040637452
93	0x3d4919a3	0.049096715
94	0xbd3cce61	-0.046095256
95	0xbe22c007	-0.15893565
96	0x3d8d0239	0.068851896
97	0xbdd0be4b	-0.101925455
98	0xbe788ed4	-0.24273235
99	0x3e184949	0.14871706
100	0xbe4e6f11	-0.20159556
101	0xbdbf734b	-0.09348162
102	0x3dac5056	0.0841376
103	0xbe0aadcd	-0.13542862
104	0x3d3378fd	0.043816555
105	0xbe05dcb2	-0.1307247
106	0x3d1c9dd1	0.038236443
107	0x3e4944e9	0.19655193
108	0x398d1af4	0.00026913697
109	0x3d815567	0.06315117
110	0xbe6d8e81	-0.23198892
111	0xbe3d01e0	-0.18457747
112	0x3e03f7aa	0.12887445
113	0x3c7127de	0.014718978
114	0xbcac4b60	-0.021032035
115	0x3d2b791d	0.04186355
116	0x3db98028	0.09057647
117	0xbd7e065f	-0.062017795
118	0xbe08b3e7	-0.13349877
119	0x3dfa43b3	0.12219944
120	0x3caf51be	0.021401282
121	0xbc9ddd1c	-0.019270472
122	0x3dbe703a	0.09298749
123	0xbdd9cdcd	-0.106349565
124	0xbd9404fe	-0.07227515
125	0xbe1e126a	-0.15436712
126	0xbe0cbe9f	-0.13744591
127	0x3d3d1538	0.046162814
128	0xbe6293fe	-0.22126767
129	0xbdf4eeca	-0.11959608
130	0xbd30eba6	-0.04319348
131	0xbe3059e1	-0.17221786
132	0x3e071a9d	0.13193746
133	0x3d018e91	0.031630103
134	0x3b642c67	0.0034816505
135	0x3e0b9191	0.13629748
136	0xbe0cef58	-0.13763177
137	0xbd9b0e4d	-0.07571087
138	0x3c1ac7f0	0.009447083
139	0xbe76ac56	-0.24089178
140	0xbe2eea6d	-0.17081614
141	0xbe320fde	-0.17388865
142	0xbd3a447f	-0.04547548
143	0x3d816cff	0.063196175
144	0xbda879db	-0.08226367
145	0xbd790ba4	-0.060802117
146	0xbe66dc69	-0.22545017
147	0x3d782995	0.06058653
148	0xbd797e28	-0.060911328
149	0x3d47b09a	0.048752405
150	0x3d40bbc7	0.04705408
151	0xbda6dc46	-0.081474826
152	0x3db17d52	0.08666481
153	0x3d1fc703	0.03900815
154	0x3e4707c2	0.19436553
155	0xbd0a1b26	-0.033717297
156	0xbccde228	-0.025132254
157	0x3e354bfb	0.17704765
158	0x3c999251	0.018746527
159	0x3d9cabf5	0.07649986
160	0xbe29deea	-0.16588941
161	0xbc32c4cf	-0.010911181
162	0xbbd785ae	-0.006577215
163	0xbe6a49bb	-0.22879688
164	0x3d6eb0e8	0.05827418
165	0xbdf098a9	-0.117478676
166	0xbdd4fd85	-0.103999175
167	0x3cdbf98e	0.026852395
168	0xbe3d1b2d	-0.18467398
169	0xbd227be1	-0.03966892
170	0xbe0ed990	-0.13950181
171	0xbd486910	-0.04892832
172	0x3de1fe94	0.11034885
173	0x3dc7c956	0.09755199
174	0x3e1198a4	0.14218384
175	0xbb9d94e9	-0.0048090112
176	0x3de13ac4	0.10997537
177	0x3caaa8e8	0.020832494
178	0x3e2db713	0.16964369
179	0x397ba09b	0.00023997056
180	0xbe43562e	-0.19075844
181	0xbe680996	-0.22659907
182	0xbe50c7a2	-0.20388654
183	0xbd2b2365	-0.0417818
184	0xbd852e63	-0.06502988
185	0xbd78973a	-0.060691096
186	0x3cc27351	0.023736628
187	0xbe7ed580	-0.24886131
188	0xbd122a91	-0.035685126
189	0xbdba22ea	-0.090886906
190	0x3d8bd6bf	0.06828069
191	0x3d94467f	0.072400086
192	0x3e817905	0.25287643
193	0xbdba1154	-0.09085336
194	0xbe9a3dc3	-0.30125245
195	0x3d9c95b7	0.07645743
196	0xbe247f37	-0.16064154
197	0xbdc0a0ac	-0.09405646
198	0xba62f809	-0.0008658176
199	0x3e23ed9e	0.16008613
200	0xbd9fa645	-0.07795385
201	0xbe1eaf39	-0.1549653
202	0xbd981450	-0.07425749
203	0xbc83bfc7	-0.016082658
204	0xbdaf687e	-0.08564852
205	0x3d333b57	0.043757763
206	0x3e049eb4	0.12951165
207	0xbcdeb403	-0.027185446
208	0xbe27f010	-0.1640017
209	0xbe6582dc	-0.224132
210	0x3d16fadf	0.036860343
211	0xbe0d8b8b	-0.13822763
212	0x3d738c0a	0.059459724
213	0xbe2ee5cd	-0.1707985
214	0xbdfa5ed5	-0.12225119
215	0xbdd7a51a	-0.105295375
216	0xbd77962d	-0.060445953
217	0xbd305c65	-0.043056864
218	0xbc01e6d1	-0.007928566
219	0x3ca69095	0.020332614
220	0x3e4e2f4a	0.20135227
221	0x3ded0f98	0.1157524
222	0x3da58f38	0.080839574
223	0xbd4ea668	-0.050451666
224	0xbceebbbd	-0.029142255
225	0x3d2c1e87	0.0420213
226	0xbd2cf0b0	-0.042221725
227	0x3d4ea1ec	0.05044739
228	0xbdc06ff3	-0.093963526
229	0x3ce57bdc	0.028013162
230	0x3da1fb45	0.07909254
231	0x3b74640f	0.0037291085
232	0x3d86f252	0.06589188
233	0x3e469852	0.19394043
234	0xbe801cb4	-0.250219
235	0xbc906ab8	-0.017629012
236	0xbd659776	-0.056052648
237	0xbe8bf52a	-0.27335483
238	0x3dd3b922	0.10338046
239	0xbe16de30	-0.14733195
240	0x3deaa6ac	0.114575714
241	0x3d58a2bd	0.052889574
242	0xbd726e48	-0.059187204
243	0xbdb50a8e	-0.08839904
244	0x3e6b486f	0.2297685
245	0xbe46f149	-0.1942798
246	0xbd5a08b0	-0.05323094
247	0xbe017531	-0.12642361
248	0xbd2bd18e	-0.041947894
249	0x3e1df735	0.15426333
250	0xbaa660f3	-0.0012693688
251	0x3e0bc4fa	0.1364936
252	0xbc557212	-0.013027685
253	0xbbb5d9d9	-0.005549651
254	0x3d594b5e	0.05305039
255	0xbdb39814	-0.08769241

bias f4 [16]
0	0xbce0a364	-0.02742166
1	0x3c8248cc	0.015903853
2	0x3d160c6d	0.036632944
3	0x3cf77fe6	0.030212354
4	0xbbb1438f	-0.005409665
5	0xbdef12a3	-0.116734765
6	0xbc51c4da	-0.012803281
7	0x3d6eac3c	0.058269724
8	0xbdac5431	-0.08414496
9	0x3c3aa62b	0.011392157
10	0x3d557851	0.052116696
11	0x3b585df9	0.0033014996
12	0xbdc8fcd6	-0.0981385
13	0x3d923c2a	0.07140382
14	0x3cf6d5a7	0.030131174
15	0x3e043f0c	0.12914675

weight f4 [32, 16, 3, 3]
0	0xbe062e4c	-0.13103598
1	0xbe5b4ce5	-0.21416052
2	0xbe35a026	-0.17736873
3	0xbd6be2f6	-0.057589494
4	0x3d027019	0.031845186
5	0xbdbb0fce	-0.09133874
6	0xbe22a95f	-0.15884922
7	0xbbeef78b	-0.007292693
8	0xbe0e1af7	-0.13877474
9	0xbe856de6	-0.26060408
10	0xbe3b3cca	-0.18284908
11	0x3db27fe8	0.087158024
12	0xbdbb2024	-0.0913699
13	0xbc2df90d	-0.01061846
14	0x3e54f6a1	0.20797206
15	0xbb1eb599	-0.0024217127
16	0x3e150f52	0.14556625
17	0x3e52abdf	0.20573376
18	0xbe076893	-0.13223486
19	0xbda8964a	-0.0823179
20	0xbe0de114	-0.13855392
21	0xbdb2ad21	-0.08724428
22	0x3cda6ea3	0.026664084
23	0x3de49d8d	0.11162863
24	0x3c9689f4	0.018376328
25	0x3dfdc3d6	0.12390868
26	0x3d91dbe8	0.07122022
27	0xbd59c918	-0.053170294
28	0xbd981b6c	-0.07427105
29	0x3c19712d	0.009365362
30	0x3d08eb1d	0.033427346
31	0x3e1d50c4	0.15362841
32	0x3d2c1902	0.042016037
33	0x3dc8c63f	0.098034374
34	0x3e200975	0.15628608
35	0x3cb5e188	0.022202268
36	0xbdd5cc9c	-0.10439417
37	0xbcecbec3	-0.028899556
38	0x3d472669	0.048620615
39	0xbe74d9e7	-0.23911248
40	0xbe06581f	-0.13119553
41	0x3d1bfec8	0.038084775
42	0xbdb5bad7	-0.088735275
43	0x3cefa9ff	0.029255865
44	0x3cf0b895	0.02938489
45	0xbc86d9b5	-0.016461233
46	0xbe1e3a01	-0.15451814
47	0xbdf37046	-0.11886649
48	0xbe50aaf9	-0.20377721
49	0xbdb73654	-0.08945909
50	0x3bc2fd80	0.0059506297
51	0xbde5fe74	-0.11230174
52	0xbe974586	-0.2954523
53	0xbe190638	-0.14943779
54	0x3cba7bc6	0.022764098
55	0xbe047d3f	-0.12938403
56	0xbe9c8047	-0.30566618
57	0xbde0e019	-0.10980243
58	0xbe489034	-0.19586259
59	0xbee87ef4	-0.45409358
60	0xbd1c5344	-0.038165346
61	0xbd55d7c4	-0.052207723
62	0xbead6097	-0.33862755
63	0xbd985dbd	-0.07439754
64	0xbe432ee5	-0.19060858
65	0xbd978ce0	-0.07399917
66	0xbce3d733	-0.027812576
67	0xbd8b1cb9	-0.06792588
68	0xbc965da3	-0.018355196
69	0xbc857945	-0.016293177
70	0x3d29c2b3	0.041445445
71	0xbc88294d	-0.016621256
72	0xbe9487a2	-0.2900973
73	0xbd65f923	-0.0561458
74	0xbe817c47	-0.2529013
75	0xbc52829f	-0.012848525
76	0xbd813016	-0.06308
77	0xbe4cb8ef	-0.19992422
78	0xbe109f77	-0.14123331
79	0xbe4c244b	-0.1993572
80	0xbe9bc3e4	-0.3042289
81	0xbe2b02a4	-0.16700226
82	0xbd5a7106	-0.053330444
83	0x3d83765c	0.0641906
84	0xbd9b7b28	-0.075918496
85	0x3ddf143f	0.108925335
86	0x3d3a2b54	0.045451477
87	0x3cfc1be2	0.030775014
88	0xbd6e2209	-0.058137927
89	0xbcf13039	-0.02944194
90	0xbdcbbab8	-0.09947723
91	0x3cdfefb5	0.02733598
92	0x3c3daa0e	0.011576189
93	0xbd793abe	-0.060847037
94	0x3d66fd54	0.056393936
95	0x3e5f131f	0.21784638
96	0xbd8e3a09	-0.06944663
97	0x3bdc7d0b	0.0067287735
98	0x3d88f255	0.06686846
99	0xbe2ad34f	-0.1668217
100	0xbb5ac7de	-0.003338329
101	0x3da8b415	0.08237473
102	0x3dffdea6	0.12493639
103	0x3d70e127	0.058808472
104	0x3d7277d4	0.05919631
105	0x3d3b075e	0.045661323
106	0x3d386c42	0.045025118
107	0x3e2c57b2	0.16830328
108	0xbbc430cb	-0.005987262
109	0xbd314a17	-0.04328355
110	0xbdad7c9f	-0.08471035
111	0x3da9b24d	0.08285961
112	0xbc1aa4ad	-0.009438676
113	0x3dc41199	0.09573669
114	0x3e2b72b4	0.16742975
115	0x3e889ccd	0.2668213
116	0x3dbce31e	0.09223007
117	0xbde957db	-0.1139371
118	0xbbc3d964	-0.0059768427
119	0xbd64782b	-0.055778664
120	0x3aa1d577	0.0012346943
121	0x3db81abf	0.089894764
122	0x3d225f71	0.0396418
123	0xbc0264dd	-0.007958618
124	0xbcde0af1	-0.027104827
125	0x3c83b5fe	0.016077992
126	0xbdeb3cba	-0.11486192
127	0xbdddaef4	-0.10824385
128	0xbce14198	-0.027497098
129	0xbd02cce0	-0.031933665
130	0x3d969921	0.07353426
131	0x3d419dce	0.047269635
132	0xbd868b4d	-0.06569538
133	0x3bde4e81	0.0067842607
134	0xbdd25720	-0.10270524
135	0xbdbc44a0	-0.09192777
136	0xbcfaf607	-0.030634893
137	0xbdaa9995	-0.08330075
138	0xbcb2d091	-0.021827968
139	0xbd78ec18	-0.06077203
140	0x3de82a68	0.11336213
141	0x3cbed379	0.023294197
142	0x3cde0229	0.02710064
143	0x3ac69d62	0.0015153105
144	0x3d188b61	0.037242297
145	0x3d980639	0.07423062
146	0xbe6481ff	-0.22315215
147	0x3e03702a	0.12835756
148	0x3b2e4451	0.0026591013
149	0xbd4969a6	-0.04917302
150	0x3bb9d1be	0.005670755
151	0xbc8b233c	-0.016984574
152	0x3d3d9ee3	0.046294104
153	0x3d848b97	0.06471937
154	0x3d345213	0.044023585
155	0x3c3d90f7	0.011570207
156	0x3db4f722	0.08836199
157	0x3d3e9085	0.046524543
158	0xbd28179d	-0.041038144
159	0x3d796cd2	0.060894795
160	0x3d0b19ee	0.033960275
161	0x3cc57efe	0.024108406
162	0xb9bce3c2	-0.00036027847
163	0x3dc413b9	0.09574074
164	0xbd017bc7	-0.031612184
165	0x3db2ed9d	0.087367274
166	0x3d988044	0.0744634
167	0xbc9234a3	-0.017847365
168	0x3d37c2f0	0.04486364
169	0xba9c3001	-0.0011916162
170	0x3ca24692	0.019809041
171	0xbdc12235	-0.094303526
172	0xbdc0e8eb	-0.094194256
173	0xbe0a1b31	-0.13486935
174	0xbe05e2d8	-0.13074815
175	0xbe3cb99b	-0.18430178
176	0xbde8c03e	-0.11364792
177	0xbd53bfa0	-0.05169642
178	0x3ced5742	0.028972272
179	0x38fee41a	0.00012154151
180	0x3e15a7fa	0.14614859
181	0x3d12e275	0.035860498
182	0x3e09d670	0.13460708
183	0xbdae6f80	-0.08517361
184	0xbd552ac3	-0.052042734
185	0x3db5b50b	0.08872422
186	0xbe1e4a05	-0.15457924
187	0xbbdbe31d	-0.0067104236
188	0x3ccfd45b	0.025369814
189	0x3c42b079	0.011882895
190	0x3d0e62a0	0.034762025
191	0x3dcfb879	0.10142607
192	0x3e49c8ea	0.19705549
193	0x3e1dc9ce	0.15409014
194	0x3e2ed381	0.1707287
195	0x3dc540c9	0.096314974
196	0x3db86a77	0.090046816
197	0x3e014607	0.1262437
198	0x3d88334f	0.06650411
199	0x3c8bdcc6	0.017073046
200	0xbdd81b28	-0.10552055
201	0xbc84a2a3	-0.016190832
202	0x3de0f6fd	0.10984609
203	0xbcef69ff	-0.029225348
204	0x3d93f5db	0.072246276
205	0x3e0570e5	0.13031347
206	0x3d33431e	0.04376518
207	0x3d40ccba	0.047070242
208	0x3bdd6815	0.0067567923
209	0x3d81d941	0.06340266
210	0x3da16a6c	0.078816265
211	0x3dc7f574	0.09763613
212	0x3d9d80ef	0.07690608
213	0x3b8418b6	0.004031266
214	0xbb923ff5	-0.0044631907
215	0x3dd53856	0.10411136
216	0x3d5fcead	0.05464046
217	0x3d332c34	0.043743327
218	0x3d9d26f3	0.076734446
219	0xbc3cac91	-0.011515752
220	0x3d847008	0.06466681
221	0x3d6a7610	0.0572415
222	0xbd8b5ef3	-0.068052195
223	0x3db31836	0.08744852
224	0x3e1f30f9	0.15546025
225	0xbd2a9eb8	-0.041655272
226	0xbdbadd39	-0.09124226
227	0xba940f4b	-0.0011296062
228	0xbdc0b14e	-0.09408818
229	0xbe6b9d77	-0.23009287
230	0xbd6b7297	-0.05748233
231	0xbd79b0f7	-0.060959782
232	0xbdf98d18	-0.121851146
233	0xbd894209	-0.06702048
234	0xbb804c08	-0.0039153136
235	0xbda1056c	-0.07862362
236	0x3d6ec150	0.058289826
237	0xbd8d0e2e	-0.0688747
238	0xbdbb6a66	-0.09151153
239	0x3cf26bcb	0.029592415
240	0x3d942684	0.07233909
241	0x3bb22e8b	0.0054376773
242	0x3c5246c5	0.012834256
243	0x3d3842e6	0.044985674
244	0xbd26c6db	-0.040716987
245	0xbe4532b7	-0.19257627
246	0xbb9128f3	-0.0044299304
247	0xbe05efc3	-0.13079743
248	0x3de6efc4	0.112762004
249	0x3dc6ddb3	0.097102545
250	0x3d54802b	0.051880043
251	0x3b18b4bc	0.0023301085
252	0x3e080911	0.13284709
253	0x3d9c3a76	0.07628338
254	0xbc01155a	-0.007878626
255	0x3e308ec5	0.17241962

bias f4 [32]
0	0x3d87b9d6	0.06627242
1	0xbd37fe6a	-0.044920363
2	0xbce3ad36	-0.027792554
3	0xbdb8bd40	-0.090204716
4	0x3cef1e30	0.0291892
5	0xbd052c16	-0.032512747
6	0xbc9d2190	-0.019181043
7	0xbd0c18d6	-0.034203373
8	0xbd1ae7c6	-0.037818693
9	0xbdcf45d5	-0.10120741
10	0xbd6a3b15	-0.05718525
11	0xbd58fccf	-0.052975472
12	0xbd908c9a	-0.070580676
13	0xbdecffcc	-0.11572227
14	0xbd912eec	-0.07089028
15	0xbd7e98f4	-0.062157586
16	0x3d202a4e	0.039102845
17	0xbd1c0eca	-0.03810004
18	0xbc8e1697	-0.017344756
19	0x3cecf061	0.028923215
20	0xbca75e81	-0.020430805
21	0xbd033f77	-0.032042947
22	0xbd3240bd	-0.04351877
23	0x3c2fb71b	0.010724808
24	0xbca2d5d8	-0.01987736
25	0xbd0a8ce1	-0.03382576
26	0xbda8557a	-0.08219428
27	0x3bd1e980	0.006406009
28	0x3c825b81	0.015912773
29	0xbb878108	-0.004135255
30	0xbd1a0f75	-0.037612397
31	0x3b8cbf62	0.0042952755

weight f4 [5, 11552]
0	0xbdd551f8	-0.10416025
1	0xbddfac7c	-0.10921571
2	0xbde0e23b	-0.1098065
3	0xbdbde20a	-0.09271629
4	0xbdcb8741	-0.09937907
5	0xbdd2a829	-0.1028598
6	0xbdc69673	-0.09696665
7	0xbdbe5555	-0.092936195
8	0xbdcc418b	-0.09973439
9	0xbdcac50a	-0.099008635
10	0xbdc3396e	-0.09532438
11	0xbdbf16e1	-0.09330536
12	0xbdaeb5a3	-0.08530738
13	0xbdd7b975	-0.1053342
14	0xbdc45a91	-0.09587587
15	0xbdd77766	-0.1052082
16	0xbdba4021	-0.09094263
17	0xbddeedc5	-0.10885195
18	0xbde93536	-0.11387102
19	0xbdd40a1f	-0.10353493
20	0xbdb79533	-0.08964004
21	0x3c9fe3dd	0.019517833
22	0x3d942fef	0.07235705
23	0x3e5d2cb0	0.21599078
24	0x3e6d5db8	0.23180282
25	0x3e5a3fa6	0.21313342
26	0x3e64042c	0.22267216
27	0x3e561725	0.20907266
28	0x3ecc05bd	0.39848128
29	0x3e7910f8	0.2432288
30	0x3e8a8e1d	0.2706155
31	0x3e9371d1	0.28797773
32	0x3e92b2a0	0.28651905
33	0x3e611577	0.21980844
34	0x3e9baac9	0.30403736
35	0x3ebe33f8	0.37149024
36	0x3e16dfa7	0.14733754
37	0x3d4a7e2f	0.049436744
38	0xbdc6ac53	-0.09700837
39	0xbd58be09	-0.052915607
40	0x3d78d34b	0.06074838
41	0x3e4935ee	0.19649479
42	0x3e00fd9d	0.12596746
43	0x3e9a6723	0.30156812
44	0x3e247db2	0.16063574
45	0x3e364bb7	0.1780232
46	0x3e64eb94	0.22355491
47	0x3e870797	0.26372978
48	0x3e39ed1e	0.1815686
49	0x3e782d5f	0.24236058
50	0x3e94c999	0.29060057
51	0x3ece2dc3	0.40269288
52	0x3ed94b66	0.42440337
53	0x3ec76d03	0.38950357
54	0x3ec2f467	0.3807709
55	0x3e34f447	0.1767131
56	0x3e58a6a0	0.21157312
57	0xbdda07f3	-0.106460474
58	0xbdccb904	-0.099962264
59	0x3de97fb4	0.114013106
60	0x3e12dc55	0.14341862
61	0x3e7fd789	0.24984564
62	0x3e948a74	0.2901188
63	0x3e2f92d3	0.17145853
64	0x3e6b63e5	0.22987325
65	0x3e42bdf8	0.1901778
66	0x3e5ab1db	0.21356909
67	0x3e3d3b1d	0.18479581
68	0x3e094bcf	0.13407825
69	0x3e797554	0.24361163
70	0x3e7757aa	0.24154535
71	0x3e727492	0.2367728
72	0x3ebc5cab	0.3678945
73	0x3efd7995	0.49506822
74	0x3eaeff13	0.3417898
75	0x3e62b1cb	0.22138135
76	0xbdbe4e18	-0.09292239
77	0xbdb1f24a	-0.08688791
78	0x3e0502a1	0.12989284
79	0x3e6e7629	0.23287262
80	0x3eb3b580	0.3509941
81	0x3e34d072	0.1765764
82	0x3e741a29	0.23838104
83	0x3e7af89a	0.24508896
84	0x3e718104	0.23584372
85	0x3e6d2d01	0.23161699
86	0x3ea3f0e2	0.32019717
87	0x3e33cfe0	0.17559767
88	0x3e8bec13	0.27328548
89	0x3e3bdb77	0.18345438
90	0x3e804716	0.25054234
91	0x3eab1634	0.33415377
92	0x3e998950	0.29987574
93	0x3ebade9b	0.3649796
94	0x3e2bb686	0.16768846
95	0xbdb991a0	-0.09060979
96	0xbdade1d5	-0.0849034
97	0x3d5b769a	0.053579904
98	0x3e802f6a	0.25036174
99	0x3e62e496	0.22157511
100	0x3e4e49dd	0.20145364
101	0x3e7a7538	0.24458778
102	0x3e83eef6	0.2576825
103	0x3ea32eeb	0.31871733
104	0x3ea4f356	0.322169
105	0x3e90caf3	0.28279838
106	0x3e563d01	0.20921709
107	0x3e4db471	0.20088364
108	0x3e56581b	0.20932047
109	0x3e080123	0.13281684
110	0x3e5802fb	0.21094887
111	0x3eca1b13	0.3947378
112	0x3ef187cd	0.4717392
113	0x3e823127	0.25428125
114	0xbd95bc0a	-0.07311256
115	0xbcbab8fd	-0.022793287
116	0x3e2f7d97	0.17137752
117	0x3df8b36a	0.121435955
118	0x3e4b42d7	0.19849716
119	0x3e282c46	0.16423139
120	0x3dbc0912	0.091814175
121	0x3e838577	0.25687763
122	0x3e558dc7	0.20854865
123	0x3e2ff473	0.17183094
124	0x3d3096a6	0.04311242
125	0x3e269721	0.16268589
126	0x3dfc7b48	0.123282015
127	0x3e33fbf8	0.17576587
128	0x3e3b6444	0.18299967
129	0x3e5a43b7	0.21314894
130	0x3ec16157	0.37769577
131	0x3edefed5	0.43553796
132	0x3e6f7df3	0.2338789
133	0xbd9abe6b	-0.075558506
134	0x3ce6784d	0.028133536
135	0x3de01dff	0.10943221
136	0x3e558f6b	0.20855491
137	0x3e7a68a0	0.24453974
138	0x3e23f06c	0.16009682
139	0x3e299809	0.16561903
140	0x3e2658f0	0.16244864
141	0x3de0f173	0.10983553
142	0x3cc8e0bc	0.024521224
143	0x3dcb56da	0.09928675
144	0x3d98fdb4	0.07470265
145	0x3e13ed0b	0.14445893
146	0x3e439592	0.19100025
147	0x3e09ab30	0.13444209
148	0x3e25d89a	0.16195908
149	0x3e8b2397	0.2717559
150	0x3eb1fcb6	0.34763116
151	0x3dc82104	0.09771922
152	0xbdda6155	-0.10663096
153	0x3c9412ba	0.018075336
154	0x3e0d7b6b	0.13816611
155	0x3e3d7c95	0.18504556
156	0x3e8f1554	0.2794596
157	0x3e43b992	0.19113758
158	0x3da9755b	0.08274337
159	0x3d9a40ae	0.07531868
160	0x3d0d8a51	0.034555737
161	0xbd584e8f	-0.052809294
162	0x3c9b7a33	0.018979168
163	0x3ca85ddb	0.020552566
164	0x3d71055e	0.05884301
165	0x3d008d6b	0.031384867
166	0x3dd0c953	0.101946495
167	0x3dd473d9	0.10373659
168	0x3e41eecb	0.18938749
169	0x3ed14b40	0.40877724
170	0x3e3deb31	0.1854675
171	0xbdcb5b5a	-0.09929533
172	0xbdfcc975	-0.123431124
173	0x3e382b16	0.17985186
174	0x3e91c04c	0.28467023
175	0x3e0b9d98	0.13634336
176	0x3e0c44ee	0.1369817
177	0x3e4ddb2b	0.20103137
178	0x3e1c160d	0.15242787
179	0x3b1ad12d	0.0023623214
180	0xbe74fa6c	-0.23923653
181	0xbe027d0b	-0.12743013
182	0xbd0968c7	-0.03354719
183	0xbdb2af82	-0.08724882
184	0x3d4e582e	0.050377063
185	0x3e0f018d	0.13965435
186	0x3e0c8901	0.13724138
187	0x3dd9cd93	0.10634913
188	0x3ebb7c74	0.36618388
189	0x3e74e1be	0.23914239
190	0xbd8d1e22	-0.06890513
191	0xbdcbef40	-0.09957743
192	0x3e5f044b	0.21778981
193	0x3e566cb9	0.20939912
194	0x3e5eb355	0.21748097
195	0x3e242ca9	0.16032661
196	0x3e21bf20	0.15795565
197	0x3e3773ad	0.1791522
198	0xbbd059b2	-0.0063583488
199	0xbe1132c3	-0.1417952
200	0xbe101a51	-0.14072539
201	0xbda05660	-0.07828975
202	0xbc83619d	-0.016037757
203	0x3e00d62b	0.12581699
204	0x3e081999	0.13291015
205	0x3e0854fb	0.13313667
206	0x3df76613	0.12080016
207	0x3e89d73d	0.26922026
208	0x3e75cc18	0.24003637
209	0xbda8599d	-0.082202174
210	0xbd9c299a	-0.07625122
211	0x3e2de4f7	0.16981874
212	0x3e8d2549	0.2756751
213	0x3e18cbee	0.14921543
214	0x3e404803	0.1877747
215	0x3dfdd0a4	0.12393311
216	0x3e28727f	0.16449927
217	0x3e4a0670	0.19729018
218	0x3d7901bc	0.06079267
219	0x3ce04b39	0.027379619
220	0x3c40d26b	0.011768918
221	0x3dbaf339	0.09128422
222	0x3e6311a8	0.22174704
223	0x3e56be2d	0.20970984
224	0x3e6d8c51	0.23198058
225	0x3e477767	0.19479142
226	0x3edba77d	0.4290122
227	0x3e863fc2	0.26220518
228	0xbda4d2a0	-0.08047986
229	0x3d6f8708	0.058478385
230	0x3e05c5a6	0.13063678
231	0x3e11dd4f	0.14244579
232	0x3e6073a4	0.21919113
233	0x3e8c8ab4	0.27449572
234	0x3e1ff6f6	0.15621552
235	0x3e5ae480	0.21376228
236	0x3e0a9a77	0.13535486
237	0x3ddedee6	0.10882358
238	0x3de3bacc	0.11119613
239	0x3c8ccb86	0.017186891
240	0x3e0c8eb3	0.1372631
241	0x3e0a5ac3	0.13511185
242	0x3e585af3	0.21128444
243	0x3e2bf76c	0.16793603
244	0x3ea34eb0	0.3189597
245	0x3ec7db92	0.39034706
246	0x3e876511	0.26444295
247	0xbdbf05f9	-0.09327311
248	0xbd9e3c27	-0.07726317
249	0x3e7ba01c	0.24572796
250	0x3de76012	0.11297621
251	0x3e4243b9	0.18971147
252	0x3e8b8bd3	0.27255115
253	0x3e99e71c	0.30059135
254	0x3e4b82ad	0.19874068
255	0x3e606419	0.21913184

bias f4 [5]
0	0xbdd13b30	-0.10216367
1	0xbdc548e5	-0.09633044
2	0xbda3e771	-0.08003128
3	0xbd8d55f4	-0.0690116
4	0xbda9bc47	-0.08287864
