archived_data/b1_r0_m8_s100--2019-03-03--165203.596044/episode_5500.model (torch_old, 268278 bytes, 8 tensors)

weight f4 [6, 6, 3, 3]
000000 72 8d ca bd 66 4d b3 3d 60 1f d9 3b b4 b8 06 3e
       -0.0989026 0.08754997 0.0066260546 0.13156396
000010 8c cb 83 bc 98 49 cb bc b8 c5 41 bc 8c c8 bc 3d
       -0.01608827 -0.024815366 -0.011826925 0.09217939
000020 42 9d 44 bd b3 78 e8 3d 3d 7d 2b 3d 91 97 58 bd
       -0.048001535 0.113511465 0.041867483 -0.05287892
000030 7a b6 8d bd c1 45 8d 3d 07 ca 29 bd 24 21 02 be
       -0.0691957 0.0689807 -0.041452434 -0.12707955
000040 6b e9 b2 bc 1d ae 75 bd 9a 7a e8 3d f7 92 42 3d
       -0.021839818 -0.0599805 0.113515094 0.047503438
000050 56 70 ba 3d 2a e6 2a 3d 91 cf 1a 3e 1c cf 9a 3c
       0.09103458 0.041723408 0.15118243 0.018897586
000060 ce 12 c1 3d b7 ac dc 3d c5 87 8d 3c e6 4b 8d bd
       0.09427415 0.1077513 0.017276654 -0.06899242
000070 9a 4c 69 bd 5e 39 d4 bd fc 89 21 3d 4c 90 c3 3d
       -0.05695782 -0.103625044 0.039438233 0.09549007
000080 c6 0b 7e bd 9c 11 a8 3d bf 1b f8 bd 60 b5 2c 3d
       -0.062022947 0.08206484 -0.12114667 0.04216516
000090 2e 2d 24 3e c0 af 94 3b ff 8e d2 bd 9d 1b 67 be
       0.1603286 0.0045375526 -0.102811806 -0.22569127
0000a0 1e fe 8b 3d cb 90 12 be 7e cc d3 be fd 9f 97 be
       0.068355784 -0.14313047 -0.41366953 -0.2961425
0000b0 9f b8 1f bd 63 aa ed 3d d0 02 3e 3d 8d fb 36 3d
       -0.038994428 0.11604764 0.0463894 0.04467349
0000c0 5f 6b 37 3d c8 18 5c 3c bb 1c c2 bd 22 58 ee 3d
       0.04478013 0.013433643 -0.09478136 0.11637904
0000d0 af 5f 67 bd 0a 41 a2 ba 2c ba ca bd 10 64 d9 3d
       -0.056487735 -0.0012379002 -0.09898791 0.106147885
0000e0 60 7e a0 3d 22 64 e0 bd a8 cb f0 3d 48 a1 8a bd
       0.07836604 -0.10956599 0.11757594 -0.06769043
0000f0 32 40 bb 3d c8 5d c1 3c c6 68 a2 bd 1b db 7e bd
       0.09143104 0.023604289 -0.0793014 -0.062220674
000100 b2 d1 5a bd fd 68 93 3d a3 72 87 3d f2 91 bd bc
       -0.053422637 0.07197759 0.06613662 -0.023140881
000110 c0 91 cf 3d 54 7b 8a 3d be be ab 3d 8a 2e af 3c
       0.101352215 0.06761804 0.083859906 0.021384496
000120 ec 15 83 bc 97 90 35 bd d5 98 2f 3d de 47 5f bb
       -0.016001664 -0.044327345 0.04287036 -0.0034069936
000130 69 08 14 3d dd d2 d8 3d 4a ac 2f 3d 55 7e d8 3d
       0.036140833 0.10587094 0.042888917 0.10570971
000140 00 30 e3 3c fc 8d b2 3d 80 af 9a bb 80 e8 84 3d
       0.02773285 0.087184876 -0.0047206283 0.06489658
000150 40 38 3e 3c a0 5d 7a 3d 36 cc b8 3d 32 2e 59 bd
       0.011610091 0.061124444 0.09023325 -0.05302257
000160 e0 8e 71 bc 9a e8 c0 3d 86 b8 63 3e ad d6 b6 be
       -0.014743537 0.09419365 0.22238359 -0.3571066
000170 38 bc 99 be 09 80 75 3e 52 e8 31 be 97 98 f9 3d
       -0.30026412 0.23974623 -0.1737378 0.12187307
000180 6e c9 1a 3e dc 5a 41 3e cc 95 7a 3e a4 b3 e3 3d
       0.15115902 0.18882316 0.24471205 0.11118248
000190 87 85 86 bd 6b 91 c6 3d 7b eb 7a 3c 3c 46 9c 3d
       -0.06568437 0.09695705 0.015314932 0.07630584
0001a0 24 57 9e bd 2f 34 45 bd 17 6f 40 ba 30 f7 96 3d
       -0.077314645 -0.04814547 -0.00073407724 0.07371366
0001b0 e8 56 7b 3d b0 1f 03 3d b0 93 85 bd 46 a4 ce 3d
       0.061362177 0.03201264 -0.0652231 0.100899264
0001c0 c4 d4 2c 3d dc 57 af bd 1b 7d d1 bd 14 48 08 3e
       0.042195097 -0.0856168 -0.1022894 0.13308746
0001d0 04 e1 b8 bc 5b 40 92 3d 12 b1 55 3d 08 31 42 3d
       -0.022568233 0.07141181 0.05217082 0.04741004
0001e0 48 45 80 3c b3 48 35 3b 3e 2b 2e be 17 10 16 bc
       0.015658036 0.002766174 -0.17008683 -0.00915911
0001f0 37 5f 9f 3d 30 45 b0 3c f4 ee 8d 3d 5b 26 80 3d
       0.07781833 0.021517366 0.06930342 0.06257316
000200 d0 6d 79 3c 1a b1 57 3d ce 48 66 3b fb b3 d9 bd
       0.015223935 0.05265913 0.003513861 -0.10630032
000210 29 ac 14 3d 37 73 58 3d 34 f7 14 3c 50 72 1f bd
       0.036296997 0.052844252 0.009092141 -0.038927376
000220 c6 ce ab bd c0 a4 4c bd d0 96 74 bc 38 98 ae bc
       -0.08389048 -0.049961805 -0.014928535 -0.021312818
000230 42 1e e4 3d 5c b9 2a bd 28 85 cb 3c 1c 2a 1a 3d
       0.11138584 -0.04168068 0.024843767 0.037637815
000240 48 a4 27 bd 3e b4 8e 3b 7f 14 6a 3e 0e cb 39 3e
       -0.040928155 0.0043549826 0.22859381 0.18143865
000250 52 f7 f1 3d b4 b2 a6 be a1 54 01 3d a9 e9 4b 3e
       0.11814751 -0.32558215 0.03157485 0.19913353
000260 5a 79 ae bd 85 c1 7c 3d 48 cc 58 bc 68 d5 9f 3c
       -0.0851924 0.061707992 -0.013232298 0.01951094
000270 55 3d 8a bd 2c 79 12 be 74 02 3f be 55 88 94 bd
       -0.067499794 -0.14304036 -0.1865328 -0.07252566
000280 b9 a1 48 3d 76 2e b0 bd 2a 3b ca 3d c0 0e 02 3e
       0.048982356 -0.08602612 0.09874566 0.12700939
000290 ec 7c fe 3d 24 f8 ef 3d a0 d1 89 bd 80 bf 3d bb
       0.12426171 0.11717251 -0.06729436 -0.0028953254
0002a0 27 a9 02 be ac 1e c2 bc b4 ee c3 bd 3b 6a a5 bc
       -0.12759839 -0.023696266 -0.095670134 -0.020192256
0002b0 63 d3 32 3b 79 d2 45 3d a4 09 00 3d f9 ac 9a b9
       0.002728664 0.048296425 0.031259194 -0.00029502044
0002c0 12 32 9d bc 09 8b 89 b9 98 f7 f1 bb b0 5c 86 3d
       -0.019188914 -0.00026234266 -0.007384252 0.065606475
0002d0 c8 84 97 3c a0 f9 50 3d d4 53 9f 3d 9e b8 a6 3d
       0.018495932 0.05101931 0.07779661 0.08140682
0002e0 25 e0 3d 3d 6c 0a 08 3a 96 c2 97 3c a7 45 8b 3c
       0.04635634 0.0005189541 0.018525403 0.017000986
0002f0 95 02 bd 3d 88 46 73 3d 04 c9 43 bd 32 ff 9e 3d
       0.09229008 0.059393436 -0.047799125 0.077635184
000300 0a 6d 10 bd ff 7b 03 be 7e 3f ad bd e2 1c 03 be
       -0.035260238 -0.1284027 -0.08459376 -0.12803987
000310 ef a4 95 bd 52 67 04 be dd 43 a3 3c 75 36 0c 3d
       -0.07306849 -0.12930039 0.01992982 0.03423162
000320 cb d0 8e be bb 0b 26 be 43 e9 ce be 8a 50 82 be
       -0.2789367 -0.16215412 -0.4041234 -0.2545207
000330 86 b4 1d 3e d7 e8 61 3e 1f 54 9d be 19 16 3e 3d
       0.15400895 0.22061478 -0.30728242 0.046407793
000340 62 f7 3c bd fc d1 90 3d c9 8f 02 be c7 18 91 3d
       -0.04613436 0.07071301 -0.12750162 0.07084804
000350 27 60 86 3d db 6f 02 3e 24 9e 30 bd 4e 1d fd 3a
       0.06561308 0.12737982 -0.043119565 0.0019311102
000360 ca 2f b5 3d 00 69 f8 3d c8 7b ad 3c 00 9b a6 3c
       0.08847006 0.12129402 0.021177188 0.020337582
000370 1c bc cf 3d 10 ab f9 3d a6 2a 21 bd 10 9c 5a 3d
       0.10143301 0.12190831 -0.039347313 0.05337149
000380 48 bb 4b 3d b5 60 aa 3d 59 c2 6b bd 9e 19 c7 3d
       0.049739152 0.08319227 -0.05755839 0.09721683
000390 d0 40 82 bc 97 18 ca bc 75 3c b9 3d bb 7b 0c bc
       -0.015900046 -0.024669928 0.090447344 -0.0085744215
0003a0 ea 09 18 bd 6a 63 0c bd 12 f0 04 3d f2 c5 2c bd
       -0.03711883 -0.034274496 0.03245551 -0.042180963
0003b0 55 56 8b bb 66 8a 4c 3d 81 b2 84 bd 6f 2e d2 3c
       -0.004252235 0.049936675 -0.064793594 0.025656907
0003c0 ba 3f 9a bd fc 5b 18 bd 66 de 6f bd f0 0d f2 3d
       -0.07531686 -0.037197098 -0.058561705 0.118190646
0003d0 d0 09 71 3d 56 73 80 3d aa 01 56 bd a4 e3 c0 bc
       0.05884725 0.062719986 -0.05224768 -0.023546048
0003e0 33 8e e4 bd ad 2a fd bd 78 53 d5 bd 81 2f da bd
       -0.11159935 -0.123616554 -0.10416311 -0.10653592
0003f0 83 21 51 3e 2f ef 3c 3d 57 b2 79 3e 8d 94 3c 3e
       0.2042294 0.04612654 0.24384438 0.18416043

bias f4 [6]
000000 33 9d e4 bd d9 4d c2 bd bf f6 b7 3d f3 28 1d be
       -0.11162796 -0.094875045 0.0898261 -0.15347652
000010 7f 6a 15 3d 06 f2 45 bd
       0.036478516 -0.048326515

weight f4 [16, 6, 3, 3]
000000 8f c3 e9 bd d0 7e e4 3d 98 ad a3 3d 42 a7 51 3d
       -0.11414253 0.11157 0.07992095 0.0511849
000010 d6 84 27 bd d6 39 75 bd ec 46 24 be 1b f7 17 bd
       -0.040898167 -0.05986961 -0.1604268 -0.037100893
000020 f0 d1 0e 3e 97 e3 f1 bb ca 14 cc 3d 3d 82 e1 3d
       0.13947272 -0.007381867 0.09964903 0.11011169
000030 02 15 6d bd af 88 9a bb e7 1d 68 bc b9 fe cb bd
       -0.057881363 -0.004716001 -0.0141672855 -0.09960694
000040 c9 b2 6d bd 53 96 e2 bd 5d 4d 76 3d a7 bb dd 3d
       -0.05803183 -0.11063828 0.060132373 0.108268075
000050 c7 52 8a bc c1 3c 8e bc b4 77 34 3d 87 db 95 3d
       -0.016885174 -0.017362954 0.04405947 0.07317262
000060 c2 55 90 bd d2 08 b9 3d c5 cf 4f 3e 06 92 8c 3c
       -0.07047607 0.090348855 0.20294102 0.017159473
000070 a9 d9 5e bd 68 21 1f bd a4 75 50 3e ec 45 14 3e
       -0.054406796 -0.038850218 0.20357376 0.14479798
000080 3d 3f f3 bb 4e 87 07 be 12 cb 56 be 8a fa 41 3e
       -0.00742331 -0.13235208 -0.20975903 0.1894323
000090 42 76 2b bd 7f a1 a9 bd be 4e c9 bd 29 2b c0 bc
       -0.041860826 -0.08282756 -0.09829472 -0.02345808
0000a0 d5 92 89 bd 34 b1 58 3d b9 3c 77 bc 86 89 ec bc
       -0.06717459 0.05290337 -0.015090161 -0.02887417
0000b0 99 30 30 3e f0 63 7b 3d e2 56 15 bd 84 86 02 3e
       0.17206039 0.061374605 -0.03645981 0.12746626
0000c0 b5 02 e6 bd 4d 3a e2 bc 7e b0 62 bd a7 a0 df 3c
       -0.11230985 -0.02761569 -0.055344097 0.027298285
0000d0 ca 53 f7 bd 5f c0 60 bc 7f 24 1f be 74 3d 3b bd
       -0.12076528 -0.01371774 -0.15541266 -0.045712903
0000e0 06 0f 13 3e 97 9a 32 3d 40 9e 39 3d 7d 75 d1 3a
       0.143612 0.04360446 0.045316935 0.0015980449
0000f0 1a aa ab bd e0 3f a3 3d bb ec f3 3d d1 d7 ee 3d
       -0.08382054 0.079711676 0.11910387 0.116622575
000100 8f 5f 17 3d ce c3 61 be 95 ff 61 bd 73 d8 9b 3d
       0.036956366 -0.2204735 -0.055175383 0.07609644
000110 de 96 3d bd 65 a6 0a be e7 0f 50 3d 6c b4 52 3d
       -0.046286456 -0.13540037 0.050796416 0.051441595
000120 f7 5a 8b 3d f6 66 5b be 48 8e 01 bb 7d 60 2c be
       0.068044595 -0.21425995 -0.0019768644 -0.16833682
000130 77 2c ed bd 47 aa 4f 3e be 63 36 be 0a 1f 89 bd
       -0.115807466 0.202798 -0.17811486 -0.06695373
000140 86 13 cd 3c 32 d3 32 3e 18 3c 2f 3e 56 4c 22 3e
       0.025033724 0.17463377 0.17112768 0.15849432
000150 8d 3b 02 3e f7 b1 2e 3c 09 76 fa 3d c9 b5 8b 3d
       0.1271803 0.010662547 0.12229545 0.06821782
000160 01 17 2f be 9c d5 3b 3d a3 a6 c5 bb 10 5b 61 3d
       -0.17098619 0.04585801 -0.0060318275 0.055018485
000170 f0 27 2a 3d fe c4 af 3c f7 95 de bd a0 9d 19 be
       0.041541994 0.021456238 -0.10868447 -0.15001535
000180 b5 73 a0 3d bc 8f 26 be ca 1b 17 be 6b 32 14 3e
       0.07834569 -0.16265768 -0.14756694 0.14472358
000190 7a 5b 75 be 26 61 e2 bd 19 50 8b 3d 2c 0e 4c be
       -0.23960677 -0.11053686 0.06802387 -0.19927281
0001a0 24 28 e8 bc 90 b4 3d bd d4 8c 5a 3d 4a e0 f3 3d
       -0.028339453 -0.046314776 0.05335696 0.11908014
0001b0 f6 75 74 3d eb eb d8 3d ed 3b 0b be a6 a5 23 be
       0.05968281 0.10591873 -0.13597079 -0.15981159
0001c0 a0 bd d7 3d ec c1 9e 3c 25 90 4e 3d d1 4a 66 3c
       0.10534215 0.019379579 0.050430436 0.014055924
0001d0 cc 17 cb 3d bb 77 b1 bd c1 c6 11 be 30 16 c3 3d
       0.09916648 -0.08665415 -0.14235975 0.09525716
0001e0 86 dd 91 bc f6 04 58 3d 13 0c d7 3d 99 49 23 be
       -0.017805826 0.052739106 0.1050035 -0.15946044
0001f0 49 3a 35 bd 0a 5b 4d be a8 a0 14 be 89 84 5d 3d
       -0.04424504 -0.2005426 -0.1451441 0.054081473
000200 8a a7 18 be 98 b8 0a be 90 b7 95 bd 45 14 ce bd
       -0.14907661 -0.1354698 -0.073104024 -0.1006246
000210 95 78 e9 3d 9d 65 b5 bb 85 41 97 bd f3 d2 fe 3d
       0.11399952 -0.005535795 -0.07385544 0.12442579
000220 00 cf a2 bd 4d f7 12 3d ee 8a 2f bd 08 43 46 be
       -0.07949638 0.035880376 -0.042857103 -0.19361508
000230 6e c1 24 be d5 ed 43 be 8e 5a 91 bd 25 11 3a 3c
       -0.16089413 -0.19133694 -0.0709735 0.011356627
000240 a7 6b c1 bd d3 54 91 ba eb 00 29 be dd d0 ec 3d
       -0.09444361 -0.0011087902 -0.16504256 0.11563275
000250 55 5f cd 3c 33 be af 3c be 50 f7 3d 4c aa 00 be
       0.025069872 0.021452999 0.12075947 -0.12564963
000260 55 46 bd 3c 06 41 a5 3c f9 73 4c 3e 90 5b 73 bc
       0.023104826 0.020172607 0.19966115 -0.014853373
000270 94 fb 75 bd b5 1d 12 3e be b8 46 bd f6 a5 bc 3d
       -0.060054377 0.14269145 -0.048516028 0.09211342
000280 8c aa 15 be 59 2f 42 bd 26 0e 30 ba fd 06 7e be
       -0.1461584 -0.047408435 -0.00067159755 -0.24807353
000290 6f 0b ce 3d 94 57 b1 bd 7d 55 53 be 3f d7 a1 3c
       0.100607745 -0.08659282 -0.2063808 0.019755958
0002a0 d2 a4 6e be 1c ff 70 bd ec fd 05 be 2f 50 8c 3c
       -0.23305061 -0.05883704 -0.13085145 0.017128078
0002b0 52 9c 02 3e 2a 9d b9 3b 8b 32 08 3e d2 50 13 bd
       0.12754944 0.0056644874 0.1330053 -0.035965748
0002c0 54 e0 93 3d 17 bc 53 bc 7c 51 1e 3e 8c fb d5 bc
       0.072205216 -0.012923262 0.15460771 -0.026120923
0002d0 15 b7 38 be 4f a8 bb bb 67 db 14 3b 76 54 fb bc
       -0.1803859 -0.005726851 0.0022713782 -0.030679923
0002e0 42 bc f2 3d 4e b8 12 3e 0a 44 9f 3c a2 a6 cd bd
       0.118523136 0.14328119 0.019441623 -0.10041548
0002f0 76 63 2a 3c 9b 55 c5 b9 d8 d4 7c 3d d0 af 2f 3e
       0.01039969 -0.0003763855 0.06172642 0.17156911
000300 e8 93 07 3e 02 ac 89 bd 19 65 37 bd 6e d5 d5 3d
       0.13240016 -0.06722261 -0.04477415 0.10441099
000310 15 5f 41 be 32 01 d2 bd b7 41 0a bc 1b ba 1b 3e
       -0.18883927 -0.10254134 -0.008438519 0.15207712
000320 e9 c9 a4 bc b6 c6 2b bd 75 72 a2 bd cc 1b c8 bc
       -0.02011581 -0.041937552 -0.07931987 -0.024427317
000330 6c 9d 9e bd f8 86 b9 3d 5d 44 1b 3e 62 c7 03 bd
       -0.077448696 0.09058946 0.15162797 -0.03217257
000340 b0 1d 52 3c d7 96 b4 bd 66 d4 66 bc ac 4a 62 be
       0.012824461 -0.08817833 -0.014088726 -0.22098798
000350 3c 6f be 3c a2 30 62 be df a1 30 be 93 71 28 be
       0.0232464 -0.22088864 -0.17249249 -0.16449575
000360 93 cc 4b bd c3 be 6f bd 3f 8a 55 bd 95 89 8c 3d
       -0.049755644 -0.058531534 -0.052133795 0.06862179
000370 47 16 5a 3e 19 32 bf 3d 7b 86 0c 3e d1 68 22 bc
       0.2129756 0.09335727 0.13723175 -0.0099126855
000380 74 53 a3 bc 51 03 fa bc 91 cf d5 bd 46 7d 65 bd
       -0.019937254 -0.03051916 -0.10439981 -0.056027673
000390 49 3f 40 be 04 80 1d bc 92 5f 55 3d ae d2 aa bb
       -0.18774141 -0.009613041 0.052093096 -0.0052131033
0003a0 6b 1b 20 3d 45 b8 fa 3d 7d 2a 44 be 49 dc a5 bd
       0.039088648 0.12242178 -0.19156833 -0.08098657
0003b0 67 e3 90 bc 59 21 72 be 84 e4 9f 3d 6b a8 8d bb
       -0.017686559 -0.23645534 0.07807258 -0.0043230555
0003c0 f1 f8 2d 3c fe a0 0e bd e5 86 e3 bb bb 29 eb 3c
       0.010618434 -0.034821503 -0.006943571 0.028706422
0003d0 b4 34 73 3e 25 c7 81 bd 96 0b 7c 3c 86 27 85 bd
       0.23750573 -0.06336812 0.015383622 -0.06501679
0003e0 1f c0 07 bd 62 34 4e 3e 20 39 13 bc 0a e7 01 3e
       -0.033142205 0.2013717 -0.008985788 0.1268579
0003f0 e2 da 32 be 08 7c 05 be 09 8b 13 3d b1 3d f7 bd
       -0.1746631 -0.13035595 0.036021266 -0.120723136

bias f4 [16]
000000 18 85 8c bc 55 7a d8 3b 0b 35 68 3d a0 bf dc 3c
       -0.017153308 0.00660638 0.05669121 0.026946843
000010 92 67 1c b9 98 f4 b1 bd 92 09 e5 bb f6 81 8f 3c
       -0.00014915902 -0.08689231 -0.0069896663 0.017518025
000020 ef b6 49 bd 73 35 2b 3d c2 78 23 3d 67 7d 52 3d
       -0.049246725 0.04179902 0.039910085 0.051389124
000030 3f b0 8e bd 94 e7 de 3d 69 6a e8 3c a1 84 e0 3d
       -0.0696721 0.10884014 0.028371053 0.10962797

weight f4 [32, 16, 3, 3]
000000 ea 7d 34 bc 73 be dc bd f2 d3 be bd 9e 1f 06 3c
       -0.011016348 -0.10778513 -0.09317769 0.008186249
000010 2d fd c3 3c 75 41 3c 3d 43 79 41 bd fe d3 83 3c
       0.023924435 0.045960862 -0.047234785 0.016092297
000020 4b c7 1e bd 25 ab a9 bd 7c 97 bc bd d2 50 68 3d
       -0.03876428 -0.08284596 -0.09208581 0.0567177
000030 30 10 9b 3d 61 85 94 bd c3 5d cd 3d c1 ac 9c 3c
       0.07571447 -0.072520025 0.10027649 0.019125344
000040 fc 89 2f 3c 45 06 93 3d c5 d7 1f bd 33 39 1e bd
       0.01071405 0.0717893 -0.039024133 -0.03862877
000050 aa 2f cb bd d2 2f 72 bd 20 f9 b7 bc 65 f9 79 3d
       -0.099212006 -0.059127636 -0.02245766 0.061028857
000060 1a be 6d bc 6e 78 a6 3d d5 7a 95 3b 02 90 97 ba
       -0.014510656 0.08128439 0.004561762 -0.0011563303
000070 0d ab 03 be ba ba d7 bc 9f 76 59 3c a8 7e 6f 3d
       -0.1285822 -0.026334155 0.01327291 0.0584704
000080 04 6e 35 38 c6 70 16 bd 7f 6b 06 3d ea 8d eb bc
       4.3256223e-05 -0.036728643 0.03281736 -0.028754193
000090 7d ed fe bc 0e cf 5d bd d8 84 ae bc c3 c9 fe bd
       -0.031119103 -0.05415254 -0.02130358 -0.12440827
0000a0 b9 76 b1 bd a3 eb 90 bc a3 09 06 bd 44 fc 16 3d
       -0.08665223 -0.017690485 -0.032724034 0.036861673
0000b0 90 c4 07 bd c6 83 8a bc 3e 11 ae bd 31 b5 05 bd
       -0.03314644 -0.016908538 -0.084993824 -0.0326435
0000c0 0a c5 af bd 7f 58 ae bd 5e 53 dc 39 ab b1 d9 bd
       -0.08582504 -0.08512973 0.00042023783 -0.106295906
0000d0 40 72 fa bd 7b 44 24 be 0c 2b f9 3d a2 63 91 ba
       -0.12228823 -0.16041748 0.12166414 -0.0011092315
0000e0 b1 8d d4 bd 03 76 88 3c 2d 00 9d bd 1b ca 12 be
       -0.10378588 0.016657835 -0.07666049 -0.1433491
0000f0 34 d3 75 3c c4 65 a1 3d 9f ad 07 be e1 75 4d 3c
       0.015003968 0.078807384 -0.13249825 0.012540312
000100 9e 15 02 be 54 8e 4a bd c9 a5 13 bc 00 61 95 bd
       -0.12703559 -0.04945214 -0.009011694 -0.07293892
000110 9e 4a 2e bd 73 2e 1f 3c f2 6b 51 3d a5 b5 1a bd
       -0.04255163 0.009715664 0.051128335 -0.037770886
000120 0e 24 e7 bd 7d 83 88 bd cd 54 cd bd c4 e6 ce bc
       -0.11286174 -0.066657044 -0.1002594 -0.025256522
000130 67 c8 1f be 3c 5a ec bd 2d 20 56 bc bb a0 e2 bd
       -0.15603791 -0.11540648 -0.013069195 -0.11065813
000140 57 2d 81 be 2a ec bb bd e8 ef a6 bd 93 a7 c1 3b
       -0.25229904 -0.09175904 -0.08151227 0.005909869
000150 78 12 cf bd 56 76 e9 3c 9b b1 06 bd 09 1e 70 3d
       -0.101109445 0.02849881 -0.03288422 0.058622394
000160 8c 49 95 bc ea 01 a2 bc b8 6c 32 bc fe 39 fd bc
       -0.018223546 -0.019776303 -0.010890178 -0.030911442
000170 b5 99 26 bc 71 e8 b3 bc 9b 6a 9a bc 89 84 00 3e
       -0.010168483 -0.021961423 -0.018849662 0.12550558
000180 d5 7c 32 bd 40 df 9f bd 82 db 85 3c 41 20 6f bd
       -0.04357608 -0.078062534 0.016340021 -0.05838037
000190 86 b9 ee 3b 55 6d 1d 3d 53 2e 22 3d 24 8b 27 bd
       0.0072852997 0.038434345 0.03959496 -0.04090418
0001a0 2b 45 ac bc c6 83 07 3d de 95 8b bd f4 f6 14 3d
       -0.021029076 0.033084653 -0.06815694 0.036368325
0001b0 bf 64 17 3d 2d 21 32 bd 32 0b 05 bd 3d 77 e0 bc
       0.036961313 -0.04348867 -0.03248138 -0.027400607
0001c0 31 43 56 bc 56 da bc 3d fb 67 0a 3d 52 e2 18 3c
       -0.013077543 0.09221332 0.03379057 0.009331303
0001d0 2e 99 d6 bb c0 39 22 bd 80 f8 95 bc da c3 08 bd
       -0.006549022 -0.039605856 -0.01830697 -0.033389904
0001e0 05 f4 c8 bc 30 a2 4a 3d 47 bf bd 3c 43 d9 2a bc
       -0.02453042 0.04947108 0.023162497 -0.010427776
0001f0 c8 88 48 bd b3 2c 26 bc 5e 57 8f bd 65 08 f4 bd
       -0.04895857 -0.010142493 -0.06999086 -0.11915664
000200 74 a8 e3 bc ef fa c6 bd c8 0a 2e 3d fa 8c 3b 3b
       -0.027790286 -0.097158305 0.04249075 0.0028617964
000210 59 4f bd bd 70 b0 5d 3c 05 9b be bd 71 3e bc bc
       -0.0924365 0.0135308355 -0.093069114 -0.022978993
000220 b7 25 43 3c 46 c3 26 bd 0e c6 84 bc 9f eb be bd
       0.011910847 -0.04071357 -0.016207721 -0.09322285
000230 34 59 98 3d 6d db 89 3d 33 03 26 3d 81 0a 4a bb
       0.07438889 0.06731305 0.040530395 -0.0030829015
000240 c2 a8 36 3d 5c 52 88 3d d1 d1 40 be d6 27 06 3e
       0.044594534 0.06656334 -0.18830039 0.13101134
000250 da e0 a7 bb 66 b1 3a bc df 2d 90 3c f8 76 b2 bc
       -0.00512324 -0.011394834 0.017599998 -0.021785244
000260 c6 14 b4 3d 59 bd 80 3d 2e 6e 37 3d 0b f4 7e 3c
       0.08793025 0.06286115 0.04478281 0.015561114
000270 91 b4 b2 3d e2 c4 38 3c c0 12 94 bd 61 98 bf 3c
       0.087258466 0.011277409 -0.07230139 0.02338809
000280 4d c3 d3 bc 7b 82 0e bc fc 6d b7 3c f2 b5 ac 3d
       -0.025849963 -0.008698101 0.022391312 0.08433141
000290 61 c8 85 bd 36 da d4 3d 4e 44 ac 3d 71 d7 ad bc
       -0.0653236 0.10393183 0.084114656 -0.021220895
0002a0 82 1e 38 3d 73 25 ac b9 7a 69 af 3c 9f 99 36 bd
       0.04495097 -0.00032834298 0.0214126 -0.0445801
0002b0 23 44 9f bc 0e 60 b4 bd c3 73 4d bd 36 d6 d9 bc
       -0.01944167 -0.088073835 -0.050159227 -0.026591402
0002c0 57 89 88 bd bb df 92 bd b9 30 18 bc ce 45 63 bd
       -0.066668205 -0.071715795 -0.00928896 -0.055486493
0002d0 18 3b 23 3e bd da 2d 3d da 05 df 3d 26 67 85 bd
       0.15940511 0.042444933 0.10889788 -0.06513815
0002e0 f8 c0 3d bd c6 e7 97 3d 6f 56 e1 bd ef 4b 36 ba
       -0.046326607 0.07417254 -0.11002814 -0.0006954064
0002f0 37 35 ae ba 6c 27 91 bc 03 50 b6 3b fe 34 ac 3d
       -0.0013291006 -0.017718993 0.0055637374 0.08408545
000300 05 a6 43 3e 56 5e f5 3d 63 42 08 3e 39 63 97 3d
       0.191063 0.11980884 0.13306575 0.07391972
000310 5a e3 af 3d 18 60 be 3d 3c 9f 93 3d 31 90 f2 3c
       0.08588286 0.09295672 0.07208106 0.029609771
000320 99 d7 b9 bd 2b 1e 20 bc 58 39 c8 3d f1 7d cc ba
       -0.09074325 -0.009772818 0.097765625 -0.0015601498
000330 a1 9b b0 3d 68 a4 fe 3d f6 3c 76 3d 11 a7 20 3d
       0.08623434 0.12433702 0.06011673 0.039221827
000340 14 b1 8d bb b3 0b 3c 3d fe c6 6b 3d 26 ed 95 3d
       -0.004324088 0.045909595 0.05756282 0.07320623
000350 2a 4b 63 3d b6 c6 c5 bc 1e e9 27 bd e2 d3 a5 3d
       0.055491604 -0.024142604 -0.040993802 0.08097054
000360 6e 53 33 3d dd e7 d9 3c 4e 1e 69 3d c6 7f 1a bd
       0.043780737 0.026599819 0.056913666 -0.03771951
000370 c0 4d 1e 3d 93 13 05 3d a4 c8 bb bd ca 48 48 3d
       0.038648367 0.03248937 -0.091691285 0.048897542
000380 14 78 f1 3d 51 0e 7a 3d a1 ac a7 3c 4f a8 a8 3d
       0.11790481 0.06104881 0.020468058 0.08235227
000390 75 a7 09 bd dc 10 59 bd af 76 e0 3c 6d 02 b1 bb
       -0.033606965 -0.052994594 0.027400343 -0.0054019005
0003a0 8e 81 fc bc 4b 28 af 39 19 0d bf b5 ce 4e 9b 3c
       -0.030823495 0.00033408622 -1.4234421e-06 0.018958475
0003b0 f7 23 ea 3c e1 17 04 bd 26 21 02 bd d1 aa 4b bd
       0.028581602 -0.032249335 -0.031769894 -0.04972345
0003c0 ce 26 4a 3d 1d 2c ab ba 98 6a 6a bd ac 3d b0 3d
       0.049353413 -0.0013059411 -0.057230562 0.08605513
0003d0 79 97 37 bd 35 76 26 be 5e 43 ec 3c de 09 d2 bd
       -0.04482219 -0.1625603 0.028840717 -0.10255788
0003e0 51 fe 80 3d 28 67 b8 3d 34 c5 6d 3d dc 26 6e bd
       0.06298507 0.090040505 0.058049396 -0.058142528
0003f0 e2 2b 0a 3e 99 aa b2 3d 7b d7 ac 3b 24 18 4b 3e
       0.13493302 0.08723945 0.0052747107 0.19833428

bias f4 [32]
000000 16 94 71 3d 26 80 f6 bc bc 3d 3e bc 1d 40 63 bd
       0.058979116 -0.030090403 -0.011611398 -0.055481065
000010 af bd 19 3d bd 00 03 bc 7e 04 69 3c a1 7b 0f bc
       0.037534412 -0.0079957815 0.014222262 -0.008757503
000020 cb 43 d1 bc 17 19 46 bd a9 6f c1 bc 3b e0 3f bb
       -0.025545022 -0.04836377 -0.023612814 -0.002927794
000030 1f bd e2 bc 32 cf 6a bd 6d 2b 2d bd 54 07 31 bd
       -0.02767807 -0.057326503 -0.042277742 -0.04321988
000040 63 08 dc 3c 73 e0 ea bc c2 1f 2d 3c 63 06 cb 3c
       0.026859468 -0.028671479 0.010566654 0.024783319
000050 61 11 f0 3a 2d fd aa 3c 0a 76 0c bd eb 50 b4 3c
       0.0018315726 0.020872677 -0.03429226 0.022011241
000060 83 0d a3 bc c1 a9 8c bb 7a 55 a8 bd 67 94 c4 3c
       -0.019903904 -0.004292697 -0.08219428 0.023996545
000070 36 ec 00 3d 77 10 6b 3c b3 6f d6 3a 60 f8 a1 3b
       0.03147527 0.014347187 0.0016360193 0.0049429387

weight f4 [5, 11552]
000000 ae ec 3c bd ea 34 42 bd 01 34 42 bd cf 64 fb bc
       -0.046124153 -0.047413744 -0.047412876 -0.030687718
000010 ad 27 20 bd b6 c1 2f bd 44 48 24 bd bf b5 1d bd
       -0.039100338 -0.042909347 -0.04010798 -0.038503405
000020 87 f1 19 bd 16 1c 1c bd e4 80 e7 bc 5c d5 dd bc
       -0.037583854 -0.038112722 -0.028259702 -0.027079277
000030 dc ee a0 bc 4c 63 2a bd 93 b2 01 bd 30 c9 1e bd
       -0.019645147 -0.041598603 -0.031664442 -0.038766086
000040 43 f4 d4 bc 12 23 29 bd ab cc 3a bd 29 c0 1e bd
       -0.02599538 -0.04129321 -0.045605343 -0.038757477
000050 51 44 c9 3b bb fb dc 3c 39 24 bc bb 7c f7 fb 3c
       0.006142177 0.026975503 -0.0057416228 0.030757658
000060 dc 61 a6 3d 3c f3 42 3d 79 a9 c4 3c 39 86 43 bd
       0.08124134 0.047595248 0.024006592 -0.047735427
000070 f7 8b ff 3c c0 3c 50 3c d3 85 a8 bc bf 87 f7 3d
       0.03119467 0.012709796 -0.020571625 0.120864384
000080 33 2b 00 3e c1 86 49 3c ca 9f 80 3d db dc 35 3d
       0.12516479 0.012300194 0.06280477 0.044400077
000090 9a 94 82 3d 80 73 d7 bb cb c5 f5 bc c8 7b cd 3a
       0.06376 -0.006575048 -0.030001542 0.0015677148
0000a0 9a a1 ac 3d f8 ce 45 3d 31 5d 0a 3d a5 b6 1c bb
       0.084292606 0.048293084 0.03378028 -0.0023912576
0000b0 83 ac ce bc 21 0d 5c bc c8 12 26 bd ff 5a ea 3b
       -0.025228744 -0.013430865 -0.040545255 0.007151961
0000c0 5d b9 fa 3c f9 cb 5b 3d 38 2f a1 3c 05 0d b1 3d
       0.030605966 0.05366132 0.019675836 0.086450614
0000d0 07 a6 f4 3d 58 74 bc 3d 2b ff 0d 3d 4e 60 04 bc
       0.1194573 0.09201878 0.034667175 -0.008079601
0000e0 01 e0 c3 3b 95 83 39 bd d7 f5 c6 bc 18 b8 1a bd
       0.005977631 -0.045291502 -0.024287147 -0.03777322
0000f0 0d da 04 bd d3 83 96 bc d4 be f1 bc 78 f2 a8 bc
       -0.032434512 -0.018373406 -0.02950994 -0.02062343
000100 bc 01 7d 3c 92 e4 c6 bc 98 d2 65 3c ef 12 18 bc
       0.015442308 -0.024278913 0.01402726 -0.009281858
000110 27 81 34 3c 1e 6b 93 3c 23 34 07 bd 34 17 a6 3c
       0.01101712 0.017995413 -0.033008706 0.020274736
000120 0a f2 ba 3d f7 54 40 3d a5 5e 89 3a 79 98 53 3b
       0.091281965 0.04695603 0.0010480477 0.0032286926
000130 b0 62 e9 bc 56 d9 96 bb 8c 6c 23 3c 33 94 c1 bb
       -0.02848944 -0.004603545 0.00997461 -0.0059075593
000140 11 23 ed 3c 01 2d 0f bc 78 5b cb 3c c4 c7 23 3d
       0.028947385 -0.008738757 0.02482389 0.039985433
000150 22 eb db 3c a9 b1 98 3c e2 60 23 bc 11 d6 22 bb
       0.026845518 0.018639402 -0.009971829 -0.0024846832
000160 4b 92 8d 38 ed a6 5b bc 0f be 49 3d a0 2f 68 3c
       6.750653e-05 -0.013406497 0.04925352 0.014171511
000170 f8 e9 c6 3c f9 df 19 3d 57 ee 3d bc 6c 76 01 bd
       0.024281487 0.037567113 -0.011592469 -0.031607077
000180 37 3d 29 bd 9f 75 70 bd 44 05 c3 3b e3 15 68 bd
       -0.041318145 -0.058705922 0.0059515554 -0.056661498
000190 b6 0a 7d 3b 63 f3 fc 3c 2d f8 9e bb db 1d d3 3c
       0.003861112 0.030877775 -0.004851362 0.025771072
0001a0 1e ce 2a 3d 18 c3 09 3d 47 db 4b 3d 6e f2 79 3c
       0.041700475 0.03363332 0.049769666 0.015255554
0001b0 24 d8 be 3c ad 44 94 3c 62 f6 05 3d 0d fb 4e 3d
       0.023296423 0.018099153 0.032705672 0.05053239
0001c0 16 c0 84 3d 2f b5 14 bb 44 62 a3 bc e4 75 2f ba
       0.0648195 -0.0022691002 -0.019944318 -0.0006693287
0001d0 30 3e 6a 3d 5b 5e da b9 ea a5 56 bc ef 82 2c 3d
       0.057188213 -0.000416505 -0.01310108 0.042117056
0001e0 96 63 cf bc a3 c3 47 3b c3 9f fd 3c 8a 26 20 bb
       -0.025316041 0.0030481599 0.03095997 -0.0024437034
0001f0 a1 e8 0c bd a5 d4 c3 ba 6b aa 81 38 c9 1f 22 3d
       -0.03440154 -0.0014940692 6.182942e-05 0.039581094
000200 db 6b d3 3c fa 9c 2b 3d 93 0b 30 3d 6d 9c ec 3c
       0.025808265 0.04189775 0.042979788 0.028883183
000210 2f d8 cc 3b 2f 61 ed bc 45 85 00 bd a7 91 44 3c
       0.006251357 -0.028977005 -0.031377096 0.011997617
000220 62 67 b1 bb 26 72 5c 3c 8d 0a 37 3d 2e ed f5 bc
       -0.0054139355 0.0134549495 0.044687796 -0.030020323
000230 f6 d6 87 3b a4 90 77 bc b9 11 41 bc 20 00 17 3d
       0.0041454984 -0.015110169 -0.011784011 0.036865354
000240 29 ab 25 3c 56 eb a8 3c 98 3e 01 3d 31 76 3b 3d
       0.010111609 0.02062003 0.031553835 0.045767013
000250 cc 51 c2 3c ea a9 c0 3c 01 75 e8 bb 29 da 91 bc
       0.023720644 0.023518521 -0.007094026 -0.017804222
000260 dc 95 2c bd c6 b7 1b bd 79 31 08 bd 56 e6 6f b9
       -0.042135105 -0.038017057 -0.033250306 -0.00022878623
000270 8a 67 fd bc f8 fb de 3b 41 e7 ba bb 19 fe 65 bd
       -0.03093316 0.0068049394 -0.005703837 -0.05615053
000280 a2 22 d6 bd 26 e7 3b bd 3d 7f 39 3d a4 3b a0 bc
       -0.104558244 -0.045874737 0.04528736 -0.019559689
000290 3a 34 48 3d cd 79 ac 39 3b 0d 93 3c 5b f7 07 3d
       0.048877932 0.00032897145 0.017950645 0.03319488
0002a0 a5 1c 5d 3d 7a 95 14 ba 33 3d a5 bc 89 0c 23 bd
       0.053982396 -0.00056680257 -0.020170784 -0.039806876
0002b0 b2 fe 3c bd 96 0b 3e bc 5b 54 5a bd 15 f7 32 bd
       -0.046141334 -0.011599442 -0.053303104 -0.043692667
0002c0 24 31 35 bc 3c 95 fc b9 53 62 d9 bc 73 02 95 bb
       -0.011059079 -0.00048176374 -0.026536142 -0.004547411
0002d0 2b 34 03 bd 4c b0 04 bd 7f 47 5b bc 04 9a 64 3d
       -0.032032173 -0.032394692 -0.013383745 0.055810943
0002e0 1c 9c 9b bb 50 ad 70 3c 5a b7 68 3c 56 1e 12 3d
       -0.0047488343 0.014689758 0.014203871 0.03567346
0002f0 6e 77 fd 3b e0 3a 9e bc 56 d5 c7 bc 5d 78 3a ba
       0.0077351844 -0.019315183 -0.024393719 -0.00071132724
000300 81 33 a0 3c 20 42 85 bc 14 36 a5 bc 83 6b a4 3c
       0.019555809 -0.016266882 -0.020167388 0.020070797
000310 fc 5d 95 bc 02 55 24 bd 6c a4 b0 bc d4 f2 6c bd
       -0.018233292 -0.040120132 -0.021562777 -0.057848766
000320 d6 ad 12 3c f0 37 45 bd 96 19 ff bb 98 ca 97 bc
       0.0089525785 -0.04814905 -0.0077850325 -0.018529221
000330 77 3f 9e 3c 76 79 f4 3c cd d3 7c bc 2e 8b 70 3b
       0.019317372 0.029843073 -0.015431357 0.0036704051
000340 48 32 47 3b e7 74 dc bc 45 a8 63 bc 5b 6d 1d 3d
       0.003039496 -0.026911212 -0.013895099 0.038434368
000350 82 d8 5d bd be 7c 84 bb fc 02 0c bd af 2a e5 bb
       -0.054161556 -0.0040431907 -0.034182534 -0.0069936137
000360 79 8b 9b bb a8 ce 5a bd b8 73 1b bd 08 8b 35 bc
       -0.004746851 -0.05341974 -0.037952155 -0.011080511
000370 88 4d 66 bc 2e f1 76 3d 51 86 8b bc b5 a7 91 3c
       -0.014056571 0.0602886 -0.01703182 0.017780164
000380 04 dd f4 3b ef 09 54 3c ed 14 c7 3c d3 7e 1c bd
       0.007472636 0.0129418215 0.02430197 -0.038206887
000390 ff d3 c9 bc 8d ab 04 3a 09 93 ff b9 b2 9c b8 bd
       -0.02463722 0.00050609634 -0.0004874694 -0.09014262
0003a0 a6 1a bd bc ab 93 d3 3c 46 df 46 3d 9c 6c fb bb
       -0.023083996 0.02582725 0.048552774 -0.0076728594
0003b0 2e c3 5f 3a fb 0b 96 bb 35 ec 1f bc 79 af 68 bc
       0.0008535859 -0.004579065 -0.009760906 -0.014201992
0003c0 7b f6 0a 3d 9a ff 8b 3b a0 6e cc 3c 86 77 24 3d
       0.03392647 0.0042724134 0.024955094 0.04015305
0003d0 51 a9 93 3d 51 a8 4d 3c 63 35 ef bc d5 f0 00 bd
       0.07210029 0.012552337 -0.029200261 -0.031479675
0003e0 2d 98 2d bd 0e c8 2a bd 2d 85 57 bd 8f 67 5b bc
       -0.042381454 -0.041694693 -0.05261724 -0.0133913895
0003f0 c2 66 97 3a ef c3 71 3d 0d 9f 82 bb bf fb ac 3a
       0.001155101 0.059024747 -0.0039862455 0.0013197585

bias f4 [5]
000000 ad dd 34 bd be 9d 10 bd 6b 57 b7 bc 2b 59 43 bc
       -0.04415672 -0.035306685 -0.022380551 -0.011923115
000010 22 6d c5 bc
       -0.02409989
