archived_data/b1_r0_m8_s100--2019-03-03--165203.596044/episode_46000.model (torch_old, 268278 bytes, 8 tensors)

weight f4 [6, 6, 3, 3]
-0.0989026 0.08754997 0.0066260546 0.13156396 -0.01608827 -0.024815366 -0.011826925 0.09217939
-0.048001535 0.056931224 0.043732073 0.07275438 -0.057212166 0.0010894161 -0.021217609 -0.0814661
-0.061726067 -0.018593598 0.078814656 0.1124367 0.15424433 0.021596316 0.08765243 0.076863386
-0.020623146 0.02138452 0.07121083 -0.06899242 -0.05695782 -0.103625044 0.039438233 0.09549007
-0.062022947 0.08206484 -0.12114667 0.04216516 0.013458052 -0.15327081 0.16486941 -0.2232042
-0.11298332 -0.2212964 -0.40529835 -0.27521038 -0.08278829 0.061112236 0.025091525 0.01882499
0.08415913 0.04773673 -0.058874432 0.10444569 -0.053555742 0.0034356208 -0.09898791 0.106147885
0.07836604 -0.10956599 0.11757594 -0.06769043 0.09143104 0.023604289 -0.0793014 -0.04830776
-0.0037515254 0.04719204 0.028084824 -0.02580849 0.042146295 0.036211826 0.033721026 0.020412162
0.026144084 0.016403537 0.07995459 0.050616078 0.059527118 0.09858697 0.08057268 0.10009906
0.10401559 0.087184876 -0.0047206283 0.06489658 0.011610091 0.061124444 0.09023325 -0.05302257
-0.014743537 0.09419365 0.05565243 -0.38451117 -0.28118148 0.05137447 -0.17966248 0.23941888
0.1491934 0.12963617 0.30489823 0.14411923 -0.10129921 0.053995777 0.02254967 0.08645703
-0.07599588 -0.026137428 0.011900842 0.046534896 0.061362177 0.03201264 -0.0652231 0.100899264
0.042195097 -0.0856168 -0.1022894 0.13308746 -0.022568233 0.018556457 0.017402804 0.00031530255
0.01699902 -0.025327796 -0.12658864 -0.007621388 0.03083182 -0.013017564 0.018166818 0.06035008
0.08710349 0.05197018 0.06558887 -0.01900523 0.030419895 0.10018075 0.02457637 -0.038927376
-0.08389048 -0.049961805 -0.014928535 -0.021312818 0.11138584 -0.04168068 0.024843767 0.037637815
0.033052027 0.18934277 0.18837255 0.12428598 0.2610243 -0.2952226 0.1751685 0.17188253
-0.15805449 -0.0043525854 -0.0702933 -0.004462383 -0.020015325 -0.025824372 -0.16758731 0.0075868904
0.017645165 -0.059815425 0.09874566 0.12700939 0.12426171 0.11717251 -0.06729436 -0.0028953254
-0.12759839 -0.023696266 -0.095670134 -0.016056929 -0.010770256 0.02113026 0.023506679 0.014305176
-0.015932659 0.011899426 -0.010004755 0.021265877 0.09976133 0.14601558 0.15720923 0.16973
0.2150343 0.18015102 0.08926268 0.14381102 0.16185658 0.059393436 -0.047799125 0.077635184
-0.035260238 -0.1284027 -0.08459376 -0.12803987 -0.07306849 -0.12930039 0.07891985 0.1443142
-0.32100782 0.02080883 -0.39490256 -0.24591264 0.187953 0.26671574 -0.3242025 0.029719574
-0.0290153 0.047760945 -0.13449003 0.048445415 0.0031457262 0.10776887 -0.013920831 0.05717222
0.08847006 0.12129402 0.021177188 0.020337582 0.10143301 0.12190831 -0.039347313 0.05337149
0.049739152 0.034129657 0.00549326 0.03390767 -0.077543125 -0.017573677 0.05417731 -0.3014106
-0.09128229 -0.034592073 0.0008379569 0.043895733 0.07243015 -0.0061306856 0.06430029 0.06516669
-0.012802161 -0.023364581 -0.06877053 0.118190646 0.05884725 0.062719986 -0.05224768 -0.023546048
-0.11159935 -0.123616554 -0.10416311 -0.10653592 0.08019539 0.17931463 0.27885246 0.095352136
00000000: 728d cabd 664d b33d 601f d93b b4b8 063e
00000010: 8ccb 83bc 9849 cbbc b8c5 41bc 8cc8 bc3d
00000020: 429d 44bd b730 693d 6720 333d 4000 953d
00000030: 4e57 6abd bdca 8e3a 8dd0 adbc b3d7 a6bd
00000040: 79d4 7cbd 9a51 98bc 9469 a13d 3645 e63d
00000050: 3af2 1d3e c2ea b03c 1e83 b33d 8d6a 9d3d
00000060: dff1 a8bc 972e af3c fcd6 913d e64b 8dbd
00000070: 9a4c 69bd 5e39 d4bd fc89 213d 4c90 c33d
00000080: c60b 7ebd 9c11 a83d bf1b f8bd 60b5 2c3d
00000090: 297f 5c3c 06f3 1cbe 87d3 283e a48f 64be
000000a0: cd63 e7bd 869b 62be 4483 cfbe 60e8 8cbe
000000b0: e88c a9bd d350 7a3d be8c cd3c de36 9a3c
000000c0: 9f5b ac3d 9787 433d 5126 71bd 9fe7 d53d
000000d0: 445d 5bbd 2728 613b 2cba cabd 1064 d93d
000000e0: 607e a03d 2264 e0bd a8cb f03d 48a1 8abd
000000f0: 3240 bb3d c85d c13c c668 a2bd 5cde 45bd
00000100: 27dc 75bb 714c 413d 2512 e63c 546c d3bc
00000110: 98a1 2c3d da52 143d 0f1f 0a3d 6837 a73c
00000120: 1e2c d63c b660 863c 3bbf a33d ce52 4f3d
00000130: b5d2 733d f7e7 c93d 4a03 a53d bc00 cd3d
00000140: 2006 d53d fc8d b23d 80af 9abb 80e8 843d
00000150: 4038 3e3c a05d 7a3d 36cc b83d 322e 59bd
00000160: e08e 71bc 9ae8 c03d cdf3 633d a6de c4be
00000170: 05f7 8fbe 096e 523d 71f9 37be 392a 753e
00000180: 28c6 183e 58bf 043e 9f1b 9c3e fe93 133e
00000190: f675 cfbd ad2a 5d3d 16ba b83c 6210 b13d
000001a0: baa3 9bbd 291e d6bc c0fb 423c 609b 3e3d
000001b0: e856 7b3d b01f 033d b093 85bd 46a4 ce3d
000001c0: c4d4 2c3d dc57 afbd 1b7d d1bd 1448 083e
000001d0: 04e1 b8bc b603 983c 5390 8e3c 314f a539
000001e0: 8741 8b3c 3d7c cfbc 74a0 01be d6bc f9bb
000001f0: 0393 fc3c 9f47 55bc 94d2 943c a531 773d
00000200: 5163 b23d afde 543d 7553 863d dbb0 9bbc
00000210: 2533 f93c 912b cd3d 6254 c93c 5072 1fbd
00000220: c6ce abbd c0a4 4cbd d096 74bc 3898 aebc
00000230: 421e e43d 5cb9 2abd 2885 cb3c 1c2a 1a3d
00000240: 9061 073d 12e3 413e bce4 403e a689 fe3d
00000250: faa4 853e 6b27 97be 5f5f 333e f901 303e
00000260: 09d9 21be 22a0 8ebb eff5 8fbd 2f39 92bb
00000270: 2ef7 a3bc a28d d3bc 029c 2bbe 739b f83b
00000280: 988c 903c 0501 75bd 2a3b ca3d c00e 023e
00000290: ec7c fe3d 24f8 ef3d a0d1 89bd 80bf 3dbb
000002a0: 27a9 02be ac1e c2bc b4ee c3bd d289 83bc
000002b0: ba75 30bc 5e19 ad3c 1491 c03c 4260 6a3c
000002c0: 3585 82bc cff5 423c fcea 23bc c735 ae3c
000002d0: ab4f cc3d 1c85 153e 75fb 203e b3cd 2d3e
000002e0: f431 5c3e 8279 383e 5acf b63d 3243 133e
000002f0: bbbd 253e 8846 733d 04c9 43bd 32ff 9e3d
00000300: 0a6d 10bd ff7b 03be 7e3f adbd e21c 03be
00000310: efa4 95bd 5267 04be bba0 a13d 1ac7 133e
00000320: 235b a4be 4877 aa3c ab30 cabe 86d0 7bbe
00000330: c076 403e f78e 883e dffd a5be 7776 f33c
00000340: 7fb1 edbc fba0 433d c1b7 09be b36e 463d
00000350: 8728 4e3b edb5 dc3d 3214 64bc 6b2d 6a3d
00000360: ca2f b53d 0069 f83d c87b ad3c 009b a63c
00000370: 1cbc cf3d 10ab f93d a62a 21bd 109c 5a3d
00000380: 48bb 4b3d 8acb 0b3d ce00 b43b c5e2 0a3d
00000390: eece 9ebd acf6 8fbc 07e9 5d3d 7d52 9abe
000003a0: 36f2 babd 6bb0 0dbd 56aa 5b3a 03cc 333d
000003b0: 4256 943d ebe3 c8bb dfaf 833d 1d76 853d
000003c0: 28c0 51bc 1467 bfbc 90d7 8cbd f00d f23d
000003d0: d009 713d 5673 803d aa01 56bd a4e3 c0bc
000003e0: 338e e4bd ad2a fdbd 7853 d5bd 812f dabd
000003f0: 7b3d a43d 419e 373e c0c5 8e3e fb47 c33d

bias f4 [6]
-0.13168749 -0.17512383 0.065006085 -0.21694869 -0.023913153 -0.06567324
00000000: 16d9 06be a953 33be e921 853d cc27 5ebe
00000010: 84e5 c3bc b17f 86bd

weight f4 [16, 6, 3, 3]
-0.09944298 -0.012565946 -0.12844029 0.07430187 0.009456681 -0.08550769 -0.11363343 -0.03403068
0.08598135 -0.02181584 0.028238513 0.17974143 0.004362074 -0.1430866 -0.1661591 0.07656422
-0.064802185 -0.119090214 0.077308476 0.14913231 -0.10602004 -0.03233847 0.040523592 0.06785458
0.055604614 0.09216285 0.14588155 -0.055299133 -0.07030449 -0.06572449 0.20433977 0.03905829
0.048694782 -0.07839709 -0.21850555 0.21734293 -0.073721364 0.012480968 -0.05818963 -0.020749826
-0.0058603953 0.041558664 -0.0018278521 -0.12814346 0.027582174 0.08880964 -0.12369881 0.08827748
-0.03547026 0.040615838 0.08318162 0.09806221 -0.022130875 0.08097538 -0.060284197 -0.009929802
0.112654686 -0.030063694 -0.005049371 -0.024774382 -0.13049911 0.11181424 0.076852836 0.053027887
-0.0045610988 -0.086428374 -0.060713787 0.06109695 -0.012565936 -0.07391079 0.060762547 0.092290334
0.043785684 -0.22106588 0.01831854 -0.1845282 -0.1836406 0.20632893 -0.0814509 -0.017612014
0.08833902 0.20404176 0.19497111 0.13529785 0.15709302 0.072107956 0.12945269 -0.064009786
-0.28486875 0.03772073 0.0055964817 0.056390945 0.0356621 0.026715737 -0.07645225 -0.12241432
-0.011701266 -0.13524567 -0.23934257 0.16515344 -0.20273669 -0.09752933 0.086443566 -0.18328635
0.029317858 -0.13007395 -0.038458828 0.18926637 0.024004925 0.041480348 -0.23804165 -0.20119125
0.13583317 -0.0054025427 -0.015758447 0.04440815 0.06939388 -0.0434004 -0.093177 0.08910087
0.012364133 -0.016205564 0.08318636 -0.10346228 -0.021954274 -0.08799463 -0.21380074 -0.019373517
-0.19269489 -0.18433249 -0.07985222 -0.25217676 0.105178975 0.0043120105 -0.094935834 0.13629888
-0.1464241 -0.12587392 0.00069820875 -0.18041995 -0.2590941 -0.12568681 -0.075116545 0.046981413
-0.09004014 -0.05893656 -0.3378259 0.06565616 0.0039413637 -0.020923743 0.04593028 -0.087439686
0.051519122 0.050184865 0.15319358 -0.10475986 -0.011590282 0.1505882 -0.020080928 0.055467423
-0.16731153 -0.030637987 0.026422258 -0.17343318 0.06676336 -0.101093344 -0.109611586 0.00837925
-0.19110535 0.015567036 -0.13666162 -0.01190251 0.119146764 0.10243078 0.13282247 -0.003792149
0.08067234 0.082886 0.1895829 -0.0014095312 -0.11696563 -0.289401 -0.25334227 -0.12980783
-0.0430339 -0.027822195 -0.07652987 -0.21879329 0.01720414 -0.04402886 0.1526487 0.17242569
0.12585528 -0.06727297 -0.26198035 -0.027996749 -0.17548026 -0.15630063 -0.04404543 0.20623079
-0.046013135 -0.09222966 -0.031467807 0.040475078 -0.02671387 0.052036624 0.12867443 0.01959349
-0.11826574 -0.22827752 0.04931861 -0.13164863 0.008472917 -0.2029243 -0.10741865 -0.09545739
-0.07233036 -0.03983871 0.017297843 -0.037021738 0.18980938 0.12883282 0.08748954 -0.05642521
-0.0077340226 0.018933995 0.025129858 0.028815884 -0.057102572 0.117916055 0.15701313 -0.034034412
0.0013432583 0.17236902 -0.18578407 -0.010527026 0.10536534 -0.2338089 0.08762839 -0.09299526
0.10462674 0.023533458 -0.19709258 -0.018947443 0.15682153 -0.20276794 -0.055600088 -0.18304773
-0.04552526 0.16034272 0.008327628 0.13564461 -0.049241282 0.037868854 0.088123985 -0.11124284
00000000: c3a8 cbbd 66e1 4dbc da85 03be 942b 983d
00000010: 32f0 1a3c a81e afbd a5b8 e8bd c163 0bbd
00000020: fd16 b03d 22b7 b2bc 7454 e73c 230e 383e
00000030: bbef 8e3b 4b85 12be 9c25 2abe b4cd 9c3d
00000040: 02b7 84bd 92e5 f3bd e853 9e3d 24b6 183e
00000050: 0921 d9bd 5875 04bd 11fc 253d 58f7 8a3d
00000060: aac1 633d e0bf bc3d f961 153e 5881 62bd
00000070: cdfb 8fbd 909a 86bd 723e 513e 96fb 1f3d
00000080: 2e74 473d a78e a0bd ebbf 5fbe 258f 5e3e
00000090: 3afb 96bd f97c 4c3c 4058 6ebd 8afb a9bc
000000a0: 8f08 c0bb 6b39 2a3d 8a94 efba 0a38 03be
000000b0: 03f4 e13c d4e1 b53d cd55 fdbd d3ca b43d
000000c0: 4349 11bd cb5c 263d 205b aa3d d7d4 c83d
000000d0: cf4b b5bc 6cd6 a53d 90ec 76bd 9cb0 22bc
000000e0: 80b7 e63d 2348 f6bc 3275 a5bb a5f3 cabc
000000f0: 8fa1 05be ddfe e43d 0565 9d3d c533 593d
00000100: 4575 95bb 5c01 b1bd 05af 78bd cc40 7a3d
00000110: 5be1 4dbc 8a5e 97bd 26e2 783d b702 bd3d
00000120: 9e58 333d 185f 62be c310 963c f6f4 3cbe
00000130: 480c 3cbe e447 533e bbcf a6bd 1247 90bc
00000140: 17eb b43d 53f0 503e 82a6 473e 858b 0a3e
00000150: fedc 203e 56ad 933d 3f8f 043e 9017 83bd
00000160: 51da 91be 0d81 1a3d b162 b73b 31fa 663d
00000170: 6c12 123d f6da da3c ff92 9cbd 5cb4 fabd
00000180: abb6 3fbc d77d 0abe 3816 75be fc1d 293e
00000190: 359a 4fbe 75bd c7bd 5309 b13d 6baf 3bbe
000001a0: 012c f03c 1b32 05be 0187 1dbd 0bcf 413e
000001b0: faa5 c43c 4ce7 293d 31c1 73be 1405 4ebe
000001c0: da17 0b3e d007 b1bb dc17 81bc 52e5 353d
000001d0: 611e 8e3d 9ec4 31bd 95d3 bebd 847a b63d
000001e0: ef92 4a3c 88c1 84bc 9c5d aa3d 08e4 d3bd
000001f0: 73d9 b3bc 8736 b4bd 95ee 5abe 36b5 9ebc
00000200: cf51 45be a8c1 3cbe 9089 a3bd 501d 81be
00000210: 1368 d73d c44b 8d3b b86d c2bd ef91 0b3e
00000220: 33f0 15be 18e5 00be ff07 373a 02c0 38be
00000230: fba7 84be 0bb4 00be b4d6 99bd 956f 403d
00000240: f766 b8bd 7667 71bd 84f7 acbe bd76 863d
00000250: 8e26 813b 4568 abbc 6421 3c3d 9413 b3bd
00000260: b705 533d a58e 4d3d c7de 1c3e 568c d6bd
00000270: 2be5 3dbc cb33 1a3e c280 a4bc cf31 633d
00000280: b753 2bbe 84fc fabc 7e73 d83c 7898 31be
00000290: 3abb 883d 070a cfbd 0a7c e0bd 1f49 093c
000002a0: 1fb1 43be e20c 7f3c 06f1 0bbe bf02 43bc
000002b0: 3803 f43d 3bc7 d13d 9d02 083e b485 78bb
000002c0: 8a37 a53d 23c0 a93d 0522 423e 05c0 b8ba
000002d0: ad8b efbd 5e2c 94be 14b6 81be 58ec 04be
000002e0: 5144 30bd 5feb e3bc b1bb 9cbd 590b 60be
000002f0: b2ef 8c3c 9b57 34bd f14f 1c3e 5c90 303e
00000300: 35e0 003e 69c6 89bd 4a22 86be 7059 e5bc
00000310: 19b1 33be 460d 20be fb68 34bd 2a2e 533e
00000320: 4578 3cbd e7e2 bcbd 63e4 00bd 32c9 253d
00000330: 0cd7 dabc 5b24 553d 3bc3 033e 8782 a03c
00000340: 4f35 f2bd 95c1 69be 5002 4a3d e6ce 06be
00000350: fdd1 0a3c 63cb 4fbe 4ffe dbbd 2a7f c3bd
00000360: f121 94bd ea2d 23bd 35b4 8d3c 1ba4 17bd
00000370: 645d 423e c0ec 033e b72d b33d 1f1e 67bd
00000380: af6d fdbb 771b 9b3c 22dd cd3c 4a0f ec3c
00000390: 63e4 69bd f97d f13d 0dc8 203e ab67 0bbd
000003a0: 4510 b03a 8181 303e 2e3e 3ebe 8c79 2cbc
000003b0: c9c9 d73d 9a6b 6fbe 8376 b33d 4d74 bebd
000003c0: 8b46 d63d 3dc9 c03c a3d2 49be ab37 9bbc
000003d0: d395 203e 66a2 4fbe ebbc 63bd dd70 3bbe
000003e0: b278 3abd e230 243e 9a70 083c 6ce6 0a3e
000003f0: 3ab1 49bd 5f1c 1b3d 597a b43d 49d3 e3bd

bias f4 [16]
-0.020229192 0.0084374705 0.031308383 -0.009815519 -0.012784008 -0.13115552 -0.01640804 0.09400076
-0.08803846 0.008250492 0.036203515 -0.02836005 -0.11001137 0.031627476 0.041785162 0.15136428
00000000: b1b7 a5bc 513d 0a3c 383d 003d 45d1 20bc
00000010: 0474 51bc a24d 06be 276a 86bc 7883 c03d
00000020: 824d b4bd 122d 073c 234a 143d 5653 e8bc
00000030: a44d e1bd d08b 013d eb26 2b3d 3dff 1a3e

weight f4 [32, 16, 3, 3]
-0.09896811 -0.24160598 -0.12663426 -0.03860668 0.065404356 -0.1273127 -0.19645931 -0.009482631
-0.128309 -0.30828804 -0.15577845 0.13815825 -0.12920998 0.027999729 0.26094612 0.016982641
0.20995547 0.24543843 -0.14454727 -0.11584925 -0.13459496 -0.07330202 0.043817624 0.12770525
-0.0066401605 0.12124252 0.10781477 -0.16125117 -0.099548966 -0.090605035 -0.057307214 0.16134426
-0.032328036 0.023897769 0.18403426 0.03622701 -0.12844954 -0.020795783 0.036936462 -0.28812522
-0.16710792 0.02215396 -0.12310037 0.02533207 -0.0602645 -0.065897964 0.045180697 0.05418902
-0.016000852 -0.06252942 0.15090294 -0.0802098 -0.36065364 -0.029476183 0.05859058 -0.14525826
-0.30566487 -0.16309735 -0.3032799 -0.41503757 -0.08647341 -0.0760855 -0.34401813 -0.094711505
-0.1996948 -0.07783022 -0.036698017 -0.04161409 -0.008014709 -0.029247193 0.053426668 -0.010634089
-0.45419765 -0.08854056 -0.18748778 -0.017340355 0.08768619 -0.13123885 -0.19529192 -0.19051388
-0.25266126 -0.19326262 -0.038988575 0.07587076 -0.1065484 0.1514033 0.070401706 -0.0419569
-0.08220737 -0.09308884 -0.11513974 0.04977778 -0.013965319 -0.05732573 0.052809577 0.20857084
-0.12177658 -0.022255996 0.019469 -0.35799402 -0.007920513 0.19777621 0.17253256 -0.028855098
0.06692574 0.04383179 0.03934638 0.103683196 0.07108053 0.051910136 0.09968909 -0.07171728
-0.1002958 0.28479114 0.11111181 0.09266155 0.111440964 -0.16048455 -0.004495885 -0.09319858
0.010519469 0.115810476 0.029417502 -0.011287342 -0.028485557 -0.017180366 -0.14439708 -0.09037205
-0.016376423 -0.046564277 0.08337482 0.06922095 -0.09429912 -0.020661848 -0.13407749 -0.10868171
-0.042946268 -0.09724913 -0.019856762 -0.042732537 0.13043043 0.009491696 0.029331507 0.009401404
0.034559406 0.057373043 -0.24597128 0.12392752 -0.0058429763 -0.09492294 -0.030951086 -0.03411517
0.031852696 0.042188123 0.051602405 -0.00059835 0.07666498 0.04059803 -0.055147175 0.05393142
0.03885795 0.009691332 -0.012427734 0.09235002 -0.024185663 0.07558434 0.06816235 -0.0075643877
0.046479493 -0.019462971 0.018640887 -0.20438397 -0.118208535 -0.19999424 -0.20682895 -0.20585316
-0.08797339 -0.22204612 -0.083650075 -0.096466005 0.13191609 0.022490676 0.11750809 -0.12929934
-0.08038156 0.066871606 -0.14438143 -0.04688164 -0.0112741515 0.0036390396 0.04156512 0.085496694
0.17852968 0.14006232 0.17199108 0.08226818 0.08071006 0.11126814 0.04942919 -0.009337901
-0.1340214 -0.04725853 0.095070995 -0.09452201 0.050046936 0.09537649 -0.0021075574 0.052395053
0.013962629 0.06769986 0.081363656 0.095792346 0.0765203 -0.0036465118 -0.0058376784 0.09993387
0.05894358 0.0615022 0.082831115 -0.009558781 0.068484984 0.06509768 -0.07401217 0.08986711
0.15979123 -0.059924915 -0.12358099 -0.053607967 0.005860923 -0.31352288 -0.12044445 -0.09973832
-0.18240784 -0.15562238 -0.10422258 -0.22026688 0.053982843 -0.12565657 -0.06414672 0.019137716
0.06353801 -0.016906954 0.007751963 0.023665318 -0.09955135 -0.24606462 -0.0644699 -0.19086762
0.09600992 0.00015769614 -0.025854317 0.00010774937 0.12525313 0.06104922 -0.024829375 0.1536291
00000000: cbaf cabd 8f67 77be 69ac 01be 0a22 1ebd
00000010: b8f2 853d 435e 02be a12c 49be 0a5d 1bbc
00000020: 6f63 03be eed7 9dbe 6384 1fbe 5b79 0d3e
00000030: 9f4f 04be b05f e53c bb9a 853e 2e1f 8b3c
00000040: 91fe 563e 3654 7b3e 3304 14be 5f42 edbd
00000050: 43d3 09be 5f1f 96bd 1c7a 333d 2ac5 023e
00000060: b495 d9bb 004e f83d fdcd dc3d 071f 25be
00000070: 54e0 cbbd 228f b9bd f8ba 6abd 6e37 253e
00000080: 676a 04bd 41c5 c33c 7a73 3c3e c662 143d
00000090: 4788 03be eb5b aabc b04a 173d 2685 93be
000000a0: 571e 2bbe 397c b53c 0c1c fcbd 3485 cf3c
000000b0: e9d7 76bd 83f5 86bd 650f 393d 4ef5 5d3d
000000c0: 3814 83bc 6d0f 80bd 4d86 1a3e 0945 a4bd
000000d0: 98a7 b8be 0978 f1bc adfc 6f3d 95be 14be
000000e0: 1b80 9cbe fe02 27be 8147 9bbe ce7f d4be
000000f0: f918 b1bd b7d2 9bbd 2523 b0be 1bf8 c1bd
00000100: cb7c 4cbe 7365 9fbd a950 16bd 8973 2abd
00000110: 2050 03bc cf97 efbc ecd5 5a3d 9a3a 2ebc
00000120: 988c e8be c154 b5bd ccfc 3fbe 5c0d 8ebc
00000130: d194 b33d 7a63 06be 9bfa 47be 1216 43be
00000140: d15c 81be a3e6 45be 7cb2 1fbd 2162 9b3d
00000150: 0c36 dabd 7709 1b3e c52e 903d 00db 2bbd
00000160: 565c a8bd 5da5 bebd 62ce ebbd c9e3 4b3d
00000170: cbce 64bc 62ce 6abd db4e 583d 9893 553e
00000180: 0066 f9bd 3552 b6bc 747d 9f3c fe4a b7be
00000190: 0ac5 01bc d985 4a3e 60ac 303e 8761 ecbc
000001a0: 5d10 893d f788 333d ab29 213d db57 d43d
000001b0: ab92 913d b99f 543d cb29 cc3d 82e0 92bd
000001c0: e267 cdbd 25d0 913e 978e e33d 57c5 bd3d
000001d0: 293b e43d 1056 24be 3852 93bb e6de bebd
000001e0: da59 2c3c 0b2e ed3d f9fc f03c 8bee 38bc
000001f0: 8b5a e9bc d7bd 8cbc d4dc 13be fb14 b9bd
00000200: d927 86bc 2fba 3ebd 6bc0 aa3d b7c3 8d3d
00000210: e61f c1bd 0943 a9bc 9c4b 09be 8494 debd
00000220: 6de8 2fbd 8d2a c7bd a6aa a2bc 5008 2fbd
00000230: 8e8f 053e 0f83 1b3c a148 f03c 5908 1a3c
00000240: 2a8e 0d3d ffff 6a3d e5df 7bbe b6cd fd3d
00000250: 7076 bfbb f566 c2bd 228d fdbc 59bc 0bbd
00000260: f977 023d 74cd 2c3d 0b5d 533d 97da 1cba
00000270: 8702 9d3d 1f4a 263d 01e2 61bd 31e7 5c3d
00000280: 8429 1f3d 64c8 1e3c b29d 4bbc 0222 bd3d
00000290: 0321 c6bc f6cb 9a3d b498 8b3d afde f7bb
000002a0: 4861 3e3d cf70 9fbc c6b4 983c 084a 51be
000002b0: 5117 f2bd 4acb 4cbe f8ca 53be 2ccb 52be
000002c0: 652b b4bd 0f60 63be bb50 abbd f88f c5bd
000002d0: 0315 073e 5e3e b83c 15a8 f03d 0c67 04be
000002e0: 169f a4bd fbf3 883d bad8 13be f606 40bd
000002f0: 38b7 38bc f47c 6e3b 3040 2a3d e418 af3d
00000300: 7cd0 363e 7f6c 0f3e 6e1e 303e 387c a83d
00000310: 514b a53d 8de0 e33d 4376 4a3d fffd 18bc
00000320: e83c 09be 2992 41bd 95b4 c23d c194 c1bd
00000330: 04fe 4c3d c054 c33d f21e 0abb 329c 563d
00000340: 83c3 643c 39a6 8a3d fda1 a63d c72e c43d
00000350: adb6 9c3d 51fa 6ebb ff49 bfbb 21aa cc3d
00000360: d36e 713d bbe9 7b3d 5ca3 a93d 6f9c 1cbc
00000370: db41 8c3d ef51 853d b193 97bd 3f0c b83d
00000380: 50a0 233e d473 75bd 0818 fdbd 0794 5bbd
00000390: fc0c c03b 1286 a0be 94ab f6bd 9b43 ccbd
000003a0: 1fc9 3abe 795b 1fbe a672 d5bd a48d 61be
000003b0: 1d1d 5d3d 1eac 00be 5b5f 83bd b3c6 9c3c
000003c0: 3720 823d 7480 8abc 2e04 fe3b c5dd c13c
000003d0: 94e1 cbbd 5df8 7bbe cc08 84bd cd72 43be
000003e0: d9a0 c43d 3c5b 2539 6fcc d3bc 81f7 e138
000003f0: 5b42 003e bf0e 7a3d f966 cbbc f250 1d3e

bias f4 [32]
0.08348529 -0.051961202 -0.027162896 -0.09285956 0.023852272 -0.035936877 -0.037392616 -0.035711862
-0.047700506 -0.12751086 -0.046339113 -0.076471895 -0.06515392 -0.12894751 -0.06982065 -0.06742624
0.04159621 -0.044067167 -0.007697108 0.010176539 -0.02486871 -0.05207893 -0.043745678 0.017284954
-0.014049364 -0.040945597 -0.08219428 -0.0125795435 0.007977969 -0.010059426 -0.034780335 0.0029605913
00000000: 56fa aa3d 45d5 54bd b984 debc 272d bebd
00000010: d765 c33c 8c32 13bd 0029 19bd 9a46 12bd
00000020: 9b61 43bd 3592 02be 15ce 3dbd 4c9d 9cbd
00000030: 6b6f 85bd d10a 04be 21fe 8ebd c516 8abd
00000040: ca60 2a3d c67f 34bd 0638 fcbb 80bb 263c
00000050: 77b9 cbbc b750 55bd ab2e 33bd 2d99 8d3c
00000060: 4e2f 66bc 92b6 27bd 7a55 a8bd 6e1a 4ebc
00000070: 07b6 023c 4ad0 24bc d375 0ebd 7b06 423b

weight f4 [5, 11552]
-0.12928578 -0.13744064 -0.13812812 -0.12065184 -0.12583928 -0.13046947 -0.12700044 -0.120804645
-0.1240657 -0.124631524 -0.12234651 -0.12169784 -0.114554666 -0.13466834 -0.12641639 -0.13763534
-0.12155587 -0.13715152 -0.14502779 -0.13831231 -0.07376471 0.06643059 0.09793786 0.26966986
0.3518204 0.16082738 0.28865403 0.39076814 0.4664615 0.37568477 0.45675373 0.32874966
0.4478991 0.41554967 0.41708067 0.5550215 0.1596982 0.049436744 -0.1328655 -0.08047686
0.08017681 0.3028 0.1204378 0.34530038 0.35002318 0.3872935 0.38213655 0.4101907
0.31929323 0.4574729 0.4526514 0.5253388 0.585047 0.5593516 0.63019365 0.36566877
0.23252639 -0.13430491 -0.057305194 0.24887182 0.1139866 0.336712 0.38878626 0.52665985
0.37085512 0.26845694 0.24656707 0.3124977 0.4181226 0.4072096 0.35206804 0.46748546
0.6799934 0.76340306 0.5265565 0.2778978 -0.11979616 -0.0025669374 0.19090296 0.22574727
0.41371146 0.38164777 0.4752707 0.38239914 0.36740378 0.35961685 0.45299524 0.26997283
0.39837906 0.2723493 0.48067367 0.57905596 0.67023253 0.51659197 0.25395894 -0.11569745
-0.096130036 0.02765624 0.229292 0.26703903 0.34689113 0.37503895 0.27111584 0.41263494
0.50518066 0.318468 0.33480236 0.36512303 0.31769946 0.28192124 0.3615672 0.6573134
0.7115252 0.4098557 -0.09798475 -0.06565681 0.1749927 0.15943782 0.424677 0.27886823
0.22029714 0.44048983 0.27352357 0.36237648 0.19437973 0.29393968 0.22745769 0.25800687
0.2231864 0.25387442 0.56415874 0.7418291 0.2309582 -0.10279745 -0.002525023 0.2398139
0.4332521 0.25132135 0.24239615 0.24375916 0.17701651 0.275328 0.22867292 0.28207755
0.12744176 0.15841186 0.20525911 0.19058634 0.2400349 0.48254424 0.7051773 0.13515125
-0.12928438 0.15341137 0.18314084 0.3923326 0.31089434 0.3650934 0.15108556 0.21895005
0.04955209 -0.018346323 -0.038147032 0.11609846 0.08311008 0.010307665 0.2320964 0.15335782
0.4501485 0.76221836 0.3214333 -0.1261882 0.056841325 0.14063132 0.3345777 0.34018922
0.3088711 0.20513998 0.1733893 0.07029577 -0.3147236 -0.26541954 -0.052886173 -0.0319009
0.052540142 0.25276268 0.2883731 0.27256027 0.80643135 0.37012982 -0.09937721 -0.02184813
0.28724974 0.24566665 0.4217816 0.30132356 0.28007156 0.25317132 0.114229016 -0.09411229
-0.13513514 0.033441648 0.01561934 0.14509127 0.27054307 0.15542386 0.22923926 0.725087
0.38127676 -0.11770201 -0.04191911 0.30598757 0.33645064 0.39855334 0.3511647 0.23468235
0.26530606 0.37362558 0.2217367 0.1230741 0.23587538 0.20755789 0.30827907 0.33170125
0.34720585 0.41651493 0.76677454 0.34004667 -0.11528259 0.059462618 0.26554298 0.3584562
0.45617482 0.3873123 0.2819198 0.48900187 0.40302002 0.22044572 0.28915223 0.3149456
0.23722477 0.28140378 0.40455246 0.39620104 0.65282166 0.7709458 0.37164953 -0.1292935
0.06506605 0.40583333 0.18264613 0.28868163 0.4224925 0.47264937 0.49217233 0.355824
00000000: 7e63 04be 3dbd 0cbe 7571 0dbe 5018 f7bd
00000010: 03dc 00be ca99 05be 670c 02be 6d68 f7bd
00000020: 2816 febd d03e ffbd cf90 fabd b83c f9bd
00000030: a39b eabd 7fe6 09be 4c73 01be 47f0 0cbe
00000040: 49f2 f8bd 7371 0cbe 2a82 14be bea1 0dbe
00000050: f411 97bd c30c 883d a593 c83d 2b12 8a3e
00000060: ce21 b43e efaf 243e 76ca 933e c312 c83e
00000070: 0bd4 ee3e c159 c03e a0db e93e e051 a83e
00000080: 0853 e53e edc2 d43e 998b d53e e415 0e3f
00000090: ed87 233e 2f7e 4a3d e50d 08be 0dd1 a4bd
000000a0: bd33 a43d 9a08 9b3e 18a8 f63d 36cb b03e
000000b0: 3d36 b33e 554b c63e 67a7 c33e 8404 d23e
000000c0: 677a a33e e339 ea3e edc1 e73e 9b7c 063f
000000d0: a4c5 153f ab31 0f3f 5f54 213f f038 bb3e
000000e0: 661b 6e3e 3a87 09be dab8 6abd 41d8 7e3e
000000f0: ce71 e93d 8465 ac3e fe0e c73e 2ed3 063f
00000100: b9e0 bd3e 3073 893e 147c 7c3e b3ff 9f3e
00000110: 2a14 d63e c77d d03e 4342 b43e 415a ef3e
00000120: 0c14 2e3f 626e 433f 68cc 063f 9f48 8e3e
00000130: b057 f5bd 103a 28bb 117c 433e 4b2a 673e
00000140: fdd1 d33e 5667 c33e ae56 f33e d2c9 c33e
00000150: 591c bc3e b31f b83e feee e73e e139 8a3e
00000160: 57f8 cb3e 5e71 8b3e dc1a f63e 033d 143f
00000170: 5c94 2b3f 5f3f 043f e806 823e c9f2 ecbd
00000180: d3df c4bd 578f e23c 86cb 6a3e 57b9 883e
00000190: b79b b13e 1b05 c03e b2cf 8a3e e344 d33e
000001a0: 8553 013f 3d0e a33e 376b ab3e 68f1 ba3e
000001b0: 81a9 a23e fb57 903e 561f b93e b145 283f
000001c0: 8426 363f 9bd8 d13e 3bac c8bd 1477 86bd
000001d0: 4931 333e ab43 233e 446f d93e d1c7 8e3e
000001e0: 9395 613e e287 e13e 480b 8c3e 6989 b93e
000001f0: 7b0b 473e 437f 963e abea 683e 7a19 843e
00000200: fa8a 643e d4fb 813e b56c 103f 83e8 3d3f
00000210: 4e80 6c3e 7887 d2bd db7a 25bb c691 753e
00000220: 38d3 dd3e 31ad 803e b236 783e 009c 793e
00000230: d143 353e cbf7 8c3e 3c29 6a3e 786c 903e
00000240: 1880 023e b836 223e 722f 523e 1129 433e
00000250: b5cb 753e 0a10 f73e 8086 343f 1765 0a3e
00000260: 2063 04be df17 1d3e 4689 3b3e d2df c83e
00000270: 8b2d 9f3e 86ed ba3e 2cb6 1a3e 7134 603e
00000280: 22f7 4a3d 074b 96bc 1040 1cbd 08c5 ed3d
00000290: 9e35 aa3d 7be1 283c aeaa 6d3e d509 1d3e
000002a0: dd79 e63e be20 433f e892 a43e 7b37 01be
000002b0: 73d2 683d a801 103e c54d ab3e 482d ae3e
000002c0: 5a24 9e3e 3710 523e f78c 313e 3bf7 8f3d
000002d0: 7423 a1be 12e5 87be 2c9f 58bd 85aa 02bd
000002e0: 5534 573d 1c6a 813e a4a5 933e 058d 8b3e
000002f0: 4972 4e3f a881 bd3e 4786 cbbd d9fa b2bc
00000300: 6612 933e 0a90 7b3e c2f3 d73e 1547 9a3e
00000310: 8a65 8f3e ac9f 813e e7f0 e93d f2bd c0bd
00000320: de60 0abe 1cfa 083d 43e8 7f3c ce92 143e
00000330: 9f84 8a3e 6f27 1f3e b2bd 6a3e 4d9f 393f
00000340: b536 c33e c00d f1bd 5fb3 2bbd 67aa 9c3e
00000350: 4243 ac3e 2f0f cc3e dccb b33e 9250 703e
00000360: 32d6 873e da4b bf3e f20e 633e 460e fc3d
00000370: 5189 713e 0e8a 543e c1d6 9d3e bfd4 a93e
00000380: f7c4 b13e 7241 d53e 564b 443f 991a ae3e
00000390: 4719 ecbd 138f 733d 40f5 873e 9287 b73e
000003a0: bf8f e93e cc4d c63e cb57 903e 745e fa3e
000003b0: a458 ce3e 86bc 613e c30b 943e 8d40 a13e
000003c0: 0deb 723e 2814 903e 8021 cf3e ddda ca3e
000003d0: 521f 273f b45c 453f d948 be3e 8465 04be
000003e0: 5941 853d 63c9 cf3e 9607 3b3e 14ce 933e
000003f0: f050 d83e 19ff f13e 03fe fb3e 902e b63e

bias f4 [5]
-0.11872417 -0.11482177 -0.101712 -0.1003341 -0.104573935
00000000: a825 f3bd ad27 ebbd 624e d0bd f77b cdbd
00000010: dc2a d6bd
