archived_data/b1_r0_m8_s100--2019-03-03--165203.596044/episode_30250.model (torch_old, 268278 bytes, 8 tensors)

weight f4 [6, 6, 3, 3]
0	0xbdca8d72	-0.0989026
1	0x3db34d66	0.08754997
2	0x3bd91f60	0.0066260546
3	0x3e06b8b4	0.13156396
4	0xbc83cb8c	-0.01608827
5	0xbccb4998	-0.024815366
6	0xbc41c5b8	-0.011826925
7	0x3dbcc88c	0.09217939
8	0xbd449d42	-0.048001535
9	0x3d9566b0	0.07294977
10	0x3d3c0b70	0.045909345
11	0x3d7ceb65	0.061747927
12	0xbd7eea23	-0.06223501
13	0x3c9cab0c	0.01912453
14	0xbcd1f4b5	-0.02562938
15	0xbd9fddc6	-0.07805972
16	0xbd75d034	-0.06001301
17	0xbcd61581	-0.0261333
18	0x3db6acf6	0.089197084
19	0x3da7e56f	0.08198058
20	0x3dee2b64	0.1162937
21	0x3d2022d2	0.039095707
22	0x3dc13f18	0.09435862
23	0x3dac87e6	0.08424358
24	0x3d2a5487	0.041584518
25	0x3d263aa9	0.040583286
26	0x3c73d9af	0.014883443
27	0xbd8d4be6	-0.06899242
28	0xbd694c9a	-0.05695782
29	0xbdd4395e	-0.103625044
30	0x3d2189fc	0.039438233
31	0x3dc3904c	0.09549007
32	0xbd7e0bc6	-0.062022947
33	0x3da8119c	0.08206484
34	0xbdf81bbf	-0.12114667
35	0x3d2cb560	0.04216516
36	0x3c53873a	0.0129106585
37	0xbde986cb	-0.11402663
38	0x3df57170	0.11984527
39	0xbe71cae6	-0.23612556
40	0xbd9d8669	-0.07691652
41	0xbe638761	-0.22219612
42	0xbed0e12f	-0.407968
43	0xbe9952c9	-0.29945973
44	0xbdac5e3a	-0.0841641
45	0x3da22151	0.07916511
46	0x3d27123a	0.040788867
47	0x3cb91943	0.022595054
48	0x3d88180c	0.066452116
49	0x3d27479b	0.040839773
50	0xbd9bcf61	-0.07607914
51	0x3de21e3a	0.110409215
52	0xbd3abe56	-0.045591675
53	0x3bd14efc	0.0063875895
54	0xbdcaba2c	-0.09898791
55	0x3dd96410	0.106147885
56	0x3da07e60	0.07836604
57	0xbde06422	-0.10956599
58	0x3df0cba8	0.11757594
59	0xbd8aa148	-0.06769043
60	0x3dbb4032	0.09143104
61	0x3cc15dc8	0.023604289
62	0xbda268c6	-0.0793014
63	0xbd431b46	-0.04763343
64	0xbc40dbf8	-0.011771195
65	0x3d9a8686	0.075451896
66	0x3c253a30	0.010084674
67	0xbcd0ebf9	-0.025503146
68	0x3d324912	0.043526717
69	0x3d3722ce	0.044710927
70	0x3ce7250d	0.02821591
71	0xbba49ff2	-0.00502395
72	0xbc0ba5e4	-0.008523438
73	0x3caf998b	0.02143552
74	0x3da7d7a5	0.08195428
75	0x3d16acee	0.036786012
76	0x3d0a9717	0.033835497
77	0x3d949e3a	0.07256742
78	0x3d22adb2	0.03971643
79	0x3d7e5cde	0.062100284
80	0x3d354e1e	0.04426395
81	0x3db28dfc	0.087184876
82	0xbb9aaf80	-0.0047206283
83	0x3d84e880	0.06489658
84	0x3c3e3840	0.011610091
85	0x3d7a5da0	0.061124444
86	0x3db8cc36	0.09023325
87	0xbd592e32	-0.05302257
88	0xbc718ee0	-0.014743537
89	0x3dc0e89a	0.09419365
90	0x3da345a7	0.079722695
91	0xbec706b0	-0.3887229
92	0xbe950070	-0.29101896
93	0xbc3547cc	-0.011064481
94	0xbe3e6140	-0.18591785
95	0x3e211645	0.15731151
96	0x3db67f5e	0.08911012
97	0x3e517998	0.2045654
98	0x3eab66c9	0.33476856
99	0x3e1a6793	0.15078573
100	0xbde3b77f	-0.111189835
101	0x3d370472	0.044681974
102	0x3d2ad2c6	0.041704915
103	0x3d4ccb63	0.049998652
104	0xbdac52ee	-0.08414255
105	0xbdbc0041	-0.09179736
106	0x3abb9d0b	0.001431377
107	0x3dada175	0.08478061
108	0x3d7b56e8	0.061362177
109	0x3d031fb0	0.03201264
110	0xbd8593b0	-0.0652231
111	0x3dcea446	0.100899264
112	0x3d2cd4c4	0.042195097
113	0xbdaf57dc	-0.0856168
114	0xbdd17d1b	-0.1022894
115	0x3e084814	0.13308746
116	0xbcb8e104	-0.022568233
117	0x3d10c4fb	0.035344105
118	0x3cf70369	0.030152993
119	0x3c8c70f5	0.017143706
120	0x3bcdf054	0.006284753
121	0xbcdf9a1e	-0.027295168
122	0xbe13145a	-0.14363232
123	0x3aeb9069	0.0017972115
124	0x3d36af29	0.04460064
125	0xbbee65e3	-0.0072753294
126	0x3d19b2d9	0.037524078
127	0x3d51d868	0.05123177
128	0x3da78051	0.08178771
129	0x3cd02c08	0.02541162
130	0x3d5814a0	0.052754045
131	0xbd967dc6	-0.07348208
132	0x3d009790	0.03139454
133	0x3dc9fe0b	0.09862908
134	0x3d00bfcc	0.03143291
135	0xbd1f7250	-0.038927376
136	0xbdabcec6	-0.08389048
137	0xbd4ca4c0	-0.049961805
138	0xbc7496d0	-0.014928535
139	0xbcae9838	-0.021312818
140	0x3de41e42	0.11138584
141	0xbd2ab95c	-0.04168068
142	0x3ccb8528	0.024843767
143	0x3d1a2a1c	0.037637815
144	0x3d5341c9	0.05157641
145	0x3e0e7883	0.13913159
146	0x3e6c208f	0.23059295
147	0x3df51df2	0.11968602
148	0x3e81963d	0.25309935
149	0xbe9f20d6	-0.3107974
150	0x3dbff294	0.0937244
151	0x3e1d7c44	0.15379435
152	0xbe1c6679	-0.15273465
153	0x3ca1f9c9	0.019772427
154	0xbd57a03e	-0.052643053
155	0x3c8af13e	0.016960736
156	0xbd0ff9aa	-0.035150208
157	0xbd02d7eb	-0.031944197
158	0xbe198175	-0.1499079
159	0xbcb7b2aa	-0.02242406
160	0x3b8eb9b6	0.0043556346
161	0xbdcec6a1	-0.10096479
162	0x3dca3b2a	0.09874566
163	0x3e020ec0	0.12700939
164	0x3dfe7cec	0.12426171
165	0x3deff824	0.11717251
166	0xbd89d1a0	-0.06729436
167	0xbb3dbf80	-0.0028953254
168	0xbe02a927	-0.12759839
169	0xbcc21eac	-0.023696266
170	0xbdc3eeb4	-0.095670134
171	0xbc8dc049	-0.017303603
172	0xbc036941	-0.0080207
173	0x3cb71e4d	0.022353316
174	0x3ce558ea	0.0279965
175	0x3c932acc	0.017964743
176	0xbc8d1ab1	-0.017224642
177	0x3b16c386	0.0023004725
178	0xbca237eb	-0.019802054
179	0x3d0eba9a	0.034845926
180	0x3d93b282	0.07211782
181	0x3dcb5da3	0.09929969
182	0x3dfaea38	0.12251705
183	0x3e153213	0.14569883
184	0x3e3140f7	0.17309938
185	0x3e24647b	0.16053955
186	0x3d915c78	0.07097715
187	0x3db7b3c8	0.089698374
188	0x3e1dfedf	0.15429257
189	0x3d734688	0.059393436
190	0xbd43c904	-0.047799125
191	0x3d9eff32	0.077635184
192	0xbd106d0a	-0.035260238
193	0xbe037bff	-0.1284027
194	0xbdad3f7e	-0.08459376
195	0xbe031ce2	-0.12803987
196	0xbd95a4ef	-0.07306849
197	0xbe046752	-0.12930039
198	0x3d960bfd	0.07326505
199	0x3e1f9c82	0.15587047
200	0xbea7e5a0	-0.32792377
201	0x3abc0152	0.0014343655
202	0xbecb6b18	-0.39730144
203	0xbe7ffac5	-0.24998005
204	0x3e3fe982	0.1874142
205	0x3e51ae82	0.20476726
206	0xbe9f7618	-0.31144786
207	0x3caa72ea	0.020806748
208	0xbd582601	-0.05277062
209	0x3d44dd91	0.048062865
210	0xbdecb9d3	-0.11558881
211	0x3d01ebbd	0.03171896
212	0x3c43323a	0.01191383
213	0x3de308f3	0.11085691
214	0xbd00a22d	-0.031404663
215	0x3d2d705e	0.04234349
216	0x3db52fca	0.08847006
217	0x3df86900	0.12129402
218	0x3cad7bc8	0.021177188
219	0x3ca69b00	0.020337582
220	0x3dcfbc1c	0.10143301
221	0x3df9ab10	0.12190831
222	0xbd212aa6	-0.039347313
223	0x3d5a9c10	0.05337149
224	0x3d4bbb48	0.049739152
225	0x3d17abb4	0.037028983
226	0xbb85f7a4	-0.004088359
227	0x3d07221f	0.032991525
228	0xbca1be84	-0.019744165
229	0xbb1453c4	-0.0022632936
230	0x3d2e7fd3	0.04260237
231	0xbe5178a5	-0.20456178
232	0xbda13fd9	-0.07873506
233	0xbd8f8528	-0.070078194
234	0xbc83652c	-0.016039453
235	0x3d0adf2c	0.03390424
236	0x3d95366b	0.0728577
237	0x3ccfe959	0.025379824
238	0x3c86ee0a	0.016470928
239	0x3d5d9075	0.054092843
240	0xbc8e0f38	-0.017341241
241	0xbd58b036	-0.052902423
242	0xbd219a79	-0.039453957
243	0x3df20df0	0.118190646
244	0x3d7109d0	0.05884725
245	0x3d807356	0.062719986
246	0xbd5601aa	-0.05224768
247	0xbcc0e3a4	-0.023546048
248	0xbde48e33	-0.11159935
249	0xbdfd2aad	-0.123616554
250	0xbdd55378	-0.10416311
251	0xbdda2f81	-0.10653592
252	0x3da6e2aa	0.081487015
253	0x3e2988c7	0.16556083
254	0x3e9cba60	0.30610943
255	0x3d9b77fd	0.07591245

bias f4 [6]
0	0xbdf71f54	-0.12066522
1	0xbe1462c9	-0.14490809
2	0x3da2f5e5	0.07957057
3	0xbe495b87	-0.19663821
4	0xbc55d7bd	-0.013051924
5	0xbd75a775	-0.059974153

weight f4 [16, 6, 3, 3]
0	0xbe077982	-0.13229945
1	0xbc63bf72	-0.013900625
2	0xbdc53e09	-0.09630973
3	0x3d50680f	0.050880488
4	0x3b4a9e04	0.0030916939
5	0xbe2534f9	-0.16133489
6	0xbdda5998	-0.1066162
7	0xbc804da8	-0.01566203
8	0x3db3049e	0.08741115
9	0xbddcc1aa	-0.10779126
10	0x3c8dbd25	0.017302105
11	0x3e0d3ee8	0.13793528
12	0xbd829c10	-0.06377423
13	0xbdb17da1	-0.0866654
14	0xbe563393	-0.20918112
15	0x3d285c3c	0.041103587
16	0xbd2eca22	-0.042673238
17	0xbe2d59f1	-0.16928841
18	0x3dd65375	0.10465137
19	0x3e0e6153	0.13904314
20	0xbdb301f5	-0.08740608
21	0x3b835175	0.004007513
22	0x3d4a2f87	0.04936173
23	0x3d79ac18	0.060955137
24	0x3b910f37	0.0044268626
25	0x3da3c10f	0.079958074
26	0x3e4ef649	0.20211138
27	0xbce55c99	-0.027998256
28	0xbdf58b24	-0.119894296
29	0xbdcef040	-0.10104418
30	0x3e4c1712	0.19930676
31	0x3c90cc33	0.017675495
32	0x3d02d485	0.031940956
33	0xbdb8f5a5	-0.09031228
34	0xbe6c0f07	-0.23052607
35	0x3e5da402	0.21644595
36	0xbd8c2db9	-0.068446584
37	0x3c26b439	0.010174804
38	0xbdbc2f52	-0.09188713
39	0xbcefd5c8	-0.029276744
40	0xbd87255c	-0.065989226
41	0x3d9a299a	0.07527466
42	0xbd51836c	-0.051150724
43	0xbccd44af	-0.025057165
44	0x3de5eb4a	0.112265185
45	0x3d99e85e	0.07515024
46	0xbdf7f83a	-0.12107892
47	0x3e109cb5	0.14122279
48	0xbd8e3050	-0.06942809
49	0x3cb52f86	0.022117388
50	0x3d782de6	0.060590647
51	0x3dabef56	0.08395259
52	0xbd34e964	-0.04416789
53	0x3d8c3edd	0.06847928
54	0xbde5bcc1	-0.112176426
55	0xbc957ee4	-0.018248983
56	0x3dc54c05	0.0963364
57	0xbcad8c59	-0.021185087
58	0x3cd0ad3a	0.025473226
59	0xbd0f841a	-0.03503809
60	0xbdfc50ca	-0.12320097
61	0x3dc0af4e	0.09408437
62	0x3da0a55c	0.0784404
63	0x3da10af0	0.07863414
64	0x3cd22104	0.025650509
65	0xbe1781b7	-0.14795576
66	0xbd620cd0	-0.055188
67	0x3d94550a	0.072427824
68	0xbce07706	-0.027400505
69	0x3bd004d8	0.0063482337
70	0x3ddf69b0	0.1090883
71	0x3e03c6d9	0.12868823
72	0x3dac6955	0.08418528
73	0xbe808b79	-0.2510641
74	0xbc93e195	-0.018051902
75	0xbe06fb67	-0.1318184
76	0xbe1de5f0	-0.15419745
77	0x3e69be01	0.22826387
78	0xbdf3c70c	-0.119031996
79	0x3d432ecd	0.047652055
80	0x3da5059f	0.08057713
81	0x3e492aad	0.19645186
82	0x3e4bae4c	0.19890708
83	0x3e13ebc5	0.14445408
84	0x3e131ecc	0.14367217
85	0x3d139988	0.03603509
86	0x3e04e2f9	0.12977208
87	0xbcfda693	-0.030963218
88	0xbe36fd7a	-0.17870131
89	0x3dcb7166	0.099337384
90	0x3ccf6fb4	0.025321819
91	0x3d9d2c90	0.07674515
92	0x3ce8ac3d	0.028402442
93	0xbc0582dd	-0.008148876
94	0xbd7ec328	-0.062197834
95	0xbe241fc0	-0.16027737
96	0x3d2136e8	0.039359003
97	0xbdd23dfd	-0.102657296
98	0xbe7d9888	-0.24765217
99	0x3e27677d	0.16348071
100	0xbe418084	-0.18896681
101	0xbdb62356	-0.088934585
102	0x3dbfd918	0.09367579
103	0xbe1c585b	-0.1526808
104	0x3d44203b	0.0478823
105	0xbdd00835	-0.10157815
106	0x3cfd7ef2	0.030944321
107	0x3e4546f3	0.19265346
108	0xbc5ed561	-0.013600678
109	0x3d0ebf36	0.03485032
110	0xbe7a66b2	-0.24453238
111	0xbe3fc8c8	-0.18728936
112	0x3e0acb92	0.13554218
113	0x3c1a15a7	0.009404576
114	0xbb3b3452	-0.002856512
115	0x3d5214cd	0.05128937
116	0x3d8e9d70	0.069636226
117	0xbd48251b	-0.04886351
118	0xbdf51397	-0.11966627
119	0x3dfe3134	0.124117285
120	0x3c6f7943	0.014616313
121	0xbcd043fc	-0.025423042
122	0x3de216d2	0.11039509
123	0xbdcde2d7	-0.10053032
124	0xbd2e8789	-0.042609725
125	0xbe1100bd	-0.14160438
126	0xbe182f14	-0.14861709
127	0x3d34bf02	0.04412747
128	0xbe5ef63b	-0.21773617
129	0xbe13a531	-0.14418484
130	0xbd09dbb0	-0.033656776
131	0xbe40e3f7	-0.18836962
132	0x3e02b613	0.12764768
133	0x3cea4346	0.028596532
134	0x3ba6db69	0.0050920737
135	0x3e055ae1	0.13022949
136	0xbe1ec563	-0.15504985
137	0xbda1dfa6	-0.07903986
138	0xbb4ef130	-0.0031576864
139	0xbe65d695	-0.22445138
140	0xbe5596bb	-0.2085828
141	0xbe14a433	-0.14515762
142	0xbd75c31a	-0.060000516
143	0x3d552ebc	0.052046522
144	0xbd833711	-0.064069875
145	0xbcf87905	-0.030331144
146	0xbe753a30	-0.23947978
147	0x3dc0b667	0.094097905
148	0xbd1ebef0	-0.03875631
149	0x3cd08ff3	0.025459265
150	0x3d7f0e1e	0.062269323
151	0xbda60b8b	-0.081076704
152	0x3dae0ad3	0.08498158
153	0x3d3a4d7c	0.04548405
154	0x3e3f6187	0.18689547
155	0xbd40854f	-0.047002133
156	0xbced20b1	-0.028946253
157	0x3e2c294e	0.16812631
158	0x3c9d1cb5	0.019178728
159	0x3d842dfb	0.064540826
160	0xbe28bc31	-0.1647804
161	0xbc481916	-0.012213012
162	0xbcc4047c	-0.02392792
163	0xbe75b506	-0.23994836
164	0x3d16224e	0.03665381
165	0xbe03d502	-0.12874225
166	0xbdcd3dc8	-0.100215495
167	0x3c94f1c4	0.01818169
168	0xbe5d6c78	-0.21623409
169	0xbd3291ee	-0.0435962
170	0xbe1c9703	-0.15291981
171	0xbd1ae674	-0.037817433
172	0x3de537a4	0.11192253
173	0x3de48bdf	0.11159491
174	0x3e0d84ef	0.13820241
175	0xbcaab910	-0.020840198
176	0x3dba4dab	0.09096845
177	0x3d4f09aa	0.050546326
178	0x3e2709ae	0.16312286
179	0xbcaf2694	-0.0213807
180	0xbe345bf2	-0.176132
181	0xbe9555fe	-0.2916717
182	0xbe7e8444	-0.24855143
183	0xbc7efcff	-0.015563249
184	0xbd5e4d9f	-0.054273244
185	0xbd74d824	-0.05977644
186	0x3d6d2b40	0.057902575
187	0xbe738364	-0.2378059
188	0xbd0efb01	-0.034907345
189	0xbd8279a5	-0.06370858
190	0x3dad6734	0.0846695
191	0x3da815b8	0.082072675
192	0x3e807ab3	0.25093612
193	0xbdcb3380	-0.09921932
194	0xbea88bea	-0.32919246
195	0x3d7449b8	0.059640616
196	0xbe33a848	-0.17544663
197	0xbda7fff6	-0.082031175
198	0xbca0aebc	-0.01961457
199	0x3e2d73c8	0.16938698
200	0xbd6e2877	-0.05814406
201	0xbe0cc8cd	-0.13748474
202	0xbd8fa18f	-0.07013237
203	0xbc4aa0a7	-0.012367404
204	0xbdc7b2c7	-0.09750896
205	0x3d862631	0.06550253
206	0x3df06d7f	0.11739635
207	0xbcbd88a3	-0.023136443
208	0xbe04526b	-0.12922065
209	0xbe657039	-0.22406091
210	0x3d095fc7	0.033538606
211	0xbde7a5c7	-0.113109164
212	0x3d8379b8	0.064197004
213	0xbe312b40	-0.17301655
214	0xbde76a4d	-0.11299572
215	0xbdb07752	-0.086165085
216	0xbd878242	-0.066166416
217	0xbd5573b0	-0.05211228
218	0xbc87591b	-0.016521981
219	0x3c368234	0.011139441
220	0x3e474be0	0.19462538
221	0x3df14472	0.11780633
222	0x3dc5c38f	0.096564405
223	0xbd2c8490	-0.04211861
224	0xbcd106e4	-0.025515981
225	0x3d69bccf	0.057064828
226	0xbd2cc658	-0.042181343
227	0x3d717323	0.058947694
228	0xbd5f6ccb	-0.054547112
229	0x3d1c5154	0.038163498
230	0x3d961550	0.07328284
231	0xbcdfe7be	-0.027332183
232	0x3d4e4d8f	0.050366934
233	0x3e429159	0.19000758
234	0xbe84d4f9	-0.25943735
235	0x3afb3a3c	0.0019167135
236	0xbd3abb6c	-0.045588896
237	0xbe879931	-0.26484063
238	0x3dde5859	0.10856695
239	0xbe18bbf8	-0.14915454
240	0x3df4834a	0.11939104
241	0x3d18b03c	0.037277445
242	0xbdc252a2	-0.09488417
243	0xbe1c0d11	-0.1523936
244	0x3e65ca84	0.22440535
245	0xbe5344bd	-0.2063169
246	0xbd6df54c	-0.05809526
247	0xbe214d76	-0.15752205
248	0xbd53d948	-0.051720887
249	0x3e18577f	0.14877127
250	0x3b9a3a8b	0.004706686
251	0x3e005b59	0.12534846
252	0x3c373b59	0.011183583
253	0x3b6f99c7	0.0036560164
254	0x3d33415d	0.043763507
255	0xbd50dc31	-0.05099124

bias f4 [16]
0	0xbcb3f0f8	-0.021965489
1	0x3bf507f1	0.0074777533
2	0x3d0d6b1e	0.034525983
3	0x3c99836a	0.01873942
4	0xbbd9d2b0	-0.0066474304
5	0xbdf3cdac	-0.11904463
6	0xbc2ce864	-0.010553453
7	0x3d886fee	0.06661974
8	0xbdae0d7a	-0.08498664
9	0x3c892cda	0.01674502
10	0x3d2ef57c	0.04271458
11	0xba3a51f9	-0.0007107552
12	0xbdd839a4	-0.10557869
13	0x3d41847e	0.047245495
14	0x3d15f4d5	0.036610443
15	0x3e04f380	0.12983513

weight f4 [32, 16, 3, 3]
0	0xbdc00ee9	-0.09377844
1	0xbe5b33e7	-0.21406518
2	0xbe250ba4	-0.16117722
3	0xbd8e424f	-0.06946241
4	0xbb07bd64	-0.002071225
5	0xbdd262f4	-0.1027278
6	0xbe0888e0	-0.13333464
7	0x3b580be5	0.0032966074
8	0xbdd7d17d	-0.105380036
9	0xbe884a61	-0.26619247
10	0xbe4cb04a	-0.19989124
11	0x3d8be0f0	0.06830013
12	0xbdd06439	-0.10175366
13	0xbd190cd2	-0.037365742
14	0x3e3e11e5	0.18561514
15	0x3c2f2f49	0.010692426
16	0x3e0c4089	0.13696493
17	0x3e4d61d7	0.20056854
18	0xbe0c210b	-0.1368448
19	0xbdb9be13	-0.09069457
20	0xbe13e58d	-0.14443035
21	0xbda87b0f	-0.082265966
22	0x3d154149	0.036439214
23	0x3dc2d050	0.09512389
24	0x3c1e91e9	0.009678342
25	0x3df7eafc	0.121053666
26	0x3d8e556d	0.069498874
27	0xbd733271	-0.059374277
28	0xbd87562c	-0.06608233
29	0x3b99f26d	0.004698089
30	0x3c6472e8	0.013943411
31	0x3e1e5e17	0.1546558
32	0x3d0ce62b	0.034399193
33	0x3da009a4	0.07814339
34	0x3e206f81	0.15667535
35	0x3ccc68fc	0.024952404
36	0xbdce4023	-0.10070827
37	0xbc8ed445	-0.017435202
38	0x3d83bbf3	0.06432333
39	0xbe6cea25	-0.23136194
40	0xbdf1585f	-0.117844336
41	0x3d4be0a7	0.049774792
42	0xbd763200	-0.060106277
43	0x3d8c5b23	0.068533204
44	0x3d4a9417	0.049457636
45	0xbcb3cfe5	-0.021949718
46	0xbda0873c	-0.07838294
47	0xbd99f5a4	-0.07517555
48	0xbe504509	-0.20338835
49	0xbdc3df78	-0.09564108
50	0xbb867fff	-0.004104614
51	0xbde449de	-0.111469015
52	0xbe98050d	-0.29691353
53	0xbe14132f	-0.14460443
54	0x3d2265c6	0.03964784
55	0xbe00d1c3	-0.12580018
56	0xbea64838	-0.32476974
57	0xbdf3b182	-0.11899091
58	0xbe6b4865	-0.22976835
59	0xbef4e1d8	-0.47828555
60	0xbd02d0d9	-0.031937454
61	0xbd2b9b34	-0.04189606
62	0xbeb0de14	-0.34544432
63	0xbd9e97e7	-0.07743817
64	0xbe403d22	-0.1877332
65	0xbd90cf97	-0.070708446
66	0xbce9b73e	-0.02852976
67	0xbd71b946	-0.05901458
68	0xbc476ade	-0.012171475
69	0xbc88a4ae	-0.016680088
70	0x3d3e35e6	0.04643812
71	0xbc0f11ff	-0.008732318
72	0xbeaaf23a	-0.3338793
73	0xbd99a3aa	-0.075019196
74	0xbe8b5d40	-0.27219582
75	0xbbedc272	-0.0072558457
76	0xbcb466e0	-0.02202171
77	0xbe767ee3	-0.24071841
78	0xbe043556	-0.12910971
79	0xbe2ffc03	-0.17185979
80	0xbe8b4f92	-0.27209145
81	0xbe266e9d	-0.16253133
82	0xbd3308d3	-0.043709587
83	0x3d9a3e2f	0.07531392
84	0xbd980069	-0.07421953
85	0x3dfd6785	0.123732604
86	0x3d6f00d7	0.05835041
87	0x3c8b91d1	0.017037304
88	0xbce715c7	-0.028208626
89	0xbcf1b013	-0.029502904
90	0xbdd8b009	-0.10580451
91	0x3ccf16fa	0.02527951
92	0xbbb77554	-0.0055987034
93	0xbd8dbec7	-0.069211535
94	0x3d2a479e	0.041572206
95	0x3e4c848d	0.19972439
96	0xbdac7974	-0.08421603
97	0xbb365ef6	-0.0027827597
98	0x3d3117cd	0.04323559
99	0xbe542036	-0.20715412
100	0x3ab322fb	0.0013667041
101	0x3de30468	0.11084825
102	0x3e0f9169	0.14020313
103	0x3d7a9a8e	0.06118255
104	0x3d7edbc5	0.062221307
105	0x3d4013e3	0.046893965
106	0x3cc292af	0.023751585
107	0x3e1bc685	0.15212448
108	0x3b09fd1e	0.002105541
109	0xbbd35125	-0.006448882
110	0xbc31eb37	-0.010859302
111	0x3da0826e	0.078373775
112	0xbcad71ce	-0.02117243
113	0x3e11729f	0.1420388
114	0x3e159bfe	0.14610288
115	0x3e6b3e8e	0.22973081
116	0x3da7369a	0.08164711
117	0xbdfa0c4e	-0.12209378
118	0xbc11d72d	-0.0089014
119	0xbd7eb933	-0.06218834
120	0xbc860cff	-0.016363619
121	0x3da1ab35	0.07893983
122	0x3d0a65aa	0.03378836
123	0xbc26f111	-0.010189311
124	0xbced84a0	-0.028993905
125	0x3c7d6062	0.015464874
126	0xbdfad75c	-0.12248108
127	0xbdeaf95d	-0.114733435
128	0xbcee061c	-0.029055648
129	0xbd40f1ca	-0.047105588
130	0x3d740cc6	0.059582494
131	0x3d33b619	0.043874834
132	0xbd942372	-0.07233323
133	0xbc5e04dc	-0.013550963
134	0xbe057bcc	-0.13035506
135	0xbdc18aee	-0.09450327
136	0xbd0879bd	-0.033319224
137	0xbdadb906	-0.08482556
138	0xbca70eff	-0.020392893
139	0xbd690c62	-0.056896575
140	0x3df0b9a4	0.11754158
141	0x3c9e6d38	0.019339189
142	0x3cdcf6a8	0.026973084
143	0x387e7bd1	6.0673632e-05
144	0x3d14cb9b	0.036326986
145	0x3d92685a	0.0714881
146	0xbe818346	-0.25295466
147	0x3dfacdee	0.12246309
148	0xbc178343	-0.009247604
149	0xbdabb53d	-0.08384178
150	0xba8224fa	-0.0009929233
151	0xbcd774d1	-0.02630082
152	0x3c810231	0.015748115
153	0x3d7a876c	0.061164305
154	0x3d3bd7c4	0.045860067
155	0x3bbf3689	0.0058353585
156	0x3daefa02	0.08543779
157	0x3d4c8bc1	0.049937967
158	0xbd25fba8	-0.0405232
159	0x3d73e327	0.0595428
160	0x3d18481b	0.03717814
161	0x3cb72ab9	0.022359239
162	0xbc1740a9	-0.009231725
163	0x3dc77450	0.09738982
164	0xbcdebf7c	-0.027190916
165	0x3da2fa64	0.079579145
166	0x3d910d6c	0.07082638
167	0xbc9c2d6a	-0.019064624
168	0x3d3dba80	0.04632044
169	0xbb98c31b	-0.0046619303
170	0x3c99acec	0.018759213
171	0xbde260fe	-0.11053656
172	0xbdb34cec	-0.08754906
173	0xbe097d1f	-0.13426636
174	0xbe07da8f	-0.13266967
175	0xbe3ebe83	-0.18627362
176	0xbdcfd8c8	-0.101487696
177	0xbd7025fa	-0.058629967
178	0x3cec7d60	0.028868377
179	0xbc82155c	-0.015879326
180	0x3e14890b	0.14505403
181	0x3d12f1b9	0.035875056
182	0x3e07f878	0.13278377
183	0xbda9359a	-0.08262177
184	0xbd5aa23c	-0.053377375
185	0x3db18fd5	0.08670012
186	0xbe162bfa	-0.14665213
187	0xbc022470	-0.007943258
188	0x3cd0f378	0.02550672
189	0x3c451774	0.012029517
190	0x3d22b39a	0.039722063
191	0x3dc9d213	0.098545216
192	0x3e487044	0.19574076
193	0x3e1e5643	0.15462594
194	0x3e3308b5	0.1748379
195	0x3dbad38c	0.091223806
196	0x3db1c9d1	0.086810715
197	0x3dfb5fa2	0.122741
198	0x3d7f095e	0.062264793
199	0x3c07afaf	0.008281632
200	0xbde71eef	-0.11285197
201	0xbcd46504	-0.025927074
202	0x3dd87793	0.10569682
203	0xbd48bf8a	-0.04901079
204	0x3d83601b	0.06414815
205	0x3df73bd5	0.12071959
206	0x3d0840d7	0.03326496
207	0x3d4724e0	0.04861915
208	0x3c28ae39	0.010295444
209	0x3d872b80	0.06600094
210	0x3da5a928	0.080889046
211	0x3dca9f42	0.09893657
212	0x3da27cb9	0.07933945
213	0x3b9ba44e	0.0047498113
214	0xbb5b2f96	-0.0033445111
215	0x3dd65870	0.10466087
216	0x3d67011f	0.056397554
217	0x3d515199	0.05110321
218	0x3da58469	0.08081896
219	0xbc3f2e88	-0.011668809
220	0x3d87a2cf	0.0662285
221	0x3d6aa1e0	0.057283282
222	0xbd84f52b	-0.064920746
223	0x3db5a109	0.08868606
224	0x3e1de2b1	0.15418507
225	0xbd7167a9	-0.05893675
226	0xbdd320d4	-0.10308996
227	0xbc005ddd	-0.007834879
228	0xbd7ca8ba	-0.061684348
229	0xbe853e9e	-0.26024336
230	0xbd9cb6fc	-0.07652089
231	0xbd8c4d47	-0.06850677
232	0xbe16372c	-0.14669484
233	0xbdc3af22	-0.09554888
234	0xbb656580	-0.0035003126
235	0xbdad4515	-0.08460442
236	0x3d775bcf	0.06039029
237	0xbda3968e	-0.079877004
238	0xbdae3f5f	-0.08508181
239	0x3ceee424	0.02916152
240	0x3d6a0181	0.05713034
241	0x3c3d8672	0.011567699
242	0x3cc57649	0.024104254
243	0x3d442801	0.047889713
244	0xbd1740bc	-0.03692697
245	0xbe57c6ca	-0.21071926
246	0xbc925a7b	-0.01786541
247	0xbe0ccb51	-0.13749434
248	0x3de94a53	0.11391129
249	0x3da5b06c	0.080902904
250	0x3d48c825	0.049018998
251	0x3be377f5	0.00694179
252	0x3e06ca46	0.13163099
253	0x3d9d4431	0.07679022
254	0xbc1f082c	-0.009706538
255	0x3e317122	0.17328313

bias f4 [32]
0	0x3d912ce9	0.07088644
1	0xbd38c948	-0.04511383
2	0xbcd33525	-0.025782177
3	0xbdc2740f	-0.09494793
4	0x3d0b0661	0.03394163
5	0xbcea70b6	-0.028618198
6	0xbcb27812	-0.02178577
7	0xbcf2a9a1	-0.029621901
8	0xbd280cd9	-0.041027877
9	0xbdccbb8c	-0.09996709
10	0xbd53bfa0	-0.05169642
11	0xbd7453f4	-0.059650376
12	0xbd76a797	-0.06021842
13	0xbdef6e6e	-0.11690985
14	0xbd889bca	-0.066703394
15	0xbd742205	-0.059602756
16	0x3d257edc	0.040404186
17	0xbd0bfe09	-0.034177814
18	0xbb8d9f16	-0.004321943
19	0x3caa27ef	0.020770995
20	0xbcd36008	-0.025802627
21	0xbd26050f	-0.040532168
22	0xbd4b5f49	-0.049651418
23	0x3c5be3dd	0.013421026
24	0xbcac639f	-0.021043597
25	0xbd138ac2	-0.036021
26	0xbda8557a	-0.08219428
27	0x3a23c23a	0.00062468986
28	0x3c4ab96f	0.012373312
29	0xbc1beddc	-0.009517159
30	0xbd1c1943	-0.03811003
31	0x3bae0600	0.005310774

weight f4 [5, 11552]
0	0xbde36c44	-0.111046344
1	0xbdefbe2c	-0.11706194
2	0xbdf02195	-0.11725155
3	0xbdca3c39	-0.09874768
4	0xbdd9699f	-0.10615849
5	0xbde2420c	-0.11047754
6	0xbdd3baac	-0.10338339
7	0xbdcb0a6b	-0.099140964
8	0xbdd72cd7	-0.105065994
9	0xbdd72fdc	-0.10507175
10	0xbdd0fc1a	-0.102043346
11	0xbdc81977	-0.09770482
12	0xbdb8af6f	-0.09017836
13	0xbde298f8	-0.11064333
14	0xbdd289f1	-0.102802165
15	0xbde81033	-0.11331215
16	0xbdca93b7	-0.098914556
17	0xbdefdaf7	-0.11711686
18	0xbdfb980a	-0.122848585
19	0xbde37441	-0.11106158
20	0xbd604232	-0.05475063
21	0x3d122450	0.03567916
22	0x3db02ae9	0.086019345
23	0x3e618acc	0.22025603
24	0x3e90f3ea	0.28311092
25	0x3e895b29	0.26827362
26	0x3e878b7f	0.26473615
27	0x3e8aa930	0.27082205
28	0x3ed9cad9	0.42537573
29	0x3e9695da	0.29411203
30	0x3eb48561	0.3525801
31	0x3e95e555	0.2927653
32	0x3e92ade4	0.28648293
33	0x3e840335	0.25783697
34	0x3e94d145	0.2906591
35	0x3ecb13eb	0.39663634
36	0x3e206e22	0.15667012
37	0x3d4a7e2f	0.049436744
38	0xbdd42a12	-0.10359587
39	0xbd1129e9	-0.03544036
40	0x3d9d2b8f	0.07674324
41	0x3e3cf1a2	0.1845155
42	0x3df8ba7a	0.121449426
43	0x3eba62e1	0.36403564
44	0x3e5b03b7	0.21388136
45	0x3e505bd0	0.20347524
46	0x3e864e32	0.26231533
47	0x3e791f56	0.2432836
48	0x3e351de6	0.17687187
49	0x3e80c537	0.25150463
50	0x3e95f44d	0.2928795
51	0x3ecd0e09	0.4004977
52	0x3ee424e3	0.44559392
53	0x3ebc09fd	0.3672637
54	0x3eba0f02	0.36339575
55	0x3e204490	0.15651155
56	0x3e58a6a0	0.21157312
57	0xbde333f9	-0.11093897
58	0xbdd7c768	-0.105360806
59	0x3dddb734	0.10825959
60	0x3e15c61b	0.14626352
61	0x3e8398d5	0.2570254
62	0x3e9dc440	0.3081379
63	0x3e54d41a	0.20784035
64	0x3e6e7e30	0.23290324
65	0x3e6460c4	0.22302538
66	0x3e71e8c4	0.2362395
67	0x3e48e6af	0.19619249
68	0x3e1c926a	0.15290228
69	0x3e54c21b	0.2077717
70	0x3e6454e3	0.22298007
71	0x3e8c0a8d	0.273518
72	0x3ec0a109	0.3762286
73	0x3ef6d91f	0.48212525
74	0x3eb3a861	0.350894
75	0x3e62b1cb	0.22138135
76	0xbdc9f384	-0.098609
77	0xbda5394a	-0.08067568
78	0x3e22c90b	0.15897004
79	0x3e5f8825	0.21829279
80	0x3eb0e16d	0.34546986
81	0x3e4d3208	0.20038617
82	0x3e7e5dd8	0.24840486
83	0x3e5e2ce6	0.21696815
84	0x3e7f1523	0.24910407
85	0x3e6390a3	0.22223143
86	0x3ea2fb85	0.3183252
87	0x3e3e97e0	0.18612623
88	0x3e94d526	0.2906887
89	0x3e3a73bf	0.18208216
90	0x3ea2b1bb	0.31776223
91	0x3ec52a62	0.38508898
92	0x3e9a10b6	0.30090874
93	0x3ec84ea3	0.39122495
94	0x3e43a2bb	0.19105045
95	0xbdc54b9f	-0.09633564
96	0xbde66b88	-0.11250979
97	0x3dabf8be	0.08397053
98	0x3e82e120	0.25562382
99	0x3e84f405	0.25967422
100	0x3e53a747	0.2066928
101	0x3e800849	0.2500632
102	0x3e86a439	0.26297167
103	0x3e89ab2b	0.26888403
104	0x3e971ea3	0.2951556
105	0x3e8a48ce	0.2700867
106	0x3e85cf8e	0.26134914
107	0x3e7565cb	0.23964612
108	0x3e47a092	0.19494846
109	0x3df5ebf3	0.12007894
110	0x3e75be5e	0.239984
111	0x3ed7ed40	0.42173195
112	0x3f16937b	0.5881879
113	0x3e87d40a	0.2652896
114	0xbda67745	-0.081282176
115	0xbd07e45c	-0.033176765
116	0x3e3919d6	0.18076262
117	0x3e214a53	0.15751009
118	0x3e90ab96	0.2825591
119	0x3e68fb5d	0.22752137
120	0x3db81336	0.08988039
121	0x3e967b97	0.29391167
122	0x3e800447	0.25003263
123	0x3e5300ae	0.20605728
124	0x3da0413c	0.078249425
125	0x3e445a76	0.19175133
126	0x3e257f88	0.1616193
127	0x3e3519bc	0.17685598
128	0x3e30ceff	0.17266463
129	0x3e83c14e	0.25733417
130	0x3ef1a9be	0.47199816
131	0x3f0fd879	0.56189686
132	0x3e6b54b0	0.22981524
133	0xbdaf98c7	-0.08574062
134	0xbaf6b464	-0.0018822071
135	0x3dfa941c	0.12235281
136	0x3e7628fd	0.24039073
137	0x3e8fdf79	0.28100184
138	0x3e84cd5e	0.25937933
139	0x3e8d2b01	0.27571872
140	0x3e91393b	0.28363976
141	0x3dff1d2c	0.12456736
142	0x3df6e939	0.120562024
143	0x3e46ee83	0.19426923
144	0x3db19125	0.08670262
145	0x3e02cc86	0.12773332
146	0x3e208f54	0.15679675
147	0x3dfb7fab	0.1228021
148	0x3e23c253	0.15992098
149	0x3ea2d734	0.31804812
150	0x3ed637bb	0.41839394
151	0x3dc82104	0.09771922
152	0xbdeaf9e0	-0.11473441
153	0x3c85d3d2	0.016336355
154	0x3e1b5390	0.15168595
155	0x3e5eb291	0.21747805
156	0x3ea74358	0.32668567
157	0x3e73e9ff	0.23819731
158	0x3e0b3397	0.13593899
159	0x3e21e814	0.15811187
160	0x3d9b3e1c	0.07580206
161	0x3cfe1594	0.031016149
162	0x3d6ff675	0.05858465
163	0xbc63eeb8	-0.013911895
164	0x3d452967	0.048135187
165	0x3b9ea826	0.004841822
166	0x3dc3ae57	0.09554737
167	0x3ddb6db3	0.10714283
168	0x3e3021ef	0.17200445
169	0x3ef725cc	0.48271024
170	0x3e35dd0e	0.17760107
171	0xbdd9d8b3	-0.10637035
172	0xbdea1e60	-0.11431575
173	0x3e21c585	0.15798004
174	0x3e95c82c	0.29254282
175	0x3e90eeb1	0.28307107
176	0x3e3e0acb	0.18558805
177	0x3e453a0d	0.19260426
178	0x3e1dfd28	0.15428603
179	0x3d33b16b	0.04387037
180	0xbe737c89	-0.23777975
181	0xbe07db32	-0.1326721
182	0xbd115731	-0.035483543
183	0xbda25e86	-0.07928185
184	0x3cbaedbe	0.022818442
185	0x3e036b3f	0.1283388
186	0x3e26d4d9	0.16292132
187	0x3dc0c441	0.094124325
188	0x3edaec77	0.42758533
189	0x3e70373c	0.2345857
190	0xbd966cff	-0.07345008
191	0xbd2e54f4	-0.042561486
192	0x3e828246	0.25490016
193	0x3e6aa770	0.22915435
194	0x3ebfc856	0.37457532
195	0x3e4195d6	0.18904814
196	0x3e31e7da	0.173736
197	0x3e0bb7b7	0.136443
198	0x3cbd6934	0.023121454
199	0xbda7461b	-0.081676684
200	0xbe0ed7a7	-0.13949452
201	0xbdb7ac6c	-0.08968434
202	0x3d76ffd1	0.06030256
203	0x3da9fb38	0.08299869
204	0x3de55b14	0.111990124
205	0x3e24d195	0.16095574
206	0x3e5bbeff	0.21459578
207	0x3ebb5f95	0.3659636
208	0x3e8277cc	0.25482023
209	0xbdbc6eb6	-0.09200804
210	0xbd133766	-0.035941504
211	0x3e252e2b	0.16130893
212	0x3e7efb18	0.24900472
213	0x3e277839	0.16354455
214	0x3e88add8	0.26695132
215	0x3e45a46f	0.19301008
216	0x3e260d44	0.16215998
217	0x3e8154ae	0.25259918
218	0x3e54c2b9	0.20777406
219	0x3daa74be	0.08323048
220	0x3d862574	0.06550112
221	0x3e149912	0.14511517
222	0x3e2df376	0.16987404
223	0x3e4fdb5a	0.2029852
224	0x3e9e773b	0.3095034
225	0x3e6d6fc5	0.23187168
226	0x3f049809	0.5179449
227	0x3e863fc2	0.26220518
228	0xbdba0e39	-0.09084744
229	0x3db6dd3f	0.08928918
230	0x3e4583e0	0.19288588
231	0x3e2d3614	0.1691516
232	0x3e7db625	0.24776514
233	0x3eae0442	0.33987623
234	0x3e42ac65	0.19011076
235	0x3e8a74c3	0.27042207
236	0x3e3bd740	0.1834383
237	0x3df984e5	0.12183551
238	0x3e1ee074	0.1551531
239	0x3dba9ce4	0.09111956
240	0x3e366453	0.17811708
241	0x3de8e964	0.11372641
242	0x3e6657e7	0.2249447
243	0x3e843679	0.2582281
244	0x3eb3efca	0.35143882
245	0x3eeb6198	0.45972896
246	0x3e876511	0.26444295
247	0xbdd3f77d	-0.10349939
248	0xbdb100cd	-0.08642731
249	0x3e7c533c	0.24641126
250	0x3de80c0b	0.11330422
251	0x3e49a63e	0.19692323
252	0x3e9273ba	0.28603917
253	0x3e9cd448	0.30630708
254	0x3e761400	0.24031067
255	0x3e89440f	0.26809737

bias f4 [5]
0	0xbddd2bf2	-0.107993975
1	0xbdc282e4	-0.09497622
2	0xbdaddd90	-0.08489525
3	0xbd9587e1	-0.073013075
4	0xbdaab1cb	-0.083346926
