archived_data/b1_r0_m8_s100--2019-03-03--165203.596044/episode_4500.model (torch_old, 268278 bytes, 8 tensors)

weight f4 [6, 6, 3, 3]
000000 72 8d ca bd 66 4d b3 3d 60 1f d9 3b b4 b8 06 3e
       -0.0989026 0.08754997 0.0066260546 0.13156396
000010 8c cb 83 bc 98 49 cb bc b8 c5 41 bc 8c c8 bc 3d
       -0.01608827 -0.024815366 -0.011826925 0.09217939
000020 42 9d 44 bd 73 7d e4 3d a4 fd e2 3c 8e 28 5b bd
       -0.048001535 0.1115674 0.027708836 -0.053505473
000030 94 7a 91 bd 3e d5 71 3d 8d d7 18 bd 73 58 08 be
       -0.07103458 0.059041254 -0.03731494 -0.1331499
000040 89 56 b1 bc 57 00 3b bd fa 42 eb 3d d9 71 9f 3d
       -0.021647708 -0.04565462 0.11487384 0.077853866
000050 46 78 ba 3d ee 99 fe 3c d0 55 0c 3e fe 18 52 3c
       0.091049716 0.031079259 0.1370461 0.012823341
000060 e6 c8 c7 3d e3 7a df 3d 09 2e 18 3d e6 4b 8d bd
       0.09755115 0.10912111 0.037153278 -0.06899242
000070 9a 4c 69 bd 5e 39 d4 bd fc 89 21 3d 4c 90 c3 3d
       -0.05695782 -0.103625044 0.039438233 0.09549007
000080 c6 0b 7e bd 9c 11 a8 3d bf 1b f8 bd 60 b5 2c 3d
       -0.062022947 0.08206484 -0.12114667 0.04216516
000090 ca 89 27 3e ab 76 1c 3c 65 92 ca bd 1d f0 64 be
       0.16361156 0.009549777 -0.09891204 -0.22357221
0000a0 e0 bb 48 3d 64 4b ea bd 80 cf d0 be fb 64 a0 be
       0.049007297 -0.11440161 -0.4078331 -0.31327042
0000b0 4f db f6 bc 79 bf ea 3d 42 e0 58 3d 46 89 3d 3d
       -0.030133871 0.11462302 0.052948244 0.046273492
0000c0 7f 83 2a 3d f4 8a af 3c c1 24 b4 bd 1f 1e e7 3d
       0.04162931 0.021428563 -0.08796073 0.11285042
0000d0 9c 86 5d bd a7 e1 12 bb 2c ba ca bd 10 64 d9 3d
       -0.05408345 -0.0022412331 -0.09898791 0.106147885
0000e0 60 7e a0 3d 22 64 e0 bd a8 cb f0 3d 48 a1 8a bd
       0.07836604 -0.10956599 0.11757594 -0.06769043
0000f0 32 40 bb 3d c8 5d c1 3c c6 68 a2 bd 57 64 6f bd
       0.09143104 0.023604289 -0.0793014 -0.0584453
000100 9f 70 6f bd c7 7e 85 3d b3 7a 9d 3d 57 e5 74 bc
       -0.058457013 0.065183215 0.07689419 -0.014947257
000110 0e d0 db 3d 88 3c 9e 3d 4c 35 d0 3d 89 b8 06 3d
       0.10733043 0.07726389 0.101664156 0.03289083
000120 3d 3d 82 3c e9 ee a2 bd 3e 20 89 3d 52 66 bb 3c
       0.015898341 -0.07955725 0.06695603 0.022875939
000130 52 e4 07 3d 71 aa cf 3d f0 eb 95 3d 11 95 aa 3d
       0.033176728 0.10139931 0.07320392 0.083292134
000140 8c b6 52 3c fc 8d b2 3d 80 af 9a bb 80 e8 84 3d
       0.012860905 0.087184876 -0.0047206283 0.06489658
000150 40 38 3e 3c a0 5d 7a 3d 36 cc b8 3d 32 2e 59 bd
       0.011610091 0.061124444 0.09023325 -0.05302257
000160 e0 8e 71 bc 9a e8 c0 3d af d1 50 3e dc f7 b4 be
       -0.014743537 0.09419365 0.20392488 -0.35345352
000170 d5 7b 92 be 7d 8e 4f 3e d4 0b 3c be a1 92 13 3e
       -0.286101 0.20269199 -0.18363887 0.14411403
000180 be 66 24 3e d0 ed 52 3e 26 fa 66 3e f0 1f ee 3d
       0.16054818 0.20598531 0.22556362 0.11627185
000190 7d 3b 47 bd e0 72 f1 3d ab df 52 3c 28 aa a0 3d
       -0.048640717 0.11789489 0.012870709 0.07844955
0001a0 7a 38 87 bd c5 82 43 bd d3 b2 8f bb 50 19 8e 3d
       -0.06602569 -0.047732133 -0.004385331 0.06938422
0001b0 e8 56 7b 3d b0 1f 03 3d b0 93 85 bd 46 a4 ce 3d
       0.061362177 0.03201264 -0.0652231 0.100899264
0001c0 c4 d4 2c 3d dc 57 af bd 1b 7d d1 bd 14 48 08 3e
       0.042195097 -0.0856168 -0.1022894 0.13308746
0001d0 04 e1 b8 bc c8 01 93 3d 64 df 42 3d 22 55 39 3d
       -0.022568233 0.07178074 0.047576323 0.045247205
0001e0 b0 02 fe 3a 5b c0 24 bc ae c5 38 be d2 01 bd bc
       0.0019379463 -0.010055627 -0.18044159 -0.023072157
0001f0 9c 85 91 3d 9a 00 2d 3c aa 2d 60 3d 99 60 97 3d
       0.07105562 0.010559225 0.05473105 0.073914714
000200 cf 14 da 3b 75 cc 40 3d ba d6 8b bc fd aa cb bd
       0.0066553126 0.047069985 -0.017070163 -0.09944723
000210 94 05 24 3d 66 9a 28 3d ea 65 83 3b 50 72 1f bd
       0.040044382 0.04116287 0.004009952 -0.038927376
000220 c6 ce ab bd c0 a4 4c bd d0 96 74 bc 38 98 ae bc
       -0.08389048 -0.049961805 -0.014928535 -0.021312818
000230 42 1e e4 3d 5c b9 2a bd 28 85 cb 3c 1c 2a 1a 3d
       0.11138584 -0.04168068 0.024843767 0.037637815
000240 a9 ec df ba 70 c5 73 3c 32 ff 57 3e 3e f3 46 3e
       -0.001708408 0.014878616 0.21093443 0.19428727
000250 a3 f1 a1 3d 7e 16 a7 be bf 50 61 3d 40 1a 4a 3e
       0.07907417 -0.32634348 0.055008646 0.19736576
000260 50 ff b9 bd da 7e 78 3d ca d5 0d bd 23 43 88 ba
       -0.090819 0.06066785 -0.034627713 -0.0010395985
000270 06 36 2e bd ac 97 23 be 2f 01 5e be 8f cc 6f bd
       -0.04253199 -0.15975827 -0.21680139 -0.05854469
000280 be 41 5b 3d b8 f6 92 bd 2a 3b ca 3d c0 0e 02 3e
       0.053529494 -0.07175964 0.09874566 0.12700939
000290 ec 7c fe 3d 24 f8 ef 3d a0 d1 89 bd 80 bf 3d bb
       0.12426171 0.11717251 -0.06729436 -0.0028953254
0002a0 27 a9 02 be ac 1e c2 bc b4 ee c3 bd 41 34 17 bd
       -0.12759839 -0.023696266 -0.095670134 -0.036915068
0002b0 c2 77 0c b9 3e e2 71 3d 99 77 23 3c 37 e7 2d bc
       -0.00013396054 0.059053652 0.009977245 -0.010614208
0002c0 f4 b0 45 bc 49 29 61 bc e7 b1 e2 bb 21 5b 94 3d
       -0.012066115 -0.013742753 -0.0069181803 0.07243944
0002d0 16 ae 02 3c a9 67 40 3d c8 a1 d7 3d 5d 65 aa 3d
       0.007976076 0.046973858 0.10528904 0.08320115
0002e0 9d e8 42 3d 3d f2 79 b9 df ca 06 3b f0 53 c0 3b
       0.04758512 -0.00023836731 0.0020567698 0.005869381
0002f0 7b f4 bd 3d 88 46 73 3d 04 c9 43 bd 32 ff 9e 3d
       0.092751466 0.059393436 -0.047799125 0.077635184
000300 0a 6d 10 bd ff 7b 03 be 7e 3f ad bd e2 1c 03 be
       -0.035260238 -0.1284027 -0.08459376 -0.12803987
000310 ef a4 95 bd 52 67 04 be 5f 12 1e 3d 3d 05 7d bc
       -0.07306849 -0.12930039 0.03859174 -0.015443143
000320 13 b0 89 be c8 29 0a be b7 28 ce be 5b 5a 83 be
       -0.26892146 -0.13492501 -0.40265438 -0.25654873
000330 1f a3 31 3e 8b f1 4a 3e f6 a0 a9 be dd d4 21 3d
       0.17347382 0.19818704 -0.33130616 0.039509643
000340 da c6 4e bd e6 8b 82 3d a8 70 04 be 34 75 9a 3d
       -0.05048261 0.0637434 -0.129336 0.07541886
000350 54 08 7c 3d 24 7a f3 3d 18 a8 3c bd 6d fe d9 bb
       0.06153138 0.11888531 -0.046058744 -0.0066526444
000360 ca 2f b5 3d 00 69 f8 3d c8 7b ad 3c 00 9b a6 3c
       0.08847006 0.12129402 0.021177188 0.020337582
000370 1c bc cf 3d 10 ab f9 3d a6 2a 21 bd 10 9c 5a 3d
       0.10143301 0.12190831 -0.039347313 0.05337149
000380 48 bb 4b 3d f7 91 c7 3d 6a aa 30 bd 3e 3f df 3d
       0.049739152 0.097446375 -0.04313127 0.10900734
000390 d2 62 a9 3b 97 29 8d bc 31 ae d6 3d e3 f6 b8 ba
       0.005169251 -0.017231746 0.10482443 -0.0014111664
0003a0 c3 c9 02 bd a3 0a 87 bc 31 34 47 3d 7a 0a 71 bd
       -0.031930696 -0.016484564 0.048633758 -0.05884788
0003b0 92 ef 1d 3d bf 9d 0b 3d 1d 1b 8e bd fc a2 02 3d
       0.03855855 0.034085985 -0.06938765 0.031893715
0003c0 64 e3 a5 bd 9a ea d6 bb 7c 67 47 bd f0 0d f2 3d
       -0.08100012 -0.0065587284 -0.048682675 0.118190646
0003d0 d0 09 71 3d 56 73 80 3d aa 01 56 bd a4 e3 c0 bc
       0.05884725 0.062719986 -0.05224768 -0.023546048
0003e0 33 8e e4 bd ad 2a fd bd 78 53 d5 bd 81 2f da bd
       -0.11159935 -0.123616554 -0.10416311 -0.10653592
0003f0 14 d4 51 3e 86 b4 41 3d a3 db 31 3e cd 92 48 3e
       0.20491058 0.0472913 0.17368941 0.1958725

bias f4 [6]
000000 78 61 ed bd 4e 1f c1 bd 86 26 ba 3d 60 a4 13 be
       -0.11590856 -0.09429799 0.09089379 -0.14418173
000010 29 6d 2c 3d d9 83 30 bd
       0.04209629 -0.04309449

weight f4 [16, 6, 3, 3]
000000 bb 58 c9 bd a1 05 e4 3d de 9f 9f 3d 6a 52 56 3d
       -0.09831377 0.11133886 0.07794164 0.05232469
000010 79 2a 28 bd 4b 9f 3f bd 86 50 18 be fd 3c 0d bd
       -0.04105613 -0.046782773 -0.14874467 -0.03448199
000020 19 69 0d 3e 67 ff 58 bc 0f d2 cf 3d 7c a9 d5 3d
       0.13809623 -0.013244486 0.10147487 0.10432717
000030 4b 73 83 bd f3 c6 81 bc 04 ae 8e bc 96 9c c0 bd
       -0.06418475 -0.015841937 -0.017416961 -0.094048664
000040 f2 6b 92 bd 6d b9 e5 bd 28 e2 81 3d d4 0b fa 3d
       -0.07149495 -0.11217008 0.06341964 0.12209287
000050 8f 5d a3 3b 3b bc a0 bc ef 9e 72 3d 9f 55 93 3d
       0.0049855183 -0.019621005 0.059233602 0.07194065
000060 15 e2 8a bd de 3a e1 3d 24 cd 47 3e da c3 14 3d
       -0.06781403 0.10997556 0.19511849 0.03631959
000070 83 13 10 bd 60 8f 27 bd cd 01 58 3e 65 4c 2e 3e
       -0.035174858 -0.040908217 0.21094437 0.1702133
000080 98 79 b9 bc 3b 73 24 be d9 e8 2d be 8a c5 41 3e
       -0.022640988 -0.16059582 -0.16983356 0.18923011
000090 30 e8 2b bd 16 8e a6 bd f9 cf ce bd bf 36 2c bc
       -0.041969478 -0.081325695 -0.100982614 -0.010511099
0000a0 19 5f 6e bd f1 9d 46 3d f9 d4 9a ba 0a b7 d9 bc
       -0.05819616 0.04849047 -0.0011812738 -0.026576538
0000b0 4e e0 2a 3e 86 bf 98 3d b3 12 c1 bc e5 60 06 3e
       0.16687128 0.07458405 -0.023568487 0.131229
0000c0 ec 3b c6 bd 53 8a 26 bc bd 6a 37 bd b6 bf b6 3c
       -0.09679398 -0.010164815 -0.044779528 0.022308212
0000d0 4c de e5 bd 72 c3 ab bc 17 67 0a be c1 a1 02 bd
       -0.112240404 -0.020967219 -0.13515888 -0.03189254
0000e0 ff a7 21 3e 04 81 75 3d ab 5a 43 3d 42 44 7f 3c
       0.15786742 0.059937492 0.04769389 0.015580239
0000f0 a1 f7 aa bd e1 7a a1 3d 59 96 00 3e 6d a9 02 3e
       -0.08348013 0.078847654 0.12557353 0.12759943
000100 6a f5 45 3d e9 7d 52 be 99 5e 28 bd da dc b3 3d
       0.04832975 -0.20555843 -0.04110584 0.087823585
000110 a9 ed 1b bd c9 f4 f9 bd 6c 18 8b 3d 12 de 70 3d
       -0.038068447 -0.12204892 0.067917675 0.058805533
000120 69 3a 95 3d d8 b0 61 be e2 cf 87 bc 16 94 18 be
       0.072865315 -0.22040117 -0.016578618 -0.1490024
000130 76 47 bd bd cc fc 50 3e 09 f3 28 be be 25 43 bd
       -0.09242146 0.20408934 -0.1649896 -0.047643416
000140 a0 65 1c 3d cf d0 39 3e 2b e1 3a 3e 49 32 23 3e
       0.038182855 0.1814606 0.18249957 0.15937151
000150 f4 46 dc 3d 61 ae 9b 3c f3 27 0b 3e 5e ea 71 3d
       0.10755721 0.019004049 0.13589458 0.0590614
000160 15 72 0b be 88 3d 76 3d 6f 65 3f bc b6 de 44 3d
       -0.13617738 0.060117275 -0.0116818985 0.048063956
000170 71 26 25 3c 04 60 29 3d d4 06 cc bd 5b 57 3a be
       0.010079966 0.041351333 -0.0996224 -0.18197386
000180 d2 0f c1 3d e9 e8 02 be 50 68 23 be ff 74 10 3e
       0.094268456 -0.1278416 -0.15957761 0.1410713
000190 81 4f 71 be c4 63 d7 bd f7 38 88 3d 42 4f 46 be
       -0.23565485 -0.10517076 0.0665149 -0.19366172
0001a0 18 48 c9 bc fa 53 47 bd 2e 9e 50 3d 9f 69 f4 3d
       -0.02457051 -0.04866407 0.050932102 0.11934208
0001b0 6a fa 90 3d c7 49 d2 3d 1d 7e 09 be c4 f5 1e be
       0.07079013 0.10267978 -0.13427015 -0.1552344
0001c0 f1 da d2 3d 31 df d2 3c e2 9b 57 3d e4 33 88 3c
       0.10295666 0.025741192 0.052638896 0.016626306
0001d0 3b bd c8 3d f6 09 9a bd 1a 97 0b be b6 52 d8 3d
       0.09801718 -0.07521431 -0.1363186 0.10562651
0001e0 6b 14 5d bc 0a 7e 6b 3d 14 98 ea 3d 5d d7 22 be
       -0.013493638 0.057493247 0.11454788 -0.15902467
0001f0 6c d1 0a bd 50 be 45 be da 86 14 be 7f 88 60 3d
       -0.033891127 -0.1931088 -0.14504567 0.054817673
000200 20 9d 17 be e6 72 01 be 16 cc aa bd 68 0b d6 bd
       -0.14806032 -0.12641487 -0.083397076 -0.10451394
000210 e8 8b e0 3d 54 e7 07 bc 36 48 9e bd bf 4f d7 3d
       0.10964185 -0.008294899 -0.07728617 0.10513257
000220 49 b8 64 bd 73 bc 26 3d e5 fd 38 bd a3 6c 38 be
       -0.05583981 0.040707063 -0.045164008 -0.18010192
000230 9f b3 27 be 24 00 34 be f1 76 8b bd 59 68 80 3a
       -0.16377114 -0.17578179 -0.06809796 0.0009796723
000240 f4 af aa bd 33 12 86 bc c2 1d 3e be ba 5e 02 3e
       -0.08334342 -0.0163661 -0.18566039 0.12731448
000250 b5 29 36 3c b1 94 3c 3c da 22 e9 3d 41 f8 1a be
       0.011118342 0.01151006 0.113836005 -0.15133764
000260 da 48 80 3b 61 07 42 3c af 29 4b 3e 09 3c 92 bc
       0.0039149346 0.01184258 0.1984012 -0.017850893
000270 84 8c 3c bd 1c f6 0f 3e c8 d6 37 bd b8 8f d4 3d
       -0.046032444 0.14058727 -0.044882566 0.10378975
000280 2f 23 11 be bd 40 5a bd d0 b0 a4 3c de 2c 5f be
       -0.14173578 -0.053284395 0.020103842 -0.21794459
000290 9c 60 d5 3d 58 d0 83 bd 22 a4 3f be 26 fb 1d 3c
       0.104188174 -0.06436223 -0.18714955 0.009642398
0002a0 3a f0 60 be ee 96 4e bd 37 72 14 be 58 3d 97 3b
       -0.21966639 -0.050436907 -0.14496695 0.004615467
0002b0 59 20 dc 3d 14 b9 f7 bb d0 8a 0a 3e 91 b3 0c bd
       0.10748357 -0.007559905 0.13529515 -0.034350935
0002c0 bb 36 85 3d 08 39 0c 3c 9c b3 29 3e 62 92 43 bc
       0.0650458 0.008558519 0.16572422 -0.011936756
0002d0 36 47 49 be 8e 0b 15 3b 77 2e a5 bc f1 94 c5 bc
       -0.19656071 0.0022742483 -0.020163758 -0.024118872
0002e0 5d 2b 02 3e 65 92 20 3e b4 e6 94 3c bc 59 c8 bd
       0.12711854 0.15680845 0.018176414 -0.097827405
0002f0 ec 8b cc 3b 09 fe 58 bd d8 80 fe 3c bf 0b 12 3e
       0.006242266 -0.05297664 0.031067297 0.14262293
000300 19 41 c7 3d 8b 70 2b bd 73 39 2f bd f7 f4 d1 3d
       0.09729213 -0.041855376 -0.042779397 0.102518015
000310 29 f7 12 be 48 14 77 bd 62 0f c2 bc cb 4d f9 3d
       -0.14352097 -0.060322076 -0.023688976 0.12173041
000320 86 e7 07 bd 03 27 74 bd 76 af d9 bd aa 0f 68 bd
       -0.033179782 -0.059607517 -0.1062917 -0.056655563
000330 db 33 a8 bd 21 1a a1 3d 9d d9 00 3e c6 0b 92 bd
       -0.08213016 0.07866312 0.12583013 -0.07131152
000340 f2 3b 50 bc 98 50 06 be 27 03 ed bc a0 c0 5d be
       -0.012709605 -0.13116682 -0.028932167 -0.21655512
000350 aa f5 1f 3c de 90 5a be 9e 9a 35 be 2a 82 1a be
       0.009763161 -0.21344325 -0.17734763 -0.15088716
000360 ab 76 13 bd 8e 2f 68 bd c3 33 6a bd 5d 8e 9d 3d
       -0.036001842 -0.056685977 -0.05717827 0.07693169
000370 5b 2a 5f 3e 2f f8 cd 3d 94 a8 15 3e 03 f0 9d b9
       0.21793501 0.10057103 0.14615089 -0.00030124196
000380 98 36 89 bb 28 76 04 bd db 13 c7 bd 5b a8 4b bd
       -0.0041874163 -0.032339245 -0.09720584 -0.049721103
000390 6d e3 38 be 4c dc 17 bc d2 7f 44 3d 88 ac 09 3c
       -0.18055506 -0.009268831 0.04797346 0.008402951
0003a0 76 b5 47 3d 94 d0 08 3e 22 f6 27 be df 9c 65 bd
       0.04875704 0.13360816 -0.16402486 -0.056057807
0003b0 0d 3e ff 3b 57 f8 59 be 87 85 a0 3d 88 d5 33 bc
       0.0077893795 -0.2128614 0.07837968 -0.010976203
0003c0 6f d8 fe 3c 48 a7 47 bb 9b a3 d6 3c f9 c5 ba 3c
       0.031109063 -0.0030464698 0.02620106 0.022799479
0003d0 61 89 6a 3e ca 55 99 bd 5f 8f cc 3c 1e d9 3a bd
       0.22903968 -0.07487066 0.024970708 -0.045617215
0003e0 10 bb 1b bd d4 5e 5b 3e 3b 93 ac 3c 1a 4b 16 3e
       -0.038020194 0.21422893 0.021066299 0.14677086
0003f0 d7 d7 2e be ab 62 09 be 30 a3 c2 3c 8b 6c ea bd
       -0.17074524 -0.13416545 0.023759454 -0.11446484

bias f4 [16]
000000 2d c0 87 bc 30 64 82 3c 6b 06 69 3d fc fd 91 3c
       -0.016571129 0.015916914 0.056890886 0.017821305
000010 46 43 3e 3c 36 0c b5 bd 53 47 99 3a 7a 63 33 3c
       0.011612719 -0.0884022 0.001169423 0.01094901
000020 53 f2 19 bd a0 6d 36 3d 95 38 36 3d 52 4c 4d 3d
       -0.037584614 0.04453814 0.044487555 0.050121613
000030 de 7c 82 bd f9 06 e6 3d 7a 5f 05 3d 9e 29 e3 3d
       -0.06371473 0.11231799 0.032561757 0.11091922

weight f4 [32, 16, 3, 3]
000000 a8 f9 f3 bb 1f a7 b8 bd dc 36 b3 bd 8d 06 d8 3c
       -0.007445533 -0.09016251 -0.08750698 0.026370311
000010 49 16 31 3d 5c 2f 8e 3d 8a a4 5c bd b3 1f c0 3c
       0.043234143 0.06942627 -0.053867854 0.023452615
000020 2c 41 26 bc 12 d4 a1 bd 4a d3 ae bd e8 e5 52 3d
       -0.010147374 -0.07901777 -0.08536394 0.051488787
000030 1f a6 9c 3d fb 58 8b bd 19 8f d1 3d 07 f5 17 3c
       0.076488726 -0.06804081 0.10232372 0.009274728
000040 a3 85 33 3c b5 23 96 3d c4 24 f7 bc 8f 79 10 bd
       0.010957154 0.07331029 -0.030168898 -0.035272177
000050 55 41 c4 bd f0 93 5a bd 8e 5c da bc 69 2e 66 3d
       -0.095827736 -0.05336374 -0.026655462 0.056196604
000060 94 58 d7 bb f7 0e 9d 3d 09 cb 00 3c 68 9e c0 3b
       -0.0065718386 0.0766887 0.007860907 0.0058782585
000070 c2 c3 c4 bd 8d 23 9a bb fd 0b 12 3c 71 71 95 3d
       -0.0960765 -0.004703945 0.008913991 0.07297028
000080 0e dc cd 3c d6 e2 3b bd d3 66 29 3d 12 38 5f bc
       0.025129344 -0.045870624 0.041357826 -0.013624208
000090 4d 4c dc bc bf 57 63 bd 1f 1a dd bc 21 71 fc bd
       -0.026891852 -0.055503603 -0.026989995 -0.12326265
0000a0 5c 46 b5 bd 2e fd cc bc 56 68 1c bd 2d c0 fe 3c
       -0.088513106 -0.02502307 -0.03818544 0.031097496
0000b0 4f ea 1f bd 29 53 20 bb 6a 3d a9 bd 73 bd 1a bc
       -0.039041813 -0.002446363 -0.08263667 -0.009444582
0000c0 0b 32 80 bd 78 11 a1 bd 2f 9c 0a 3b c4 e2 dc bd
       -0.06259545 -0.0786466 0.0021150222 -0.107854396
0000d0 31 16 c0 bd 2e 07 0d be 3b 0f f2 3d 14 6c a4 ba
       -0.09379233 -0.1377227 0.11819311 -0.0012544417
0000e0 19 be 01 be 9b 7b 8f 3b f1 b6 be bd f2 2a 2c be
       -0.12670173 0.0043787486 -0.09312237 -0.16813257
0000f0 3d 4f 21 3d 47 2b 8b 3d 66 7b fa bd 27 dd a5 3c
       0.03938221 0.06795364 -0.12230568 0.020247055
000100 5d 09 ee bd 24 07 e1 bc d1 a4 3b bb dd fe 84 bd
       -0.1162288 -0.027469225 -0.0028632174 -0.06493924
000110 7b 39 02 bd 40 79 d9 3b 9b ee 6d 3d c3 ca a5 bc
       -0.0317931 0.0066367686 0.05808888 -0.020238286
000120 dc d9 c3 bd 3a cb 22 bd 5b a6 f1 bd 5f 0b 84 bc
       -0.09563038 -0.039744593 -0.11799308 -0.016118703
000130 87 67 17 be 81 47 9a bd 36 52 58 3b 69 82 c7 bd
       -0.14785586 -0.075331695 0.0033007986 -0.09741671
000140 c1 43 46 be 1a bd 9c bd 6d c9 92 bd 16 b2 d3 ba
       -0.19361784 -0.07653256 -0.07167325 -0.0016151096
000150 83 d0 b4 bd b0 17 2f 3d 3f f1 a7 bc 11 73 7f 3d
       -0.08828833 0.0427472 -0.020500777 0.062365595
000160 07 56 ef bb 04 2a ab bc 48 df 89 3b 70 52 07 bd
       -0.0073039564 -0.020894058 0.0042075254 -0.033037603
000170 8e b7 aa bc a0 45 6c bb 22 6e 3e bc 10 c6 ed 3d
       -0.020839479 -0.0036052242 -0.011622937 0.11610043
000180 ad ca 06 bd 16 0f 91 bd 90 82 80 3c d2 9e 49 bd
       -0.03290813 -0.070829555 0.015687257 -0.04922373
000190 72 b0 7f 3c d5 6d 1f 3d 8f a5 1a 3d 94 2f 12 bd
       0.015606033 0.038923103 0.037755545 -0.035689905
0001a0 a4 91 a2 bc 26 c4 05 3d 9b 53 62 bd 79 f1 40 3d
       -0.019844837 0.032657765 -0.055255514 0.047105286
0001b0 e4 26 98 3c 9e 5f 40 bd d1 37 c3 bc 51 4a 18 bd
       0.018573232 -0.046966188 -0.023830326 -0.03718025
0001c0 d9 92 30 bb 0e db c6 3d e3 3f d7 3c 3e 10 bd bc
       -0.0026942997 0.0970975 0.02627558 -0.023079034
0001d0 12 4f b6 bc 84 78 06 bd 04 07 69 bc 13 f9 07 bd
       -0.0222545 -0.032829776 -0.014222864 -0.03319652
0001e0 94 c6 b2 bc 76 ad 4a 3d 8a 0d b9 3c 58 07 59 bb
       -0.021823205 0.04948183 0.022589464 -0.003311595
0001f0 76 7b 45 bd 6f 07 62 bc ce 59 8b bd 29 f5 f4 bd
       -0.048213445 -0.013795718 -0.06804238 -0.11960823
000200 00 1b d4 bc ce 1c c6 bd 1b 82 24 3d 72 fe f7 3b
       -0.02589178 -0.09673463 0.04016314 0.007568174
000210 43 d7 b5 bd 73 b6 4d 3c c1 57 aa bd 72 55 23 bc
       -0.088789485 0.012555706 -0.08317519 -0.009969102
000220 a6 af 6c 3c 0d 1a 2a bd ca b2 14 bb 29 42 bb bd
       0.014446175 -0.04152875 -0.0022689574 -0.091434784
000230 8a c3 9f 3d ea 13 a7 3d ef 41 2b 3d a4 6d 0e 3a
       0.07800968 0.08158095 0.041810926 0.0005433208
000240 f8 8d 0a 3d 91 37 89 3d 73 cb 2d be 10 f3 04 3e
       0.0338268 0.067000516 -0.16972141 0.12983346
000250 a2 8e 15 bc 45 fc 17 bc 42 fe af 3c 86 c0 91 bc
       -0.009128245 -0.009276454 0.021483544 -0.017791998
000260 2e 48 a1 3d b2 b2 86 3d 0f 77 1d 3d b2 df 72 bb
       0.07875095 0.06577052 0.03844362 -0.0037059602
000270 8d 5e b9 3d e1 0a 52 3c 94 37 a0 bd f9 d9 02 3d
       0.09051237 0.012819977 -0.07823101 0.031946156
000280 5e 5b aa bc 72 23 96 bc 68 5f 97 3c c3 37 ab 3d
       -0.02079552 -0.018327449 0.01847811 0.08360245
000290 25 63 9e bd 0c 5c e1 3d 70 04 c0 3d 35 06 be bc
       -0.07733754 0.11003885 0.093758464 -0.02319632
0002a0 08 de 6d 3d 85 78 00 3c 60 67 b1 3c c9 79 76 bd
       0.058073074 0.007841234 0.021655738 -0.060174737
0002b0 8b 19 3c bd e3 d2 e3 bd 69 6e 28 bd 27 c7 f0 bc
       -0.045922797 -0.11124208 -0.04112092 -0.029391838
0002c0 61 e6 4f bd d5 88 9b bd aa 80 d1 bc 42 1b 91 bd
       -0.050756816 -0.07594458 -0.025574047 -0.07085277
0002d0 74 0d 1f 3e df 89 42 3d 30 20 02 3e f8 21 79 bd
       0.15532476 0.047494765 0.12707591 -0.06082341
0002e0 24 2e 08 bd 7f 0d c9 3d c8 a8 cd bd 46 79 41 3c
       -0.033247128 0.09817027 -0.10041958 0.011808699
0002f0 8f 7f 8a 3c 8b 85 a7 bc 08 3f a3 3b c4 45 ad 3d
       0.016906528 -0.02044942 0.004981879 0.08460572
000300 5e 77 45 3e 02 95 01 3e 93 47 06 3e 70 75 9a 3d
       0.19283816 0.12654498 0.13113241 0.07541931
000310 b7 78 b2 3d bd e0 b1 3d 5e 7f bc 3d a0 be 36 3d
       0.08714431 0.086854436 0.09203981 0.044615388
000320 e6 a0 b7 bd 42 fb 8b 3a 2c 8c d0 3d 41 95 2e bb
       -0.08966236 0.0010679739 0.10182986 -0.0026639255
000330 cf 0a bd 3d 14 94 02 3e dc 15 75 3d d2 4b 33 3d
       0.09230577 0.127518 0.0598353 0.04377348
000340 ea 53 1b bb ce 71 73 3d 89 28 73 3d aa c0 9e 3d
       -0.002370114 0.059434704 0.05936483 0.077515915
000350 97 9c 8c 3d eb 8e c8 bc 04 19 17 bd 6d 5d ad 3d
       0.06865805 -0.024482211 -0.03688909 0.08465085
000360 fb 36 73 3d 21 cd 3d 3d 28 8c 81 3d da 03 bb bc
       0.059378605 0.046338204 0.06325561 -0.022828985
000370 ad a6 45 3d bd 5e 25 3d 36 81 ab bd c5 b5 5e 3d
       0.048254658 0.040373553 -0.083742544 0.054372568
000380 39 eb ec 3d ac ec 51 3d 12 5b dd 3c 4e a3 be 3d
       0.11568303 0.0512511 0.027020965 0.09308492
000390 99 0a 1d bd b9 61 87 bd 43 26 20 3d 91 4b f7 bb
       -0.038340185 -0.06610436 0.03909899 -0.00754685
0003a0 9b 3d ec bc 4f ef 59 3c 63 cf 40 bb 30 bf a9 3b
       -0.02883797 0.0133016845 -0.0029420487 0.005180262
0003b0 db 82 f9 bb 63 82 33 bc 47 a7 18 bc 1a 83 2e bd
       -0.007614476 -0.01095638 -0.009317226 -0.042605497
0003c0 a5 b8 78 3d aa 77 65 3c 6e d7 61 bd 3b d6 b4 3d
       0.060722966 0.014005581 -0.05513709 0.08829924
0003d0 f2 98 d2 bc 4b 93 03 be 42 5d 04 3d 4e 9e bb bd
       -0.025707696 -0.12849157 0.0323155 -0.091610536
0003e0 87 12 4c 3d 90 bb b2 3d 0f 31 61 3d 01 b1 8c bd
       0.049822357 0.08727181 0.054978427 -0.06869698
0003f0 f1 8d 0f 3e 37 fc b6 3d 9c a4 9c 3b 44 07 51 3e
       0.1401899 0.08934825 0.004780365 0.20412928

bias f4 [32]
000000 67 aa 85 3d 95 76 eb bc 89 01 08 bc 15 f9 59 bd
       0.06526642 -0.028743068 -0.008301147 -0.05321606
000010 2e 06 1c 3d 5f fe 7f bb 75 2f e1 3b 77 7c 20 bc
       0.03809183 -0.003906153 0.0068721124 -0.0097953
000020 48 8e ec bc 2f c6 42 bd 25 3f df bc 50 ee c0 3b
       -0.028876439 -0.047552284 -0.02725179 0.005887784
000030 ca 44 fe bc 91 9f 54 bd 70 38 36 bd 3b 93 2b bd
       -0.03103866 -0.051909987 -0.044487417 -0.041888457
000040 51 44 db 3c ec 31 b6 bc 49 74 7f 3b 65 b1 ca 3c
       0.026765974 -0.022240601 0.0038979223 0.024742791
000050 9c 58 e4 3a 10 ef 0c 3d 0d a1 00 bd 4f 92 a2 3c
       0.0017421427 0.034407675 -0.03140359 0.019845156
000060 b4 d2 99 bb 1f b7 3c bc 7a 55 a8 bd 83 b5 fd 3c
       -0.004694307 -0.011518269 -0.08219428 0.03097034
000070 f2 9e d9 3c 93 89 1a 3c f0 00 5f bb 75 f6 07 3c
       0.026565049 0.009432214 -0.0034027658 0.008298506

weight f4 [5, 11552]
000000 6f bf 2a bd e5 a0 2c bd 40 d2 30 bd 00 50 dc bc
       -0.04168647 -0.04214563 -0.04316926 -0.026893616
000010 02 ad 09 bd 82 d9 1d bd 54 4e 13 bd 6a ef 17 bd
       -0.03361226 -0.03853751 -0.03596337 -0.037093557
000020 60 ce 15 bd a5 b0 1f bd b5 b3 d9 bc 64 7d e4 bc
       -0.036573768 -0.03898682 -0.026574949 -0.027891822
000030 97 5c b0 bc d0 52 1c bd 8a 8e f8 bc 87 ef 1b bd
       -0.021528525 -0.038164914 -0.030341405 -0.038070228
000040 6a 56 d5 bc a4 5f 1a bd 05 99 28 bd 60 e3 15 bd
       -0.026042182 -0.037688866 -0.041161556 -0.036593795
000050 02 a9 47 3b 8f d0 c3 3c 64 7f f6 bb ae 46 b1 3c
       0.0030465727 0.02390316 -0.0075225104 0.021640148
000060 d0 98 48 3d ad 5b 3c 3d 82 15 a0 3c 3d 92 3a bd
       0.04897386 0.045985866 0.019541506 -0.04554962
000070 8f b4 0a 3d 72 2a 02 3c eb 3b 88 bc 0a 20 fd 3d
       0.0338636 0.00794469 -0.016630134 0.123596266
000080 4d e0 00 3e 23 45 a7 3c 65 ad 5a 3d c2 4c 7f 3d
       0.12585564 0.02041871 0.05338802 0.06232906
000090 ec 1d 8a 3d 1c fc 19 bc 26 8a fc bc 52 a9 29 bb
       0.067439884 -0.009398486 -0.030827593 -0.0025888276
0000a0 05 e9 71 3d 44 32 1b 3d 25 eb 00 3d cb e3 13 3d
       0.059060115 0.037889734 0.03147425 0.036105912
0000b0 ff f8 ee bc 83 a3 ae ba f2 31 0f bd da de ad bc
       -0.029171465 -0.0013323877 -0.03495974 -0.021224428
0000c0 a2 a2 78 3c 10 1a 03 3d d6 e2 30 bc ee fb 8f 3d
       0.015175493 0.032007277 -0.010796269 0.07030474
0000d0 c7 fc d6 3d 00 92 b0 3d 2f c3 e8 3c 18 b8 2b bc
       0.10497432 0.08621597 0.028413383 -0.010480903
0000e0 74 85 c9 ba 28 12 30 bd 84 24 bd bc e5 07 a5 bc
       -0.0015374855 -0.042986065 -0.023088701 -0.020145366
0000f0 70 30 12 bd ec d3 b6 bb 4e 55 c8 bc f1 31 ec bc
       -0.035690725 -0.0055794623 -0.024454739 -0.028832408
000100 60 68 c8 ba b8 9d fa bc 6a 86 21 3c aa 60 fa bb
       -0.0015289895 -0.030592784 0.009858707 -0.007640918
000110 d5 31 77 bc 39 5c 11 3c b6 5a 8b bc 48 0f 9c 3c
       -0.0150875645 0.008872085 -0.017011028 0.019050255
000120 4a e1 a4 3d 00 89 d6 3c 53 50 ce 3b 1f 90 07 bc
       0.08050783 0.026188374 0.0062961965 -0.008274107
000130 82 12 d6 bc 12 c1 71 bc 42 f1 c2 bc e7 ef 0b bd
       -0.026131872 -0.014755504 -0.023796681 -0.034164336
000140 ea 58 91 3c 55 9b 80 bc d4 7f 96 3b ae e9 8a 3c
       0.017742593 -0.015699068 0.004592875 0.01695713
000150 96 e8 e1 3c cf 69 c1 3b 2d 1f 0b bd 23 9a 40 bb
       0.027576726 0.005902506 -0.03396528 -0.0029388748
000160 2b b1 36 bc a3 2a 7f bc da 2e d8 3c 8e 25 92 3c
       -0.011150639 -0.01557413 0.026389528 0.017840173
000170 d6 42 3b 3c 64 85 16 3d b0 fc ad bc a7 54 08 bd
       0.011429509 0.036748305 -0.021238655 -0.033283856
000180 5e d3 32 bd 6e 80 5b bd 75 6e bb bb 09 20 6e bd
       -0.043658607 -0.053589277 -0.0057199546 -0.05813602
000190 a7 9d e8 bc 74 52 00 3c 88 d8 cd bc d8 8c 06 3d
       -0.028395487 0.007832158 -0.025127664 0.032849163
0001a0 c7 b5 45 3d 4c 0b 10 3d ca 1c 3a 3d f5 7a d0 bc
       0.04826906 0.035167024 0.04543761 -0.025449255
0001b0 aa 0d db bb fc 02 a6 3c 4d fc 9e 3c c3 5e 2e 3d
       -0.0066849785 0.020265095 0.019407416 0.04257084
0001c0 19 d3 7f 3d 27 cb 23 3a e6 02 80 bc ee c3 f5 bb
       0.062457178 0.00062482286 -0.015626382 -0.0075001633
0001d0 15 14 bb 3c d6 99 1f bd c9 00 ed bc 0e 06 75 3c
       0.022836724 -0.03896507 -0.028931038 0.014955057
0001e0 2b 1f 02 bd 6a 45 83 bb 5f 27 0c 3d 52 27 8e bc
       -0.031768005 -0.0040060775 0.034217235 -0.017352734
0001f0 cd 55 12 bd f0 05 14 bc fb 12 29 3b 9f 6f cd 3c
       -0.035726357 -0.009034619 0.0025798667 0.02507764
000200 9d 2a 00 3d d3 ca 28 3d e7 e5 34 3d 02 1c fc 3c
       0.03129064 0.041209053 0.044164564 0.030775074
000210 c7 1b 4b 3c a6 14 c8 bc b4 5f b8 bc ba 74 8b bc
       0.012396759 -0.024423908 -0.022506572 -0.017023433
000220 2e 56 a6 ba 17 51 29 3c 2f 0c 9e 3c 81 7f e1 bc
       -0.0012690478 0.010334275 0.019292919 -0.027526619
000230 1b 3b 30 3c a6 48 f5 3b ca e4 33 3c 1c 1f 32 3d
       0.010756279 0.007485467 0.0109798405 0.0434867
000240 f3 d2 d6 3b 28 b1 db 3c 28 d1 b9 3c f0 aa 16 3d
       0.006555909 0.026817873 0.022682741 0.036784112
000250 e3 9b ec 3c c0 c6 c0 3c f2 85 79 bc 5a 5d a1 bc
       0.028882926 0.023532271 -0.015229689 -0.019697834
000260 38 51 22 bd 52 6e 05 bd 79 46 22 bd c2 41 a8 3a
       -0.039628237 -0.032575913 -0.03961799 0.001283698
000270 e0 86 3f bd d3 c8 bd 3c 72 01 ad bc 2c e3 2d bd
       -0.046759486 0.02316705 -0.021118853 -0.042452976
000280 33 32 d2 bd 1e ae c5 bc d3 87 3c 3d 21 7c 9c bc
       -0.10263481 -0.024130877 0.04602797 -0.019102158
000290 52 18 4e 3d d2 04 25 3a 8b de 79 3c bb a5 fa 3c
       0.050316162 0.0006294969 0.015250812 0.030596605
0002a0 88 27 4e 3d bb 0a 49 bc 62 49 b6 bc d7 2c 1e bd
       0.05033067 -0.012270625 -0.022251789 -0.03861698
0002b0 78 71 17 bd c8 eb 01 bc e5 99 27 bd a2 5a 83 bd
       -0.036973447 -0.00792975 -0.04091825 -0.06413771
0002c0 71 f7 49 bb 4c 83 a1 bc 9a 8e 9f ba fe 9f c0 bc
       -0.0030817653 -0.019715928 -0.0012173236 -0.02351379
0002d0 c2 ec f8 3b da 21 14 bd 4e 3b 01 bd 17 54 6e 3d
       0.007596583 -0.036165096 -0.031550698 0.058185663
0002e0 2e 97 a9 3b 04 6a 3f bb f6 27 e1 ba 4d b6 9f 3c
       0.0051754927 -0.0029207477 -0.0017178047 0.019496107
0002f0 5d 8e 63 bb 94 83 ab bc 28 c1 9e bc 56 cb 09 3c
       -0.0034722306 -0.020936765 -0.019379213 0.0084102955
000300 26 4a 16 3d 3d e5 83 bc c2 42 f6 bc f7 87 81 3c
       0.036691807 -0.01610052 -0.03006113 0.015811903
000310 1d 92 13 bc aa c2 e7 bc 28 29 1d bd 1a aa 14 bd
       -0.009007004 -0.028291065 -0.038369328 -0.036295034
000320 ea 72 27 3c 3b 4d 56 bd ce 05 1b bb 38 95 18 bb
       0.010220269 -0.052319746 -0.0023654583 -0.00232823
000330 7e 8e d7 3b 7a 35 f1 3c 17 e0 33 bc 1d f0 31 bb
       0.0065782657 0.029444445 -0.01097872 -0.0027151175
000340 4e 65 ec 3b 02 f1 cb bc e3 b2 fa bc d4 48 c2 3c
       0.007214225 -0.024895195 -0.030602878 0.023716368
000350 a1 c3 bf bc 76 a8 9d bb 46 b0 20 bd 12 87 d1 bc
       -0.023408713 -0.004811342 -0.039230607 -0.025577102
000360 fc 54 c3 bc a0 d3 3f bd 8c 14 1f bd cc 1a 3f bc
       -0.023844235 -0.04683268 -0.038837954 -0.011664104
000370 2d f4 cc bc dc 5c 84 3d 25 6b 9f bc f3 d0 89 3b
       -0.025018776 0.06463024 -0.01946027 0.004205817
000380 94 de 8d 3c 71 2e 59 3c 5d cc f4 3c a7 c5 fe bc
       0.017318048 0.013255701 0.029882604 -0.031100107
000390 36 36 af bc cd af 11 3c 1c dc f6 3a 08 41 85 bd
       -0.021388154 0.008892012 0.0018833908 -0.06506544
0003a0 0e 51 96 bc dd d1 f8 3c f1 95 88 3c 5d 41 c6 ba
       -0.018349197 0.030373508 0.01667306 -0.0015125681
0003b0 0a 71 93 3b fe 26 84 bb b4 5c d9 3a 43 e3 d0 bc
       0.0044995593 -0.0040329685 0.0016583414 -0.025498992
0003c0 a1 11 26 3d 49 38 6b 3c 62 24 de 3c f7 2e 4c 3d
       0.040544156 0.014356681 0.027116958 0.049849477
0003d0 ec f4 9a 3d 5d 57 12 3c 55 97 fa bc 26 cf d0 bc
       0.075662464 0.008931962 -0.030589739 -0.025489401
0003e0 0d 32 04 bd a8 20 03 bd 25 e2 07 bd d2 5b 92 ba
       -0.032274295 -0.032013565 -0.033174653 -0.0011166281
0003f0 69 ad d7 bb d9 0a 32 3d eb 9f 6f bc 7c db e7 bc
       -0.0065819514 0.043467376 -0.01462553 -0.0283029

bias f4 [5]
000000 65 ae 20 bd 70 b5 00 bd 70 23 b6 bc 3f d4 56 bc
       -0.039228816 -0.031423032 -0.022233695 -0.013112127
000010 72 c7 b4 bc
       -0.02206776
